results/multihead/models/multihead_checkpoint_220.pt (torch, 301765 bytes, 18 tensors)

trunk.0.weight f4 [256, 11]
00000000: 24e8 5e3e d02c b03d 82a9 90bd 84f2 d63d
00000010: 6368 37bc 77ce ff3d cd1b 98be 41d4 0dbc
00000020: b52b 813e 96ca 07bf c0fb 133e 3abd 053e
00000030: 6417 1f3e 6841 273d 5c14 d63d 33d9 bfbd
00000040: fba2 3e3e e2c6 64bd d561 a1be 4d00 adbe
00000050: 601f 21bf ef3d 383e 93c1 52be 688e c53d
00000060: 56b7 73be 19b8 6bbe 178d 9bbc 371e a7bd
00000070: 69f1 533d c512 5abe 221a 20be 4b5b 7cbf
00000080: a74b eb3e b086 4d3d e680 c8bd 64ca 3e3e
00000090: 6879 403d f074 793e 4002 073d cebd c2bd
000000a0: 30e9 a53d b873 a7bd 52f0 013e 10d4 893e
000000b0: 7a79 323e daf9 06be a63a 323e e0f8 5c3d
000000c0: f8ca 1c3e e82e 3cbe e1d0 98be 6693 eebd
000000d0: 04d1 6cbe e456 7d3e a4db b13d 6f30 c53d
000000e0: 294d 513c 00df abbb 8f5e 173e aa50 b2be
000000f0: aa7b 6b3d de46 e7be a185 8ebe c064 e2bd
00000100: 29d0 54be 7d40 a33d 5009 803e ccfe 36be
00000110: ef22 38be c825 38be b4d9 8a3e f0c7 cd3d
00000120: da8b 943e 55cd 7ebe a41e 99be 8e8d 71be
00000130: f0b0 4fbe b7ac db3d ecbe 173c e045 803e
00000140: 9b27 97be 25d0 25bf 04eb 35be 7bda 13bf
00000150: f984 ae3d aeff e03e 02e5 3b3f 3546 36bf
00000160: 98e2 2abe 8e52 adbb 0c8b 823d 4792 0fbe
00000170: d98c a63d efac 213d a253 d3be 1d70 2dbd
00000180: 1298 643f 4f60 bf3d 4d47 dbbe 0b5f 95be
00000190: 81cf 30be a840 9a3d a002 23bd 961d 60be
000001a0: 00c0 e73b 58e6 52be 61f8 82be 0a04 2abe
000001b0: 1d1c 87be 6497 44be 0f9d 853e 5fcf 853d
000001c0: 8449 be3d 9eb7 c8be 6280 c7be 2f06 68be
000001d0: 2324 fc3d 0ea4 0bbd 1114 a2be af1d e23e
000001e0: e683 98be a0c5 e5bd c028 abbc 7037 51be
000001f0: 42ec 53be b91f 34be f65d d3bd 48b0 73be
00000200: 1270 813e e819 75bd 9ed2 843e 8466 c03d
00000210: e4c3 b8be 0cf7 323e 8ee6 a9bd f6eb 47be
00000220: a9fc 1cbe 1c9e 9dbe e725 003e a091 61be
00000230: f6e6 653c 1630 21be 8034 113e 162f 27bf
00000240: 90de f9ba dcf9 803d 5aa8 553e 5513 0ebf
00000250: 86a8 e3be 37cb 753e 231c c2be 9457 2dbf
00000260: e62e 04be 9744 72be dc9c 8c3e 009b 62be
00000270: b402 253e 2403 d93d a4a8 c83d 59ec 26be
00000280: 7c51 8c3e e0b1 873d 88de 1e3d ec0a 88be
00000290: d49b 013e 2846 39bd dd71 0dbe 4e99 843e
000002a0: 78ab 893d a2d2 2abe e944 1cbe 60e9 6bbc
000002b0: 8a64 2c3e 7aca 9dbd e429 30be f474 d3bd
000002c0: c545 81be c42d c43d acfb 6e3e c37b 61be
000002d0: ad85 9a3e ad36 8f3e 6d58 103e 68f3 a63e
000002e0: 595e 233f 3b45 333e 7fc6 66bd a803 59bd
000002f0: 7683 a3bd d01e 043d 882a 5abd a403 b8bd
00000300: 865a 453e 36ab 843e 8085 f4bc 5841 8abd
00000310: c02b 903b 707a 93bc 8fd7 b63d 5d50 913d
00000320: 0836 8cbe 5464 5cbe 88e7 b83a d785 c7bd
00000330: 3e6f 5bbe be8e 33bf 9945 fbbe f902 8bbd
00000340: b6c6 71bd c8a0 ab3d 889f da3d 468c 0e3e
00000350: 8ccb 96be c013 3dbe 1d06 d4bd 05c3 e73e
00000360: 9749 af3e 25ae 9fbe 43f1 5e3e 12e0 04bf
00000370: 30d7 8cbe e05c 653d 5a63 0cbe d8eb 66be
00000380: c6b5 89be e06f cc3d 0a3f 593e b8e9 5fbd
00000390: 19a7 2bbf b812 2bbf e04f 7bbe 6807 763e
000003a0: a178 b53c 00e8 813e 3bd0 af3c 727a b7be
000003b0: 083c 3cbe 4097 1ebf a3c2 4abf 3441 e9be
000003c0: a953 bcbd ab7f 08be 888b 78bd 96af 31be
000003d0: 5c0b 61bd ae4e 59be 94bd 49be 70d4 cc3d
000003e0: 7284 b7bd 6e9a 3e3e 1019 c6bd b57c 62be
000003f0: 80e6 59bd 24aa 15be e0ea bcbd 94f6 92be
0.21768242 0.08602297 -0.07063581 0.10495475 -0.011194321 0.12490552 -0.2970871 -0.008656562
0.25228658 -0.53043497 0.14451504 0.13060465 0.15536267 0.04083386 0.10453102 -0.09367599
0.1861686 -0.055853732 -0.31519952 -0.33789292 -0.629385 0.17992376 -0.20581655 0.096463025
-0.23800406 -0.23019446 -0.018988175 -0.0816006 0.0517439 -0.21296223 -0.15634969 -0.985768
0.45956156 0.050177276 -0.097902104 0.18631893 0.046990782 0.24361014 0.03296113 -0.095088586
0.081011176 -0.081763685 0.12689331 0.26919603 0.17429152 -0.13181248 0.17405185 0.053948283
0.15311801 -0.18377268 -0.29846862 -0.11649208 -0.23126608 0.24740177 0.08684471 0.096283786
0.012774744 -0.0052450895 0.14782165 -0.34827167 0.057490982 -0.45171255 -0.27836326 -0.11054373
-0.20782532 0.079712845 0.25007105 -0.17870635 -0.17982076 -0.17983162 0.2711922 0.10047901
0.29012948 -0.24883015 -0.2990619 -0.23589155 -0.2028234 0.10726302 0.009261828 0.2505331
-0.29522404 -0.6477073 -0.17765433 -0.5775525 0.08521456 0.43945068 0.73396313 -0.7120088
-0.16688001 -0.0052893823 0.06374177 -0.14020644 0.08132333 0.039471563 -0.41274744 -0.042343248
0.8929454 0.09344541 -0.42827836 -0.29174075 -0.17266656 0.075318635 -0.039797425 -0.21886286
0.0070724487 -0.20595682 -0.25580123 -0.16603103 -0.26388636 -0.19198376 0.2609639 0.065336935
0.09291366 -0.3920259 -0.38965136 -0.22658609 0.1231158 -0.034092 -0.31655934 0.44163272
-0.2978813 -0.112193346 -0.020893455 -0.20431304 -0.20695594 -0.17590226 -0.10320656 -0.23797715
0.25280815 -0.05983916 0.25941938 0.09394553 -0.36086953 0.17477053 -0.08295928 -0.19523606
-0.15330757 -0.3078469 0.12514459 -0.22028208 0.014032116 -0.15741 0.14180183 -0.6530622
-0.0019063521 0.06297657 0.20865002 -0.5549825 -0.4446451 0.24003302 -0.37912092 -0.6771176
-0.12908515 -0.23658977 0.27463424 -0.2212944 0.16114312 0.10596302 0.09797791 -0.16301097
0.27405918 0.06625724 0.03878644 -0.26570833 0.126571 -0.04523292 -0.13812967 0.25898212
0.06722158 -0.16681913 -0.15260662 -0.014398903 0.16835228 -0.07704635 -0.1720348 -0.103250414
-0.25248542 0.095790416 0.23338193 -0.22019868 0.30180112 0.27971402 0.14096232 0.3260758
0.6381584 0.17506878 -0.056341644 -0.052982002 -0.079840586 0.032255948 -0.053263217 -0.089850694
0.19272813 0.25911874 -0.029848814 -0.067507446 0.0043997467 -0.018002719 0.08927833 0.07095406
-0.27384973 -0.21522647 0.0014107088 -0.09742325 -0.21429154 -0.7013968 -0.49076536 -0.06787676
-0.059027396 0.08380276 0.106749594 0.13920698 -0.2945217 -0.18464565 -0.103527285 0.45265976
0.34235832 -0.3118755 0.21771722 -0.51904404 -0.27507925 0.055996776 -0.13709775 -0.22550905
-0.26896495 0.09982276 0.21215454 -0.05466625 -0.67051846 -0.6682544 -0.24542189 0.24026263
0.022152247 0.25372314 0.021461597 -0.35835606 -0.18382275 -0.6194954 -0.7920324 -0.4555756
-0.091956444 -0.13329951 -0.060679942 -0.17352137 -0.054942474 -0.2122142 -0.19701225 0.10001457
-0.08960809 0.18613598 -0.09672749 -0.22117884 -0.053198338 -0.14615685 -0.09224486 -0.2870375

trunk.0.bias f4 [256]
00000000: 18ba 213d 80ca 4abe c7cd 66be 0c0f 6d3e
00000010: 3041 f13d 0ed8 84be e401 bb3d d1a7 4c3c
00000020: 318a a9be 88b4 663d 85b4 2bbd c065 40bc
00000030: a675 563e 22cf 15be 9060 273e 0703 24be
00000040: fb23 47be d06a 523e 6790 7ebe dd9b 62bc
00000050: 5fce d4bb 99bb c6be 6c24 84be a83b d23d
00000060: c570 853d 80ae 02bd 9f15 893e fcfc d83d
00000070: 3d71 813d 4cd9 44be 1e3b 193e 406b 0d3e
00000080: 81e3 b73c 73c3 753e 67a4 84be 700f 853d
00000090: 6f8a 6abe 10d2 fabc d44f ca3d 50d3 8d3c
000000a0: fd06 9cbc c5f4 6ebe 6c39 41be 4082 ac3b
000000b0: bce3 55bd 41a3 adbe 7815 983e ed22 88bc
000000c0: b6eb a3be 9269 073e cb5a 2a3e 0b7e c1be
000000d0: fbcd 1d3e 1fea ccbe 54f3 d53d f6a3 923e
000000e0: 58d0 4b3e e06c 183e a842 7bbd 65fe e43d
000000f0: 98d5 fe3a b809 8d3d b41c 88b9 d0b7 f8bd
00000100: d21a fabd e5df acbe 3676 8ebe fd34 a5be
00000110: 26af a4be 7e90 933e f41c 063d f510 bbbe
00000120: 7cd2 1dbe f43b 903d f8d1 b8bd c59a 3abe
00000130: 3cdd af3c 27d3 d8bd f7e6 bebd 2bc7 c5bc
00000140: b698 ba3d 90c9 2b3e c267 c8bc 3bd2 13be
00000150: a6dc 09be 00db 863a 0475 4cbe 501c 9a3d
00000160: 8800 15bd af8e 8fbe 49cc c6be 62ca 143e
00000170: 8359 823e c325 203e a245 21be a168 84bd
00000180: c035 3a3c 6d6a 50be 6103 41be 5c3b 4e3e
00000190: 1d6d 40be 30d3 603e 50ba d73d 0e7c e3bc
000001a0: 6855 4b3e ed21 f13d a28c 0f3e fb7a f03d
000001b0: 826d 05be 1fb9 23be 8440 62bd 05b9 423e
000001c0: 1282 a33d 7db2 313e 9e5d 83be 90b3 1cbd
000001d0: 9595 99be 20b6 e93b 52de 2fbe 5ebf 82be
000001e0: fc0f 6a3e 3bfc 923d 6ebe 85be 5f46 9bbe
000001f0: 5651 54be 4c64 1d3e eb3a 9fbe 2066 853e
00000200: 0d1c 953e 1c89 cebd dd97 28be ac1e 703e
00000210: 632f 4f3e 50f6 913e ec0f 573e 8b8a 03be
00000220: f91c 693e 4bf6 1bbd f136 5bbe a1b2 8abd
00000230: af21 1cbe f252 55be 0052 b83b 1c62 edbd
00000240: 832b d0bd a07a 4abe 70a1 953d a5a2 563e
00000250: 0a66 c2bd 2cd1 c7be a0b9 7ebc c82b b5be
00000260: 4249 80be fa0d 8abe d4fc 413e 8e11 abbe
00000270: 7815 45bd ce30 56be b4cb acbe 5c2a fdbd
00000280: 00e1 8fbc 00a7 4fbd c91a 313e 8d17 b83d
00000290: 8439 403e c0dd f13d 7892 013d 141f 433e
000002a0: 26f7 44be c8d2 423e b4ff 4c3d 90cf 34be
000002b0: a615 a23e 01cf 86be 7b57 bcbe 73aa d73c
000002c0: b021 5d3d da70 37be 7bac 183d cc75 bfbe
000002d0: 3a9c 4bbe cf63 343e 773b 96be 4cf4 67bb
000002e0: 539d 5e3e 93f5 463e 91d7 fabb 859e 8cbe
000002f0: 1f04 a3bd b825 d9bd 45ff d63d 648f 6c3e
00000300: 883f 0bbe 3ca0 36be 8d02 74be 072f 20be
00000310: 1632 ae3c ab95 443e 5686 0b3d 25dd 8fbe
00000320: e8c5 983d 4442 8d3e 927e 3f3e a6d8 9c3d
00000330: 9df6 67be c022 39be e0a4 513e 1069 6cbe
00000340: 982d 4b3d 103b 1ebd 24e9 ce3d e529 69bd
00000350: 4c64 a0be 227c 71be afaf ac3e 623a bcbd
00000360: 6222 023e e585 3abe cc6a 743e f62e 84bd
00000370: a222 d0bd 0086 7a3d bc41 ddbd e223 f8bd
00000380: a8b8 30bd d791 8ebd 66ea 1abe f5b6 0a3d
00000390: cb9d 95be 5699 0d3e 142d 8f3e e0cc 473d
000003a0: 6c48 90bd 1f64 8dbe 18fd 103e 6cb8 c13e
000003b0: ae07 4b3e 424f 583d 204b cd3d 6a88 7e3e
000003c0: f9ab cf3e 5b2f 12be 1e91 92be e2fc 063e
000003d0: b6bb 523c 4dbb cd3d 602f 1dbe 8028 f03c
000003e0: 0c4d ccbd 95d6 a6bd 8a49 033e d582 8dbe
000003f0: e096 633e e150 0b3e 6211 a73d d86c 5a3e
0.039484113 -0.1980381 -0.22539435 0.23150271 0.11780012 -0.25946087 0.0913122 0.012491182
-0.33113244 0.05632451 -0.041920204 -0.011743009 0.20943317 -0.14629796 0.1634543 -0.1601678
-0.19447319 0.20548558 -0.24859773 -0.013831106 -0.006494328 -0.38815 -0.25809038 0.10265285
0.0651565 -0.031904697 0.26774308 0.10595128 0.063204266 -0.19223517 0.14963958 0.13810444
0.02244735 0.24000339 -0.2590668 0.06497085 -0.2290437 -0.030617744 0.09878507 0.017312676
-0.019046301 -0.2333556 -0.18869561 0.0052645504 -0.052219138 -0.33913615 0.2970388 -0.016618216
-0.3201577 0.13223866 0.16636197 -0.37791476 0.15410607 -0.4002237 0.10446802 0.28640717
0.19903696 0.14885283 -0.061342865 0.111813344 0.0019442318 0.06886619 -0.00025961327 -0.121444345
-0.12212147 -0.33764568 -0.27824563 -0.3226699 -0.32164878 0.28821176 0.032742456 -0.36536375
-0.15412325 0.07042685 -0.09024423 -0.18223102 0.021467797 -0.10587149 -0.09321397 -0.024142822
0.091111585 0.16776109 -0.024463538 -0.14435665 -0.13463077 0.0010288656 -0.19966513 0.075249314
-0.03637746 -0.28038546 -0.38827732 0.14530328 0.25458917 0.15639405 -0.15749219 -0.06465269
0.011365354 -0.20353098 -0.18848945 0.20139831 -0.18791623 0.21955562 0.10533583 -0.027769115
0.19856799 0.11774049 0.14018491 0.11742207 -0.13030055 -0.15988587 -0.05523731 0.19015892
0.07983793 0.17353244 -0.25657362 -0.03825718 -0.29996935 0.0071323067 -0.17174652 -0.25536627
0.2285766 0.071770154 -0.2612185 -0.30327126 -0.20734152 0.15370291 -0.31099638 0.26054478
0.29122964 -0.10084745 -0.16464181 0.234492 0.2023292 0.28508234 0.21002167 -0.12845819
0.22764958 -0.03807668 -0.21407677 -0.06772352 -0.15247224 -0.20832422 0.0056250095 -0.115909785
-0.10164549 -0.1977334 0.073061824 0.20960481 -0.09492119 -0.39026773 -0.015547186 -0.35384965
-0.2505589 -0.26963788 0.18944103 -0.3341183 -0.048116177 -0.20917055 -0.33749163 -0.12361595
-0.017563343 -0.050696373 0.17295374 0.08988867 0.1877194 0.118098736 0.031633824 0.19054824
-0.19234905 0.19025719 0.050048545 -0.17657304 0.3165714 -0.26329806 -0.36785492 0.026326394
0.053987205 -0.17914143 0.037273865 -0.3739456 -0.19883814 0.17616199 -0.29342243 -0.0035393415
0.21739702 0.19429617 -0.007655092 -0.2746469 -0.079597704 -0.106028974 0.104979075 0.23101574
-0.13598454 -0.17834562 -0.23829098 -0.1564294 0.021264117 0.19197719 0.03406366 -0.28098407
0.074596226 0.2758962 0.18700626 0.0765851 -0.22652669 -0.18079662 0.20473051 -0.23086953
0.04960403 -0.038630545 0.10103062 -0.05692472 -0.3132652 -0.23582509 0.33727786 -0.09190823
0.12708429 -0.18215139 0.23868865 -0.064542696 -0.10162856 0.06116295 -0.108035535 -0.12116219
-0.043144852 -0.069614105 -0.15128478 0.033865888 -0.2922195 0.13828024 0.2796408 0.04877937
-0.070450634 -0.2761545 0.14159048 0.37836015 0.19827148 0.05280996 0.100240946 0.24856725
0.40560892 -0.14275877 -0.2862634 0.13182405 0.012862137 0.100454904 -0.15350103 0.029316187
-0.09975633 -0.08146397 0.12821022 -0.2763888 0.22225523 0.13605072 0.081576124 0.21330583

trunk.2.weight f4 [256, 256]
00000000: d8c8 80bc 6050 b83b 880a 89bc 2aa7 7abd
00000010: 701b d4bb 98d0 f93c 4047 eebb 881d fcbc
00000020: c0c8 013b f0dd 3a3c 24db 8ebc 2086 46bd
00000030: ae40 09bd 20f2 26bc a464 b83c 6ea7 633d
00000040: c008 983a 4c51 b73c 864b 133d 2c42 dfbc
00000050: e8e3 a9bc 6ace 293d 004b 373d 58a5 723c
00000060: 12d5 45bd 584d 113d 2e95 53bd b8e8 ff3c
00000070: a0b7 f23b 3062 a53c 1489 79bd ac01 b4bc
00000080: d471 d93c 280a 453d ac94 92bc b649 643d
00000090: c083 64bc ce67 1abd e0b7 ddbc c0e1 7e3b
000000a0: b8ff 35bc 5ccf f73c 0ead 0dbd 20a6 91bc
000000b0: 08b3 7dbd 52f5 503d c8ad 40bc d2ce 49bd
000000c0: 20a6 45bb 0040 efb8 6432 8e3c 60ca e0bb
000000d0: 480a 213d f4a6 b0bc 3c3f 99bc 482b 73bc
000000e0: 90d0 363c c61c 4d3d a078 3cbb 4cf9 443d
000000f0: 9219 493d 5049 05bd f0f6 afbb b8b1 f1bc
00000100: 8cfa d43c dc00 b4bc 802f 9c3c c0b6 743b
00000110: 1e0e 28bd 781b 2cbd a40a 7abd a033 0fbd
00000120: 8807 8f3c 608d 793b c289 403d c01a 61bd
00000130: 8062 efba d88a 65bd 00d0 bf39 548a ba3c
00000140: a2a4 65bd 4816 623d c805 9fbc 44d3 623d
00000150: 28e1 2bbc 8c3b 113d 3eb9 683d d867 babc
00000160: b8eb 78bc 9047 063d 662b 5bbd 9888 173d
00000170: 08cc 20bd 70c3 6d3d 06c6 27bd a0b1 d2bc
00000180: 0206 3f3d 04eb debc 446e 5b3d 0c22 303d
00000190: a8fc 693d de22 78bd 00a1 373a 5c67 a8bc
000001a0: a8eb 733c 084b 41bd 98f2 d13c 000b 42bb
000001b0: 4004 f2bc 6c4c 66bd cce7 053d a44b b9bc
000001c0: 76e5 3c3d 6849 363c 48b8 9b3c e84d 1bbc
000001d0: 38d9 0dbc 6cee adbc aeab 5dbd 3ef2 203d
000001e0: b436 21bd d834 153d 4cb0 acbc 4660 203d
000001f0: ce65 5b3d 3892 1cbd c062 533d c0a8 c73a
00000200: fc90 43bd 2001 d13c 0ef5 103d c0aa 613d
00000210: 0cb1 73bd 8a28 673d 5013 423d ccd7 7b3d
00000220: 8685 0b3d d0e3 f8bc 6034 423d 76f6 693d
00000230: fcc5 c3bc 2862 27bc 0854 483d 5613 4e3d
00000240: 341c 293d 3e21 443d d88e 03bd c8a7 30bc
00000250: 6c8c ccbc 8e0d 053d 8831 7f3c 7cbf 45bd
00000260: 58a0 00bc aac1 50bd 08ed 70bd 7260 693d
00000270: fcc5 00bd 5485 e43c d805 64bc f85b 4fbc
00000280: 0050 29b8 56a9 473d f8a7 0dbc cad4 533d
00000290: a0c9 153d 449e 2f3d 3e2d 68bd a868 efbc
000002a0: c691 50bd 687c 59bc c817 54bc a814 503c
000002b0: 565e 653d e4d6 e53c ba23 32bd 788c 20bd
000002c0: 984e 413d c0dd cb3b 78a4 903c a4e5 05bd
000002d0: 80c0 f9bb d8c4 913c 62fe 27bd d214 273d
000002e0: f426 ff3c c64a 15bd 20f6 d1bc 50be 70bc
000002f0: 785c 1f3c d4cf bbbc 20e5 743d e294 76bd
00000300: eab0 10bd f262 1bbd 4c6f 8a3c 1050 113c
00000310: c4e5 91bc 3a7c 5a3d 28fe 5cbd 5874 b43c
00000320: 4add 0cbd 702c 69bc 3287 76bd 161b 3fbd
00000330: f833 59bd 4c5f df3c 6442 c0bc eee9 053d
00000340: 2abd 0abd 00b6 7dbc 80e7 f73b 3a82 563d
00000350: b0fd 89bc a668 143d 143f 8d3c 2ab3 1b3d
00000360: a2b7 213d 1cc7 cf3c 6864 9abc 84b3 8fbc
00000370: 8052 c73c e887 0b3d 209e 5abb 9653 003d
00000380: b603 1abd e64b 103d f051 fbbb 082c 30bd
00000390: ccc5 f8bc ba81 43bd 008f 4e3c d4d2 17bd
000003a0: 3c9e 92bc 4051 80bb 7e33 1cbd 005a d23a
000003b0: 60f5 01bc 042c a23c b4ef 383d 108a 1abd
000003c0: 90f7 0b3d 0090 adba 6c51 12bd f832 e8bc
000003d0: cc52 823c e835 553c 404d 04bb 9ce5 febc
000003e0: 8619 013d 88ee 173c 94dd 78bd d8f7 34bc
000003f0: 78e9 8abc ac79 dabc ac00 0ebd e4ae 4fbd
-0.01572077 0.005624816 -0.016728655 -0.061194576 -0.0064729974 0.030494973 -0.0072716773 -0.0307758
0.0019803494 0.011405453 -0.017438479 -0.048467755 -0.03350895 -0.010189563 0.022508927 0.055579595
0.0011599287 0.022377633 0.035960697 -0.027253233 -0.020738557 0.041456617 0.04474926 0.014809929
-0.048298903 0.03547415 -0.05165594 0.031238899 0.0074071437 0.020188421 -0.060921744 -0.021973453
0.026543535 0.04810539 -0.017893158 0.05573436 -0.013947427 -0.037696652 -0.027065217 0.0038891882
-0.011108331 0.030250244 -0.034588866 -0.01777941 -0.061938316 0.051015206 -0.011760183 -0.049269505
-0.0030158833 -0.00011408329 0.017358012 -0.0068600625 0.039316446 -0.021563984 -0.01870691 -0.014841862
0.011158124 0.05007627 -0.0028758422 0.04808931 0.04909665 -0.03254062 -0.0053700134 -0.029503688
0.025998376 -0.021973066 0.019065619 0.0037340373 -0.04102909 -0.042018384 -0.061045304 -0.034961343
0.017459646 0.003807865 0.047006376 -0.05495715 -0.0018263608 -0.056040615 0.0003658533 0.022771038
-0.05606521 0.05519703 -0.019411936 0.05537726 -0.010490693 0.03545718 0.056817286 -0.022754595
-0.0151929185 0.03278309 -0.053508185 0.0369955 -0.03925708 0.05804771 -0.040960334 -0.025719464
0.04663659 -0.027211674 0.053571954 0.04300122 0.057125717 -0.060580127 0.0007004887 -0.020557098
0.014887728 -0.047190696 0.025628373 -0.0029608607 -0.029543042 -0.056225225 0.03269176 -0.022619076
0.04611727 0.0111259 0.01900877 -0.0094790235 -0.008657746 -0.021231852 -0.054118805 0.03929352
-0.03935881 0.03642735 -0.021080159 0.039154314 0.053563885 -0.038225383 0.051607847 0.0015232787
-0.04774569 0.025513232 0.035389952 0.05509448 -0.059495017 0.056435145 0.0473817 0.061485097
0.034062885 -0.030382067 0.04741323 0.05711981 -0.023898117 -0.010216273 0.048908263 0.05031141
0.041286662 0.047883265 -0.03211865 -0.01078219 -0.024969302 0.03248363 0.015575774 -0.048278317
-0.007850729 -0.050965942 -0.0588198 0.056976743 -0.031438813 0.027895607 -0.013917409 -0.012656204
-4.0367246e-05 0.048745476 -0.008646004 0.051716603 0.036569238 0.042875543 -0.05668377 -0.029224709
-0.05092027 -0.01327429 -0.012945123 0.012700237 0.05599817 0.02805657 -0.043491103 -0.03919646
0.047194093 0.006221503 0.01765655 -0.032689705 -0.0076218247 0.017794058 -0.041014083 0.04079134
0.031146504 -0.036448263 -0.025630057 -0.014693812 0.009726636 -0.022926249 0.059788823 -0.06020058
-0.03532497 -0.03793616 0.016898774 0.008869186 -0.017809756 0.053341128 -0.05395332 0.022028133
-0.034390725 -0.014231786 -0.060187526 -0.04665669 -0.053028077 0.02726712 -0.023469158 0.032693796
-0.033871807 -0.015485287 0.0075654387 0.052370287 -0.0168446 0.036232613 0.017241992 0.03801266
0.039481767 0.025363497 -0.018846706 -0.017541654 0.024331331 0.034065157 -0.003335841 0.031329714
-0.037601195 0.035228632 -0.00766968 -0.04301074 -0.030367754 -0.04773114 0.012607336 -0.037066296
-0.017897718 -0.0039159358 -0.038135044 0.0016048551 -0.007932037 0.019796379 0.045150474 -0.037729323
0.03417164 -0.0013241768 -0.03572218 -0.028344616 0.015908621 0.0130133405 -0.0020187646 -0.031115346
0.03151848 0.009273179 -0.06075819 -0.011045419 -0.01695703 -0.026669346 -0.03466861 -0.050703898

trunk.2.bias f4 [256]
00000000: c875 16bd 1e0e 28bd 17de 2e3c c929 12bd
00000010: adcd 31bc dedf 6a3d 0c07 463d 2872 373d
00000020: 4e0c 42bd 0afe 01bd c56a a0bb c0b2 973a
00000030: b9a3 e83c 1788 c83c 689a 79bd 6fc5 603d
00000040: 9003 003d 73db 8abd 543d abbd 5694 b43c
00000050: 929b f4bc 6e34 4bbd 2800 d63c 4eb3 123d
00000060: 302f f73c 6ece 5dbd 3626 563d 47ce efbc
00000070: 1e25 18bd 73eb 9c3c 6000 a9bd 4227 64bd
00000080: 80e2 41bc 5f69 4fbb d1f6 08bd 05c1 7ebc
00000090: 1e6e 6fbd ec80 1b3d b1b1 3fbc f836 1c3c
000000a0: 1ee7 c33b 523a 713d 88c1 363d ecbc 013c
000000b0: 53f1 1f3c 4a0b 1abd 7835 183d a8f7 4abc
000000c0: 2bb1 a93c 54db 5c3d b2cc 36bd d287 2bbd
000000d0: 32a3 33bd 54e4 14bd bca2 bbbc 065d 32bd
000000e0: 9062 49bd 2673 943c 4b49 9ebd b05d 4dbc
000000f0: 4247 3a3d e2b5 ab3c 19aa a5bd 75e5 093d
00000100: 58ed 153c 53c8 693c 5e9e 1f3d 8c81 4c3d
00000110: a472 11bd 2f3d 353d 116d 09bc 568b 6f3b
00000120: 44b2 8a3c b72d 0dbd 9a39 10bd fb7f 95bd
00000130: 78b3 363c 08e9 da3b 0bde 64bd 84d8 883c
00000140: f886 7bbc 4073 42bd 47c5 50bd cf88 383c
00000150: 909f 8abc f134 763c 71f0 473d 5292 79bd
00000160: c1c0 13bc d6bb c6bc 168b 1f3d 078b 453d
00000170: 644a 513d d443 0dbc 655c b03b 64f9 b9bc
00000180: 05cc 89bd 9f54 8bbd 0ac3 bfbb fcc3 56bd
00000190: 9e28 14bd e60c 22bc 1300 7cbd 3ebf 213d
000001a0: 119e 1b3d c026 80bb 27b0 323c 9168 093d
000001b0: fb52 a6bb 3c7d 8dbd 1b97 953c 7704 81bd
000001c0: 3cf3 39bd f374 b7bd 9040 0abd 7114 14bc
000001d0: 6060 833b f812 79ba a0fe 333b 2165 74bd
000001e0: 8f66 0c3c d698 b8bc 802c 203d 892f 313d
000001f0: 806e 82bb 5105 04bc 16b9 83bd 24c2 d83c
00000200: 9d42 8a3c 3081 833c ad21 2b3c c524 033d
00000210: 0ee3 28bd 3d98 80bc f299 28bd be6e 323d
00000220: bae7 07be d253 94bd 3a75 2e3c 75dd f9bc
00000230: aa27 ebbc 3b3c 663d 552f 0ab9 cd92 313d
00000240: 0bae c2bc 13e1 cabc 3115 43bd 103c 623c
00000250: d23e 063d 637b cdbd 6a29 e0bc e055 b73d
00000260: fffb 1cbd 995d 1fbb 7a1b 173d 240b 063d
00000270: e86e 2bbd b1c9 f8bb 98c0 343d a0b0 6a3d
00000280: 9c48 bb3c e891 19bd 52b4 1a3d 894d dcbc
00000290: d57e 373d 2752 76bd c708 e63c efbe b13c
000002a0: f5d6 4bbc 3231 0cbd a5e2 80bd fe79 c0bc
000002b0: bcd1 06bd 0a7d 1bbc a8d8 5cbd ef04 1fbc
000002c0: ac14 303d 8026 a13b 6dc1 2d3c a2b0 1c3d
000002d0: 435d 9a3c f658 34bd 9b35 e33b 694f a6bc
000002e0: 10f3 73bc 9df8 fbbc 7afb 30bb 5fa4 b7bd
000002f0: 9563 90bd 7b2a 70bc 03e8 85bd 2ea3 293a
00000300: 2401 bcbc e8b3 d2bc 03ce 45bc e6cd 113d
00000310: 9f7a 12bd e49b a2bc d308 993c 7c10 78bc
00000320: 0477 403d 8e33 1b3d 49d9 82bb 5615 0ebd
00000330: e125 853c 8c12 5c3d 4f6b 2cbc 14b1 983c
00000340: 9497 32bd b4e0 033d 487c 72bc 4552 8abd
00000350: 58e1 3ebc b5aa ac3c c06b c2bc c78f 04bd
00000360: eabc eebc f6d0 1c3d 4163 47bd 9921 77bd
00000370: 7abd 1bbd 5636 b5bd 988b 4a3d a8e9 aabc
00000380: 6770 1f3c 6355 643c 5818 173c 6a6a 4cbc
00000390: c916 823b 56b7 8dbd 8092 4aba 9fb8 85bd
000003a0: e2c0 8bbc d408 77bd 36f8 84ba 6c7e 723d
000003b0: 4e2f bc3c 4137 053d 0abe 073d 0443 64bd
000003c0: 2edc 2b3d 3ca0 053d f755 8fbc 4a48 75bc
000003d0: 6dae 9cbd 0c7e c63c 9b03 1d3d 0ac1 463c
000003e0: 2f15 01ba 186c 89bd 6529 8f3c e27c 03bd
000003f0: 0bc3 15bd 82f2 7abd 9f1f 54bd 00ef 123d
-0.03673342 -0.04102909 0.0106730675 -0.03568438 -0.01085226 0.057342403 0.048346564 0.044786602
-0.047375016 -0.03173641 -0.0048955404 0.0011573657 0.028398382 0.024478955 -0.06093827 0.054875787
0.031253397 -0.06780138 -0.08361307 0.022043388 -0.029859338 -0.049610548 0.026123121 0.03581553
0.030173868 -0.054151945 0.052282535 -0.029273165 -0.037144773 0.01915524 -0.08252025 -0.0557015
-0.011833787 -0.00316485 -0.033438507 -0.015548949 -0.058454625 0.037964746 -0.01170008 0.00953459
0.005978479 0.05889351 0.04461816 0.007918578 0.009762126 -0.037608422 0.037160367 -0.012388147
0.020714363 0.053920105 -0.044628806 -0.041877575 -0.043856807 -0.036350563 -0.022904746 -0.043545745
-0.049166262 0.018121313 -0.07728823 -0.012534544 0.045478113 0.020960752 -0.08089084 0.033666093
0.009150825 0.014268952 0.03896939 0.049928233 -0.03550972 0.044247802 -0.00838782 0.0036551557
0.016930707 -0.034467425 -0.035211183 -0.07299801 0.011151187 0.0066806115 -0.05587582 0.016704805
-0.015352003 -0.047473192 -0.05096939 0.011263086 -0.016921788 0.015027271 0.048813287 -0.060930558
-0.009018124 -0.024259489 0.038951002 0.04822829 0.051096335 -0.0086221285 0.005382108 -0.022701927
-0.06728367 -0.068032496 -0.005852108 -0.052433 -0.036171548 -0.009890771 -0.06152351 0.039489023
0.03799254 -0.0039108694 0.010906256 0.033546988 -0.00507581 -0.06908652 0.01826053 -0.0629968
-0.045397982 -0.08957853 -0.033752978 -0.009038077 0.0040092915 -0.0009501423 0.0027465 -0.059666757
0.008569374 -0.022533815 0.03910494 0.043258224 -0.003980458 -0.008057908 -0.06431787 0.026459761
0.016877467 0.016052812 0.010445041 0.032017488 -0.04123216 -0.015697593 -0.04116244 0.043562643
-0.1327199 -0.0724255 0.010648066 -0.030501107 -0.028705437 0.056209784 -0.00013178338 0.04335289
-0.02376463 -0.024765527 -0.04762763 0.013808265 0.032774754 -0.100333 -0.027363498 0.08951926
-0.03832626 -0.0024317263 0.036891438 0.03272547 -0.041853815 -0.007592403 0.044128984 0.05729735
0.022861771 -0.037492663 0.037769623 -0.02689244 0.04479869 -0.06013694 0.028080357 0.02169749
-0.0124413865 -0.034226604 -0.06293229 -0.02349567 -0.032914862 -0.009490261 -0.053917557 -0.009705766
0.042988464 0.0049179196 0.010605198 0.038254388 0.018843299 -0.044030152 0.0069338805 -0.020301538
-0.014889494 -0.030758196 -0.002700536 -0.08966898 -0.07050244 -0.014658566 -0.06538393 0.0006471154
-0.022949763 -0.025720552 -0.012073043 0.03559675 -0.03576147 -0.019849725 0.018680966 -0.015140649
0.046988502 0.037890963 -0.0039931876 -0.034688316 0.016253414 0.053728625 -0.010523631 0.018639125
-0.043601587 0.032196715 -0.014800139 -0.06753973 -0.011650406 0.021077493 -0.02373302 -0.03236368
-0.029142816 0.03828522 -0.04867864 -0.060334776 -0.038022496 -0.088482544 0.049449533 -0.02086337
0.009731389 0.013936373 0.009222113 -0.012476543 0.0039700014 -0.06919734 -0.00077275187 -0.06529354
-0.017059747 -0.060311154 -0.0010144773 0.059202597 0.022971775 0.032523397 0.03314022 -0.055727974
0.041958027 0.032623515 -0.017497046 -0.014970848 -0.076504566 0.024230026 0.038333517 0.012130985
-0.0004924116 -0.0671007 0.017475793 -0.03210152 -0.03656296 -0.06126643 -0.05178797 0.03587246

heads.0.weight f4 [3, 256]
00000000: e081 a23b 30ef bf3b 20e2 ee3b 28bc efbc
00000010: 002c 8cbc 220c 3a3d af68 493d a237 0a3d
00000020: cb0a 8dbc edeb b13c 25a6 6abc 5e62 2d3d
00000030: 1a0b 343d 570a 12bd 5693 26bd 1295 2cbd
00000040: d36d b43c a0f9 7cbb 5620 04bb 2b5a 0b3d
00000050: 503b 443c c6c2 473d d4a7 f8bc 88b3 ad3c
00000060: 286c a1bc 095a 553d ab65 2abc 5235 a8bc
00000070: bc4f 37bd 8cb7 943c 8cfe f83c a862 1abd
00000080: a43b 22bd 6a63 b43a 817d 7ebb 4912 563c
00000090: 404c b73c 911a 19bc 67a5 dcbc a43d a5bc
000000a0: 8e1e 283d f72b 273b 966f 0fbb a68e c93c
000000b0: 7e6b 203d 4c11 c63c 961d 873d d456 66bd
000000c0: 2eed 6d3c 3ea6 18bd 98bf 393d 768b 833a
000000d0: 2e0d 6c3d c62e 453d 2e71 613c 10f3 f8bb
000000e0: 051f c53c f172 64bb ecbb 193c 4ab7 173d
000000f0: 5c7c 2d3d 2294 7e3d c893 4d3d fa31 73bc
00000100: 32b6 6f3d 5889 6bbd ee48 6f3d 0c1e 65bd
00000110: 1579 ba39 2153 573c 5228 c63c 523a 4d3d
00000120: 1a5e e3bc c4ea 21ba d9e0 3d3d 7703 47bb
00000130: 188e 11bd 5742 01bb 68c9 42bc a625 7e3d
00000140: fa9d 7b3d 60ad b6bd 84eb 32bd ec19 d93c
00000150: 27ec aa3c 22e9 eb3c b628 673d 7305 8dbc
00000160: d238 6a3c e151 713c 4202 143d 45e0 a1bc
00000170: 8cef fa3c 4269 9c3d eae9 f13b fc26 bcbc
00000180: 10d7 dfbc eb91 253d 0391 843c a9a7 c23b
00000190: d27b 67bd 9ccd 473b fa3b cb3c 801f 80ba
000001a0: cee7 153d 3c06 b9bc 2e75 923d 450d 88bd
000001b0: cedd 34bd b810 d03b d1e7 28bd cc33 6b3d
000001c0: 242e ab3c 62c2 233d 4cae b1bc 681b 593b
000001d0: cc2e ca3c 8e73 103d 08a3 6fbd 04a5 b13c
000001e0: cd07 2ebd 60ea 5bbd 1c6d f2bc ef38 0e3d
000001f0: 7cf3 1f3d a372 78bd f0cc 713d 3233 303d
00000200: eab7 ecbc c0dd 9c3b 4a7a 923d d997 e73c
00000210: eae4 433d 1bf7 27bd a686 5c3d 8ae4 b93b
00000220: 44ec 163d 78cf 61bc 30cf 24bd 3c83 373d
00000230: 8e78 823c 08b7 34bd 20ae 54bb e1f6 763c
00000240: a1c4 1f3b 10ef 00bd 9685 cfbc 20e0 e5bb
00000250: b94a 1fbc d399 853d 2460 18bd e683 863d
00000260: ca44 30bd f844 44bd 136d 19bd f074 33bc
00000270: 287f 67bd 358b bf3c 389f 82bc a6bf 0a3d
00000280: fa55 353c 547d 1abd 823c 6c3d b6d6 83bd
00000290: 8753 dabc 04aa 60bd a206 9b3c 912e 223b
000002a0: 7a4c 293d 8c07 7b3d 0ab8 343d 14a7 cd3c
000002b0: 6ee6 0e3d e14b 3b3d 12f1 12bd a21a 983d
000002c0: d40e 72bd 5a0d b0bc 1ce4 52bc 276a 53bc
000002d0: f29a 91bc 4b33 db3c 328b 503c 0650 8d3c
000002e0: 70b8 bc3b 969b 68bc dfa4 e23c 2c86 053d
000002f0: 1a66 afbc fdf1 8abd c961 b6bc 8216 6bbd
00000300: 1040 1fbd b9dc 91bc 8673 ff3c e8fa edbc
00000310: 86a2 8f3c 1c79 45bd 37d6 673d 1a98 c1bc
00000320: f8e8 04bc df28 8bbd 591f ef3c 8b67 f33c
00000330: 106a bab7 54a1 3d3d 612e 84bd 6cee a73c
00000340: 35b1 be3c 880e 1bbd d26b 2d3d ad96 64bd
00000350: 04e3 773d ccf7 6f3c 2ad2 383d 51e2 0cbd
00000360: aee6 b03d feb6 15bd 3bf6 6bbd eb04 febc
00000370: bd0d f13c 20b8 c9bc fe6d 503d 60f9 723b
00000380: 5839 523d 03ea ec3b 6e6f d5bc 8c2f 453d
00000390: b0e9 bf3c 8e7f e13b 78a8 73bc edd5 453d
000003a0: 8e14 c5bc 76aa f63c 2031 7ebb a4ee e53c
000003b0: bc28 67b9 24a7 27bd 0ca3 2a3d ea82 5dbd
000003c0: d362 9b3c d872 64bc 352f 663b 385d 75bd
000003d0: 9e3f 73bc 2812 f53c 3305 d4bb eb4e aabb
000003e0: 1309 7dbd de26 803c 9376 ed3c cd57 223c
000003f0: ab75 063d 97b4 20bd beab 2c3d 7824 f7bc
0.00495933 0.005857371 0.00729014 -0.029264525 -0.017110825 0.045421727 0.0491721 0.03374446
-0.01721706 0.021718943 -0.0143218385 0.04233014 0.0439559 -0.035654392 -0.040667854 -0.042134352
0.022025025 -0.0038600937 -0.0020160875 0.034021538 0.011977032 0.048769735 -0.030353464 0.021203771
-0.019704893 0.052087817 -0.010400216 -0.020533238 -0.044753775 0.018153928 0.030394815 -0.037691742
-0.03960766 0.0013762538 -0.003883213 0.013065883 0.022375226 -0.009344713 -0.026934339 -0.020170994
0.041044764 0.0025508383 -0.0021886579 0.024604153 0.039165013 0.02417817 0.0659744 -0.05623515
0.01452188 -0.037267916 0.045348734 0.001003607 0.057629757 0.04814031 0.013759894 -0.0075973347
0.024062643 -0.003485855 0.009383183 0.037040032 0.042354926 0.06215299 0.050189763 -0.014843458
0.058523364 -0.057504028 0.05841916 -0.055936858 0.00035566898 0.013142378 0.024189148 0.050104447
-0.027754832 -0.00061766454 0.04635701 -0.0030367055 -0.0355359 -0.001972338 -0.011888839 0.062047623
0.061429955 -0.089197874 -0.043681636 0.026501618 0.02086456 0.02879769 0.05643531 -0.017214512
0.014295774 0.014728994 0.036134966 -0.01976026 0.030631803 0.07637264 0.007382621 -0.022967808
-0.02732423 0.04042236 0.016182428 0.005940397 -0.05651457 0.0030487543 0.024808872 -0.0009775013
0.03659802 -0.02258598 0.071512565 -0.06643156 -0.044156842 0.0063496493 -0.041236702 0.057422444
0.020896025 0.0399803 -0.021689557 0.0033127908 0.024680518 0.03526645 -0.058505088 0.02168513
-0.04248791 -0.053690314 -0.029593043 0.034722265 0.039050564 -0.0606562 0.059033334 0.043017574
-0.02889629 0.004787177 0.07152231 0.028270649 0.04782573 -0.041007143 0.05383935 0.005672996
0.036846414 -0.013782375 -0.040236652 0.04480289 0.015926626 -0.044119865 -0.003245242 0.015073509
0.0024378675 -0.031477988 -0.025332253 -0.007015243 -0.009722405 0.0652348 -0.03720106 0.065681264
-0.043034352 -0.047917336 -0.037457537 -0.010953173 -0.05651775 0.023381809 -0.015945062 0.033874176
0.011067862 -0.03771718 0.057674892 -0.06437437 -0.026651157 -0.05484964 0.018924061 0.0024746994
0.0413327 0.061286494 0.044120826 0.025104083 0.034887724 0.04572666 -0.035874434 0.07426955
-0.059096172 -0.021490742 -0.012871768 -0.012903727 -0.017774079 0.026757857 0.012728499 0.017250072
0.0057592914 -0.014197251 0.027666507 0.03259866 -0.02141099 -0.06784437 -0.022263424 -0.057394512
-0.038879454 -0.017805444 0.031183016 -0.029050305 0.017533552 -0.048211202 0.056600776 -0.023632098
-0.008112185 -0.06794905 0.029189752 0.02971246 -2.2222317e-05 0.046296433 -0.064541586 0.02049943
0.023277858 -0.037855655 0.042339154 -0.055807758 0.060519233 0.014646482 0.045122303 -0.03439552
0.08637749 -0.036551468 -0.05760787 -0.031008204 0.029425496 -0.02462393 0.050886147 0.0037074909
0.05132422 0.007230045 -0.02605411 0.048141047 0.02342686 0.006881661 -0.014871709 0.04829972
-0.024057653 0.030110579 -0.0038786605 0.028067894 -0.00022045051 -0.040930882 0.0416594 -0.054079928
0.018968021 -0.0139433965 0.0035123352 -0.059903353 -0.0148467105 0.029915884 -0.0064703464 -0.005197396
-0.061776232 0.015643533 0.028987205 0.009908629 0.03282706 -0.039234724 0.042155974 -0.030168757

heads.0.bias f4 [3]
00000000: dd41 1fbe c538 32be 90e4 30be
-0.15552469 -0.17404468 -0.1727469

heads.1.weight f4 [3, 256]
00000000: 9ec0 35bd 4044 e9bb 348f 2cbd d345 35bd
00000010: a255 94bc 6645 04bd f821 5abd cb2e 82bc
00000020: 825c aaba 1653 4c3d 98d5 683d 881d 1c3c
00000030: 9023 21bd 8421 c43c b953 5abd b376 6c3c
00000040: e997 8abc 99fc 95bc 3077 f63c ff75 223d
00000050: 2dae a43c 6ab1 07bd 3a60 433d 1e6b e03b
00000060: 91b8 9e3c d5db 36bd 6ece 373d b312 da3c
00000070: 280c 583c 0241 073d 98c8 533c 4074 44bc
00000080: da65 5fbd 1af3 38ba 1925 74bc 390a 4e3d
00000090: 3092 c9bb 6ea6 17bd bfb6 2ebc 707f babb
000000a0: cfd7 b43d 3366 673d 3522 99bb 177c d4bc
000000b0: 0562 56bd 0e0f 633d a3fd 053c c0d3 b3bc
000000c0: e61a 3cbc ae9c 893d 4fa8 eabb aadd 893d
000000d0: 683c bc3c 8063 f0ba b59a 653c 5cdb 8fbc
000000e0: bf25 1abd b08e 9d3c 5dca 36bc 8728 f5bc
000000f0: b2f7 15bd da7d 17bd c122 093d 5d6a 483d
00000100: 74a6 543d 47a8 2f3d e0d2 693c f06f 483c
00000110: a548 583c 6713 613d f07b 423d a0c0 c3ba
00000120: a79d 63bd d3ed edbc 3cdb d83c eefa 20bc
00000130: a00b 363d fa9a de3c 9e87 24bd b0bf 773d
00000140: df0b 3abd cb35 c5bc e2ba 21bd 4b6d da3c
00000150: 3267 92bc 5afc ba3b 579b 8cbc 1eb5 13bd
00000160: 2dfe 213d d108 20bd cebb 4c3d b6d1 3bbd
00000170: e2be 6cbd fadc 4dbd 1248 d13c 4014 4bbb
00000180: 68a1 3cbc 3d89 c93b d27a a1bd e2b9 4bbd
00000190: 00bc 2e3c 7884 97bd 4e95 34bd 306c aebb
000001a0: a9ab 15bd 50bb 59bc eda6 dc3c 46a3 083d
000001b0: a8c1 63bc b9de eebc b9f6 383c ea03 293d
000001c0: bcf2 f2bc 13c0 813d 7006 ac3c 6e2c 57bd
000001d0: 60b7 463c 32a9 333b fed5 20bd 624f 65bc
000001e0: 4398 da3c e890 563c 467c 5c3d 98d0 a0bc
000001f0: d067 763d 2ea4 c93c 48b8 6c3d 0012 7c3a
00000200: fd98 993a 36f3 5cbd 279c 023d f680 30bb
00000210: 1035 893c 02c3 c83c 2aab 7b3d 26fb 35bd
00000220: d8e1 18bb a89f 05bd c551 d53c abe1 603d
00000230: 4e22 563d 30de 253c 4037 ff3c 6aa4 7a3d
00000240: 6836 393d 2f9c 0a3b bd28 96bc 6839 87bc
00000250: 52ab 153d 58ff efbc 48c6 7d3c 38e2 413d
00000260: 32c5 f6bb 236c 92bd d09f 1cbd 90e0 083a
00000270: 1136 44bd 7ef4 d43c 80cb 3ebd 6082 79bc
00000280: 9ae6 94bb 5012 d03c f0cd 3b3d 829a 703d
00000290: 7886 d838 0aa8 adbd 426c 47bd bc55 babc
000002a0: 1fb1 b03c c19a 323d d6c9 5ebd b0b2 b2bc
000002b0: 5cd0 243d 67ae ed3c bc5b bcbc aa83 8cbc
000002c0: 40b4 253d ebc5 983a 4846 2abb 008e 503c
000002d0: d8b6 06bd 92c3 80bd 350f 263d 731d 393c
000002e0: b224 30bd a8ec 293c c4fd a7bc ce9c 613d
000002f0: 5df4 f2bc 1632 363d d971 9f3c 370b 54bc
00000300: 1446 8d3c 2e56 283d 45e3 8abb 8c07 eabc
00000310: f94a 113a 842d f4bc fe16 a83c ece5 11bd
00000320: 64f6 073d 10e1 01bc 3506 893d edc3 6c3c
00000330: 9c3c 6bbd f8cb 1f3c 6d02 8b3c 0403 26bd
00000340: e8c0 783c 0c4b b33c 9076 72bd 2157 48bd
00000350: 60e5 4fbb f412 8d3c 50bb f1bc 135f f9bc
00000360: a88c 14bc 6080 613c 020e 6cbd 909e d5bc
00000370: a5f0 f23c df3e c53c 50bd 42bb 9af2 013c
00000380: 4a4e 73bd 22db 82bc d348 ccba 275e ec3c
00000390: dbe9 6abd 993b 783b e298 6ebd eb90 403d
000003a0: d27b 1d3c a300 a2bc bc7e 41bd fe87 3d3d
000003b0: 5831 2f3d 9a0a b73c 1ac4 0fbd 0014 ffb9
000003c0: c458 09bd 4007 23bd a818 43bd 8807 023c
000003d0: 4e06 9bbc 9a90 033d 5d3e 63bb e4c7 8cbb
000003e0: b983 04bd d3cf 38bd 8112 51bd 33a4 9c3c
000003f0: 6a15 bf3c 6648 2fbb bd9e f43a f97c 313a
-0.044373147 -0.0071187317 -0.042128757 -0.044256043 -0.01810724 -0.032292746 -0.05325505 -0.015891453
-0.001299754 0.049883924 0.056844324 0.009528525 -0.039340556 0.023941763 -0.0533025 0.014432597
-0.01691814 -0.018308925 0.03008613 0.03966331 0.020102585 -0.03312818 0.04769919 0.006848707
0.019375117 -0.044643242 0.0448746 0.026620245 0.013186492 0.03302098 0.012926243 -0.011990607
-0.054540493 -0.0007055268 -0.014901423 0.050302718 -0.00615146 -0.037023954 -0.010663687 -0.0056914613
0.08830225 0.05649395 -0.0046732672 -0.025938077 -0.052339572 0.05543428 0.0081781475 -0.021951556
-0.011481022 0.067193374 -0.007161177 0.06731732 0.022978023 -0.00183402 0.014013936 -0.017560653
-0.037633654 0.019233078 -0.011156646 -0.029926552 -0.036613174 -0.036985256 0.03348041 0.04892956
0.051916555 0.04288509 0.014271468 0.012233719 0.013200914 0.054950144 0.047481477 -0.0014934726
-0.05557027 -0.029044067 0.026471727 -0.009825451 0.04444468 0.027173508 -0.040168397 0.06048554
-0.045421477 -0.024073502 -0.039484866 0.026663443 -0.017871473 0.005706352 -0.017163916 -0.0360614
0.03954904 -0.039070908 0.049983792 -0.045854293 -0.057799228 -0.050259568 0.025547061 -0.0030987412
-0.011513092 0.0061503933 -0.07884754 -0.04973782 0.01066494 -0.07398313 -0.0440877 -0.0053229555
-0.03654066 -0.013289288 0.026935065 0.033358835 -0.013901152 -0.029158937 0.011289292 0.0412635
-0.02965676 0.063354634 0.020999163 -0.052532606 0.012128681 0.002741408 -0.03926658 -0.013995977
0.026683932 0.013096072 0.053829454 -0.019630715 0.060157597 0.02461442 0.05779293 0.00096157193
0.0011718568 -0.05394288 0.0318872 -0.0026932335 0.016748935 0.02450705 0.06144253 -0.044428967
-0.0023327973 -0.032622963 0.026039967 0.054902714 0.05227881 0.010123774 0.031154275 0.061191954
0.0452179 0.0021150222 -0.018329972 -0.016506866 0.036540337 -0.029296562 0.015489168 0.04733488
-0.0075308317 -0.07149532 -0.038238347 0.00052214507 -0.047903124 0.02599549 -0.04658079 -0.015228838
-0.0045440914 0.025399357 0.045850694 0.0587411 0.000103247294 -0.084793165 -0.048687227 -0.02274596
0.021568833 0.043604616 -0.054391704 -0.02181372 0.04023777 0.029013826 -0.022992961 -0.017152626
0.040455103 0.0011655664 -0.0025981832 0.012729168 -0.032889217 -0.06287302 0.040541846 0.011298525
-0.043003745 0.010371365 -0.020506747 0.05508118 -0.029657537 0.04448136 0.019463466 -0.012942127
0.01724533 0.041097812 -0.0042385184 -0.028568052 0.0005542483 -0.02980686 0.020518776 -0.03561966
0.03319396 -0.007927194 0.06690637 0.014451009 -0.05743085 0.00975322 0.01696893 -0.04053022
0.015182711 0.021886371 -0.0591951 -0.048911218 -0.0031722412 0.017220952 -0.029508263 -0.030440843
-0.009066738 0.013763517 -0.057630546 -0.026076585 0.029655764 0.02407783 -0.002971489 0.007931376
-0.059400834 -0.015973631 -0.0015585668 0.02885349 -0.05735193 0.003787732 -0.05825127 0.047013205
0.009612041 -0.019775694 -0.047240004 0.04627227 0.042771667 0.022343922 -0.035099126 -0.0004865229
-0.03353192 -0.039801836 -0.047630936 0.007936366 -0.018923905 0.032120325 -0.0034674623 -0.0042962898
-0.032352183 -0.04512007 -0.051043037 0.019121265 0.02332564 -0.0026746034 0.001866303 0.00067706365

heads.1.bias f4 [3]
00000000: e600 08be 9305 1bbe 9994 1dbe
-0.13281593 -0.15138845 -0.15388717

heads.2.weight f4 [3, 256]
00000000: 208f 73bb 2804 363c a050 64bd ca88 163d
00000010: 2159 ef3c 2869 153d 599e 1d3b 67c6 9cbc
00000020: 5b0b 3fbc a2e4 be3c 824c 23bd 7c2d c33c
00000030: 0a66 723d 7bef 813d 30c0 9c3c 0ae2 633d
00000040: 7427 08bd 13e5 afbc b4cf 88bd 8da7 353a
00000050: 82da 81bc 30fc b9bc 6ce9 4f3d bf16 95bd
00000060: c491 ba3c 2eed 1a3c 74df 973c c94c b6bc
00000070: 783c 00bc dae0 12bd b44e 6abd 0093 14bd
00000080: 6843 583d d74a 4d3c 38d6 10bb 8bb9 f7ba
00000090: 00e4 5c3b e236 0e3c fb5c 3f3d 80ea 51bb
000000a0: 00ca 773d 52d9 2fbb b45c 183d 6010 2fbc
000000b0: e9ad 683c 00ed b1ba 709e 443d c2e1 7f3d
000000c0: 0419 0cbd f87b 613c 1e82 38bd 45c4 27bc
000000d0: 6a9f 7dbd 76d6 ea3c d292 be3b 8840 2f3d
000000e0: 8e8f 73ba c48c 4abd 686b e03c 8c9c 7dbd
000000f0: d2f2 2a3d ca86 1e3d ca82 2ebb cfdf e73c
00000100: 5a6e 6c3d 5264 943c 40f4 ecba 0c21 cf3c
00000110: 040c 56bd eb74 e4bc 95af 0abb b3e6 ea3c
00000120: a65a 84bd 8fbf 893c 439e 7dbd d395 0d3d
00000130: d670 17bd db3b 5cbd 270a 2cbd a08b 9d3c
00000140: 8269 373b b7ca bbbc 9603 163c 5172 fd3c
00000150: e0b0 87bc b922 3d3b c9ac 213d 79e4 ef3c
00000160: 9907 0d3d 4100 31bc 88f5 c6bc e871 4dbd
00000170: c86a 463c e24c 913b 1f3a 0ebd 808a febb
00000180: 6a73 4cbd bbc7 6f3b 3d06 9fbd 1829 54bd
00000190: 1c0a 8bbc 72ed 10bd c7c1 bd3c 4e0d 363d
000001a0: 2843 2cbc 8a3b 4e3d 9dd9 eabc 6744 e63c
000001b0: 5b0d f23c 1f43 1fbd 4d80 d8bc 981e 323d
000001c0: e8c2 fabc 0660 3a3d 00be 70bd 508e 1cbd
000001d0: 1034 983b f1be 0f3b c253 3d3d 736c 24bd
000001e0: b84d 103c ed24 d6bc a0d6 373d d9e8 14bd
000001f0: 849b 463d 6827 8fb9 8de0 0f3d 3852 4fbd
00000200: 4375 863c ca4c 1a3d 3a6e 48bd 419c 063a
00000210: e06c 81bb d95f 97bc b481 4abd b301 aebc
00000220: f0e2 cebb 7063 993c fbe2 583d 63e0 533d
00000230: e33d 7d3c f8d0 fb3c 785c 713d 85fe 58bb
00000240: ea73 22bd 2ed6 0bbd 983c 6e3c 162a 1c3d
00000250: 8003 58bc fbba 0d3c 3ef6 4bbd 9017 12bd
00000260: 747d 223d 6010 b33c d4c6 2c3c 26ed 393d
00000270: 2617 15bd 6022 f33c 2a97 14bd e231 383d
00000280: 203f 6ebc d623 4abd 8088 c3bc 6cf2 44bd
00000290: 8eca cab8 f8ba d53c b08d a9bc 689e eebb
000002a0: 0125 353c e9f0 ed3c 5596 16bd 0b37 b9bb
000002b0: e041 c43c 0d4e 1e3d 9c5f f1bc 4988 993d
000002c0: 2257 02bd 2364 8bbc 7c1a 58bc a0ce ddbc
000002d0: 46b9 9ebc 486f 203c d6ee 1fbd 7ef5 20bd
000002e0: 9843 693c be03 063d 2093 943b 98e3 9c3c
000002f0: 7e2d 2b3d 2fb9 2abb fa00 89bc f368 2b3c
00000300: 18b7 13bc 8fc4 373d 0382 febc 5876 893c
00000310: 73c8 d63b 0e89 06bd c296 3ebd aee3 c53c
00000320: 88aa 0c3d fecb 273d be6e 98bc d08a babc
00000330: 9c66 19bd 72ce 153d badf 18bd ac31 f5bc
00000340: 4331 6abc aad8 38bd 2059 593c 7bd8 923c
00000350: 8ce9 8b3c 8ae1 2c3d 8704 56bd 11d4 8fbb
00000360: 6cfa 7a3d 4c04 803c 3a1c c5bb 998e 763d
00000370: b2a2 3bbc 56eb 943c ae60 723d fe41 9cbc
00000380: 17b6 303c 6bdb 033c 948e b73c 9176 5e3c
00000390: 270e 8abd 6834 cc3c 8e74 153d c473 1abc
000003a0: c2e4 953a 5f8b 4e3d 1640 30bd f02c 9dbb
000003b0: 70a7 f63c 3268 0cbd b353 a03c c6d5 22bd
000003c0: 69ef 3dbc 39b6 86bc 10d9 c93c 501e ea3c
000003d0: 53ba 84bc a420 73bd 864a 643d c005 ff3c
000003e0: 2d7e 443c eebc 44bd 0547 53bd e774 bfbb
000003f0: 6898 d5bc d1dd 39bd cf98 123d 31b0 3e3b
-0.0037164167 0.011109389 -0.055740952 0.036751546 0.029217305 0.036477238 0.0024050681 -0.019137574
-0.011660422 0.02330238 -0.039867885 0.0238254 0.059179343 0.063445054 0.01913461 0.05563549
-0.03324075 -0.021471536 -0.06680241 0.0006929569 -0.015851263 -0.02270326 0.050759718 -0.07279729
0.022774585 0.009455962 0.018539168 -0.02225341 -0.007826917 -0.035858966 -0.057203963 -0.036273003
0.05279866 0.01253005 -0.002210034 -0.0018899901 0.0033705235 0.008680077 0.046719532 -0.0032030642
0.060495377 -0.0026832414 0.037197784 -0.010685056 0.01420162 -0.001357466 0.04800266 0.06247116
-0.034203544 0.013762467 -0.045045964 -0.010239665 -0.061919607 0.028666716 0.005815842 0.04278615
-0.00092911057 -0.04945065 0.027394965 -0.061916873 0.041735478 0.038702764 -0.002662825 0.028304962
0.057722427 0.018114243 -0.0018078163 0.025284313 -0.052257553 -0.027887782 -0.0021161784 0.02867446
-0.06462602 0.016814975 -0.06191851 0.03456671 -0.036972843 -0.05376802 -0.04200187 0.019231617
0.0027986472 -0.02292381 0.009156128 0.0309383 -0.016563833 0.0028859808 0.03947142 0.029283749
0.034431074 -0.010803283 -0.024287 -0.050157458 0.01211042 0.004434214 -0.034723397 -0.0077679753
-0.049914755 0.0036587554 -0.07764862 -0.051797003 -0.016972594 -0.035382695 0.02316369 0.044446282
-0.010514058 0.05034975 -0.02866822 0.028108789 0.029547384 -0.03888237 -0.026428366 0.043486208
-0.030610517 0.04550173 -0.058774948 -0.038221657 0.004644878 0.0021933878 0.046222456 -0.040142488
0.008807592 -0.026140654 0.044882417 -0.036354873 0.048488155 -0.00027304445 0.035126258 -0.05061552
0.016413337 0.037670888 -0.048933245 0.0005134978 -0.0039497465 -0.01847832 -0.0494401 -0.021241045
-0.006313674 0.018724173 0.05295084 0.051727664 0.0154566495 0.030739293 0.058926076 -0.003311069
-0.039661326 -0.034139805 0.014540814 0.038126074 -0.013184428 0.008650537 -0.04979538 -0.035667002
0.039670423 0.021858394 0.010545451 0.045392178 -0.03639903 0.029679477 -0.036276974 0.044969447
-0.014541417 -0.049350582 -0.0238688 -0.048082754 -9.669839e-05 0.02609013 -0.020697445 -0.007282067
0.011056186 0.029045539 -0.03676446 -0.0056523136 0.023957193 0.038648654 -0.029464535 0.074966975
-0.031821378 -0.017015522 -0.013189908 -0.027076066 -0.019375455 0.0097921565 -0.03904613 -0.03929662
0.014237307 0.032718413 0.00453414 0.019151494 0.04179143 -0.002605032 -0.016724098 0.010462034
-0.009015821 0.044865187 -0.031067854 0.016780064 0.006554657 -0.03284555 -0.046530493 0.024156418
0.03434232 0.040966026 -0.018607493 -0.02277127 -0.03745137 0.036573835 -0.037322737 -0.029930912
-0.0142939715 -0.045128502 0.013265878 0.017925492 0.017079137 0.04220728 -0.05225041 -0.004389294
0.061273977 0.015627049 -0.0060153278 0.060194585 -0.011452364 0.018178623 0.059174232 -0.019074436
0.010785601 0.008047919 0.022406854 0.013578073 -0.067409806 0.024927333 0.03648811 -0.009427015
0.0011435973 0.050425883 -0.043029867 -0.0047966167 0.030109137 -0.034279056 0.01957116 -0.03975465
-0.011592724 -0.016444312 0.024639636 0.028578907 -0.016202128 -0.0593573 0.055735134 0.031130672
0.011992973 -0.04803174 -0.0515814 -0.0058427933 -0.02607365 -0.045377556 0.03579026 0.0029096717

heads.2.bias f4 [3]
00000000: 8c24 1dbe b206 2abe c06d 1fbe
-0.15345973 -0.16604117 -0.1556921
