results/multihead/models/multihead_checkpoint_380.pt (torch, 301765 bytes, 18 tensors)

trunk.0.weight f4 [256, 11]
0.11505159 0.09595449 -0.07063581 0.08250206 -0.047853585 0.087650925 -0.31147307 -0.08763747
0.22722574 -0.5272428 0.2138779 0.12198187 0.12642854 0.04083386 0.08098424 -0.03706792
0.25874284 -0.013602937 -0.28794694 -0.3803802 -0.644903 0.15003179 -0.3127484 0.0384
-0.23800406 -0.30095682 -0.2503743 -0.67681944 0.02657365 0.08088206 -0.08853141 -0.939426
0.32098547 0.050177276 -0.097902104 0.18631893 0.046990782 0.24361014 0.03296113 -0.095088586
0.081011176 -0.081763685 0.12689331 0.26919603 0.17429152 -0.13181248 0.17405185 0.053948283
0.15311801 -0.18377268 -0.29846862 -0.11649208 -0.23126608 0.24740177 0.08684471 0.057132483
-0.025668109 -0.0052450895 0.11020392 -0.38450328 0.06483802 -0.48981032 -0.34179792 -0.12134599
-0.26300338 0.051149193 0.25007105 -0.17870635 -0.17982076 -0.17983162 0.2711922 0.10047901
0.29012948 -0.24883015 -0.2990619 -0.23589155 -0.2028234 0.07641681 -0.020198736 0.2505331
-0.32357144 -0.6477073 -0.17765433 -0.5775525 0.08521456 0.41282398 0.7056206 -0.7414041
-0.1329395 -0.027669866 0.06374177 -0.1667986 0.083334655 0.13331424 -0.392479 -0.0460998
1.000645 0.06272886 -0.4375745 -0.29174075 -0.17266656 0.075318635 -0.039797425 -0.21886286
0.0070724487 -0.20595682 -0.25580123 -0.16603103 -0.26388636 -0.19198376 0.1422721 0.090097256
0.09291366 -0.40324208 -0.597303 -0.36445117 0.11743596 -0.1831866 -0.44615084 0.45866406
-0.19282785 -0.112193346 -0.020893455 -0.20431304 -0.20695594 -0.17590226 -0.10320656 -0.23797715
0.25280815 -0.05983916 0.25941938 0.09394553 -0.28442413 0.13379672 -0.08295928 -0.24015345
-0.31697133 -0.4600907 0.00734519 -0.36742696 -0.07810794 -0.20780237 0.16521677 -0.5285088
0.0060807257 0.06297657 0.32439247 -0.54521006 -0.27619463 0.098951094 -0.40389523 -0.72461957
-0.18823345 -0.30153877 0.27463424 -0.2212944 0.16114312 0.10596302 0.09797791 -0.16301097
0.27405918 0.06625724 0.03878644 -0.26570833 0.126571 -0.04523292 -0.13812967 0.25898212
0.06722158 -0.16681913 -0.15260662 -0.014398903 0.16835228 -0.07704635 -0.1720348 -0.103250414
-0.11326798 0.056835122 0.23338193 -0.28348708 0.11034312 -0.0023433256 0.08281658 0.48929328
0.62207067 0.17135072 -0.09609851 -0.052982002 -0.079840586 0.032255948 -0.053263217 -0.089850694
0.19272813 0.25911874 -0.029848814 -0.067507446 0.0043997467 -0.018002719 0.14394799 0.07694239
-0.27384973 -0.22409388 -0.10934376 -0.1770245 -0.27401382 -0.9366977 -0.68477356 -0.07860208
-0.019628925 0.03828947 0.012417408 0.13920698 -0.39723045 -0.3241027 -0.28293395 0.34197584
0.35351515 -0.34436902 0.091963045 -0.5383577 -0.23350242 0.0043632872 -0.13709775 -0.2780521
-0.309126 0.020078659 0.17383175 -0.06404339 -0.76625854 -0.6758955 -0.31446382 0.17490211
-0.02679864 0.25372314 -0.049209233 -0.40486953 -0.10707265 -0.66322845 -1.0373663 -0.37862104
-0.07825002 -0.11922515 -0.060679942 -0.17352137 -0.054942474 -0.2122142 -0.19701225 0.10001457
-0.08960809 0.18613598 -0.09672749 -0.22117884 -0.053198338 -0.14615685 -0.09224486 -0.2870375
00000000: 2ba0 eb3d ca83 c43d 82a9 90bd d7f6 a83d
00000010: 1f02 44bd 5482 b33d 6679 9fbe 467b b3bd
00000020: ddad 683e 62f9 06bf cf02 5b3e a1d1 f93d
00000030: 7c76 013e 6841 273d 11db a53d 88d4 17bd
00000040: f179 843e dade 5ebc c86d 93be 32c1 c2be
00000050: 5d18 25bf efa1 193e 8f20 a0be 5249 1d3d
00000060: 56b7 73be 0317 9abe 0f31 80be 0a44 2dbf
00000070: fcb0 d93c 7ea5 a53d f54f b5bd 397e 70bf
00000080: 3558 a43e b086 4d3d e680 c8bd 64ca 3e3e
00000090: 6879 403d f074 793e 4002 073d cebd c2bd
000000a0: 30e9 a53d b873 a7bd 52f0 013e 10d4 893e
000000b0: 7a79 323e daf9 06be a63a 323e e0f8 5c3d
000000c0: f8ca 1c3e e82e 3cbe e1d0 98be 6693 eebd
000000d0: 04d1 6cbe e456 7d3e a4db b13d c003 6a3d
000000e0: ed45 d2bc 00df abbb 98b2 e13d 9ddd c4be
000000f0: ccc9 843d 6bc8 fabe 2300 afbe 3f84 f8bd
00000100: 61a8 86be d181 513d 5009 803e ccfe 36be
00000110: ef22 38be c825 38be b4d9 8a3e f0c7 cd3d
00000120: da8b 943e 55cd 7ebe a41e 99be 8e8d 71be
00000130: f0b0 4fbe 6b80 9c3d d277 a5bc e045 803e
00000140: 28ab a5be 25d0 25bf 04eb 35be 7bda 13bf
00000150: f984 ae3d aa5d d33e 8da3 343f a9cc 3dbf
00000160: 4b21 08be eaab e2bc 0c8b 823d 41cd 2abe
00000170: 5cab aa3d 8783 083e 02f3 c8be 25d3 3cbd
00000180: 2315 803f fd77 803d c409 e0be 0b5f 95be
00000190: 81cf 30be a840 9a3d a002 23bd 961d 60be
000001a0: 00c0 e73b 58e6 52be 61f8 82be 0a04 2abe
000001b0: 1d1c 87be 6497 44be c7af 113e e984 b83d
000001c0: 8449 be3d bf75 cebe d9e8 18bf 5899 babe
000001d0: 4482 f03d 4595 3bbe e26d e4be 04d6 ea3e
000001e0: aa74 45be a0c5 e5bd c028 abbc 7037 51be
000001f0: 42ec 53be b91f 34be f65d d3bd 48b0 73be
00000200: 1270 813e e819 75bd 9ed2 843e 8466 c03d
00000210: 0aa0 91be 0202 093e 8ee6 a9bd c9ea 75be
00000220: 114a a2be 0291 ebbe ebaf f03b 631f bcbe
00000230: 0ef7 9fbd 25ca 54be 962e 293e 5a4c 07bf
00000240: d340 c73b dcf9 803d c516 a63e e392 0bbf
00000250: 6269 8dbe dfa6 ca3d 5bcb cebe ab80 39bf
00000260: 45c0 40be 4a63 9abe dc9c 8c3e 009b 62be
00000270: b402 253e 2403 d93d a4a8 c83d 59ec 26be
00000280: 7c51 8c3e e0b1 873d 88de 1e3d ec0a 88be
00000290: d49b 013e 2846 39bd dd71 0dbe 4e99 843e
000002a0: 78ab 893d a2d2 2abe e944 1cbe 60e9 6bbc
000002b0: 8a64 2c3e 7aca 9dbd e429 30be f474 d3bd
000002c0: 0bf9 e7bd f2cb 683d acfb 6e3e 3825 91be
000002d0: 93fb e13d 7b92 19bb bd9b a93d a684 fa3e
000002e0: 0640 1f3f 9076 2f3e 4ccf c4bd a803 59bd
000002f0: 7683 a3bd d01e 043d 882a 5abd a403 b8bd
00000300: 865a 453e 36ab 843e 8085 f4bc 5841 8abd
00000310: c02b 903b 707a 93bc 1a67 133e f993 9d3d
00000320: 0836 8cbe de78 65be 9fef dfbd e945 35be
00000330: 8a4b 8cbe 6ccb 6fbf 524d 2fbf 21fa a0bd
00000340: d7cc a0bc 6bd5 1c3d 6272 4b3c 468c 0e3e
00000350: ca61 cbbe caf0 a5be b8dc 90be 7517 af3e
00000360: f0ff b43e 2351 b0be 1f57 bc3d cfd1 09bf
00000370: 421b 6fbe e8f9 8e3b 5a63 0cbe d85c 8ebe
00000380: c345 9ebe 007c a43c f300 323e 2e29 83bd
00000390: 8529 44bf 7d07 2dbf 6701 a1be 8a19 333e
000003a0: d288 dbbc 00e8 813e 9f8f 49bd 0f4b cfbe
000003b0: e848 dbbd 57c9 29bf 6bc8 84bf 9eda c1be
000003c0: 8c41 a0bd 512c f4bd 888b 78bd 96af 31be
000003d0: 5c0b 61bd ae4e 59be 94bd 49be 70d4 cc3d
000003e0: 7284 b7bd 6e9a 3e3e 1019 c6bd b57c 62be
000003f0: 80e6 59bd 24aa 15be e0ea bcbd 94f6 92be

trunk.0.bias f4 [256]
0.017053196 -0.22158258 -0.29614696 0.23150271 0.11780012 -0.29706934 0.0913122 -0.015049281
-0.35770306 0.05632451 -0.05313175 -0.011743009 0.1645197 -0.030555261 0.1634543 -0.1601678
-0.25774762 0.20548558 -0.25746125 -0.116527244 -0.05903728 -0.4588107 -0.25809038 0.10265285
-0.033902317 -0.031904697 0.22049162 0.10595128 -0.028282428 -0.19223517 0.07562477 0.13810444
-0.06483815 0.13899729 -0.2590668 0.06497085 -0.30836096 -0.030617744 0.09878507 -0.035245102
-0.05901331 -0.2333556 -0.18869561 0.0052645504 -0.052219138 -0.4013991 0.2970388 -0.12115072
-0.3972803 0.13223866 0.14547 -0.32633722 0.0048141936 -0.39565068 0.10446802 0.28640717
0.19903696 0.14885283 -0.061342865 0.052506346 0.062922 0.027743114 -0.14795265 -0.25791615
-0.12212147 -0.33764568 -0.27824563 -0.2844189 -0.35856295 0.28821176 -0.07717663 -0.36849627
-0.15412325 0.07042685 -0.09024423 -0.26259744 -0.009761391 -0.12395396 -0.1886558 -0.052501895
0.054512687 0.16776109 5.0850707e-05 -0.1968388 -0.13463077 0.0010288656 -0.19966513 0.020822942
-0.03637746 -0.4602103 -0.45225686 0.14530328 0.2179499 0.08887779 -0.40069178 -0.08590202
0.011365354 -0.3416285 -0.18848945 0.06661414 -0.29535306 0.21955562 0.10533583 -0.10244977
0.19856799 -0.023802958 0.06672045 -0.04704801 -0.20506227 -0.15988587 -0.05523731 0.08992184
-0.0153334 0.08508949 -0.30209482 -0.03825718 -0.3001984 0.12122009 -0.21313469 -0.25536627
0.1848497 0.03027229 -0.26176974 -0.24257074 -0.20734152 0.036889233 -0.28786772 0.26054478
0.20009415 -0.16606985 -0.17041267 0.234492 0.12673992 0.28508234 0.20732695 -0.20483616
0.124673806 -0.087817945 -0.21407677 -0.101162426 -0.251221 -0.3179725 0.0056250095 -0.14503469
-0.15235607 -0.1977334 0.05207992 0.007171476 -0.17018312 -0.5236638 -0.015547186 -0.3964332
-0.34909353 -0.19280678 0.18944103 -0.4093413 -0.048116177 -0.19448166 -0.364601 -0.23172593
-0.017563343 -0.050696373 0.08350266 0.08988867 0.1877194 0.118098736 0.031633824 0.17325482
-0.19234905 0.09708254 -0.055957608 -0.24461183 0.30176425 -0.37532973 -0.4301706 -0.11225929
0.053987205 -0.23334873 0.037273865 -0.4999561 -0.28594378 0.14423645 -0.29342243 -0.0035393415
0.21739702 0.19429617 -0.11939814 -0.2746469 -0.23524368 -0.106028974 0.09132594 0.23101574
-0.2500345 -0.22785063 -0.3667319 -0.1827548 0.0103842635 0.10753899 0.01507929 -0.28098407
0.074596226 0.2758962 0.18700626 -0.023432702 -0.22652669 -0.18079662 0.20473051 -0.20010553
-0.09632129 -0.038630545 0.09713913 -0.12383496 -0.39530998 -0.28462094 0.25993982 -0.2381826
0.15232404 -0.21729986 0.23868865 -0.064542696 -0.10162856 0.06116295 -0.108035535 -0.12116219
-0.043144852 -0.14004382 -0.28907266 0.07961124 -0.2922195 0.08931714 0.2796408 0.04877937
-0.070450634 -0.2761545 0.14159048 0.4086715 0.12346022 0.023394017 0.100240946 0.3091434
0.43770638 -0.14275877 -0.2862634 0.13182405 -0.1193737 0.03181643 -0.15350103 -0.06892209
-0.09975633 -0.11637907 0.030334247 -0.2763888 0.22225523 0.13605072 0.10399754 0.13833232
00000000: 25b3 8b3c 8be6 62be 93a0 97be 0c0f 6d3e
00000010: 3041 f13d 7919 98be e401 bb3d 4291 76bc
00000020: db24 b7be 88b4 663d aea0 59bd c065 40bc
00000030: da77 283e 074f fabc 9060 273e 0703 24be
00000040: 7ff7 83be d06a 523e f6d1 83be d6a5 eebd
00000050: 13d1 71bd 3ce9 eabe 6c24 84be a83b d23d
00000060: 28dd 0abd 80ae 02bd 8ec8 613e fcfc d83d
00000070: 8db0 e7bc 4cd9 44be 29e1 9a3d 406b 0d3e
00000080: ddc9 84bd 4e55 0e3e 67a4 84be 700f 853d
00000090: 7de1 9dbe 10d2 fabc d44f ca3d 2b5d 10bd
000000a0: f1b7 71bd c5f4 6ebe 6c39 41be 4082 ac3b
000000b0: bce3 55bd 2f84 cdbe 7815 983e de1d f8bd
000000c0: 5368 cbbe 9269 073e 16f6 143e ac15 a7be
000000d0: 62c0 9d3b ba92 cabe 54f3 d53d f6a3 923e
000000e0: 58d0 4b3e e06c 183e a842 7bbd e510 573d
000000f0: 40dd 803d 8745 e33c e680 17be 960d 84be
00000100: d21a fabd e5df acbe 3676 8ebe 5b9f 91be
00000110: 9095 b7be 7e90 933e c80e 9ebd 8bab bcbe
00000120: 7cd2 1dbe f43b 903d f8d1 b8bd 2c73 86be
00000130: 3eee 1fbc 93db fdbd fc2e 41be 3a0c 57bd
00000140: b248 5f3d 90c9 2b3e 8848 5538 1c90 49be
00000150: a6dc 09be 00db 863a 0475 4cbe e094 aa3c
00000160: 8800 15bd afa0 ebbe 368e e7be 62ca 143e
00000170: 422e 5f3e 8f05 b63d 7927 cdbe 66ed afbd
00000180: c035 3a3c eee9 aebe 6103 41be ff6c 883d
00000190: 8438 97be 30d3 603e 50ba d73d 2fd1 d1bd
000001a0: 6855 4b3e 6cfe c2bc bba4 883d 6ab5 40bd
000001b0: d8fb 51be 1fb9 23be 8440 62bd f128 b83d
000001c0: f138 7bbc 6643 ae3d 2cac 9abe 90b3 1cbd
000001d0: 9bb3 99be 3d42 f83d fb3f 5abe 5ebf 82be
000001e0: 3d49 3d3e 98fd f73c af06 86be 7764 78be
000001f0: 5651 54be 2a19 173d 6663 93be 2066 853e
00000200: 7be5 4c3e 370e 2abe a980 2ebe ac1e 703e
00000210: 1cc8 013e 50f6 913e 844d 543e 92c0 51be
00000220: fb54 ff3d e5d9 b3bd f136 5bbe 3f2e cfbd
00000230: 0aa0 80be 4bcd a2be 0052 b83b f983 14be
00000240: 3b03 1cbe a07a 4abe c151 553d b3fe ea3b
00000250: 7c44 2ebe d50e 06bf a0b9 7ebc 4bf9 cabe
00000260: 63bc b2be 246f 45be d4fc 413e 2f95 d1be
00000270: 7815 45bd 3326 47be fbac babe 9049 6dbe
00000280: 00e1 8fbc 00a7 4fbd 7103 ab3d 8d17 b83d
00000290: 8439 403e c0dd f13d 7892 013d b669 313e
000002a0: 26f7 44be 36d3 c63d ce33 65bd 867b 7abe
000002b0: d880 9a3e 382b c0be 523f dcbe 33e8 e5bd
000002c0: b021 5d3d f8f2 6ebe 7bac 183d 3ffa ffbe
000002d0: 3967 92be b8b2 133e 773b 96be 4cf4 67bb
000002e0: 539d 5e3e 93f5 463e 0387 f4bd 859e 8cbe
000002f0: b8e3 70be b825 d9bd 1809 bb3d 648f 6c3e
00000300: 8604 80be ad51 69be 49c4 bbbe 1324 3bbe
00000310: c222 2a3c 673d dc3d 200f 773c 25dd 8fbe
00000320: e8c5 983d 4442 8d3e 927e 3f3e f0f5 bfbc
00000330: 9df6 67be c022 39be e0a4 513e 77e8 4cbe
00000340: 1944 c5bd 103b 1ebd e1f0 c63d 2f9d fdbd
00000350: 1266 cabe d6b9 91be d516 853e 24e6 73be
00000360: d5fa 1b3e db83 5ebe cc6a 743e f62e 84bd
00000370: a222 d0bd 0086 7a3d bc41 ddbd e223 f8bd
00000380: a8b8 30bd a667 0fbe 5501 94be 380b a33d
00000390: cb9d 95be e8eb b63d 142d 8f3e e0cc 473d
000003a0: 6c48 90bd 1f64 8dbe 18fd 103e 643d d13e
000003b0: b6d8 fc3d cfa4 bf3c 204b cd3d 0b48 9e3e
000003c0: 0d1b e03e 5b2f 12be 1e91 92be e2fc 063e
000003d0: 337a f4bd f251 023d 602f 1dbe 0627 8dbd
000003e0: 0c4d ccbd 2658 eebd 877f f83c d582 8dbe
000003f0: e096 633e e150 0b3e aafc d43d fda6 0d3e

trunk.2.weight f4 [256, 256]
-0.04401022 -0.022296676 0.015016465 -0.061194576 -0.0064729974 0.030494973 -0.0072716773 -0.0307758
-0.024471836 0.011405453 -0.049203727 -0.048467755 -0.060965404 -0.03671686 0.022508927 0.055579595
-0.02619923 0.022377633 0.0041954126 -0.055773787 -0.04792261 0.0732146 0.04474926 0.014809929
-0.076267645 0.03547415 -0.07923373 0.031238899 -0.018876247 0.020188421 -0.060921744 -0.021973453
-0.0016665355 0.020251222 -0.017893158 0.05573436 -0.040844586 -0.037696652 -0.027065217 0.0038891882
-0.038684536 0.030250244 -0.034588866 -0.01777941 -0.061938316 0.023927111 -0.011760183 -0.0734919
0.028738573 -0.00011408329 -0.0102211805 -0.0068600625 0.011977024 -0.021563984 -0.01870691 -0.014841862
0.011158124 0.05007627 -0.0028758422 0.020487087 0.02202277 -0.0605059 -0.031790562 -0.029503688
0.025998376 -0.021973066 0.019065619 -0.02377541 -0.06870109 -0.042018384 -0.08935641 -0.062482078
0.017459646 0.003807865 0.047006376 -0.082689606 -0.028601365 -0.08383947 -0.027977524 0.022771038
-0.05606521 0.05519703 -0.019411936 0.02716163 -0.010490693 0.03545718 0.056817286 -0.05042872
-0.0151929185 0.03278309 -0.053508185 0.0369955 -0.06449014 0.030580904 -0.06888997 -0.025719464
0.04663659 -0.054954395 0.053571954 0.01559436 0.02971128 -0.060580127 0.0007004887 -0.04814595
0.014887728 -0.07504046 -0.0015258621 -0.031100221 -0.05748881 -0.056225225 0.03269176 -0.05011523
0.014352371 -0.016796906 -0.008739409 -0.0094790235 -0.0404234 -0.048213188 -0.08195438 0.03929352
-0.062881224 0.008627952 -0.04961587 0.011437906 0.053563885 -0.06617241 0.024105208 0.0015232787
-0.071928695 -0.006249994 0.007231287 0.05509448 -0.08758095 0.056435145 0.019952841 0.03405518
0.0071270335 -0.030382067 0.04741323 0.029141411 -0.051555507 -0.037675142 0.048908263 0.022877738
0.013674184 0.047883265 -0.0556972 -0.038774636 -0.024969302 0.009657324 0.015575774 -0.076907255
-0.03531662 -0.08273151 -0.0588198 0.028966777 -0.031438813 0.005732315 -0.041548323 -0.04062168
-4.0367246e-05 0.048745476 -0.032033414 0.051716603 0.036569238 0.042875543 -0.05668377 -0.05708486
-0.05092027 -0.04192657 -0.041041017 -0.014849277 0.029725228 -4.16722e-05 -0.061013103 -0.06654748
0.047194093 -0.021444412 0.01765655 -0.064455256 -0.036036823 -0.010049098 -0.041014083 0.04079134
0.031146504 -0.036448263 -0.053471528 -0.014693812 0.009726636 -0.022926249 0.08986512 -0.06020058
-0.06261504 -0.065767765 -0.010351089 0.008869186 -0.04557491 0.025712017 -0.08158934 0.022028133
-0.034390725 -0.014231786 -0.060187526 -0.07260032 -0.053028077 0.02726712 -0.023469158 0.0053169383
-0.0615226 -0.015485287 0.0075654387 0.024730919 -0.04098096 0.036232613 -0.009632141 0.03801266
0.013551875 -0.0019059317 -0.018846706 -0.017541654 0.024331331 0.034065157 -0.003335841 0.031329714
-0.037601195 0.007742405 -0.035220556 -0.07097781 -0.030367754 -0.07570921 0.012607336 -0.037066296
-0.017897718 -0.0039159358 -0.038135044 -0.02517431 -0.03969772 0.019796379 0.045150474 -0.06520623
0.007756671 -0.0013241768 -0.03572218 -0.028344616 -0.011508198 -0.014886254 -0.0020187646 -0.031115346
0.03151848 -0.018738223 -0.08852204 -0.011045419 -0.01695703 -0.026669346 -0.003050145 -0.07632521
00000000: 0f44 34bd 85a7 b6bc 9f07 763c 2aa7 7abd
00000010: 701b d4bb 98d0 f93c 4047 eebb 881d fcbc
00000020: 2979 c8bc f0dd 3a3c d989 49bd 2086 46bd
00000030: dcb6 79bd 6b64 16bd a464 b83c 6ea7 633d
00000040: c59f d6bc 4c51 b73c ac79 893b 0e73 64bd
00000050: 804a 44bd 89f1 953d 004b 373d 58a5 723c
00000060: 3632 9cbd 584d 113d 4b45 a2bd b8e8 ff3c
00000070: 5ca2 9abc 3062 a53c 1489 79bd ac01 b4bc
00000080: a76f daba e4e5 a53c ac94 92bc b649 643d
00000090: a74c 27bd ce67 1abd e0b7 ddbc c0e1 7e3b
000000a0: ad73 1ebd 5ccf f73c 0ead 0dbd 20a6 91bc
000000b0: 08b3 7dbd ca02 c43c c8ad 40bc ec82 96bd
000000c0: 286d eb3c 0040 efb8 bd76 27bc 60ca e0bb
000000d0: 483b 443c f4a6 b0bc 3c3f 99bc 482b 73bc
000000e0: 90d0 363c c61c 4d3d a078 3cbb 89d4 a73c
000000f0: 1969 b43c 09d5 77bd d236 02bd b8b1 f1bc
00000100: 8cfa d43c dc00 b4bc 802f 9c3c a6c4 c2bc
00000110: 28b3 8cbd 781b 2cbd 7e00 b7bd 35ed 7fbd
00000120: 8807 8f3c 608d 793b c289 403d 2b59 a9bd
00000130: 694d eabc 07b4 abbd 1f31 e5bc 548a ba3c
00000140: a2a4 65bd 4816 623d c805 9fbc 1182 de3c
00000150: 28e1 2bbc 8c3b 113d 3eb9 683d 588e 4ebd
00000160: b8eb 78bc 9047 063d 662b 5bbd 9888 173d
00000170: 6813 84bd ce84 fa3c 2f16 8dbd a0b1 d2bc
00000180: 0206 3f3d dc17 61bd 446e 5b3d 7d7f 7f3c
00000190: 1265 f33c de22 78bd 00a1 373a b034 45bd
000001a0: a8eb 733c d0ae 99bd 70ff c7ba e4c5 febc
000001b0: 6379 6bbd 6c4c 66bd cce7 053d a145 4dbd
000001c0: 3526 6b3c aa99 89bc bd2f 0fbc e84d 1bbc
000001d0: 0293 25bd 317b 45bd b3d7 a7bd 3ef2 203d
000001e0: dfc7 80bd 415c 0d3c 033a 4bbd 0e66 3b3c
000001f0: ce65 5b3d 6785 87bd 4978 c53c c0a8 c73a
00000200: 5a4f 93bd c0cc ccbb 6ff4 ec3b c0aa 613d
00000210: a45d b3bd 8a28 673d 2474 a33c 727d 0b3d
00000220: e489 e93b d0e3 f8bc 6034 423d f8b9 ee3c
00000230: de2b 53bd 4051 1abd 0854 483d 186a bb3c
00000240: af09 603c 3e21 443d bf22 64bd 27d2 1ebd
00000250: 6c8c ccbc c139 1e3c 8831 7f3c 8d81 9dbd
00000260: 29a8 10bd 236f a9bd 08ed 70bd bc4b ed3c
00000270: fcc5 00bd 25d6 bb3b 932e 2abd eb62 26bd
00000280: 0050 29b8 56a9 473d 7835 03bd cad4 533d
00000290: a0c9 153d 449e 2f3d 3e2d 68bd d0d1 69bd
000002a0: c691 50bd 32bb 2bbd a01a 28bd 624a 73bc
000002b0: 5282 f33c 2fc9 2eb8 e0e8 79bd 0c4a 88bd
000002c0: 984e 413d 31ac afbc 78a4 903c 1e01 84bd
000002d0: 599b 13bd f9a4 24bc 62fe 27bd d214 273d
000002e0: f426 ff3c c64a 15bd f604 5bbd 50be 70bc
000002f0: 785c 1f3c d4cf bbbc 340b b83d e294 76bd
00000300: 503c 80bd 40b1 86bd 9d97 29bc 1050 113c
00000310: c2ac 3abd 02a2 d23c 5018 a7bd 5874 b43c
00000320: 4add 0cbd 702c 69bc 3287 76bd 7aaf 94bd
00000330: f833 59bd 4c5f df3c 6442 c0bc b639 ae3b
00000340: 1fff 7bbd 00b6 7dbc 80e7 f73b 7f98 ca3c
00000350: a7db 27bd a668 143d 21d0 1dbc 2ab3 1b3d
00000360: af08 5e3c 75d0 f9ba 6864 9abc 84b3 8fbc
00000370: 8052 c73c e887 0b3d 209e 5abb 9653 003d
00000380: b603 1abd 00b4 fd3b 6e43 10bd d05c 91bd
00000390: ccc5 f8bc 6e0d 9bbd 008f 4e3c d4d2 17bd
000003a0: 3c9e 92bc 4051 80bb 7e33 1cbd 5b3a cebc
000003b0: 149a 22bd 042c a23c b4ef 383d d88a 85bd
000003c0: ac2b fe3b 0090 adba 6c51 12bd f832 e8bc
000003d0: e28c 3cbc 7ae5 73bc 404d 04bb 9ce5 febc
000003e0: 8619 013d e780 99bc 0b4b b5bd d8f7 34bc
000003f0: 78e9 8abc ac79 dabc f1e4 47bb 6450 9cbd

trunk.2.bias f4 [256]
-0.06389095 -0.07269306 0.0106730675 -0.03568438 -0.01085226 0.057342403 0.020276155 0.044786602
-0.047375016 -0.03173641 -0.0048955404 0.0011573657 0.028398382 0.024478955 -0.06093827 0.054875787
0.031253397 -0.06780138 -0.08361307 0.022043388 -0.03368205 -0.07823583 0.026123121 0.01616086
0.030173868 -0.054151945 0.021254756 -0.029273165 -0.068836264 0.01915524 -0.08252025 -0.084069714
-0.04313425 -0.00316485 -0.065308996 -0.015548949 -0.087030925 0.035275586 -0.01170008 -0.018112266
0.005978479 0.05889351 0.04461816 0.007918578 0.009762126 -0.037608422 0.037160367 -0.012388147
0.020714363 0.02544493 -0.076290645 -0.041877575 -0.072042406 -0.036350563 -0.051404845 -0.07521321
-0.049166262 0.018121313 -0.07728823 -0.012534544 0.045478113 0.020960752 -0.08089084 0.033666093
-0.02260289 0.014268952 0.0072909854 0.049928233 -0.06376428 0.01253562 -0.00838782 0.0036551557
-0.011565226 -0.034467425 -0.06315164 -0.07299801 0.011151187 0.0066806115 -0.05587582 0.016704805
-0.043842044 -0.047473192 -0.05096939 0.011263086 -0.016921788 -0.016724847 0.048813287 -0.060930558
-0.009018124 -0.024259489 0.038951002 0.021720106 0.051096335 -0.0086221285 0.005382108 -0.022701927
-0.06728367 -0.09671751 -0.005852108 -0.052433 -0.036171548 -0.009890771 -0.06152351 0.009236065
0.03799254 -0.0039108694 0.010906256 0.033546988 -0.00507581 -0.06908652 0.01826053 -0.0629968
-0.0736497 -0.08957853 -0.033752978 -0.009038077 -0.024340972 -0.0009501423 0.0027465 -0.059666757
0.023939202 -0.05111053 0.007357353 0.043258224 -0.003980458 -0.008057908 -0.06431787 -0.005247581
-0.013728609 0.016052812 -0.016540604 0.030518029 -0.04123216 -0.015697593 -0.06878114 0.043562643
-0.14215851 -0.0724255 0.010648066 -0.062261425 -0.028705437 0.029688623 -0.00013178338 0.011621882
-0.02376463 -0.024765527 -0.04762763 0.013808265 0.0039404463 -0.1320977 -0.027363498 0.08951926
-0.03832626 -0.0024317263 0.036891438 0.03272547 -0.041853815 -0.007592403 0.044128984 0.05729735
0.022861771 -0.037492663 0.037769623 -0.02689244 0.04479869 -0.06013694 0.028080357 0.02169749
-0.0124413865 -0.06586821 -0.06293229 -0.036591485 -0.032914862 -0.009490261 -0.053917557 -0.009705766
0.011504234 0.0049179196 -0.021075241 0.038254388 -0.0031741718 -0.044030152 0.0069338805 -0.020301538
-0.04348917 -0.030758196 -0.002700536 -0.08966898 -0.07050244 -0.014658566 -0.06538393 0.0006471154
-0.05148092 -0.025720552 -0.040206213 0.007199411 -0.03576147 -0.05160364 0.018680966 -0.046889346
0.046988502 0.037890963 -0.0039931876 -0.034688316 0.016253414 0.053728625 -0.010523631 0.018639125
-0.043601587 0.032196715 -0.043493632 -0.095426045 -0.040648162 0.021077493 -0.02373302 -0.063899115
-0.029142816 0.010022013 -0.04867864 -0.060334776 -0.038022496 -0.088482544 0.049449533 -0.02086337
0.009731389 0.013936373 -0.016902622 -0.012476543 0.0039700014 -0.06919734 -0.029266443 -0.06529354
-0.046058293 -0.08853586 -0.0010144773 0.030286748 0.022971775 0.032523397 0.03314022 -0.08436342
0.041958027 0.032623515 -0.032835018 -0.014970848 -0.085242 0.024230026 0.0066210725 0.012130985
-0.0004924116 -0.0671007 0.017475793 -0.03210152 -0.03656296 -0.06126643 -0.083378695 0.0076976297
00000000: 42d9 82bd 19e0 94bd 17de 2e3c c929 12bd
00000010: adcd 31bc dedf 6a3d 2e1a a63c 2872 373d
00000020: 4e0c 42bd 0afe 01bd c56a a0bb c0b2 973a
00000030: b9a3 e83c 1788 c83c 689a 79bd 6fc5 603d
00000040: 9003 003d 73db 8abd 543d abbd 5694 b43c
00000050: 30f6 09bd 1b3a a0bd 2800 d63c c863 843c
00000060: 302f f73c 6ece 5dbd 741e ae3c 47ce efbc
00000070: 07fa 8cbd 73eb 9c3c 6000 a9bd be2c acbd
00000080: 8aad 30bd 5f69 4fbb b9c0 85bd 05c1 7ebc
00000090: 453d b2bd 227d 103d b1b1 3fbc 2d60 94bc
000000a0: 1ee7 c33b 523a 713d 88c1 363d ecbc 013c
000000b0: 53f1 1f3c 4a0b 1abd 7835 183d a8f7 4abc
000000c0: 2bb1 a93c e371 d03c 453e 9cbd d287 2bbd
000000d0: f88a 93bd 54e4 14bd e38d 52bd 6209 9abd
000000e0: 9062 49bd 2673 943c 4b49 9ebd b05d 4dbc
000000f0: 4247 3a3d e2b5 ab3c 19aa a5bd 75e5 093d
00000100: b229 b9bc 53c8 693c 38e9 ee3b 8c81 4c3d
00000110: d996 82bd 3362 4d3c 116d 09bc 568b 6f3b
00000120: 137c 3dbc b72d 0dbd a655 81bd fb7f 95bd
00000130: 78b3 363c 08e9 da3b 0bde 64bd 84d8 883c
00000140: b793 33bd 4073 42bd 47c5 50bd cf88 383c
00000150: 909f 8abc 8c02 89bc 71f0 473d 5292 79bd
00000160: c1c0 13bc d6bb c6bc 168b 1f3d 5dee b13c
00000170: 644a 513d d443 0dbc 655c b03b 64f9 b9bc
00000180: 05cc 89bd d413 c6bd 0ac3 bfbb fcc3 56bd
00000190: 9e28 14bd e60c 22bc 1300 7cbd dd52 173c
000001a0: 119e 1b3d c026 80bb 27b0 323c 9168 093d
000001b0: fb52 a6bb 3c7d 8dbd 1b97 953c 7704 81bd
000001c0: a7d5 96bd f374 b7bd 9040 0abd 7114 14bc
000001d0: b866 c7bc f812 79ba a0fe 333b 2165 74bd
000001e0: 251c c43c 4659 51bd f315 f13b 892f 313d
000001f0: 806e 82bb 5105 04bc 16b9 83bd e6f3 abbb
00000200: f6ed 60bc 3081 833c 2980 87bc f200 fa3c
00000210: 0ee3 28bd 3d98 80bc 20dd 8cbd be6e 323d
00000220: 0092 11be d253 94bd 3a75 2e3c d605 7fbd
00000230: aa27 ebbc 8e35 f33c 552f 0ab9 b569 3e3c
00000240: 0bae c2bc 13e1 cabc 3115 43bd 103c 623c
00000250: dc1e 813b 9f44 07be 6a29 e0bc e055 b73d
00000260: fffb 1cbd 995d 1fbb 7a1b 173d 240b 063d
00000270: e86e 2bbd b1c9 f8bb 98c0 343d a0b0 6a3d
00000280: 9c48 bb3c e891 19bd 52b4 1a3d 894d dcbc
00000290: d57e 373d 2752 76bd c708 e63c efbe b13c
000002a0: f5d6 4bbc e9e5 86bd a5e2 80bd f4e0 15bd
000002b0: bcd1 06bd 0a7d 1bbc a8d8 5cbd ef04 1fbc
000002c0: 417c 3c3c 8026 a13b fca5 acbc a2b0 1c3d
000002d0: c405 50bb f658 34bd 9b35 e33b 694f a6bc
000002e0: b321 32bd 9df8 fbbc 7afb 30bb 5fa4 b7bd
000002f0: 9563 90bd 7b2a 70bc 03e8 85bd 2ea3 293a
00000300: a8dd 52bd e8b3 d2bc 45af 24bd 09e9 eb3b
00000310: 9f7a 12bd 575e 53bd d308 993c 0b0f 40bd
00000320: 0477 403d 8e33 1b3d 49d9 82bb 5615 0ebd
00000330: e125 853c 8c12 5c3d 4f6b 2cbc 14b1 983c
00000340: 9497 32bd b4e0 033d 6126 32bd bb6e c3bd
00000350: b07e 26bd b5aa ac3c c06b c2bc 8add 82bd
00000360: eabc eebc 5f33 243c 4163 47bd 9921 77bd
00000370: 7abd 1bbd 5636 b5bd 988b 4a3d a8e9 aabc
00000380: 6770 1f3c 6355 643c 5e77 8abc 6a6a 4cbc
00000390: c916 823b 56b7 8dbd 2ec0 efbc 9fb8 85bd
000003a0: 9fa7 3cbd 4a52 b5bd 36f8 84ba ea1b f83c
000003b0: 4e2f bc3c 4137 053d 0abe 073d bbc6 acbd
000003c0: 2edc 2b3d 3ca0 053d 037e 06bd 4a48 75bc
000003d0: 5c93 aebd 0c7e c63c 95f5 d83b 0ac1 463c
000003e0: 2f15 01ba 186c 89bd 6529 8f3c e27c 03bd
000003f0: 0bc3 15bd 82f2 7abd 73c2 aabd 663c fc3b

heads.0.weight f4 [3, 256]
-0.026805421 0.005857371 0.00729014 -0.029264525 -0.017110825 0.045421727 0.082213946 0.03374446
-0.01721706 0.021718943 -0.0143218385 0.04233014 0.0439559 -0.035654392 -0.040667854 -0.042134352
0.022025025 -0.0038600937 -0.0020160875 0.034021538 0.010405829 0.08053551 -0.030353464 0.05284527
-0.019704893 0.052087817 -0.010500979 -0.020533238 -0.013006 0.018153928 0.030394815 -0.005925919
-0.071281634 0.0013762538 -0.038596895 0.013065883 -0.0062295804 -0.035263635 -0.026934339 -0.05511605
0.041044764 0.0025508383 -0.0021886579 0.024604153 0.039165013 0.02417817 0.0659744 -0.05623515
0.01452188 -0.07219386 0.045348734 0.001003607 0.022714015 0.04814031 -0.018005922 0.024078466
0.024062643 -0.003485855 0.009383183 0.037040032 0.042354926 0.06215299 0.050189763 -0.014843458
0.02677257 -0.057504028 0.05841916 -0.055936858 -0.02822622 0.013142378 0.024189148 0.050104447
0.004069829 -0.00061766454 0.07501334 -0.0030367055 -0.0355359 -0.001972338 -0.011888839 0.062047623
0.093195714 -0.089197874 -0.043681636 0.026501618 0.02086456 0.02879769 0.05643531 -0.017214512
0.014295774 0.014728994 0.036134966 -0.048589103 0.030631803 0.07637264 0.007382621 -0.022967808
-0.02732423 0.005915113 0.016182428 0.005940397 -0.05651457 0.0030487543 0.024808872 0.008022543
0.03659802 -0.02258598 0.071512565 -0.06643156 -0.044156842 0.0063496493 -0.041236702 0.057422444
-0.010869762 0.0399803 -0.021689557 0.0033127908 0.053289484 0.03526645 -0.058505088 0.02168513
-0.074250795 -0.021924518 -0.061324865 0.034722265 0.039050564 -0.0606562 0.059033334 0.07471684
-0.02889629 0.004787177 0.07122619 0.02614392 0.04782573 -0.041007143 0.02207367 0.005672996
0.02786441 -0.013782375 -0.040236652 0.037180502 0.015926626 -0.07587669 -0.003245242 0.015073509
0.0024378675 -0.031477988 -0.025332253 -0.007015243 -0.041429352 0.0652348 -0.03720106 0.065681264
-0.043034352 -0.047917336 -0.037457537 -0.010953173 -0.05651775 0.023381809 -0.015945062 0.033874176
0.011067862 -0.03771718 0.057674892 -0.06437437 -0.026651157 -0.05484964 0.018924061 0.0024746994
0.0413327 0.061286494 0.044120826 0.0007752083 0.034887724 0.04572666 -0.035874434 0.07426955
-0.059096172 -0.021490742 -0.012871768 -0.012903727 -0.017774079 0.026757857 0.012728499 0.017250072
0.037525095 -0.014197251 0.027666507 0.03259866 -0.02141099 -0.06784437 -0.022263424 -0.057394512
-0.010386896 -0.017805444 0.0013255598 0.0027155187 0.017533552 -0.048211202 0.056600776 -0.023632098
-0.008112185 -0.06794905 0.029189752 0.02971246 -2.2222317e-05 0.046296433 -0.064541586 0.02049943
0.023277858 -0.037855655 0.013719957 -0.023929153 0.09598809 0.014646482 0.045122303 -0.03439552
0.08637749 -0.007951531 -0.05760787 -0.031008204 0.029425496 -0.02462393 0.050886147 0.0037074909
0.05132422 0.007230045 -0.057819895 0.048141047 0.02342686 0.006881661 0.013754844 0.04829972
-0.024128223 -0.0016552432 -0.0038786605 -0.0036979308 -0.00022045051 -0.040930882 0.0416594 -0.022314101
0.018968021 -0.0139433965 -0.02825247 -0.059903353 -0.04449976 0.029915884 -0.0064703464 -0.005197396
-0.061776232 0.015643533 0.028987205 0.009908629 0.03282706 -0.039234724 0.042155974 -0.06193452
00000000: 0b97 dbbc 30ef bf3b 20e2 ee3b 28bc efbc
00000010: 002c 8cbc 220c 3a3d c95f a83d a237 0a3d
00000020: cb0a 8dbc edeb b13c 25a6 6abc 5e62 2d3d
00000030: 1a0b 343d 570a 12bd 5693 26bd 1295 2cbd
00000040: d36d b43c a0f9 7cbb 5620 04bb 2b5a 0b3d
00000050: 367d 2a3c cdef a43d d4a7 f8bc 4874 583d
00000060: 286c a1bc 095a 553d 4c0c 2cbc 5235 a8bc
00000070: 1e17 55bc 8cb7 943c 8cfe f83c 362e c2bb
00000080: 1bfc 91bd 6a63 b43a c717 1ebd 4912 563c
00000090: 8221 ccbb 9a70 10bd 67a5 dcbc 5ec1 61bd
000000a0: 8e1e 283d f72b 273b 966f 0fbb a68e c93c
000000b0: 7e6b 203d 4c11 c63c 961d 873d d456 66bd
000000c0: 2eed 6d3c 60da 93bd 98bf 393d 768b 833a
000000d0: be12 ba3c c62e 453d 2881 93bc 3440 c53c
000000e0: 051f c53c f172 64bb ecbb 193c 4ab7 173d
000000f0: 5c7c 2d3d 2294 7e3d c893 4d3d fa31 73bc
00000100: 2652 db3c 5889 6bbd ee48 6f3d 0c1e 65bd
00000110: ac3a e7bc 2153 573c 5228 c63c 523a 4d3d
00000120: 335c 853b c4ea 21ba 98a0 993d 7703 47bb
00000130: 188e 11bd 5742 01bb 68c9 42bc a625 7e3d
00000140: 65dd be3d 60ad b6bd 84eb 32bd ec19 d93c
00000150: 27ec aa3c 22e9 eb3c b628 673d 7305 8dbc
00000160: d238 6a3c e151 713c 4202 143d 5e05 47bd
00000170: 8cef fa3c 4269 9c3d eae9 f13b fc26 bcbc
00000180: 10d7 dfbc 90d3 c13b 0391 843c a9a7 c23b
00000190: d27b 67bd 9ccd 473b fa3b cb3c fc70 033c
000001a0: cee7 153d 3c06 b9bc 2e75 923d 450d 88bd
000001b0: cedd 34bd b810 d03b d1e7 28bd cc33 6b3d
000001c0: 1617 32bc 62c2 233d 4cae b1bc 681b 593b
000001d0: 1346 5a3d 8e73 103d 08a3 6fbd 04a5 b13c
000001e0: cd10 98bd 0c9b b3bc c82f 7bbd ef38 0e3d
000001f0: 7cf3 1f3d a372 78bd f0cc 713d 2505 993d
00000200: eab7 ecbc c0dd 9c3b 09df 913d c62b d63c
00000210: eae4 433d 1bf7 27bd d7d3 b43c 8ae4 b93b
00000220: e743 e43c 78cf 61bc 30cf 24bd 954a 183d
00000230: 8e78 823c 3d65 9bbd 20ae 54bb e1f6 763c
00000240: a1c4 1f3b 10ef 00bd 9685 cfbc 20e0 e5bb
00000250: d3b1 29bd d399 853d 2460 18bd e683 863d
00000260: ca44 30bd f844 44bd 136d 19bd f074 33bc
00000270: 287f 67bd 358b bf3c 389f 82bc a6bf 0a3d
00000280: fa55 353c 547d 1abd 823c 6c3d b6d6 83bd
00000290: 8753 dabc 04aa 60bd a206 9b3c 912e 223b
000002a0: 7a4c 293d 8c07 7b3d 0ab8 343d 5937 4b3a
000002b0: 6ee6 0e3d e14b 3b3d 12f1 12bd a21a 983d
000002c0: d40e 72bd 5a0d b0bc 1ce4 52bc 276a 53bc
000002d0: f29a 91bc 4b33 db3c 328b 503c 0650 8d3c
000002e0: eab3 193d 969b 68bc dfa4 e23c 2c86 053d
000002f0: 1a66 afbc fdf1 8abd c961 b6bc 8216 6bbd
00000300: cd2d 2abc b9dc 91bc 68be ad3a d8f6 313b
00000310: 86a2 8f3c 1c79 45bd 37d6 673d 1a98 c1bc
00000320: f8e8 04bc df28 8bbd 591f ef3c 8b67 f33c
00000330: 106a bab7 54a1 3d3d 612e 84bd 6cee a73c
00000340: 35b1 be3c 880e 1bbd acc9 603c 1207 c4bc
00000350: 6795 c43d ccf7 6f3c 2ad2 383d 51e2 0cbd
00000360: aee6 b03d 2347 02bc 3bf6 6bbd eb04 febc
00000370: bd0d f13c 20b8 c9bc fe6d 503d 60f9 723b
00000380: 5839 523d 03ea ec3b 8ed4 6cbd 8c2f 453d
00000390: b0e9 bf3c 8e7f e13b ff5b 613c edd5 453d
000003a0: 8da8 c5bc bff4 d8ba 2031 7ebb fc58 72bb
000003b0: bc28 67b9 24a7 27bd 0ca3 2a3d 10cc b6bc
000003c0: d362 9b3c d872 64bc b971 e7bc 385d 75bd
000003d0: 6145 36bd 2812 f53c 3305 d4bb eb4e aabb
000003e0: 1309 7dbd de26 803c 9376 ed3c cd57 223c
000003f0: ab75 063d 97b4 20bd beab 2c3d 0daf 7dbd

heads.0.bias f4 [3]
-0.31639898 -0.35160962 -0.34850428
00000000: 0cff a1be 2d06 b4be 276f b2be

heads.1.weight f4 [3, 256]
-0.012607515 -0.0071187317 -0.042128757 -0.044256043 -0.01810724 -0.032292746 -0.021489313 -0.015891453
-0.001299754 0.049883924 0.056844324 0.009528525 -0.039340556 0.023941763 -0.0533025 0.014432597
-0.01691814 -0.018308925 0.03008613 0.03966331 -0.022431001 -0.0013623524 0.04769919 0.036921248
0.019375117 -0.044643242 0.0448746 0.026620245 0.044457328 0.03302098 0.012926243 0.016626893
-0.08621447 -0.0007055268 -0.043185957 0.050302718 -0.04101908 -0.00019255154 -0.010663687 -0.04066487
0.08830225 0.05649395 -0.0046732672 -0.025938077 -0.052339572 0.05543428 0.0081781475 -0.021951556
-0.011481022 0.032266937 -0.007161177 0.06731732 -0.008787705 -0.00183402 -0.01775188 0.014115151
-0.037633654 0.019233078 -0.011156646 -0.029926552 -0.036613174 -0.036985256 0.03348041 0.04892956
0.020165762 0.04288509 0.014271468 0.012233719 -0.015367013 0.054950144 0.047481477 -0.0014934726
-0.023804478 -0.029044067 0.05519563 -0.009825451 0.04444468 0.027173508 -0.040168397 0.06048554
-0.016811725 -0.024073502 -0.039484866 0.026663443 -0.017871473 0.035607725 -0.017163916 -0.0360614
0.03954904 -0.039070908 0.049983792 -0.08099223 -0.057799228 -0.050259568 0.025547061 -0.0030987412
-0.011513092 0.03470819 -0.07884754 -0.04973782 0.01066494 -0.07398313 -0.0440877 0.00367709
-0.03654066 -0.013289288 0.026935065 0.033358835 -0.013901152 -0.029158937 0.011289292 0.0412635
-0.06142254 0.063354634 0.020999163 -0.052532606 0.043894473 0.002741408 -0.03926658 -0.013995977
0.058440316 -0.018669719 0.053829454 -0.019630715 0.060157597 0.02461442 0.05779293 0.032660887
0.0011718568 -0.05394288 0.030483311 -0.0052044154 0.016748935 0.02450705 0.02967703 -0.044428967
-0.007948673 -0.032622963 0.026039967 0.03059607 0.05227881 0.010123774 0.031154275 0.0294422
0.0452179 0.0021150222 -0.018329972 -0.016506866 0.004774953 -0.029296562 0.015489168 0.04733488
-0.0075308317 -0.07149532 -0.038238347 0.00052214507 -0.047903124 0.02599549 -0.04658079 -0.015228838
-0.0045440914 0.025399357 0.045850694 0.0587411 0.000103247294 -0.084793165 -0.048687227 -0.02274596
0.021568833 0.043604616 -0.054391704 -0.038635757 0.04023777 0.029013826 -0.022992961 -0.017152626
0.040455103 0.0011655664 -0.0025981832 0.012729168 -0.032889217 -0.06287302 0.040541846 0.011298525
-0.011237917 0.010371365 -0.020506747 0.05508118 -0.029657537 0.04448136 0.019463466 -0.012942127
0.04901113 0.041097812 -0.03600431 0.003197777 0.0005542483 -0.02980686 0.020518776 -0.03561966
0.03319396 -0.007927194 0.06690637 0.014451009 -0.05743085 0.00975322 0.01696893 -0.04053022
0.015182711 0.021886371 -0.08780817 -0.01696515 0.028593412 0.017220952 -0.029508263 -0.030440843
-0.009066738 0.04236336 -0.057630546 -0.026076585 0.029655764 0.02407783 -0.002971489 0.007931376
-0.059400834 -0.015973631 -0.036527064 0.02885349 -0.05735193 0.003787732 -0.02962375 0.047013205
0.009260884 -0.05154149 -0.047240004 0.011360902 0.042771667 0.022343922 -0.035099126 0.031279277
-0.03353192 -0.039801836 -0.08788855 0.007936366 -0.05193282 0.032120325 -0.0034674623 -0.0042962898
-0.032352183 -0.04512007 -0.051043037 0.019121265 0.02332564 -0.0026746034 0.001866303 -0.031088728
00000000: c08f 4ebc 4044 e9bb 348f 2cbd d345 35bd
00000010: a255 94bc 6645 04bd 5b0a b0bc cb2e 82bc
00000020: 825c aaba 1653 4c3d 98d5 683d 881d 1c3c
00000030: 9023 21bd 8421 c43c b953 5abd b376 6c3c
00000040: e997 8abc 99fc 95bc 3077 f63c ff75 223d
00000050: 38c1 b7bc f690 b2ba 3a60 433d bc3a 173d
00000060: 91b8 9e3c d5db 36bd 6ece 373d b312 da3c
00000070: e318 363d 0241 073d 98c8 533c 1f35 883c
00000080: 3691 b0bd 1af3 38ba c2e3 30bd 390a 4e3d
00000090: 9f03 28bd a9e7 49b9 bfb6 2ebc 3590 26bd
000000a0: cfd7 b43d 3366 673d 3522 99bb 177c d4bc
000000b0: 0562 56bd 0e0f 633d a3fd 053c c0d3 b3bc
000000c0: e61a 3cbc 562a 043d 4fa8 eabb aadd 893d
000000d0: 4efa 0fbc 8063 f0ba 646c 91bc 3c43 673c
000000e0: bf25 1abd b08e 9d3c 5dca 36bc 8728 f5bc
000000f0: b2f7 15bd da7d 17bd c122 093d 5d6a 483d
00000100: ab32 a53c 47a8 2f3d e0d2 693c f06f 483c
00000110: edc5 7bbc 6713 613d f07b 423d a0c0 c3ba
00000120: 9c01 c3bc d3ed edbc d014 623d eefa 20bc
00000130: a00b 363d fa9a de3c 9e87 24bd b0bf 773d
00000140: beb8 89bc cb35 c5bc e2ba 21bd 4b6d da3c
00000150: 3267 92bc 68d9 113d 579b 8cbc 1eb5 13bd
00000160: 2dfe 213d d108 20bd cebb 4c3d 41df a5bd
00000170: e2be 6cbd fadc 4dbd 1248 d13c 4014 4bbb
00000180: 68a1 3cbc 2d2a 0e3d d27a a1bd e2b9 4bbd
00000190: 00bc 2e3c 7884 97bd 4e95 34bd 55fb 703b
000001a0: a9ab 15bd 50bb 59bc eda6 dc3c 46a3 083d
000001b0: a8c1 63bc b9de eebc b9f6 383c ea03 293d
000001c0: 3496 7bbd 13c0 813d 7006 ac3c 6e2c 57bd
000001d0: b1ca 333d 32a9 333b fed5 20bd 624f 65bc
000001e0: 1d5f 6f3d 3df1 98bc 467c 5c3d 98d0 a0bc
000001f0: d067 763d 2ea4 c93c 48b8 6c3d 6cc7 053d
00000200: fd98 993a 36f3 5cbd 23b8 f93c cd89 aabb
00000210: 1035 893c 02c3 c83c 3e1d f33c 26fb 35bd
00000220: 273b 02bc a89f 05bd c551 d53c 9ca4 fa3c
00000230: 4e22 563d 30de 253c 4037 ff3c c530 f13c
00000240: 6836 393d 2f9c 0a3b bd28 96bc 6839 87bc
00000250: 3577 9c3b 58ff efbc 48c6 7d3c 38e2 413d
00000260: 32c5 f6bb 236c 92bd d09f 1cbd 90e0 083a
00000270: 1136 44bd 7ef4 d43c 80cb 3ebd 6082 79bc
00000280: 9ae6 94bb 5012 d03c f0cd 3b3d 829a 703d
00000290: 7886 d838 0aa8 adbd 426c 47bd bc55 babc
000002a0: 1fb1 b03c c19a 323d d6c9 5ebd 8740 1ebd
000002b0: 5cd0 243d 67ae ed3c bc5b bcbc aa83 8cbc
000002c0: 40b4 253d ebc5 983a 4846 2abb 008e 503c
000002d0: d8b6 06bd 92c3 80bd 350f 263d 731d 393c
000002e0: 3d1f 38bc a8ec 293c c4fd a7bc ce9c 613d
000002f0: 5df4 f2bc 1632 363d d971 9f3c 370b 54bc
00000300: e5bf 483d 2e56 283d 4179 13bd cc91 513b
00000310: f94a 113a 842d f4bc fe16 a83c ece5 11bd
00000320: 64f6 073d 10e1 01bc 3506 893d edc3 6c3c
00000330: 9c3c 6bbd f8cb 1f3c 6d02 8b3c 0403 26bd
00000340: e8c0 783c 0c4b b33c c5d4 b3bd 80fa 8abc
00000350: bb3c ea3c f412 8d3c 50bb f1bc 135f f9bc
00000360: a88c 14bc 3485 2d3d 020e 6cbd 909e d5bc
00000370: a5f0 f23c df3e c53c 50bd 42bb 9af2 013c
00000380: 4a4e 73bd 22db 82bc 679d 15bd 275e ec3c
00000390: dbe9 6abd 993b 783b 82ad f2bc eb90 403d
000003a0: f6ba 173c 2b1d 53bd bc7e 41bd 1423 3a3c
000003b0: 5831 2f3d 9a0a b73c 1ac4 0fbd b31e 003d
000003c0: c458 09bd 4007 23bd e9fe b3bd 8807 023c
000003d0: 82b7 54bd 9a90 033d 5d3e 63bb e4c7 8cbb
000003e0: b983 04bd d3cf 38bd 8112 51bd 33a4 9c3c
000003f0: 6a15 bf3c 6648 2fbb bd9e f43a caad febc

heads.1.bias f4 [3]
-0.3051502 -0.33767533 -0.31181762
00000000: a63c 9cbe c8e3 acbe 8fa6 9fbe

heads.2.weight f4 [3, 256]
0.028049264 0.011109389 -0.055740952 0.036751546 0.029217305 0.036477238 0.03417077 -0.019137574
-0.011660422 0.02330238 -0.039867885 0.0238254 0.059179343 0.063445054 0.01913461 0.05563549
-0.03324075 -0.021471536 -0.06680241 0.0006929569 0.02252929 0.009062554 0.050759718 -0.04051866
0.022774585 0.009455962 0.018539168 -0.02225341 0.023920186 -0.035858966 -0.057203963 -0.004507179
0.021124715 0.01253005 -0.03725633 -0.0018899901 -0.02523131 0.03178486 0.046719532 -0.038136043
0.060495377 -0.0026832414 0.037197784 -0.010685056 0.01420162 -0.001357466 0.04800266 0.06247116
-0.034203544 -0.018003283 -0.045045964 -0.010239665 -0.033659734 0.028666716 -0.02594997 0.04278615
-0.00092911057 -0.04945065 0.027394965 -0.061916873 0.041735478 0.038702764 -0.002662825 0.028304962
0.02597163 0.018114243 -0.0018078163 0.025284313 -0.084023304 -0.027887782 -0.0021161784 0.02867446
-0.032860257 0.016814975 -0.03333381 0.03456671 -0.036972843 -0.05376802 -0.04200187 0.019231617
0.031380232 -0.02292381 0.009156128 0.0309383 -0.016563833 0.0028859808 0.03947142 0.029283749
0.034431074 -0.010803283 -0.024287 -0.021127343 0.01211042 0.004434214 -0.034723397 -0.0077679753
-0.049914755 -0.031253666 -0.07764862 -0.051797003 -0.016972594 -0.035382695 0.02316369 0.053446315
-0.010514058 0.05034975 -0.02866822 0.028108789 0.029547384 -0.03888237 -0.026428366 0.043486208
-0.06039202 0.04550173 -0.058774948 -0.038221657 0.03641068 0.0021933878 0.046222456 -0.040142488
-0.022958063 0.005625118 0.013150586 -0.036354873 0.048488155 -0.00027304445 0.035126258 -0.018904869
0.016413337 0.037670888 -0.050384466 0.0012302415 -0.0039497465 -0.01847832 -0.08120553 -0.021241045
-0.023859477 0.018724173 0.05295084 0.051727664 0.0154566495 0.030739293 0.058926076 -0.003311069
-0.039661326 -0.034139805 0.014540814 0.038126074 -0.044949558 0.008650537 -0.04979538 -0.035667002
0.039670423 0.021858394 0.010545451 0.045392178 -0.03639903 0.029679477 -0.036276974 0.044969447
-0.014541417 -0.049350582 -0.0238688 -0.048082754 -9.669839e-05 0.02609013 -0.020697445 -0.007282067
0.011056186 0.029045539 -0.03676446 0.037115388 0.023957193 0.038648654 -0.029464535 0.074966975
-0.031821378 -0.017015522 -0.013189908 -0.027076066 -0.019375455 0.0097921565 -0.03904613 -0.03929662
0.042850748 0.032718413 0.00453414 0.019151494 0.04179143 -0.002605032 -0.016724098 0.010462034
-0.04078161 0.044865187 -0.059856463 0.048545856 0.006554657 -0.03284555 -0.046530493 0.024156418
0.03434232 0.040966026 -0.018607493 -0.02277127 -0.03745137 0.036573835 -0.037322737 -0.029930912
-0.0142939715 -0.045128502 -0.015353255 0.05050513 -0.014685263 0.04220728 -0.05225041 -0.004389294
0.061273977 0.044223785 -0.0060153278 0.060194585 -0.011452364 0.018178623 0.059174232 -0.019074436
0.010785601 0.008047919 -0.012546713 0.013578073 -0.067409806 0.024927333 0.004722291 -0.009427015
0.0007745216 0.018660061 -0.043029867 -0.03656242 0.030109137 -0.034279056 0.01957116 -0.007988823
-0.011592724 -0.016444312 -0.0071261544 0.028578907 -0.043377735 -0.0593573 0.055735134 0.031130672
0.011992973 -0.04803174 -0.0515814 -0.0058427933 -0.02607365 -0.045377556 0.03579026 -0.028856082
00000000: 92c7 e53c 2804 363c a050 64bd ca88 163d
00000010: 2159 ef3c 2869 153d a6f6 0b3d 67c6 9cbc
00000020: 5b0b 3fbc a2e4 be3c 824c 23bd 7c2d c33c
00000030: 0a66 723d 7bef 813d 30c0 9c3c 0ae2 633d
00000040: 7427 08bd 13e5 afbc b4cf 88bd 8da7 353a
00000050: 588f b83c 1b7b 143c 6ce9 4f3d e5f6 25bd
00000060: c491 ba3c 2eed 1a3c 74df 973c c94c b6bc
00000070: 44f4 c33c dae0 12bd b44e 6abd f5b0 93bb
00000080: bd0d ad3c d74a 4d3c 189a 18bd 8bb9 f7ba
00000090: e4b1 cebc d730 023d fb5c 3f3d 8a34 1cbd
000000a0: 00ca 773d 52d9 2fbb b45c 183d 6010 2fbc
000000b0: e9ad 683c 00ed b1ba 709e 443d c2e1 7f3d
000000c0: 0419 0cbd 9f7b 93bc 1e82 38bd 45c4 27bc
000000d0: cade 09bd 76d6 ea3c 0895 d4bc 8840 2f3d
000000e0: 8e8f 73ba c48c 4abd 686b e03c 8c9c 7dbd
000000f0: d2f2 2a3d ca86 1e3d ca82 2ebb cfdf e73c
00000100: 75c2 d43c 5264 943c 40f4 ecba 0c21 cf3c
00000110: 6914 acbd eb74 e4bc 95af 0abb b3e6 ea3c
00000120: 7a98 06bd 8fbf 893c 0889 08bd d395 0d3d
00000130: d670 17bd db3b 5cbd 270a 2cbd a08b 9d3c
00000140: 8f88 003d b7ca bbbc 9603 163c 5172 fd3c
00000150: e0b0 87bc b922 3d3b c9ac 213d 79e4 ef3c
00000160: 9907 0d3d 4100 31bc 88f5 c6bc 4013 adbc
00000170: c86a 463c e24c 913b 1f3a 0ebd 808a febb
00000180: 6a73 4cbd d803 00bd 3d06 9fbd 1829 54bd
00000190: 1c0a 8bbc 72ed 10bd c7c1 bd3c 86ea 5a3d
000001a0: 2843 2cbc 8a3b 4e3d 9dd9 eabc 6744 e63c
000001b0: 5b0d f23c 1f43 1fbd 4d80 d8bc 981e 323d
000001c0: 9f5d 77bd 0660 3a3d 00be 70bd 508e 1cbd
000001d0: 5d23 153d f1be 0f3b c253 3d3d 736c 24bd
000001e0: 8c12 bcbc e952 b83b 8e75 573c d9e8 14bd
000001f0: 849b 463d 6827 8fb9 8de0 0f3d 62de 9abc
00000200: 4375 863c ca4c 1a3d f15f 4ebd 0e40 a13a
00000210: e06c 81bb d95f 97bc 164f a6bd b301 aebc
00000220: f374 c3bc 7063 993c fbe2 583d 63e0 533d
00000230: e33d 7d3c f8d0 fb3c 785c 713d 85fe 58bb
00000240: ea73 22bd 2ed6 0bbd 983c 6e3c 162a 1c3d
00000250: 071d 38bd fbba 0d3c 3ef6 4bbd 9017 12bd
00000260: 747d 223d 6010 b33c d4c6 2c3c 26ed 393d
00000270: 2617 15bd 6022 f33c 2a97 14bd e231 383d
00000280: 203f 6ebc d623 4abd 8088 c3bc 6cf2 44bd
00000290: 8eca cab8 f8ba d53c b08d a9bc 689e eebb
000002a0: 0125 353c e9f0 ed3c 5596 16bd 4e06 183d
000002b0: e041 c43c 0d4e 1e3d 9c5f f1bc 4988 993d
000002c0: 2257 02bd 2364 8bbc 7c1a 58bc a0ce ddbc
000002d0: 46b9 9ebc 486f 203c d6ee 1fbd 7ef5 20bd
000002e0: 4484 2f3d be03 063d 2093 943b 98e3 9c3c
000002f0: 7e2d 2b3d 2fb9 2abb fa00 89bc f368 2b3c
00000300: 9e0a 27bd 8fc4 373d 0d2c 75bd 05d8 463d
00000310: 73c8 d63b 0e89 06bd c296 3ebd aee3 c53c
00000320: 88aa 0c3d fecb 273d be6e 98bc d08a babc
00000330: 9c66 19bd 72ce 153d badf 18bd ac31 f5bc
00000340: 4331 6abc aad8 38bd 388c 7bbc 78de 4e3d
00000350: 759a 70bc 8ae1 2c3d 8704 56bd 11d4 8fbb
00000360: 6cfa 7a3d 0024 353d 3a1c c5bb 998e 763d
00000370: b2a2 3bbc 56eb 943c ae60 723d fe41 9cbc
00000380: 17b6 303c 6bdb 033c bb90 4dbc 9176 5e3c
00000390: 270e 8abd 6834 cc3c 73bd 9a3b c473 1abc
000003a0: 4409 4b3a fcdc 983c 1640 30bd 7ac2 15bd
000003b0: 70a7 f63c 3268 0cbd b353 a03c 8de3 02bc
000003c0: 69ef 3dbc 39b6 86bc 8482 e9bb 501e ea3c
000003d0: daac 31bd a420 73bd 864a 643d c005 ff3c
000003e0: 2d7e 443c eebc 44bd 0547 53bd e774 bfbb
000003f0: 6898 d5bc d1dd 39bd cf98 123d 9763 ecbc

heads.2.bias f4 [3]
-0.3171492 -0.3497301 -0.32518926
00000000: 6161 a2be d30f b3be 357f a6be
