results/multihead/models/multihead_checkpoint_0.pt (torch, 301717 bytes, 18 tensors)

trunk.0.weight f4 [256, 11]
00000000: 92af 5b3e 09b4 703e 82a9 90bd 84d9 853e
00000010: da13 9ebd 567c 363d 2d78 26be a371 243e
00000020: 77a3 813e 5c96 6abe 4b69 7c3e c618 4c3d
00000030: f817 5a3e 6841 273d 9e04 0b3e 0639 53bd
00000040: ae97 643e 194e 123d 1972 1abe dcb2 873d
00000050: 87cb 1abe b773 37bd b6fd 09be f49a 3f3e
00000060: 56b7 73be 20ab 1bbe d3d3 c8bd 8f85 46be
00000070: 7b49 813c 8116 9fbe 3973 853e e862 88be
00000080: 8956 613e b086 4d3d e680 c8bd 64ca 3e3e
00000090: 6879 403d f074 793e 4002 073d cebd c2bd
000000a0: 30e9 a53d b873 a7bd 52f0 013e 10d4 893e
000000b0: 7a79 323e daf9 06be a63a 323e e0f8 5c3d
000000c0: f8ca 1c3e e82e 3cbe e1d0 98be 6693 eebd
000000d0: 04d1 6cbe e456 7d3e a4db b13d 6999 e03d
000000e0: 5b5c a03d 00df abbb 1657 603e 695b 65be
000000f0: 728b f73a 814f 63be fcf8 993d 75f9 f6bd
00000100: 99d5 9c3d 869b a3bd 5009 803e ccfe 36be
00000110: ef22 38be c825 38be b4d9 8a3e f0c7 cd3d
00000120: da8b 943e 55cd 7ebe a41e 99be 8e8d 71be
00000130: f0b0 4fbe c6cf d43d 8e9e b63d e045 803e
00000140: b594 32be 6f23 63be 5a94 113e 777c 0fbe
00000150: a214 283e 9f46 bebd 5962 1b3e b62b 81be
00000160: ab48 28be 1841 a23d 0c8b 823d fe24 b7bd
00000170: caee 2b3e 4696 453e 9561 6cbe 23d2 31be
00000180: ebbc 863e 1834 edbd cf6c f4bd 0b5f 95be
00000190: 81cf 30be a840 9a3d a002 23bd 961d 60be
000001a0: 00c0 e73b 58e6 52be 61f8 82be 0a04 2abe
000001b0: 1d1c 87be 6497 44be dc38 983e 8aec 553d
000001c0: 8449 be3d c435 92be d849 4dbe 2255 d7bd
000001d0: 8392 2f3d dd25 8abe 1200 0abe 9c47 40be
000001e0: 47c6 86bb a0c5 e5bd c028 abbc 7037 51be
000001f0: 42ec 53be b91f 34be f65d d3bd 48b0 73be
00000200: 1270 813e e819 75bd 9ed2 843e 8466 c03d
00000210: 25d7 86be a5f5 4f3e 8ee6 a9bd 2b4e f8bd
00000220: 8251 85be ac05 9cbe abc9 a13d e9f1 92bd
00000230: fffc e03d 58b0 82be 3b15 603e 29a3 62be
00000240: fc3f 55bd dcf9 803d 3a64 1f3e 5041 793e
00000250: d4a0 8c3e 15d0 74be 4067 9b3d e5cc 04be
00000260: 1056 07bd 3418 67be dc9c 8c3e 009b 62be
00000270: b402 253e 2403 d93d a4a8 c83d 59ec 26be
00000280: 7c51 8c3e e0b1 873d 88de 1e3d ec0a 88be
00000290: d49b 013e 2846 39bd dd71 0dbe 4e99 843e
000002a0: 78ab 893d a2d2 2abe e944 1cbe 60e9 6bbc
000002b0: 8a64 2c3e 7aca 9dbd e429 30be f474 d3bd
000002c0: af00 75be d197 bc3d acfb 6e3e ce61 99be
000002d0: e99e 7c3d 3c62 0f3e e36d 1e3d 762c fcbd
000002e0: e523 173e a0f3 183e c913 c63d a803 59bd
000002f0: 7683 a3bd d01e 043d 882a 5abd a403 b8bd
00000300: 865a 453e 36ab 843e 8085 f4bc 5841 8abd
00000310: c02b 903b 707a 93bc e8e4 823d 8c68 9e3d
00000320: 0836 8cbe a84a f2bd 22ef 7b3e 0e72 e23d
00000330: 6646 b3bc adbd 41be 3f2c 45be 8de3 8dbe
00000340: 4be6 dbbd ba32 b73d 8530 343e 468c 0e3e
00000350: b18f 8fbe bd6f 46be 3907 79bd e98e 8e3e
00000360: 3f54 f93c d756 c1bd db80 dc3d 6f21 06be
00000370: 0f4f 5dbe d6d7 4a3e 5a63 0cbe 0913 a9bd
00000380: 9bc5 a0be 316b 383e 3b0e 543e 11fc b13d
00000390: 6763 69be 5555 a1be 2f9a 88be af8d 533e
000003a0: 3243 023e 00e8 813e d41a 0f3e 7082 6c3d
000003b0: 57eb acbc 79ae 7dbe 6aa4 8dbe 4caf 96be
000003c0: b7f7 eb3d 66de 29be 888b 78bd 96af 31be
000003d0: 5c0b 61bd ae4e 59be 94bd 49be 70d4 cc3d
000003e0: 7284 b7bd 6e9a 3e3e 1019 c6bd b57c 62be
000003f0: 80e6 59bd 24aa 15be e0ea bcbd 94f6 92be
0.21453694 0.23506178 -0.07063581 0.26142514 -0.0771863 0.04455217 -0.16256781 0.16058974
0.25320026 -0.2290892 0.24649541 0.049828313 0.21298206 0.04083386 0.1357598 -0.051568054
0.22323486 0.03571901 -0.15082587 0.066259116 -0.15116702 -0.04478809 -0.1347569 0.18711454
-0.23800406 -0.15201998 -0.09806027 -0.19386886 0.015782109 -0.31071857 0.2606447 -0.2663796
0.22005667 0.050177276 -0.097902104 0.18631893 0.046990782 0.24361014 0.03296113 -0.095088586
0.081011176 -0.081763685 0.12689331 0.26919603 0.17429152 -0.13181248 0.17405185 0.053948283
0.15311801 -0.18377268 -0.29846862 -0.11649208 -0.23126608 0.24740177 0.08684471 0.10966761
0.078301154 -0.0052450895 0.2190822 -0.22398151 0.0018886162 -0.22198297 0.07518193 -0.12059299
0.07657928 -0.07988648 0.25007105 -0.17870635 -0.17982076 -0.17983162 0.2711922 0.10047901
0.29012948 -0.24883015 -0.2990619 -0.23589155 -0.2028234 0.10391192 0.08916961 0.2505331
-0.1743954 -0.22181486 0.14216748 -0.14012323 0.16414121 -0.09290814 0.15174235 -0.2522866
-0.1643397 0.07922572 0.06374177 -0.089426026 0.1679031 0.19295606 -0.230841 -0.17365317
0.26316008 -0.11582202 -0.11934816 -0.29174075 -0.17266656 0.075318635 -0.039797425 -0.21886286
0.0070724487 -0.20595682 -0.25580123 -0.16603103 -0.26388636 -0.19198376 0.2973088 0.052227534
0.09291366 -0.28556645 -0.200477 -0.10514285 0.042864334 -0.26982012 -0.1347659 -0.18777317
-0.004112992 -0.112193346 -0.020893455 -0.20431304 -0.20695594 -0.17590226 -0.10320656 -0.23797715
0.25280815 -0.05983916 0.25941938 0.09394553 -0.26336017 0.2030855 -0.08295928 -0.12124284
-0.26038748 -0.30473077 0.07899793 -0.07175047 0.10985755 -0.25525165 0.21883099 -0.22132553
-0.052062973 0.06297657 0.15565577 0.24341321 0.27466452 -0.23907502 0.07588053 -0.12968786
-0.03304106 -0.22567827 0.27463424 -0.2212944 0.16114312 0.10596302 0.09797791 -0.16301097
0.27405918 0.06625724 0.03878644 -0.26570833 0.126571 -0.04523292 -0.13812967 0.25898212
0.06722158 -0.16681913 -0.15260662 -0.014398903 0.16835228 -0.07704635 -0.1720348 -0.103250414
-0.23926042 0.09208644 0.23338193 -0.29957432 0.061674986 0.14002317 0.038679015 -0.12313168
0.14759786 0.14936686 0.096717425 -0.052982002 -0.079840586 0.032255948 -0.053263217 -0.089850694
0.19272813 0.25911874 -0.029848814 -0.067507446 0.0043997467 -0.018002719 0.06391317 0.077347845
-0.27384973 -0.11830646 0.2460294 0.110569105 -0.021884155 -0.18920012 -0.1925516 -0.2771267
-0.10737284 0.08945222 0.17596634 0.13920698 -0.28039315 -0.19378562 -0.060797904 0.27843407
0.03043568 -0.094403915 0.10766765 -0.13098691 -0.2161219 0.19808897 -0.13709775 -0.08255584
-0.3140076 0.1800964 0.20708553 0.08690656 -0.22791825 -0.31510416 -0.26680133 0.20659517
0.12720945 0.25372314 0.13975078 0.057741582 -0.021108313 -0.24773587 -0.276645 -0.29430616
0.11521857 -0.16588745 -0.060679942 -0.17352137 -0.054942474 -0.2122142 -0.19701225 0.10001457
-0.08960809 0.18613598 -0.09672749 -0.22117884 -0.053198338 -0.14615685 -0.09224486 -0.2870375

trunk.0.bias f4 [256]
00000000: 7da5 483e f2cf 2abe f7c1 16be 0c0f 6d3e
00000010: 3041 f13d 90b8 40be e401 bb3d f483 083e
00000020: c48a 8fbe 88b4 663d cd2a 843d c065 40bc
00000030: e71c 913e 2213 4cbe 9060 273e 0703 24be
00000040: 6d35 8cbe d06a 523e c451 1bbe a8ee 9b39
00000050: 44ba 0b3e 3c2b 8abe 6c24 84be a83b d23d
00000060: 2d34 823e 80ae 02bd c353 523e fcfc d83d
00000070: e72d ae3d 4cd9 44be 285b 923e 406b 0d3e
00000080: 86ad fe3c 2176 583e 67a4 84be 700f 853d
00000090: 98f2 11be 10d2 fabc d44f ca3d 4a21 f73d
000000a0: 67cf 653d c5f4 6ebe 6c39 41be 4082 ac3b
000000b0: bce3 55bd 463e 84be 7815 983e 1291 d23c
000000c0: 7465 61be 9269 073e feb4 003e cede 22be
000000d0: 34c2 0c3e 78fd 48be 54f3 d53d f6a3 923e
000000e0: 58d0 4b3e e06c 183e a842 7bbd a62d 193d
000000f0: 1ae6 db3d 9b8d 8a3d 9458 8bbd 0c75 f03c
00000100: d21a fabd 7bae 3abe 3676 8ebe 96d5 7ebe
00000110: d416 54be 7e90 933e 7195 713d 5e66 8bbe
00000120: 7cd2 1dbe f43b 903d f8d1 b8bd f3a7 b6bd
00000130: eee0 e7bd 2cf5 a0bd a6de f23c 9044 923c
00000140: 81a6 363e bc94 453e 14ed 6a3e d604 eebc
00000150: a6dc 09be 00db 863a 0475 4cbe f09a f83d
00000160: 8800 15bd fb5d eebd 8515 87be 62ca 143e
00000170: 18eb 273e abef 8d3e 3ea8 ffbd e4bd b63d
00000180: c035 3a3c 01ed 58be 6103 41be 642f 123e
00000190: 8a30 35be 30d3 603e 50ba d73d b9d7 c23d
000001a0: 6855 4b3e a49a 063e 13e8 023e 1f7d 163e
000001b0: 3119 07be 1fb9 23be 8440 62bd e8da 1d3e
000001c0: ad36 503e ef1a 623e 2159 e9bd 90b3 1cbd
000001d0: 360d 58be e0b3 2a3e 10e7 4fbe 3935 04be
000001e0: 5bf9 763e 9c54 8c3d dfc3 06be 6bd9 53be
000001f0: 5651 54be de07 6e3e 1964 93be 2066 853e
00000200: b78e 6c3e 6f1d 5c3b ec1c dabc ac1e 703e
00000210: 5895 013e 50f6 913e 097d 6d3e c911 55be
00000220: 7bc6 2f3e e771 1d3e f136 5bbe 84e8 103e
00000230: d110 37be db53 3bbe 0052 b83b 60fa 36bd
00000240: 7aff b1bd a07a 4abe 278d 223e 9276 8e3e
00000250: 6aac 97bd eb0c 50be a0b9 7ebc 3010 89be
00000260: 0a13 8bbe 8b27 d7bd d4fc 413e 4a41 7ebe
00000270: 7815 45bd d044 23be 1b45 91be b0f0 8cbd
00000280: 00e1 8fbc 00a7 4fbd 8edc 5a3e 6458 f73d
00000290: 8439 403e c0dd f13d 7892 013d d64a 243e
000002a0: 26f7 44be f7d0 183e 5662 0b3e fa2a 13be
000002b0: b18e 7bbc 15ec 6cbe e5aa 8fbe 6be5 1cbb
000002c0: b021 5d3d 9d9a 89bd 0392 a43d aad9 78be
000002d0: 7658 2cbe afe7 523e 773b 96be 80eb 413d
000002e0: 40b2 6d3e d476 673e b7d0 c53d 859e 8cbe
000002f0: acd4 d73c b825 d9bd 6d53 acbd 648f 6c3e
00000300: 2b9e d4bd 928c 71be b5d1 79be fc21 2c3e
00000310: 7e43 a63c 043a 943e c125 403d 25dd 8fbe
00000320: e8c5 983d 4442 8d3e 927e 3f3e 906f aa3d
00000330: 9df6 67be c022 39be e0a4 513e 2fe3 50be
00000340: c096 6e3d 103b 1ebd 24e9 ce3d 26f5 7c3c
00000350: f02f 69be 9530 04be 1b06 833e 4419 123d
00000360: 9299 113e 5676 2cbe cc6a 743e f62e 84bd
00000370: a222 d0bd 0086 7a3d bc41 ddbd e223 f8bd
00000380: a8b8 30bd 555e 97bc 3af3 34be c3d7 c93d
00000390: cb9d 95be 9426 383e 142d 8f3e e0cc 473d
000003a0: 6c48 90bd 1f64 8dbe 18fd 103e a33e 7d3e
000003b0: 909f 803e 9e35 a13c 204b cd3d 7ac5 923e
000003c0: 9ba4 383d e078 1cbe 1e91 92be e2fc 063e
000003d0: 336e dd3d c0fb 873e 602f 1dbe 9a75 fd3d
000003e0: 0c4d ccbd 1fc2 acbd c62e 233e d582 8dbe
000003f0: e096 633e 1a99 0f3e fcb9 4cbe 05eb 123e
0.19594379 -0.16680887 -0.14722429 0.23150271 0.11780012 -0.18820405 0.0913122 0.13331586
-0.28035557 0.05632451 0.06453476 -0.011743009 0.28342363 -0.19929174 0.1634543 -0.1601678
-0.2738451 0.20548558 -0.1516791 0.00029741717 0.13645273 -0.2698611 -0.25809038 0.10265285
0.25430432 -0.031904697 0.20539765 0.10595128 0.08504849 -0.19223517 0.28585172 0.13810444
0.031088602 0.21138813 -0.2590668 0.06497085 -0.14252698 -0.030617744 0.09878507 0.12066896
0.056105997 -0.2333556 -0.18869561 0.0052645504 -0.052219138 -0.2582876 0.2970388 0.02570394
-0.22011358 0.13223866 0.12569043 -0.15905306 0.13745958 -0.1962794 0.10446802 0.28640717
0.19903696 0.14885283 -0.061342865 0.03739705 0.10737248 0.0676529 -0.06804004 0.029352687
-0.12212147 -0.18230622 -0.27824563 -0.24886164 -0.20711833 0.28821176 0.05898041 -0.27226537
-0.15412325 0.07042685 -0.09024423 -0.089187525 -0.11322199 -0.07859263 0.029647183 0.017854959
0.17836954 0.19295019 0.22942 -0.02905504 -0.13463077 0.0010288656 -0.19966513 0.12138927
-0.03637746 -0.11639019 -0.26383606 0.14530328 0.16398275 0.27721915 -0.124832615 0.089229375
0.011365354 -0.2118416 -0.18848945 0.1427589 -0.17694297 0.21955562 0.10533583 0.09513802
0.19856799 0.13144928 0.12783842 0.14696167 -0.13193204 -0.15988587 -0.05523731 0.15415537
0.20333357 0.22080587 -0.11393953 -0.03825718 -0.2109879 0.1667018 -0.20302987 -0.12910928
0.24118559 0.068520755 -0.13160656 -0.20688407 -0.20734152 0.23245189 -0.28787306 0.26054478
0.23101316 0.003358688 -0.02662512 0.234492 0.12654626 0.28508234 0.23192228 -0.20807566
0.17165558 0.15375482 -0.21407677 0.14151198 -0.17877509 -0.18293707 0.0056250095 -0.04467237
-0.086913064 -0.1977334 0.15874158 0.27824837 -0.07405932 -0.20317428 -0.015547186 -0.26770163
-0.27162963 -0.10505589 0.18944103 -0.24829593 -0.048116177 -0.15944219 -0.28373036 -0.06881845
-0.017563343 -0.050696373 0.21373197 0.12077406 0.1877194 0.118098736 0.031633824 0.16044173
-0.19234905 0.14923464 0.13611731 -0.14371863 -0.0153538445 -0.23136933 -0.2806007 -0.0023940455
0.053987205 -0.06718943 0.08035662 -0.24301782 -0.1683062 0.20596193 -0.29342243 0.04734373
0.23212528 0.22603923 0.0965895 -0.2746469 0.026346527 -0.106028974 -0.0841435 0.23101574
-0.10381731 -0.2358878 -0.24396403 0.16809839 0.020295855 0.28950512 0.046911005 -0.28098407
0.074596226 0.2758962 0.18700626 0.0832206 -0.22652669 -0.18079662 0.20473051 -0.20399164
0.058249235 -0.038630545 0.10103062 0.015439307 -0.22772193 -0.12909158 0.25590596 0.035668626
0.14218739 -0.16842017 0.23868865 -0.064542696 -0.10162856 0.06116295 -0.108035535 -0.12116219
-0.043144852 -0.018477598 -0.17670909 0.098556064 -0.2922195 0.17983466 0.2796408 0.04877937
-0.070450634 -0.2761545 0.14159048 0.24730925 0.25121737 0.019678887 0.100240946 0.28666288
0.045078855 -0.15280485 -0.2862634 0.13182405 0.108120345 0.26559258 -0.15350103 0.12375946
-0.09975633 -0.08435463 0.15935811 -0.2763888 0.22225523 0.14023247 -0.19992822 0.14347465

trunk.2.weight f4 [256, 256]
00000000: d8c8 80bc 6050 b83b 880a 89bc 2aa7 7abd
00000010: 701b d4bb 98d0 f93c 4047 eebb 881d fcbc
00000020: c0c8 013b f0dd 3a3c 24db 8ebc 2086 46bd
00000030: ae40 09bd 20f2 26bc a464 b83c 6ea7 633d
00000040: c008 983a 4c51 b73c 864b 133d 2c42 dfbc
00000050: e8e3 a9bc 6ace 293d 004b 373d 58a5 723c
00000060: 12d5 45bd 584d 113d 2e95 53bd b8e8 ff3c
00000070: a0b7 f23b 3062 a53c 1489 79bd ac01 b4bc
00000080: d471 d93c 280a 453d ac94 92bc b649 643d
00000090: c083 64bc ce67 1abd e0b7 ddbc c0e1 7e3b
000000a0: b8ff 35bc 5ccf f73c 0ead 0dbd 20a6 91bc
000000b0: 08b3 7dbd 52f5 503d c8ad 40bc d2ce 49bd
000000c0: 20a6 45bb 0040 efb8 6432 8e3c 60ca e0bb
000000d0: 480a 213d f4a6 b0bc 3c3f 99bc 482b 73bc
000000e0: 90d0 363c c61c 4d3d a078 3cbb 4cf9 443d
000000f0: 9219 493d 5049 05bd f0f6 afbb b8b1 f1bc
00000100: 8cfa d43c dc00 b4bc 802f 9c3c c0b6 743b
00000110: 1e0e 28bd 781b 2cbd a40a 7abd a033 0fbd
00000120: 8807 8f3c 608d 793b c289 403d c01a 61bd
00000130: 8062 efba d88a 65bd 00d0 bf39 548a ba3c
00000140: a2a4 65bd 4816 623d c805 9fbc 44d3 623d
00000150: 28e1 2bbc 8c3b 113d 3eb9 683d d867 babc
00000160: b8eb 78bc 9047 063d 662b 5bbd 9888 173d
00000170: 08cc 20bd 70c3 6d3d 06c6 27bd a0b1 d2bc
00000180: 0206 3f3d 04eb debc 446e 5b3d 0c22 303d
00000190: a8fc 693d de22 78bd 00a1 373a 5c67 a8bc
000001a0: a8eb 733c 084b 41bd 98f2 d13c 000b 42bb
000001b0: 4004 f2bc 6c4c 66bd cce7 053d a44b b9bc
000001c0: 76e5 3c3d 6849 363c 48b8 9b3c e84d 1bbc
000001d0: 38d9 0dbc 6cee adbc aeab 5dbd 3ef2 203d
000001e0: b436 21bd d834 153d 4cb0 acbc 4660 203d
000001f0: ce65 5b3d 3892 1cbd c062 533d c0a8 c73a
00000200: fc90 43bd 2001 d13c 0ef5 103d c0aa 613d
00000210: 0cb1 73bd 8a28 673d 5013 423d ccd7 7b3d
00000220: 8685 0b3d d0e3 f8bc 6034 423d 76f6 693d
00000230: fcc5 c3bc 2862 27bc 0854 483d 5613 4e3d
00000240: 341c 293d 3e21 443d d88e 03bd c8a7 30bc
00000250: 6c8c ccbc 8e0d 053d 8831 7f3c 7cbf 45bd
00000260: 58a0 00bc aac1 50bd 08ed 70bd 7260 693d
00000270: fcc5 00bd 5485 e43c d805 64bc f85b 4fbc
00000280: 0050 29b8 56a9 473d f8a7 0dbc cad4 533d
00000290: a0c9 153d 449e 2f3d 3e2d 68bd a868 efbc
000002a0: c691 50bd 687c 59bc c817 54bc a814 503c
000002b0: 565e 653d e4d6 e53c ba23 32bd 788c 20bd
000002c0: 984e 413d c0dd cb3b 78a4 903c a4e5 05bd
000002d0: 80c0 f9bb d8c4 913c 62fe 27bd d214 273d
000002e0: f426 ff3c c64a 15bd 20f6 d1bc 50be 70bc
000002f0: 785c 1f3c d4cf bbbc 20e5 743d e294 76bd
00000300: eab0 10bd f262 1bbd 4c6f 8a3c 1050 113c
00000310: c4e5 91bc 3a7c 5a3d 28fe 5cbd 5874 b43c
00000320: 4add 0cbd 702c 69bc 3287 76bd 161b 3fbd
00000330: f833 59bd 4c5f df3c 6442 c0bc eee9 053d
00000340: 2abd 0abd 00b6 7dbc 80e7 f73b 3a82 563d
00000350: b0fd 89bc a668 143d 143f 8d3c 2ab3 1b3d
00000360: a2b7 213d 1cc7 cf3c 6864 9abc 84b3 8fbc
00000370: 8052 c73c e887 0b3d 209e 5abb 9653 003d
00000380: b603 1abd e64b 103d f051 fbbb 082c 30bd
00000390: ccc5 f8bc ba81 43bd 008f 4e3c d4d2 17bd
000003a0: 3c9e 92bc 4051 80bb 7e33 1cbd 005a d23a
000003b0: 60f5 01bc 042c a23c b4ef 383d 108a 1abd
000003c0: 90f7 0b3d 0090 adba 6c51 12bd f832 e8bc
000003d0: cc52 823c e835 553c 404d 04bb 9ce5 febc
000003e0: 8619 013d 88ee 173c 94dd 78bd d8f7 34bc
000003f0: 78e9 8abc ac79 dabc ac00 0ebd e4ae 4fbd
-0.01572077 0.005624816 -0.016728655 -0.061194576 -0.0064729974 0.030494973 -0.0072716773 -0.0307758
0.0019803494 0.011405453 -0.017438479 -0.048467755 -0.03350895 -0.010189563 0.022508927 0.055579595
0.0011599287 0.022377633 0.035960697 -0.027253233 -0.020738557 0.041456617 0.04474926 0.014809929
-0.048298903 0.03547415 -0.05165594 0.031238899 0.0074071437 0.020188421 -0.060921744 -0.021973453
0.026543535 0.04810539 -0.017893158 0.05573436 -0.013947427 -0.037696652 -0.027065217 0.0038891882
-0.011108331 0.030250244 -0.034588866 -0.01777941 -0.061938316 0.051015206 -0.011760183 -0.049269505
-0.0030158833 -0.00011408329 0.017358012 -0.0068600625 0.039316446 -0.021563984 -0.01870691 -0.014841862
0.011158124 0.05007627 -0.0028758422 0.04808931 0.04909665 -0.03254062 -0.0053700134 -0.029503688
0.025998376 -0.021973066 0.019065619 0.0037340373 -0.04102909 -0.042018384 -0.061045304 -0.034961343
0.017459646 0.003807865 0.047006376 -0.05495715 -0.0018263608 -0.056040615 0.0003658533 0.022771038
-0.05606521 0.05519703 -0.019411936 0.05537726 -0.010490693 0.03545718 0.056817286 -0.022754595
-0.0151929185 0.03278309 -0.053508185 0.0369955 -0.03925708 0.05804771 -0.040960334 -0.025719464
0.04663659 -0.027211674 0.053571954 0.04300122 0.057125717 -0.060580127 0.0007004887 -0.020557098
0.014887728 -0.047190696 0.025628373 -0.0029608607 -0.029543042 -0.056225225 0.03269176 -0.022619076
0.04611727 0.0111259 0.01900877 -0.0094790235 -0.008657746 -0.021231852 -0.054118805 0.03929352
-0.03935881 0.03642735 -0.021080159 0.039154314 0.053563885 -0.038225383 0.051607847 0.0015232787
-0.04774569 0.025513232 0.035389952 0.05509448 -0.059495017 0.056435145 0.0473817 0.061485097
0.034062885 -0.030382067 0.04741323 0.05711981 -0.023898117 -0.010216273 0.048908263 0.05031141
0.041286662 0.047883265 -0.03211865 -0.01078219 -0.024969302 0.03248363 0.015575774 -0.048278317
-0.007850729 -0.050965942 -0.0588198 0.056976743 -0.031438813 0.027895607 -0.013917409 -0.012656204
-4.0367246e-05 0.048745476 -0.008646004 0.051716603 0.036569238 0.042875543 -0.05668377 -0.029224709
-0.05092027 -0.01327429 -0.012945123 0.012700237 0.05599817 0.02805657 -0.043491103 -0.03919646
0.047194093 0.006221503 0.01765655 -0.032689705 -0.0076218247 0.017794058 -0.041014083 0.04079134
0.031146504 -0.036448263 -0.025630057 -0.014693812 0.009726636 -0.022926249 0.059788823 -0.06020058
-0.03532497 -0.03793616 0.016898774 0.008869186 -0.017809756 0.053341128 -0.05395332 0.022028133
-0.034390725 -0.014231786 -0.060187526 -0.04665669 -0.053028077 0.02726712 -0.023469158 0.032693796
-0.033871807 -0.015485287 0.0075654387 0.052370287 -0.0168446 0.036232613 0.017241992 0.03801266
0.039481767 0.025363497 -0.018846706 -0.017541654 0.024331331 0.034065157 -0.003335841 0.031329714
-0.037601195 0.035228632 -0.00766968 -0.04301074 -0.030367754 -0.04773114 0.012607336 -0.037066296
-0.017897718 -0.0039159358 -0.038135044 0.0016048551 -0.007932037 0.019796379 0.045150474 -0.037729323
0.03417164 -0.0013241768 -0.03572218 -0.028344616 0.015908621 0.0130133405 -0.0020187646 -0.031115346
0.03151848 0.009273179 -0.06075819 -0.011045419 -0.01695703 -0.026669346 -0.03466861 -0.050703898

trunk.2.bias f4 [256]
00000000: c875 16bd 1e0e 28bd 9ad0 2d3d f8b8 08bd
00000010: 48ba 23bc dedf 6a3d d715 5b3d 6545 4f3d
00000020: 98a6 2cbd c6fd 3b39 9f83 9ebb c0b2 973a
00000030: 5225 763d b3ce d23c 6b7b 73bd 902f 633d
00000040: 3af9 543d b21c 45bd 8c77 54bd 56ee 4c3d
00000050: 0f78 c1bc 6e34 4bbd 2800 d63c f373 813b
00000060: 0f13 0d3d 2610 59bd f4d9 5d3d 4db3 ebbc
00000070: 1e25 18bd ce66 b63c 186e 50bd 994e 63bd
00000080: 80e2 41bc c22c 3bbb f91e c8bc a23d 58bc
00000090: 1e6e 6fbd 9559 1c3d d278 d1bb f836 1c3c
000000a0: b075 1a3d 56a8 083d 6bc0 373d 469e 113d
000000b0: 5b87 363c 4a0b 1abd a4e4 1a3d a8f7 4abc
000000c0: 70c1 ae3c fdb3 5d3d 5c8f 1fbd a6a5 31bc
000000d0: 32a3 33bd 905a 9cbb 6932 afbc 065d 32bd
000000e0: 8ca3 a8bc 6a54 963c fc7b 3abd f901 49bc
000000f0: 4247 3a3d caec 573d 4a21 73bd 12ad 0b3d
00000100: 58ed 153c 0d2b 6d3c 5e9e 1f3d 8c81 4c3d
00000110: 6086 10bd a060 363d d6c6 04bc c2e2 993b
00000120: 4992 8c3c c0e5 68bd 2cf1 07bd 081f 94bd
00000130: 78b3 363c 6ab2 ea3c b04f c7bc 84d8 883c
00000140: 57f3 72bc 40c9 9abc 56b3 4fbd acd3 623c
00000150: a52f f9bb f204 943c 7b93 543d bbd6 65bd
00000160: af57 0fbc c768 c2bc 168b 1f3d c86a 463d
00000170: 644a 513d 0e32 86bb b692 e03b 64f9 b9bc
00000180: b35f 89bd 776c 83bd a497 b93c 53eb 55bd
00000190: 9e28 14bd b8d0 953c 5208 7abd 3ebf 213d
000001a0: c7f4 273d c026 80bb 96fa 3c3c 9ba6 103d
000001b0: 381d c13c c1ab 82bd 051a b33c d1de 80bd
000001c0: 119b 33bd 2a92 7ebd 9040 0abd cca8 c1ba
000001d0: 6060 833b cba3 4bba a0fe 333b b3f3 62bd
000001e0: 04cd 4c3c c036 b7bc 802c 203d 3451 373d
000001f0: 806e 82bb 2612 2b3a 56df 12bd 24c2 d83c
00000200: b11e 4f3d 3081 833c 940d 693c 2f73 85bb
00000210: 0ee3 28bd 1684 40bc f299 28bd 6747 333d
00000220: 08a6 1abd 3c78 41bd f6f2 423c 420e d4bc
00000230: bff9 17bc 9531 683d 5c70 013d 133c 343d
00000240: db54 89bc b72f c9bc 893c 42bd 103c 623c
00000250: 098e 273d 769e 2bbd c0a5 debc 00d4 4a3d
00000260: 0a77 16bd 444a f03c 2444 1b3d 1449 0c3d
00000270: a9b2 29bd ee42 cabb 98c0 343d a0b0 6a3d
00000280: 830f f93c e891 19bd 52b4 1a3d 551b dabc
00000290: 6647 723d 3881 1ebd 9209 753d 9af6 5a3d
000002a0: cf7b 41bc 974a 00bd 0347 80bd 8434 0cbc
000002b0: bcd1 06bd 4c67 17bc a8d8 5cbd dc84 9b3c
000002c0: ac14 303d 48be 183c 2dfb 413c d25e 1d3d
000002d0: 4453 9c3c 7f9a 31bd 301e 583c f159 89bc
000002e0: 10f3 73bc e84d b9bc 1898 ed3c fa39 6dbd
000002f0: 8759 82bd 4f61 8a3c 09c8 80bd 6ca8 aa3c
00000300: 2401 bcbc 60e0 163b 0cca ecbc e6cd 113d
00000310: 508a 93bc e49b a2bc e42d a43c f860 d6bb
00000320: 0477 403d 9465 1c3d a027 78bb b77e 0bbd
00000330: 1798 8b3c 8c12 5c3d e935 25bc 14b1 983c
00000340: ebbe 31bd b4e0 033d 487c 72bc 92dd 81bd
00000350: 58e1 3ebc 29da ae3c b465 c0bc 4ab8 03bd
00000360: f02e 19bc f6d0 1c3d 22ff 23bd f893 75bd
00000370: 6486 05bd 5408 69bd 4164 4b3d 809d 323c
00000380: d201 283c ce01 773c a1d0 213c 198b 48bc
00000390: 107f d53c 607a 8cbd 8092 4aba 1b84 84bd
000003a0: 4378 5dbc 5fb5 6dbd 70a3 ba3b 6c7e 723d
000003b0: f225 603d 4812 0d3d b396 083d 0443 64bd
000003c0: 498f 313d ab39 1c3d cbf8 82bc 3c8d 893c
000003d0: 51ec 4ebc 0c7e c63c 2919 0c3c ca72 4b3c
000003e0: b068 e53c cc4b 83bd 1417 913c 2a35 f9bc
000003f0: b0fc 38bc 0371 78bd 0777 52bd 0ad2 143d
-0.03673342 -0.04102909 0.042435266 -0.033379525 -0.009993143 0.057342403 0.053487625 0.05060329
-0.042151064 0.00017928248 -0.004837468 0.0011573657 0.060094185 0.025733327 -0.059443872 0.05546528
0.051995493 -0.04812307 -0.05187182 0.050031982 -0.023616819 -0.049610548 0.026123121 0.00395059
0.034442004 -0.052993916 0.054162934 -0.02877202 -0.037144773 0.022265818 -0.050886244 -0.05549488
-0.011833787 -0.0028560613 -0.024428831 -0.013198288 -0.058454625 0.03817137 -0.0063925767 0.00953459
0.03770989 0.033363663 0.04486124 0.035551332 0.01114067 -0.037608422 0.037815705 -0.012388147
0.021332473 0.05412673 -0.038955078 -0.010842716 -0.043856807 -0.004771538 -0.021386342 -0.043545745
-0.020585798 0.018350799 -0.045528397 -0.012268537 0.045478113 0.052716054 -0.05935792 0.0341006
0.009150825 0.014475596 0.03896939 0.049928233 -0.0352844 0.044525743 -0.008104047 0.004696221
0.017159598 -0.05685973 -0.033188984 -0.07232481 0.011151187 0.028649528 -0.02432999 0.016704805
-0.014828525 -0.018894792 -0.050708137 0.013844412 -0.0076045566 0.018068764 0.05189846 -0.056112986
-0.008748933 -0.023731602 0.038951002 0.04844168 0.051096335 -0.0040953225 0.006853427 -0.022701927
-0.06707706 -0.064171724 0.022655316 -0.052226376 -0.036171548 0.018288001 -0.06104309 0.039489023
0.041004922 -0.0039108694 0.011534354 0.035315137 0.023573503 -0.06380416 0.021862993 -0.06292499
-0.043849055 -0.06215111 -0.033752978 -0.0014775037 0.0040092915 -0.00077682425 0.0027465 -0.05540819
0.012500051 -0.022364974 0.03910494 0.044755176 -0.003980458 0.00065258367 -0.03585752 0.026459761
0.05056638 0.016052812 0.014224429 -0.004072569 -0.04123216 -0.011750242 -0.04116244 0.043769266
-0.037755996 -0.047233805 0.011898747 -0.025885705 -0.009275853 0.05668791 0.031601295 0.044002604
-0.016764095 -0.024558885 -0.047421012 0.013808265 0.04090694 -0.041899167 -0.027178645 0.049518585
-0.03673462 0.029332288 0.03790678 0.03424938 -0.04143015 -0.0061725294 0.044128984 0.05729735
0.030402904 -0.037492663 0.037769623 -0.026624361 0.059150122 -0.03869745 0.05982358 0.053457834
-0.011809303 -0.031321134 -0.062635444 -0.008557443 -0.032914862 -0.0092409365 -0.053917557 0.01898425
0.042988464 0.00932271 0.01183967 0.038420506 0.019082673 -0.04336023 0.013190791 -0.01676652
-0.014889494 -0.022620156 0.029003188 -0.05791662 -0.06364732 0.016892103 -0.06288154 0.020832263
-0.022949763 0.0023021922 -0.028904937 0.03559675 -0.018010288 -0.019849725 0.020041414 -0.0065423213
0.046988502 0.03818281 -0.0037865415 -0.03405639 0.017040296 0.053728625 -0.010083654 0.018639125
-0.043394964 0.032196715 -0.014800139 -0.06341089 -0.011650406 0.021344261 -0.023485996 -0.032158174
-0.00934957 0.03828522 -0.040038235 -0.059955567 -0.032598868 -0.056892708 0.049656156 0.010901809
0.01025434 0.015076114 0.009876401 -0.012240195 0.026061565 -0.06859279 -0.00077275187 -0.064705096
-0.013517442 -0.058034297 0.005695753 0.059202597 0.054723687 0.034441262 0.033346843 -0.055727974
0.043349538 0.038140934 -0.015987774 0.016790979 -0.012629584 0.024230026 0.0085509205 0.012417505
0.02800402 -0.064109415 0.0177112 -0.030420858 -0.011290714 -0.06065465 -0.051383045 0.03633312

heads.0.weight f4 [3, 256]
00000000: e081 a23b 30ef bf3b 20e2 ee3b 28bc efbc
00000010: 6851 91bc 220c 3a3d 2ee4 603d 9a5c ec3c
00000020: 907e e8bb 59c3 5b3d 7637 6dbc 5e62 2d3d
00000030: 1a0b 343d d567 11bd 276f 1ebd 828b 2fbd
00000040: dd77 b33c 7488 813c 3872 f33c 4031 b23b
00000050: 734f 083c c6c2 473d d4a7 f8bc 1299 233d
00000060: 4ddc c5bc 81dd 573d 13aa 60bc 1239 a7bc
00000070: bc4f 37bd e224 543c c01f a4ba 513b 1bbd
00000080: a43b 22bd 8bcd d03a bcaf 29bc 5d5d 6f3c
00000090: 404c b73c 4b7d 1cbc 28fc 02bd a43d a5bc
000000a0: 8e1e 283d 20b5 5b3c 1d24 1bbb 0093 49bb
000000b0: e4cd 273d 4c11 c63c f93f 863d d456 66bd
000000c0: 1676 643c 95cd 17bd 10ee 253d b2ee b43c
000000d0: 2e0d 6c3d c62e 453d b5a4 7e3c 10f3 f8bb
000000e0: 62ac 643d bf68 55bb d438 b7bc 41c9 183d
000000f0: 5c7c 2d3d 2294 7e3d c893 4d3d 13d6 7bbc
00000100: 32b6 6f3d afb0 6abd ee48 6f3d 0c1e 65bd
00000110: 4436 183a 0598 5b3c b945 c83c 4916 513d
00000120: 4e45 e1bc fffe 033d 26c0 3d3d 8f73 4ebb
00000130: 188e 11bd 57cb c8ba 68c9 42bc a625 7e3d
00000140: 9668 793d 4e3e 6bbd 7f03 32bd 5000 e43c
00000150: cef7 853c 3b39 ec3c 3ae8 663d 10b3 9abc
00000160: 0b7e 6e3c c1d2 653c 4202 143d 196e a3bc
00000170: 8cef fa3c 10bb 8f3d d503 f13b fc26 bcbc
00000180: 6c88 e1bc b93e 143d 6212 443d 31e2 bb3b
00000190: d27b 67bd b699 0e3d 7791 c53c 801f 80ba
000001a0: 5131 0b3d 3c06 b9bc 36e9 903d 2d5d 85bd
000001b0: d803 4bbc 5311 2f3b 0114 43bd 5a78 6a3d
000001c0: 0de0 b93c 62c2 233d 4cae b1bc b292 043c
000001d0: cc2e ca3c 2285 103d 08a3 6fbd 9559 e53c
000001e0: 59c2 49bd 652a 5bbd 1c6d f2bc 1471 113d
000001f0: 7cf3 1f3d b1d7 72bd 2460 df3c 3233 303d
00000200: efcc 34bd c0dd 9c3b bbb6 883d 1a40 653d
00000210: eae4 433d bda2 46bd a686 5c3d 121f b33b
00000220: 25b5 533d 78cf 61bc 8630 1dbd b8ec 253d
00000230: cc2a 353c 62ac 36bd 20ae 54bb beca 803c
00000240: a765 30bb b9c7 01bd f236 d1bc 20e0 e5bb
00000250: 3635 75bc b0f4 663d da37 19bd 00a3 ff3c
00000260: 9dc9 30bd 685e 84bc 8a86 18bd e60c 13bc
00000270: fefa 67bd 8625 ce3c 389f 82bc a6bf 0a3d
00000280: 4647 fb3b 547d 1abd 823c 6c3d d157 83bd
00000290: dca8 0bbd caa1 03bd 5662 4f3d bc7d eebc
000002a0: c1ad 263d bf4e 703d 909e 353d 0b71 373c
000002b0: 6ee6 0e3d 9c3f 3c3d 12f1 12bd cefc 3a3d
000002c0: d40e 72bd 1374 d6bc 0291 39bc b8a1 56bc
000002d0: d67d 8fbc 24b1 e03c 2f61 133c c0c0 853c
000002e0: 70b8 bc3b 3cf8 b6bc 0857 723d 2c86 053d
000002f0: f593 d0bc 02ff 82bd 8f6b abbc cc67 18bd
00000300: 1040 1fbd 3c0b 4bbd 3d61 423d e8fa edbc
00000310: 0012 92b9 1c79 45bd 4c01 693d ed7c f8bc
00000320: f8e8 04bc 77b0 8abd b5d0 f03c f4fa f23c
00000330: 8d29 e03a 54a1 3d3d 32ab 83bd 6cee a73c
00000340: d9ff bc3c 880e 1bbd d26b 2d3d ec0a 65bd
00000350: 04e3 773d 35cf 733c 5eaf 393d 6ef2 0bbd
00000360: b0ac 7b3d feb6 15bd 50bf 3fbc 1cde 01bd
00000370: 2033 3e3d 20b8 c9bc a746 513d 60f9 723b
00000380: 5909 523d 35fd 083c de12 d0bc b906 463d
00000390: 468b 443d 5146 cd3b 78a8 73bc 1726 433d
000003a0: f7d8 ebbc c002 e43c 2031 7ebb a4ee e53c
000003b0: 8ef9 02bd 6904 24bd b57b 2b3d ea82 5dbd
000003c0: e81f aa3c 618a 6ebc 5da8 b03b 385d 75bd
000003d0: 202b a5bb 2812 f53c b79a 6abc 520f a2bb
000003e0: 6cd8 f5bc e142 833c c0eb ee3c 47c6 063c
000003f0: 2066 f73b 0ba0 23bd 7d08 2a3d fb2e fbbc
0.00495933 0.005857371 0.00729014 -0.029264525 -0.017739013 0.045421727 0.05490511 0.02885275
-0.0070951656 0.053653095 -0.014478555 0.04233014 0.0439559 -0.035499413 -0.038680222 -0.042857654
0.021907741 0.015812136 0.02971755 0.005438 0.008319723 0.048769735 -0.030353464 0.0399409
-0.0241529 0.052701477 -0.013712424 -0.020412955 -0.044753775 0.012948247 -0.0012521669 -0.037898365
-0.03960766 0.0015930397 -0.01035684 0.014609662 0.022375226 -0.009551357 -0.031978756 -0.020170994
0.041044764 0.013409883 -0.0023672648 -0.0030757785 0.040967837 0.02417817 0.065551706 -0.05623515
0.0139441695 -0.037061293 0.040510237 0.022086475 0.057629757 0.04814031 0.015542199 -0.0075973347
0.05582846 -0.0032563654 -0.022365965 0.037301306 0.042354926 0.06215299 0.050189763 -0.0153708635
0.058523364 -0.057297405 0.05841916 -0.055936858 0.0005806426 0.0134029435 0.024447309 0.051046643
-0.027498867 0.032225605 0.046325825 -0.0031501984 -0.0355359 -0.0015319389 -0.011888839 0.062047623
0.060890757 -0.057432465 -0.043460365 0.02783218 0.016353514 0.028835883 0.056373812 -0.018884212
0.014556418 0.014027298 0.036134966 -0.01994996 0.030631803 0.07018101 0.007355193 -0.022967808
-0.027530871 0.03619263 0.047869094 0.005733751 -0.05651457 0.03481456 0.024117215 -0.0009775013
0.03398258 -0.02258598 0.070757315 -0.065119125 -0.012391053 0.0026713207 -0.0476265 0.057243682
0.022689844 0.0399803 -0.021689557 0.0080916155 0.024680518 0.035283215 -0.058505088 0.027996818
-0.04925761 -0.053507227 -0.029593043 0.03550823 0.039050564 -0.05928773 0.027267523 0.043017574
-0.044140752 0.004787177 0.06675478 0.055969335 0.04782573 -0.048495043 0.05383935 0.0054663504
0.051686425 -0.013782375 -0.038376354 0.040508956 0.011057567 -0.04459799 -0.003245242 0.015721675
-0.0026916058 -0.03168461 -0.025538895 -0.007015243 -0.0149663 0.056385696 -0.03740678 0.031205654
-0.043161023 -0.016158298 -0.03723768 -0.008975243 -0.05663585 0.025164377 -0.015945062 0.033874176
0.0076684086 -0.03771718 0.057674892 -0.06413234 -0.034096584 -0.032136716 0.05063089 -0.02911269
0.04069305 0.058668848 0.04434067 0.011196385 0.034887724 0.0459591 -0.035874434 0.04565125
-0.059096172 -0.026178395 -0.011326076 -0.01310008 -0.017516058 0.027428217 0.008995338 0.016327262
0.0057592914 -0.022335164 0.05916503 0.03259866 -0.025461176 -0.06396295 -0.020925311 -0.037208363
-0.038879454 -0.04957126 0.047456015 -0.029050305 -0.000278607 -0.048211202 0.056886002 -0.030333007
-0.008112185 -0.06771939 0.029396394 0.02966068 0.0017102227 0.046296433 -0.06429137 0.02049943
0.023071216 -0.037855655 0.042339154 -0.05591862 0.060519233 0.014880945 0.04533326 -0.034166746
0.061443985 -0.036551468 -0.011703327 -0.03170596 0.046435475 -0.02462393 0.05109277 0.0037074909
0.051278446 0.0083611505 -0.025399622 0.048346255 0.047984384 0.006264486 -0.014871709 0.047643747
-0.02878998 0.027833343 -0.0038786605 0.028067894 -0.031976275 -0.04004327 0.041866023 -0.054079928
0.020767167 -0.014559359 0.005391164 -0.059903353 -0.0050405413 0.029915884 -0.014319113 -0.004945674
-0.030010425 0.016023101 0.029165149 0.008225984 0.007550016 -0.03994755 0.041512 -0.03066205

heads.0.bias f4 [3]
00000000: b7a8 07bd ebdc 673d 4af9 88bc
-0.033119883 0.05660717 -0.016720433

heads.1.weight f4 [3, 256]
00000000: 9ec0 35bd 4044 e9bb 348f 2cbd 0cd5 2bbd
00000010: 1c5a 95bc 6645 04bd fe9c 6abd d810 c2bc
00000020: 905f da3b 6d7a 4b3d effc 673d 881d 1c3c
00000030: 9023 21bd 13bf be3c 7082 5abd c03b 6b3c
00000040: b829 9abc c0b0 b23a 3077 f63c 2066 013c
00000050: 1b3f 8a3c 6ab1 07bd 3a60 433d 74e4 2cbb
00000060: 8e18 be3c b601 3bbd e6e8 3f3d 90f9 dd3c
00000070: 280c 583c cda3 f13c 98c8 533c fad6 47bc
00000080: da65 5fbd 8b55 5bba eff5 a4bc 330f 513d
00000090: 3092 c9bb 177f 18bd 82b7 6bbc 707f babb
000000a0: e4bf 673d 08c2 003d ade7 9fbb 8e9e 5bbd
000000b0: 8ded 56bd 0e0f 633d 1637 0c3c c0d3 b3bc
000000c0: c2ee 42bc 5c30 893d c6c3 4bbc 5186 883d
000000d0: 683c bc3c 8063 f0ba 8d4d 693c 5cdb 8fbc
000000e0: 1047 c0bb b08e 9d3c fcbd 2fbd 62c3 f2bc
000000f0: b2f7 15bd da7d 17bd ce55 613d c715 493d
00000100: 74a6 543d 9ecf 2e3d e0d2 693c f06f 483c
00000110: 2750 563c 4249 623d 0bce 433d c1d4 14bb
00000120: 8a05 62bd 4e95 bc3c 8aeb e63c 914e 1abc
00000130: a00b 363d 9858 e73c 9e87 24bd b0bf 773d
00000140: a138 3cbd c082 943b b031 22bd 79fa e73c
00000150: ba6a dfbc 010e 023c b813 78bc a890 11bd
00000160: 505c 233d 0268 20bd cebb 4c3d 5faa 3cbd
00000170: e2be 6cbd 66fa 6abd 89fd c93c 4014 4bbb
00000180: 2204 40bc 55f1 583b bc2b 41bd e2b9 4bbd
00000190: 00bc 2e3c 9ede 1fbd 942c 35bd 306c aebb
000001a0: 7906 0ebd 50bb 59bc b398 db3c 943f 0f3d
000001b0: e010 713c 7b87 0cbd d478 c33b 412b 283d
000001c0: 4304 eebc a2bd 143d 7006 ac3c c603 69bd
000001d0: 60b7 463c 8cea 513b fed5 20bd 9bf4 9dbc
000001e0: 642d ac3c 1ccc 5d3c 467c 5c3d 5f0e a7bc
000001f0: d067 763d e1c2 dc3c d836 d53c 0012 7c3a
00000200: afb8 e1bc 36f3 5cbd 8edb e63c ca0a 273d
00000210: 1035 893c 2d1e 933c 2aab 7b3d cfd3 36bd
00000220: 8dfa 2fbd 6099 f3bb cd63 d63c 6e40 553d
00000230: e2ac 553d 30de 253c 4037 ff3c b9f5 773d
00000240: 5d0f 1a3d 8922 fa3a 19da 97bc 6839 87bc
00000250: f55e 563d 0050 80bd 8e63 7a3c b8bc 243c
00000260: a019 09bc 88c2 22bd 4b3c 21bd 807f 083a
00000270: 0c5b 42bd 948e d73c 80cb 3ebd 6082 79bc
00000280: c85d 0fbc 5012 d03c f0cd 3b3d a480 703d
00000290: 2f89 9aba 7c5b 7ebd 8c1a 8bbc 007c 133c
000002a0: b665 af3c d944 3a3d a470 5fbd dc0f a0bc
000002b0: 5cd0 243d 03c0 ef3c bc5b bcbc c081 913c
000002c0: 40b4 253d 4b06 4ebb 89ef 49bb 462b 4d3c
000002d0: c43c 05bd 6c84 81bd 7096 0d3d b442 4c3c
000002e0: b224 30bd a8ec 293c c4fd a7bc ce9c 613d
000002f0: 84d5 0abd 9c74 3e3d 3ccb ac3c 205f ed3b
00000300: 1446 8d3c 48e5 183c d1f9 053d 8c07 eabc
00000310: 7060 8dbc 842d f4bc 2ffc 9e3c a64e 22bd
00000320: 64f6 073d 9722 04bc e399 883d 3d13 753c
00000330: d01e 6bbd f8cb 1f3c c53a 8e3c 0403 26bd
00000340: 2e5e 753c 0c4b b33c 9076 72bd 7721 54bd
00000350: 60e5 4fbb 571b 8f3c 91ef f2bc a609 fabc
00000360: 4c0e 02bd 6080 613c 6899 b8bc 4a38 d8bc
00000370: 60da b03b b0e1 efbb 3b48 50bb 8e97 223d
00000380: 423a 71bd c048 71bc a70f 11bb fefc ea3c
00000390: e44d 10bd 3bda 863b e298 6ebd 46c8 403d
000003a0: 9a6a e73b 7b2a 90bc d2fa 5cbd fe87 3d3d
000003b0: 5831 2f3d e369 1a3d c39c 10bd 0014 ffb9
000003c0: 7d7a 0abd 07fd 21bd 9b1f 42bd 1e9a 223d
000003d0: f30f 64bc 9a90 033d b734 83bc 09ed 8bbb
000003e0: 80b7 19ba 2ab1 3abd 40d2 51bd 486d aa3c
000003f0: 00c7 ffba 1935 35bb 266b de3a 8355 6e3a
-0.044373147 -0.0071187317 -0.042128757 -0.041951224 -0.018231444 -0.032292746 -0.057278626 -0.023689672
0.006664224 0.0496773 0.0566377 0.009528525 -0.039340556 0.02328447 -0.05334705 0.014357507
-0.018818721 0.0013632998 0.03008613 0.007897884 0.016875794 -0.03312818 0.04769919 -0.0026381286
0.023205068 -0.04565593 0.04685297 0.02709654 0.013186492 0.029497052 0.012926243 -0.0121972505
-0.054540493 -0.0008366934 -0.020136802 0.051039886 -0.00615146 -0.037230577 -0.014387013 -0.0056914613
0.056579486 0.031435043 -0.004879913 -0.053618006 -0.05247264 0.05543428 0.008558055 -0.021951556
-0.011897745 0.06698677 -0.012436813 0.06666244 0.022978023 -0.00183402 0.014239681 -0.017560653
-0.0058678463 0.019233078 -0.042905793 -0.029634181 -0.036613174 -0.036985256 0.05501347 0.049093034
0.051916555 0.042678468 0.014271468 0.012233719 0.013080633 0.055245645 0.04780392 -0.002270982
-0.055181064 0.023020413 0.028188486 -0.009418146 0.04444468 0.028240487 -0.040168397 0.06048554
-0.045952443 0.004532188 -0.039598167 0.028317677 -0.02727257 0.007937909 -0.01514142 -0.035538346
0.039882958 -0.03916169 0.049983792 -0.046060916 -0.057799228 -0.057367705 0.024657028 -0.0030987412
-0.011719735 0.003310283 -0.04716085 -0.04973782 0.01066494 -0.039030664 -0.044231966 -0.0053229555
-0.03467414 -0.013289288 0.026806211 0.034972742 0.014713496 -0.03430889 0.0059653316 0.041056875
-0.029054767 0.03631366 0.020999163 -0.056888364 0.012128681 0.003203067 -0.03926658 -0.019281676
0.021017738 0.013537433 0.053829454 -0.020392595 0.060157597 0.026948394 0.026027128 0.00096157193
-0.027553884 -0.05394288 0.028180864 0.040781774 0.016748935 0.017958725 0.06144253 -0.04463559
-0.042963553 -0.007434055 0.026170636 0.052063398 0.052166827 0.010123774 0.031154275 0.060537074
0.037612308 0.0019083779 -0.018536614 -0.016506866 0.05233665 -0.06265259 0.015282525 0.01005476
-0.008367926 -0.0397363 -0.03936414 0.0005206987 -0.04745011 0.026313104 -0.04658079 -0.015228838
-0.008750387 0.025399357 0.045850694 0.05871643 -0.0011790151 -0.062098965 -0.016980432 0.009001732
0.021410804 0.045475814 -0.05455078 -0.019538812 0.04023777 0.029266363 -0.022992961 0.017762065
0.040455103 -0.0031436856 -0.003081294 0.012522524 -0.032528654 -0.063240856 0.034567297 0.012467075
-0.043003745 0.010371365 -0.020506747 0.05508118 -0.03389503 0.046497926 0.021093003 0.007244006
0.01724533 0.009332009 0.032708947 -0.028568052 -0.017257899 -0.02980686 0.01940736 -0.039625786
0.03319396 -0.0080648875 0.066699766 0.0149582 -0.057402432 0.00975322 0.017362008 -0.04053022
0.0149760675 0.021886371 -0.0591951 -0.051789727 -0.0031722412 0.017469091 -0.02965525 -0.030522179
-0.031751916 0.013763517 -0.022534087 -0.026394028 0.005397126 -0.007320605 -0.0031781334 0.039695315
-0.05889345 -0.014726818 -0.0022134574 0.02868509 -0.035230532 0.0041153706 -0.05825127 0.047065996
0.0070622684 -0.017598381 -0.05395014 0.04627227 0.042771667 0.037698638 -0.03530575 -0.0004865229
-0.03380822 -0.039547946 -0.047393423 0.03969776 -0.013919818 0.032120325 -0.016016347 -0.0042702
-0.00058638304 -0.045579113 -0.0512259 0.020804062 -0.0019514263 -0.0027650057 0.0016969189 0.0009091722

heads.1.bias f4 [3]
00000000: 7d1f 14bd 867d 763d 1487 d93c
-0.036162842 0.060178302 0.026553668

heads.2.weight f4 [3, 256]
00000000: 208f 73bb 2804 363c a050 64bd ca88 163d
00000010: 44ac ee3c 2869 153d 608d 40ba bd1a eabc
00000020: 0859 043c 4633 bd3c 2b25 24bd 7c2d c33c
00000030: 0a66 723d ac28 813d 1617 a43c 37c7 633d
00000040: 0b71 10bd c0d6 ebba 48a4 0fbd 8890 e4bc
00000050: c46a aabc 30fc b9bc 6ce9 4f3d ee13 12bc
00000060: 1a64 d23c fdbb 0d3c f28e 9e3c ddd9 b2bc
00000070: 783c 00bc f1ff 27bd b44e 6abd a96b 15bd
00000080: 6843 583d 1280 4a3c 42ce 80bc 0795 c2b9
00000090: 00e4 5c3b 28d4 0a3c 7c7c 293d 80ea 51bb
000000a0: 00ca 773d 009b 4cba 0b84 173d 6010 2fbc
000000b0: 3102 753c 00ed b1ba d962 463d c2e1 7f3d
000000c0: 4ba7 0dbd 3e19 5e3c f81f 55bd 127f 32bc
000000d0: 6a9f 7dbd 007c 20bb dc43 e33b 8840 2f3d
000000e0: 489d fc3c c48c 4abd 686b e03c 5bbc 7cbd
000000f0: d2f2 2a3d ca86 1e3d c495 9a3c aca5 e93c
00000100: 5a6e 6c3d f6b2 923c 40f4 ecba 0c21 cf3c
00000110: 87ae 56bd 50a7 e2bc bf57 f0ba 250d e73c
00000120: 10be 83bd e0da 42bc e06f 76bd e6c2 0e3d
00000130: d670 17bd 0767 66bd a0f9 2fbc a08b 9d3c
00000140: f29c 143b 70dc 103c cb6a 133c 77e0 073d
00000150: 611a e1bc cb3e b03b b43f 2b3d 4726 ef3c
00000160: d54f 0e3d afcb 31bc 88f5 c6bc 914a 4ebd
00000170: c86a 463c 12c9 8fbb 9657 11bd 808a febb
00000180: 134c 4dbd ca22 4eba 9442 3cbd 1829 54bd
00000190: 1c0a 8bbc 000a 6dbb c8e7 bc3c 4e0d 363d
000001a0: bafa 1abc 8a3b 4e3d f270 ebbc 273a f83c
000001b0: 0c3a 6e3d 288e 3bbd 2cc8 09bd ef45 313d
000001c0: 500b efbc 0660 3a3d 00be 70bd 6b90 29bd
000001d0: 1034 983b 5e91 2a3b c253 3d3d 4b1c 34bd
000001e0: 1fc3 c43a 6230 d3bc a0d6 373d 1674 16bd
000001f0: 849b 463d 1c79 2d3b 003b 5c3b 3852 4fbd
00000200: 9972 e3bc ca4c 1a3d 0777 5dbd c1ba f23b
00000210: e06c 81bb bcae dbbc b481 4abd 0fb3 afbc
00000220: 4d18 3f3d 7063 993c 841d 5d3d 097a 423d
00000230: 558f 563c f8d0 fb3c 785c 713d e2f4 81bb
00000240: 304a 49bd d7ae 0cbd ded9 6a3c 162a 1c3d
00000250: 2a16 17bc 9d6c 02bd e7ce 4cbd 6afd 66bd
00000260: 4a75 1f3d 6010 b33c 0ad4 1b3c 75d5 3d3d
00000270: 9941 13bd 1edc fc3c 2a97 14bd e231 383d
00000280: 7a94 a5bc d623 4abd 8088 c3bc d06d 45bd
00000290: 5b98 11bc 801b 523a b08d a9bc 9435 1fbd
000002a0: 7717 333c 61bb f53c 774d 17bd e30a 4abc
000002b0: e041 c43c 2b4c 1f3d 9c5f f1bc acdf 3d3d
000002c0: 2257 02bd bc6f bcbc 79d2 52bc fc7f dfbc
000002d0: db90 9cbc 1085 1e3c 7895 3ebd 588f 1dbd
000002e0: 9843 693c be03 063d 2093 943b 98e3 9c3c
000002f0: ecc3 143d e02d 4ab7 ebae 6dbc dc11 fb3c
00000300: 18b7 13bc d89e 563c e74a 00bc 5876 893c
00000310: d854 58bc 0e89 06bd 4069 42bd 1f58 923c
00000320: 88aa 0c3d 6620 273d 1a20 9abc 5668 b6bc
00000330: 53b9 15bd 72ce 153d 8790 17bd ac31 f5bc
00000340: fd93 6dbc aad8 38bd 2059 593c 1945 743c
00000350: 8ce9 8b3c 68f2 2d3d dbbd 56bd ae8a 94bb
00000360: 4e0f 1e3d 4c04 803c 90ef ff3c 986a 753d
00000370: 9a34 41bd e897 58bc 0588 713d a0e7 4f3c
00000380: 6c4a 393c 8838 223c 3331 b23c e057 5b3c
00000390: e285 2fbd 6f39 cf3c 8e74 153d d9d6 18bc
000003a0: be70 4abb c862 543d 1640 30bd f02c 9dbb
000003b0: 70a7 f63c b583 8bbc 57a2 9e3c c6d5 22bd
000003c0: 2850 34bc e69d 87bc bf53 d33c 501e ea3c
000003d0: 3002 0abd a420 73bd 2ea5 383d 4324 fe3c
000003e0: 6e3c 333d b2f9 45bd 1b16 54bd a050 88bb
000003f0: 6898 d5bc b91c 3abd 85f6 113d b2ed 4c3b
-0.0037164167 0.011109389 -0.055740952 0.036751546 0.029134877 0.036477238 -0.0007345285 -0.028577203
0.008077867 0.023095738 -0.04007451 0.0238254 0.059179343 0.06306586 0.02003054 0.055609908
-0.035264056 -0.0017993078 -0.03506878 -0.02790095 -0.020802863 -0.02270326 0.050759718 -0.008915884
0.025682498 0.008650777 0.019355271 -0.021832401 -0.007826917 -0.04101557 -0.057203963 -0.036479626
0.05279866 0.012359636 -0.015723351 -0.00037113598 0.0033705235 0.008473434 0.041378483 -0.0032030642
0.060495377 -0.0007805079 0.03699116 -0.010685056 0.014954136 -0.001357466 0.048434112 0.06247116
-0.03458337 0.013555823 -0.05203244 -0.010894554 -0.061919607 -0.0024487972 0.0069355797 0.04278615
0.030836716 -0.04945065 0.027394965 -0.061703067 0.041735478 0.038702764 0.018870242 0.028521381
0.057722427 0.0179076 -0.0018078163 0.025284313 -0.052412536 -0.027667671 -0.0018336697 0.02820451
-0.06432736 -0.011893004 -0.060165286 0.03485384 -0.036972843 -0.0562506 -0.010740668 0.019231617
0.0022676555 0.008841619 0.008997629 0.03317305 -0.027478399 0.0053785793 0.0418088 0.029193057
0.034744103 -0.010851785 -0.024287 -0.05036408 0.01211042 -0.004387983 -0.03548392 -0.0077679753
-0.05012138 -0.00078634603 -0.04596193 -0.051797003 -0.016972594 -0.003616929 0.02305974 0.044446282
-0.009459192 0.05034975 -0.02874038 0.030301167 0.058160827 -0.045789868 -0.033638164 0.043279584
-0.029180199 0.04550173 -0.058774948 -0.041397493 0.004644878 0.0026026587 0.046222456 -0.043972295
0.0015011764 -0.025779907 0.044882417 -0.036731802 0.048488155 0.0026469892 0.0033604503 -0.05061552
-0.027764605 0.037670888 -0.05406859 0.0074075167 -0.0039497465 -0.026816718 -0.0494401 -0.021447686
0.046654034 0.018724173 0.053983226 0.047479663 0.013095696 0.030739293 0.058926076 -0.00396596
-0.049143016 -0.034346428 0.01433417 0.038126074 -0.009221593 -0.031841863 -0.050002005 -0.05639402
0.038930215 0.021858394 0.009511003 0.046346147 -0.03595123 0.030866679 -0.036276974 0.044969447
-0.0202124 -0.049350582 -0.0238688 -0.04820043 -0.008886422 0.0008014962 -0.020697445 -0.038869455
0.010930887 0.029996576 -0.03693911 -0.012331697 0.023957193 0.038891 -0.029464535 0.04635589
-0.031821378 -0.023002498 -0.012867563 -0.027282707 -0.019112041 0.009675279 -0.046529263 -0.03846678
0.014237307 0.032718413 0.00453414 0.019151494 0.03631966 -1.2050819e-05 -0.014507036 0.030648164
-0.009015821 0.013099395 -0.007830358 0.016780064 -0.013203822 -0.03284555 -0.047463655 0.017864285
0.03434232 0.040802382 -0.018814135 -0.022266548 -0.036553692 0.036573835 -0.037003066 -0.029930912
-0.014500615 -0.045128502 0.013265878 0.014909052 0.017079137 0.042467505 -0.052427154 -0.0045331335
0.038588814 0.015627049 0.031242162 0.05991611 -0.047169305 -0.013219811 0.05896761 0.012689501
0.011309247 0.009901173 0.021751976 0.01338765 -0.04285229 0.025295941 0.03648811 -0.009328567
-0.0030889953 0.051852018 -0.043029867 -0.0047966167 0.030109137 -0.017030576 0.019364519 -0.03975465
-0.011005439 -0.016554784 0.02579677 0.028578907 -0.033693492 -0.0593573 0.045079403 0.03102315
0.043758802 -0.04833383 -0.051778894 -0.004160002 -0.02607365 -0.04543755 0.03563549 0.0031269607

heads.2.bias f4 [3]
00000000: 3366 483c 89d9 133d 58af 533c
0.012231397 0.03609613 0.012920223
