results/multihead/models/multihead_checkpoint_60.pt (torch, 301741 bytes, 18 tensors)

trunk.0.weight f4 [256, 11]
000000 86 91 8b 3e 2d 8a 57 3e 82 a9 90 bd 92 93 91 3e
       0.27259463 0.21048804 -0.07063581 0.284329
000010 0c 42 f7 bb ef 36 d2 3d a6 69 1a be 6f 96 12 3e
       -0.007545715 0.10264384 -0.15079364 0.14315198
000020 d3 14 c0 3e 26 e4 e5 be 0f 0a 6e 3e 03 db 53 3d
       0.37515888 -0.44900626 0.23246025 0.051722538
000030 5f ee 4f 3e 68 41 27 3d 4d 30 0f 3e e8 27 c7 3b
       0.20305775 0.04083386 0.13983269 0.0060777552
000040 b6 8f 5e 3e e3 2b 00 3d 2a 2c 31 be 07 9d 6f 3c
       0.21734509 0.031291854 -0.17302004 0.014624841
000050 4f 0a 7e be 92 13 52 bd e4 46 07 be 16 8b 2a 3e
       -0.2480862 -0.051288195 -0.13210636 0.1665462
000060 56 b7 73 be 62 ea 24 be 77 6c 1d bd fe be 3f be
       -0.23800406 -0.16105035 -0.03843352 -0.18725201
000070 d9 a1 92 3c 56 c6 9d be 15 d1 70 3e 62 1a f6 be
       0.01789944 -0.3081538 0.23517258 -0.48067003
000080 49 c9 72 3e b0 86 4d 3d e6 80 c8 bd 64 ca 3e 3e
       0.23709597 0.050177276 -0.097902104 0.18631893
000090 68 79 40 3d f0 74 79 3e 40 02 07 3d ce bd c2 bd
       0.046990782 0.24361014 0.03296113 -0.095088586
0000a0 30 e9 a5 3d b8 73 a7 bd 52 f0 01 3e 10 d4 89 3e
       0.081011176 -0.081763685 0.12689331 0.26919603
0000b0 7a 79 32 3e da f9 06 be a6 3a 32 3e e0 f8 5c 3d
       0.17429152 -0.13181248 0.17405185 0.053948283
0000c0 f8 ca 1c 3e e8 2e 3c be e1 d0 98 be 66 93 ee bd
       0.15311801 -0.18377268 -0.29846862 -0.11649208
0000d0 04 d1 6c be e4 56 7d 3e a4 db b1 3d 17 a1 ea 3d
       -0.23126608 0.24740177 0.08684471 0.11456507
0000e0 ef d1 77 3d 00 df ab bb 87 1d 5d 3e d2 ff 3a be
       0.060502943 -0.0052450895 0.21593295 -0.1826165
0000f0 80 82 e0 3c 78 24 79 be 1d 16 ac 3d 1e d4 33 bd
       0.027405977 -0.24330318 0.08402655 -0.043903463
000100 66 df b1 3d 02 7e 03 be 50 09 80 3e cc fe 36 be
       0.08685188 -0.12841037 0.25007105 -0.17870635
000110 ef 22 38 be c8 25 38 be b4 d9 8a 3e f0 c7 cd 3d
       -0.17982076 -0.17983162 0.2711922 0.10047901
000120 da 8b 94 3e 55 cd 7e be a4 1e 99 be 8e 8d 71 be
       0.29012948 -0.24883015 -0.2990619 -0.23589155
000130 f0 b0 4f be 83 a0 aa 3d 7c 13 92 3d e0 45 80 3e
       -0.2028234 0.083313964 0.071326226 0.2505331
000140 a3 e8 41 be b6 2e 41 be bf 8d 2a 3e 27 95 03 be
       -0.189364 -0.18865475 0.16655634 -0.12849866
000150 a7 b6 35 3e 73 b5 dc 3d d2 61 82 3e 9e 68 9c be
       0.17745458 0.10776796 0.25465256 -0.30548567
000160 1e 5e 24 be 81 07 99 3d 0c 8b 82 3d 97 c0 ac bd
       -0.16051528 0.074721344 0.06374177 -0.08435171
000170 23 5b eb 3d 9e 74 36 3e 3f 64 6f be 20 1e 2e be
       0.11491992 0.17817923 -0.23378085 -0.1700368
000180 8a c4 98 3e 76 7e b1 bd 02 1a 17 be 0b 5f 95 be
       0.29837447 -0.08666699 -0.14756015 -0.29174075
000190 81 cf 30 be a8 40 9a 3d a0 02 23 bd 96 1d 60 be
       -0.17266656 0.075318635 -0.039797425 -0.21886286
0001a0 00 c0 e7 3b 58 e6 52 be 61 f8 82 be 0a 04 2a be
       0.0070724487 -0.20595682 -0.25580123 -0.16603103
0001b0 1d 1c 87 be 64 97 44 be cf 83 90 3e 88 97 64 3d
       -0.26388636 -0.19198376 0.28225562 0.055808574
0001c0 84 49 be 3d 05 84 a1 be 35 41 a7 be ef b0 e1 bd
       0.09291366 -0.31546035 -0.32666937 -0.110200755
0001d0 1f 47 73 3d dc 2f a6 be e5 a2 87 be 7e 64 bb bd
       0.059394 -0.3245839 -0.26491466 -0.09150027
0001e0 84 d1 39 3b a0 c5 e5 bd c0 28 ab bc 70 37 51 be
       0.002835364 -0.112193346 -0.020893455 -0.20431304
0001f0 42 ec 53 be b9 1f 34 be f6 5d d3 bd 48 b0 73 be
       -0.20695594 -0.17590226 -0.10320656 -0.23797715
000200 12 70 81 3e e8 19 75 bd 9e d2 84 3e 84 66 c0 3d
       0.25280815 -0.05983916 0.25941938 0.09394553
000210 14 4e 91 be a1 9d 44 3e 8e e6 a9 bd e9 14 17 be
       -0.2837988 0.19200756 -0.08295928 -0.1475407
000220 38 d1 35 be 78 3a af be 76 22 b6 3d bc b8 c8 bd
       -0.17755592 -0.34224296 0.08893292 -0.0980086
000230 ba 8a 41 3d d0 69 78 be d6 21 66 3e e3 b6 96 be
       0.04725144 -0.24259114 0.22473845 -0.29436406
000240 a0 1b ab bd dc f9 80 3d 0c 76 4e 3e 25 9d 93 be
       -0.083548784 0.06297657 0.20162219 -0.2883083
000250 f0 c5 1a bf e8 94 06 3e fd ee 62 be 71 42 25 bf
       -0.6045828 0.1314274 -0.2216148 -0.64554507
000260 46 7c 62 be 01 a3 ca be dc 9c 8c 3e 00 9b 62 be
       -0.22117719 -0.39577487 0.27463424 -0.2212944
000270 b4 02 25 3e 24 03 d9 3d a4 a8 c8 3d 59 ec 26 be
       0.16114312 0.10596302 0.09797791 -0.16301097
000280 7c 51 8c 3e e0 b1 87 3d 88 de 1e 3d ec 0a 88 be
       0.27405918 0.06625724 0.03878644 -0.26570833
000290 d4 9b 01 3e 28 46 39 bd dd 71 0d be 4e 99 84 3e
       0.126571 -0.04523292 -0.13812967 0.25898212
0002a0 78 ab 89 3d a2 d2 2a be e9 44 1c be 60 e9 6b bc
       0.06722158 -0.16681913 -0.15260662 -0.014398903
0002b0 8a 64 2c 3e 7a ca 9d bd e4 29 30 be f4 74 d3 bd
       0.16835228 -0.07704635 -0.1720348 -0.103250414
0002c0 e5 b0 65 be 4e 36 a3 3d ac fb 6e 3e cc d3 9a be
       -0.22430761 0.07969342 0.23338193 -0.30239713
0002d0 a6 f9 27 3e 2b ae 45 3e 07 6d 9f 3d 44 aa 3b bd
       0.16403827 0.19304721 0.07784467 -0.045816675
0002e0 fc b4 9a 3e ca 08 9b 3d 2f d9 e6 3d a8 03 59 bd
       0.30216205 0.07570036 0.11271893 -0.052982002
0002f0 76 83 a3 bd d0 1e 04 3d 88 2a 5a bd a4 03 b8 bd
       -0.079840586 0.032255948 -0.053263217 -0.089850694
000300 86 5a 45 3e 36 ab 84 3e 80 85 f4 bc 58 41 8a bd
       0.19272813 0.25911874 -0.029848814 -0.067507446
000310 c0 2b 90 3b 70 7a 93 bc b1 59 99 3d 63 86 80 3d
       0.0043997467 -0.018002719 0.074878104 0.06275632
000320 08 36 8c be 86 ef 01 be ca 0d da 3e 3a 9b db 3d
       -0.27384973 -0.12689027 0.42588645 0.107229665
000330 b6 17 03 bb 52 79 39 be e3 95 71 bd a6 34 97 be
       -0.0020003146 -0.18112686 -0.058980834 -0.29532355
000340 a8 bd fe bd bf 09 bf 3d 7e e4 26 3e 46 8c 0e 3e
       -0.12438518 0.09328031 0.162981 0.13920698
000350 41 19 92 be bd 8d 8b be b7 04 2e bd b1 5c 84 3e
       -0.28534892 -0.27256575 -0.042484965 0.25851968
000360 c7 32 06 bc 09 cc 88 be 40 dd 86 3c 0f 74 fd bd
       -0.008190817 -0.26718166 0.016462922 -0.12375652
000370 61 24 72 be 20 c5 39 3e 5a 63 0c be 31 83 de bd
       -0.2364669 0.18141603 -0.13709775 -0.108648665
000380 eb a4 b8 be 98 04 bd 3d 67 fa 3e 3e 88 2c 98 3c
       -0.36063322 0.09229392 0.18650208 0.018575922
000390 31 15 01 bf 2b f1 cb be 4f 07 80 be c0 89 49 3e
       -0.5042296 -0.39832434 -0.25005576 0.19681454
0003a0 ba ef da 3d 00 e8 81 3e c0 3c fb 3d 84 3f 82 3d
       0.106902555 0.25372314 0.122674465 0.06359771
0003b0 c4 98 88 3c 48 38 86 be 02 38 8e be 3f db 55 be
       0.016674407 -0.26214814 -0.27777106 -0.20884417
0003c0 b1 9d 16 3e 06 a9 57 be 88 8b 78 bd 96 af 31 be
       0.14708592 -0.21060571 -0.060679942 -0.17352137
0003d0 5c 0b 61 bd ae 4e 59 be 94 bd 49 be 70 d4 cc 3d
       -0.054942474 -0.2122142 -0.19701225 0.10001457
0003e0 72 84 b7 bd 6e 9a 3e 3e 10 19 c6 bd b5 7c 62 be
       -0.08960809 0.18613598 -0.09672749 -0.22117884
0003f0 80 e6 59 bd 24 aa 15 be e0 ea bc bd 94 f6 92 be
       -0.053198338 -0.14615685 -0.09224486 -0.2870375

trunk.0.bias f4 [256]
000000 82 19 60 3e 3f a4 26 be 3b 01 20 be 0c 0f 6d 3e
       0.2188473 -0.16273592 -0.1562547 0.23150271
000010 30 41 f1 3d 20 f2 43 be e4 01 bb 3d 1c 60 f2 3d
       0.11780012 -0.19135332 0.0913122 0.11834738
000020 9f f1 8c be 88 b4 66 3d e3 e3 0d 3d c0 65 40 bc
       -0.27528092 0.05632451 0.034641158 -0.011743009
000030 ff a5 83 3e 6f 01 1d be 90 60 27 3e 07 03 24 be
       0.25712582 -0.15332578 0.1634543 -0.1601678
000040 6d a7 8d be d0 6a 52 3e e8 1b 24 be e0 a6 98 bb
       -0.27666798 0.20548558 -0.1602627 -0.004658565
000050 87 04 e2 3d 86 e9 92 be 6c 24 84 be a8 3b d2 3d
       0.1103602 -0.2869379 -0.25809038 0.10265285
000060 12 95 76 3e 80 ae 02 bd 3d f3 4d 3e fc fc d8 3d
       0.24080303 -0.031904697 0.2011232 0.10595128
000070 72 38 ab 3d 4c d9 44 be 32 8f 8b 3e 40 6b 0d 3e
       0.083603755 -0.19223517 0.27257687 0.13810444
000080 7c b1 3a 3d ee 91 5b 3e 67 a4 84 be 70 0f 85 3d
       0.04557942 0.21442387 -0.2590668 0.06497085
000090 d5 a6 19 be 10 d2 fa bc d4 4f ca 3d be 2a f9 3d
       -0.15005048 -0.030617744 0.09878507 0.121663556
0000a0 a0 0c 74 3d c5 f4 6e be 6c 39 41 be 40 82 ac 3b
       0.059582353 -0.2333556 -0.18869561 0.0052645504
0000b0 bc e3 55 bd 1f dd 8c be 78 15 98 3e 67 92 c8 3b
       -0.052219138 -0.27512452 0.2970388 0.006120968
0000c0 80 b9 84 be 92 69 07 3e c0 ea eb 3d f9 03 3b be
       -0.25922775 0.13223866 0.115193844 -0.18263234
0000d0 c6 f2 07 3e 14 6c 3a be 54 f3 d5 3d f6 a3 92 3e
       0.13276204 -0.18205291 0.10446802 0.28640717
0000e0 58 d0 4b 3e e0 6c 18 3e a8 42 7b bd b1 2b 00 3d
       0.19903696 0.14885283 -0.061342865 0.031291667
0000f0 28 36 d3 3d 17 fe 42 3d 9d e0 74 bd 5b a6 37 3d
       0.10313064 0.0476056 -0.05978452 0.044836383
000100 d2 1a fa bd 74 c8 54 be 36 76 8e be 70 1c 81 be
       -0.12212147 -0.20779592 -0.27824563 -0.2521701
000110 ee b5 55 be 7e 90 93 3e 9a 2c 4a 3d 99 d6 90 be
       -0.20870182 0.28821176 0.04935894 -0.28288725
000120 7c d2 1d be f4 3b 90 3d f8 d1 b8 bd be 6a a9 bd
       -0.15412325 0.07042685 -0.09024423 -0.082723126
000130 90 de 26 be 8c b2 75 bd ed 0e 15 3d 2b c7 c5 bc
       -0.16295838 -0.05998473 0.036391187 -0.024142822
000140 18 eb 26 3e 90 c9 2b 3e 8b a4 7f 3e 27 44 94 bc
       0.16300619 0.16776109 0.24965112 -0.018098904
000150 a6 dc 09 be 00 db 86 3a 04 75 4c be c0 ab d5 3d
       -0.13463077 0.0010288656 -0.19966513 0.10433149
000160 88 00 15 bd c9 40 11 be 78 b3 8d be 62 ca 14 3e
       -0.03637746 -0.1418487 -0.27675986 0.14530328
000170 18 16 09 3e 01 7e 99 3e 12 5f 1c be b6 be 9f 3d
       0.13387334 0.29978946 -0.15270641 0.07800047
000180 c0 35 3a 3c 53 29 5f be 61 03 41 be 73 6a 10 3e
       0.011365354 -0.21793108 -0.18848945 0.14103107
000190 7a 8e 52 be 30 d3 60 3e 50 ba d7 3d 61 7b cc 3d
       -0.20562163 0.21955562 0.10533583 0.0998447
0001a0 68 55 4b 3e 77 d4 08 3e c6 1e fe 3d 62 92 13 3e
       0.19856799 0.13362299 0.12408213 0.1441131
0001b0 07 7d 00 be 1f b9 23 be 84 40 62 bd 8d df 28 3e
       -0.12547694 -0.15988587 -0.05523731 0.16491528
0001c0 d6 10 54 3e 93 8b 5e 3e eb a2 e1 bd 90 b3 1c bd
       0.20709547 0.21732931 -0.11017402 -0.03825718
0001d0 38 0e 55 be 57 d6 0c 3e 40 f3 58 be 39 ff f6 bd
       -0.20806205 0.13753639 -0.21186543 -0.120603986
0001e0 34 56 73 3e 67 e0 77 3d 0b fb 05 be f9 b6 56 be
       0.23763353 0.06051674 -0.13084047 -0.20968236
0001f0 56 51 54 be 39 a6 77 3e c4 3f 93 be 20 66 85 3e
       -0.20734152 0.24184503 -0.28759587 0.26054478
000200 17 ae 67 3e 30 7e 93 3c a4 f9 26 bd ac 1e 70 3e
       0.22625004 0.018004507 -0.04076542 0.234492
000210 51 d0 00 3e 50 f6 91 3e 6b 95 66 3e 74 45 57 be
       0.12579466 0.28508234 0.22517936 -0.21022588
000220 19 43 2e 3e 3c 86 05 3e f1 36 5b be 5f 8e e8 3d
       0.17017783 0.13039488 -0.21407677 0.1135528
000230 9f 92 31 be dc 4c 1e be 00 52 b8 3b 6d 15 2b bd
       -0.17341088 -0.15459007 0.0056250095 -0.04176848
000240 fd 27 d9 bd a0 7a 4a be 39 a2 23 3e 65 b8 88 3e
       -0.1060333 -0.1977334 0.15979852 0.26703182
000250 a9 29 7e bd 08 95 95 be a0 b9 7e bc ea 1b 89 be
       -0.06205145 -0.29215264 -0.015547186 -0.2677911
000260 67 97 9e be 05 ce 0d be d4 fc 41 3e 72 94 80 be
       -0.30974886 -0.13848121 0.18944103 -0.25113255
000270 78 15 45 bd e6 07 1f be b5 3b 8f be 89 35 91 bd
       -0.048116177 -0.15530357 -0.2797524 -0.07090289
000280 00 e1 8f bc 00 a7 4f bd ef 27 4c 3e 8d 17 b8 3d
       -0.017563343 -0.050696373 0.19937108 0.08988867
000290 84 39 40 3e c0 dd f1 3d 78 92 01 3d 72 b4 20 3e
       0.1877194 0.118098736 0.031633824 0.15693834
0002a0 26 f7 44 be 7b 4e 24 3e 25 8f 0d 3e 92 26 28 be
       -0.19234905 0.16045563 0.13824137 -0.16420963
0002b0 45 01 bf 3d 6f f5 67 be de 83 99 be 65 f5 e4 bc
       0.09326414 -0.22652219 -0.2998342 -0.027949044
0002c0 b0 21 5d 3d 4f 67 aa bd 6d 05 0f 3d 64 60 71 be
       0.053987205 -0.08320486 0.034917284 -0.23571926
0002d0 05 94 40 be e0 3e 63 3e 77 3b 96 be 4c f4 67 bb
       -0.18806465 0.22191954 -0.29342243 -0.0035393415
0002e0 53 9d 5e 3e d4 76 67 3e d6 b9 9f 3d 85 9e 8c be
       0.21739702 0.22603923 0.07799117 -0.2746469
0002f0 b4 da 62 3d b8 25 d9 bd 1d c7 54 3e 64 8f 6c 3e
       0.055384353 -0.106028974 0.2077908 0.23101574
000300 44 30 f2 bd 92 13 92 be 64 80 80 be 61 e0 0d 3e
       -0.11825612 -0.28530556 -0.25097954 0.13855125
000310 4c ce 9f bb 14 6e 82 3e 19 cc 21 3d 25 dd 8f be
       -0.0048768874 0.25474608 0.039501283 -0.28098407
000320 e8 c5 98 3d 44 42 8d 3e 92 7e 3f 3e a6 89 6f 3d
       0.074596226 0.2758962 0.18700626 0.05848088
000330 9d f6 67 be c0 22 39 be e0 a4 51 3e ab 37 56 be
       -0.22652669 -0.18079662 0.20473051 -0.20919673
000340 7b cd 24 3d 10 3b 1e bd 24 e9 ce 3d 5b 25 f7 3c
       0.040235024 -0.038630545 0.10103062 0.03016918
000350 9e aa 6d be 7c 9b 25 be e5 e5 7c 3e 22 09 53 3d
       -0.23209617 -0.16172594 0.24697073 0.05152238
000360 dd 0e 02 3e 23 c7 35 be cc 6a 74 3e f6 2e 84 bd
       0.12700982 -0.17751746 0.23868865 -0.064542696
000370 a2 22 d0 bd 00 86 7a 3d bc 41 dd bd e2 23 f8 bd
       -0.10162856 0.06116295 -0.108035535 -0.12116219
000380 a8 b8 30 bd 19 d5 8b bc 57 bd 37 be 6d d2 f8 3d
       -0.043144852 -0.017069386 -0.17943321 0.121495105
000390 cb 9d 95 be 6c 93 3a 3e 14 2d 8f 3e e0 cc 47 3d
       -0.2922195 0.182203 0.2796408 0.04877937
0003a0 6c 48 90 bd 1f 64 8d be 18 fd 10 3e 3e 22 92 3e
       -0.070450634 -0.2761545 0.14159048 0.2854175
0003b0 66 06 84 3e b3 af cb 3b 20 4b cd 3d 20 fe 8c 3e
       0.25786132 0.0062160133 0.100240946 0.27537632
0003c0 ee 2b d1 3e f5 99 23 be 1e 91 92 be e2 fc 06 3e
       0.40853828 -0.15976699 -0.2862634 0.13182405
0003d0 6d d4 ac 3d cf 8c 82 3e 60 2f 1d be 88 05 ea 3d
       0.084389545 0.25498053 -0.15350103 0.11426836
0003e0 0c 4d cc bd e5 6e c3 bd 00 f8 f9 3d d5 82 8d be
       -0.09975633 -0.09542636 0.12205505 -0.2763888
0003f0 e0 96 63 3e 1a 99 0f 3e 38 03 5c be 00 18 ae 3d
       0.22225523 0.14023247 -0.21485603 0.085006714

trunk.2.weight f4 [256, 256]
000000 d8 c8 80 bc 60 50 b8 3b 88 0a 89 bc 2a a7 7a bd
       -0.01572077 0.005624816 -0.016728655 -0.061194576
000010 70 1b d4 bb 98 d0 f9 3c 40 47 ee bb 88 1d fc bc
       -0.0064729974 0.030494973 -0.0072716773 -0.0307758
000020 c0 c8 01 3b f0 dd 3a 3c 24 db 8e bc 20 86 46 bd
       0.0019803494 0.011405453 -0.017438479 -0.048467755
000030 ae 40 09 bd 20 f2 26 bc a4 64 b8 3c 6e a7 63 3d
       -0.03350895 -0.010189563 0.022508927 0.055579595
000040 c0 08 98 3a 4c 51 b7 3c 86 4b 13 3d 2c 42 df bc
       0.0011599287 0.022377633 0.035960697 -0.027253233
000050 e8 e3 a9 bc 6a ce 29 3d 00 4b 37 3d 58 a5 72 3c
       -0.020738557 0.041456617 0.04474926 0.014809929
000060 12 d5 45 bd 58 4d 11 3d 2e 95 53 bd b8 e8 ff 3c
       -0.048298903 0.03547415 -0.05165594 0.031238899
000070 a0 b7 f2 3b 30 62 a5 3c 14 89 79 bd ac 01 b4 bc
       0.0074071437 0.020188421 -0.060921744 -0.021973453
000080 d4 71 d9 3c 28 0a 45 3d ac 94 92 bc b6 49 64 3d
       0.026543535 0.04810539 -0.017893158 0.05573436
000090 c0 83 64 bc ce 67 1a bd e0 b7 dd bc c0 e1 7e 3b
       -0.013947427 -0.037696652 -0.027065217 0.0038891882
0000a0 b8 ff 35 bc 5c cf f7 3c 0e ad 0d bd 20 a6 91 bc
       -0.011108331 0.030250244 -0.034588866 -0.01777941
0000b0 08 b3 7d bd 52 f5 50 3d c8 ad 40 bc d2 ce 49 bd
       -0.061938316 0.051015206 -0.011760183 -0.049269505
0000c0 20 a6 45 bb 00 40 ef b8 64 32 8e 3c 60 ca e0 bb
       -0.0030158833 -0.00011408329 0.017358012 -0.0068600625
0000d0 48 0a 21 3d f4 a6 b0 bc 3c 3f 99 bc 48 2b 73 bc
       0.039316446 -0.021563984 -0.01870691 -0.014841862
0000e0 90 d0 36 3c c6 1c 4d 3d a0 78 3c bb 4c f9 44 3d
       0.011158124 0.05007627 -0.0028758422 0.04808931
0000f0 92 19 49 3d 50 49 05 bd f0 f6 af bb b8 b1 f1 bc
       0.04909665 -0.03254062 -0.0053700134 -0.029503688
000100 8c fa d4 3c dc 00 b4 bc 80 2f 9c 3c c0 b6 74 3b
       0.025998376 -0.021973066 0.019065619 0.0037340373
000110 1e 0e 28 bd 78 1b 2c bd a4 0a 7a bd a0 33 0f bd
       -0.04102909 -0.042018384 -0.061045304 -0.034961343
000120 88 07 8f 3c 60 8d 79 3b c2 89 40 3d c0 1a 61 bd
       0.017459646 0.003807865 0.047006376 -0.05495715
000130 80 62 ef ba d8 8a 65 bd 00 d0 bf 39 54 8a ba 3c
       -0.0018263608 -0.056040615 0.0003658533 0.022771038
000140 a2 a4 65 bd 48 16 62 3d c8 05 9f bc 44 d3 62 3d
       -0.05606521 0.05519703 -0.019411936 0.05537726
000150 28 e1 2b bc 8c 3b 11 3d 3e b9 68 3d d8 67 ba bc
       -0.010490693 0.03545718 0.056817286 -0.022754595
000160 b8 eb 78 bc 90 47 06 3d 66 2b 5b bd 98 88 17 3d
       -0.0151929185 0.03278309 -0.053508185 0.0369955
000170 08 cc 20 bd 70 c3 6d 3d 06 c6 27 bd a0 b1 d2 bc
       -0.03925708 0.05804771 -0.040960334 -0.025719464
000180 02 06 3f 3d 04 eb de bc 44 6e 5b 3d 0c 22 30 3d
       0.04663659 -0.027211674 0.053571954 0.04300122
000190 a8 fc 69 3d de 22 78 bd 00 a1 37 3a 5c 67 a8 bc
       0.057125717 -0.060580127 0.0007004887 -0.020557098
0001a0 a8 eb 73 3c 08 4b 41 bd 98 f2 d1 3c 00 0b 42 bb
       0.014887728 -0.047190696 0.025628373 -0.0029608607
0001b0 40 04 f2 bc 6c 4c 66 bd cc e7 05 3d a4 4b b9 bc
       -0.029543042 -0.056225225 0.03269176 -0.022619076
0001c0 76 e5 3c 3d 68 49 36 3c 48 b8 9b 3c e8 4d 1b bc
       0.04611727 0.0111259 0.01900877 -0.0094790235
0001d0 38 d9 0d bc 6c ee ad bc ae ab 5d bd 3e f2 20 3d
       -0.008657746 -0.021231852 -0.054118805 0.03929352
0001e0 b4 36 21 bd d8 34 15 3d 4c b0 ac bc 46 60 20 3d
       -0.03935881 0.03642735 -0.021080159 0.039154314
0001f0 ce 65 5b 3d 38 92 1c bd c0 62 53 3d c0 a8 c7 3a
       0.053563885 -0.038225383 0.051607847 0.0015232787
000200 fc 90 43 bd 20 01 d1 3c 0e f5 10 3d c0 aa 61 3d
       -0.04774569 0.025513232 0.035389952 0.05509448
000210 0c b1 73 bd 8a 28 67 3d 50 13 42 3d cc d7 7b 3d
       -0.059495017 0.056435145 0.0473817 0.061485097
000220 86 85 0b 3d d0 e3 f8 bc 60 34 42 3d 76 f6 69 3d
       0.034062885 -0.030382067 0.04741323 0.05711981
000230 fc c5 c3 bc 28 62 27 bc 08 54 48 3d 56 13 4e 3d
       -0.023898117 -0.010216273 0.048908263 0.05031141
000240 34 1c 29 3d 3e 21 44 3d d8 8e 03 bd c8 a7 30 bc
       0.041286662 0.047883265 -0.03211865 -0.01078219
000250 6c 8c cc bc 8e 0d 05 3d 88 31 7f 3c 7c bf 45 bd
       -0.024969302 0.03248363 0.015575774 -0.048278317
000260 58 a0 00 bc aa c1 50 bd 08 ed 70 bd 72 60 69 3d
       -0.007850729 -0.050965942 -0.0588198 0.056976743
000270 fc c5 00 bd 54 85 e4 3c d8 05 64 bc f8 5b 4f bc
       -0.031438813 0.027895607 -0.013917409 -0.012656204
000280 00 50 29 b8 56 a9 47 3d f8 a7 0d bc ca d4 53 3d
       -4.0367246e-05 0.048745476 -0.008646004 0.051716603
000290 a0 c9 15 3d 44 9e 2f 3d 3e 2d 68 bd a8 68 ef bc
       0.036569238 0.042875543 -0.05668377 -0.029224709
0002a0 c6 91 50 bd 68 7c 59 bc c8 17 54 bc a8 14 50 3c
       -0.05092027 -0.01327429 -0.012945123 0.012700237
0002b0 56 5e 65 3d e4 d6 e5 3c ba 23 32 bd 78 8c 20 bd
       0.05599817 0.02805657 -0.043491103 -0.03919646
0002c0 98 4e 41 3d c0 dd cb 3b 78 a4 90 3c a4 e5 05 bd
       0.047194093 0.006221503 0.01765655 -0.032689705
0002d0 80 c0 f9 bb d8 c4 91 3c 62 fe 27 bd d2 14 27 3d
       -0.0076218247 0.017794058 -0.041014083 0.04079134
0002e0 f4 26 ff 3c c6 4a 15 bd 20 f6 d1 bc 50 be 70 bc
       0.031146504 -0.036448263 -0.025630057 -0.014693812
0002f0 78 5c 1f 3c d4 cf bb bc 20 e5 74 3d e2 94 76 bd
       0.009726636 -0.022926249 0.059788823 -0.06020058
000300 ea b0 10 bd f2 62 1b bd 4c 6f 8a 3c 10 50 11 3c
       -0.03532497 -0.03793616 0.016898774 0.008869186
000310 c4 e5 91 bc 3a 7c 5a 3d 28 fe 5c bd 58 74 b4 3c
       -0.017809756 0.053341128 -0.05395332 0.022028133
000320 4a dd 0c bd 70 2c 69 bc 32 87 76 bd 16 1b 3f bd
       -0.034390725 -0.014231786 -0.060187526 -0.04665669
000330 f8 33 59 bd 4c 5f df 3c 64 42 c0 bc ee e9 05 3d
       -0.053028077 0.02726712 -0.023469158 0.032693796
000340 2a bd 0a bd 00 b6 7d bc 80 e7 f7 3b 3a 82 56 3d
       -0.033871807 -0.015485287 0.0075654387 0.052370287
000350 b0 fd 89 bc a6 68 14 3d 14 3f 8d 3c 2a b3 1b 3d
       -0.0168446 0.036232613 0.017241992 0.03801266
000360 a2 b7 21 3d 1c c7 cf 3c 68 64 9a bc 84 b3 8f bc
       0.039481767 0.025363497 -0.018846706 -0.017541654
000370 80 52 c7 3c e8 87 0b 3d 20 9e 5a bb 96 53 00 3d
       0.024331331 0.034065157 -0.003335841 0.031329714
000380 b6 03 1a bd e6 4b 10 3d f0 51 fb bb 08 2c 30 bd
       -0.037601195 0.035228632 -0.00766968 -0.04301074
000390 cc c5 f8 bc ba 81 43 bd 00 8f 4e 3c d4 d2 17 bd
       -0.030367754 -0.04773114 0.012607336 -0.037066296
0003a0 3c 9e 92 bc 40 51 80 bb 7e 33 1c bd 00 5a d2 3a
       -0.017897718 -0.0039159358 -0.038135044 0.0016048551
0003b0 60 f5 01 bc 04 2c a2 3c b4 ef 38 3d 10 8a 1a bd
       -0.007932037 0.019796379 0.045150474 -0.037729323
0003c0 90 f7 0b 3d 00 90 ad ba 6c 51 12 bd f8 32 e8 bc
       0.03417164 -0.0013241768 -0.03572218 -0.028344616
0003d0 cc 52 82 3c e8 35 55 3c 40 4d 04 bb 9c e5 fe bc
       0.015908621 0.0130133405 -0.0020187646 -0.031115346
0003e0 86 19 01 3d 88 ee 17 3c 94 dd 78 bd d8 f7 34 bc
       0.03151848 0.009273179 -0.06075819 -0.011045419
0003f0 78 e9 8a bc ac 79 da bc ac 00 0e bd e4 ae 4f bd
       -0.01695703 -0.026669346 -0.03466861 -0.050703898

trunk.2.bias f4 [256]
000000 c8 75 16 bd 1e 0e 28 bd 9a d0 2d 3d c9 29 12 bd
       -0.03673342 -0.04102909 0.042435266 -0.03568438
000010 ad cd 31 bc de df 6a 3d 0c 07 46 3d 28 72 37 3d
       -0.01085226 0.057342403 0.048346564 0.044786602
000020 4e 0c 42 bd f4 89 e5 b7 c5 6a a0 bb c0 b2 97 3a
       -0.047375016 -2.7363167e-05 -0.0048955404 0.0011573657
000030 52 25 76 3d 17 88 c8 3c 68 9a 79 bd 6f c5 60 3d
       0.060094185 0.024478955 -0.06093827 0.054875787
000040 b3 51 44 3d 73 db 8a bd 8c 77 54 bd 56 ee 4c 3d
       0.047929477 -0.06780138 -0.05187182 0.050031982
000050 92 9b f4 bc 6e 34 4b bd 28 00 d6 3c 50 b7 0d 3c
       -0.029859338 -0.049610548 0.026123121 0.008649662
000060 30 2f f7 3c 6e ce 5d bd 36 26 56 3d 47 ce ef bc
       0.030173868 -0.054151945 0.052282535 -0.029273165
000070 1e 25 18 bd 73 eb 9c 3c 18 6e 50 bd 42 27 64 bd
       -0.037144773 0.01915524 -0.050886244 -0.0557015
000080 80 e2 41 bc 5f 69 4f bb 72 d1 e1 bc 05 c1 7e bc
       -0.011833787 -0.00316485 -0.027565692 -0.015548949
000090 1e 6e 6f bd ec 80 1b 3d 97 a2 0e bc f8 36 1c 3c
       -0.058454625 0.037964746 -0.008705757 0.00953459
0000a0 b0 75 1a 3d 52 3a 71 3d 88 c1 36 3d ec bc 01 3c
       0.03770989 0.05889351 0.04461816 0.007918578
0000b0 53 f1 1f 3c 4a 0b 1a bd 78 35 18 3d a8 f7 4a bc
       0.009762126 -0.037608422 0.037160367 -0.012388147
0000c0 2b b1 a9 3c 54 db 5c 3d b2 cc 36 bd 4f 5e 3c bc
       0.020714363 0.053920105 -0.044628806 -0.011497094
0000d0 32 a3 33 bd 90 5a 9c bb bc a2 bb bc 06 5d 32 bd
       -0.043856807 -0.004771538 -0.022904746 -0.043545745
0000e0 8c a3 a8 bc 26 73 94 3c fc 7b 3a bd b0 5d 4d bc
       -0.020585798 0.018121313 -0.045528397 -0.012534544
0000f0 42 47 3a 3d ca ec 57 3d 19 aa a5 bd 75 e5 09 3d
       0.045478113 0.052716054 -0.08089084 0.033666093
000100 58 ed 15 3c 53 c8 69 3c 5e 9e 1f 3d 8c 81 4c 3d
       0.009150825 0.014268952 0.03896939 0.049928233
000110 a4 72 11 bd 2f 3d 35 3d 11 6d 09 bc 56 8b 6f 3b
       -0.03550972 0.044247802 -0.00838782 0.0036551557
000120 44 b2 8a 3c 5b 1e 15 bd 9a 39 10 bd fb 7f 95 bd
       0.016930707 -0.036405902 -0.035211183 -0.07299801
000130 78 b3 36 3c 61 11 ea 3c b0 4f c7 bc 84 d8 88 3c
       0.011151187 0.02857274 -0.02432999 0.016704805
000140 f8 86 7b bc 40 c9 9a bc 47 c5 50 bd cf 88 38 3c
       -0.015352003 -0.018894792 -0.05096939 0.011263086
000150 90 9f 8a bc f1 34 76 3c 71 f0 47 3d 52 92 79 bd
       -0.016921788 0.015027271 0.048813287 -0.060930558
000160 c1 c0 13 bc d6 bb c6 bc 16 8b 1f 3d 07 8b 45 3d
       -0.009018124 -0.024259489 0.038951002 0.04822829
000170 64 4a 51 3d d4 43 0d bc 65 5c b0 3b 64 f9 b9 bc
       0.051096335 -0.0086221285 0.005382108 -0.022701927
000180 05 cc 89 bd 9f 54 8b bd 0a c3 bf bb fc c3 56 bd
       -0.06728367 -0.068032496 -0.005852108 -0.052433
000190 9e 28 14 bd b8 d0 95 3c 13 00 7c bd 3e bf 21 3d
       -0.036171548 0.018288001 -0.06152351 0.039489023
0001a0 11 9e 1b 3d c0 26 80 bb 27 b0 32 3c 91 68 09 3d
       0.03799254 -0.0039108694 0.010906256 0.033546988
0001b0 38 1d c1 3c 3c 7d 8d bd 1b 97 95 3c 77 04 81 bd
       0.023573503 -0.06908652 0.01826053 -0.0629968
0001c0 3c f3 39 bd f3 74 b7 bd 90 40 0a bd 1d 44 9a bb
       -0.045397982 -0.08957853 -0.033752978 -0.0047078268
0001d0 60 60 83 3b f8 12 79 ba a0 fe 33 3b 21 65 74 bd
       0.0040092915 -0.0009501423 0.0027465 -0.059666757
0001e0 8f 66 0c 3c d6 98 b8 bc 80 2c 20 3d 89 2f 31 3d
       0.008569374 -0.022533815 0.03910494 0.043258224
0001f0 80 6e 82 bb ca 83 14 39 56 df 12 bd 24 c2 d8 3c
       -0.003980458 0.00014163475 -0.03585752 0.026459761
000200 3e 5b e5 3c 30 81 83 3c ad 21 2b 3c 37 f8 9b 3c
       0.02799761 0.016052812 0.010445041 0.019039256
000210 0e e3 28 bd bd 41 66 bc f2 99 28 bd be 6e 32 3d
       -0.04123216 -0.014053759 -0.04116244 0.043562643
000220 99 d3 ff bc d2 53 94 bd 3a 75 2e 3c 75 dd f9 bc
       -0.031228827 -0.0724255 0.010648066 -0.030501107
000230 36 a5 38 bc 3b 3c 66 3d 5c 70 01 3d cd 92 31 3d
       -0.011269858 0.056209784 0.031601295 0.04335289
000240 0b ae c2 bc 13 e1 ca bc 31 15 43 bd 10 3c 62 3c
       -0.02376463 -0.024765527 -0.04762763 0.013808265
000250 52 a4 55 3d af 52 24 bd 6a 29 e0 bc e0 55 b7 3d
       0.05215866 -0.040117916 -0.027363498 0.08951926
000260 ff fb 1c bd 44 4a f0 3c 7a 1b 17 3d 24 0b 06 3d
       -0.03832626 0.029332288 0.036891438 0.03272547
000270 e8 6e 2b bd b1 c9 f8 bb 98 c0 34 3d a0 b0 6a 3d
       -0.041853815 -0.007592403 0.044128984 0.05729735
000280 9c 48 bb 3c e8 91 19 bd 52 b4 1a 3d 89 4d dc bc
       0.022861771 -0.037492663 0.037769623 -0.02689244
000290 9f fc 54 3d 27 52 76 bd 92 09 75 3d 9a f6 5a 3d
       0.05199873 -0.06013694 0.05982358 0.053457834
0002a0 f5 d6 4b bc 32 31 0c bd a5 e2 80 bd 30 44 a6 3a
       -0.0124413865 -0.034226604 -0.06293229 0.0012685116
0002b0 bc d1 06 bd 0a 7d 1b bc a8 d8 5c bd dc 84 9b 3c
       -0.032914862 -0.009490261 -0.053917557 0.01898425
0002c0 ac 14 30 3d 80 26 a1 3b 6d c1 2d 3c a2 b0 1c 3d
       0.042988464 0.0049179196 0.010605198 0.038254388
0002d0 43 5d 9a 3c f6 58 34 bd 9b 35 e3 3b 69 4f a6 bc
       0.018843299 -0.044030152 0.0069338805 -0.020301538
0002e0 10 f3 73 bc 9d f8 fb bc 18 98 ed 3c fa 39 6d bd
       -0.014889494 -0.030758196 0.029003188 -0.05791662
0002f0 95 63 90 bd 2b 01 80 3c 03 e8 85 bd 2e a3 29 3a
       -0.07050244 0.015625557 -0.06538393 0.0006471154
000300 24 01 bc bc 60 e0 16 3b a1 ac 8b ba e6 cd 11 3d
       -0.022949763 0.0023021922 -0.0010656306 0.03559675
000310 9f 7a 12 bd e4 9b a2 bc d3 08 99 3c 2f dc 1f bc
       -0.03576147 -0.019849725 0.018680966 -0.009757086
000320 04 77 40 3d 8e 33 1b 3d 49 d9 82 bb 56 15 0e bd
       0.046988502 0.037890963 -0.0039931876 -0.034688316
000330 e1 25 85 3c 8c 12 5c 3d 4f 6b 2c bc 14 b1 98 3c
       0.016253414 0.053728625 -0.010523631 0.018639125
000340 94 97 32 bd b4 e0 03 3d 48 7c 72 bc 45 52 8a bd
       -0.043601587 0.032196715 -0.014800139 -0.06753973
000350 58 e1 3e bc b5 aa ac 3c c0 6b c2 bc c7 8f 04 bd
       -0.011650406 0.021077493 -0.02373302 -0.03236368
000360 ea bc ee bc f6 d0 1c 3d 22 ff 23 bd 99 21 77 bd
       -0.029142816 0.03828522 -0.040038235 -0.060334776
000370 7a bd 1b bd 54 08 69 bd 98 8b 4a 3d 80 9d 32 3c
       -0.038022496 -0.056892708 0.049449533 0.010901809
000380 67 70 1f 3c 63 55 64 3c 58 18 17 3c 6a 6a 4c bc
       0.009731389 0.013936373 0.009222113 -0.012476543
000390 c9 16 82 3b 56 b7 8d bd 80 92 4a ba 9f b8 85 bd
       0.0039700014 -0.06919734 -0.00077275187 -0.06529354
0003a0 e2 c0 8b bc d4 08 77 bd 36 f8 84 ba 6c 7e 72 3d
       -0.017059747 -0.060311154 -0.0010144773 0.059202597
0003b0 f2 25 60 3d f5 84 17 3d 0a be 07 3d 04 43 64 bd
       0.054723687 0.036992032 0.03314022 -0.055727974
0003c0 2e dc 2b 3d 3b 9d 1a 3d f7 55 8f bc 3c 8d 89 3c
       0.041958027 0.037747603 -0.017497046 0.016790979
0003d0 ea 93 90 3b 0c 7e c6 3c b8 12 42 3d 0a c1 46 3c
       0.004412164 0.024230026 0.047381133 0.012130985
0003e0 b0 68 e5 3c 18 6c 89 bd 65 29 8f 3c e2 7c 03 bd
       0.02800402 -0.0671007 0.017475793 -0.03210152
0003f0 0b c3 15 bd 82 f2 7a bd 9f 1f 54 bd 00 ef 12 3d
       -0.03656296 -0.06126643 -0.05178797 0.03587246

heads.0.weight f4 [3, 256]
000000 e0 81 a2 3b 30 ef bf 3b 20 e2 ee 3b 28 bc ef bc
       0.00495933 0.005857371 0.00729014 -0.029264525
000010 00 2c 8c bc 22 0c 3a 3d af 68 49 3d a2 37 0a 3d
       -0.017110825 0.045421727 0.0491721 0.03374446
000020 cb 0a 8d bc b0 ea 5a 3d 25 a6 6a bc 5e 62 2d 3d
       -0.01721706 0.05344647 -0.0143218385 0.04233014
000030 1a 0b 34 3d 57 0a 12 bd 56 93 26 bd 12 95 2c bd
       0.0439559 -0.035654392 -0.040667854 -0.042134352
000040 28 7f b4 3c a0 f9 7c bb 38 72 f3 3c 40 31 b2 3b
       0.02203329 -0.0038600937 0.02971755 0.005438
000050 50 3b 44 3c c6 c2 47 3d d4 a7 f8 bc c2 b9 14 3d
       0.011977032 0.048769735 -0.030353464 0.036309965
000060 28 6c a1 bc 09 5a 55 3d ab 65 2a bc 52 35 a8 bc
       -0.019704893 0.052087817 -0.010400216 -0.020533238
000070 bc 4f 37 bd 8c b7 94 3c c0 1f a4 ba a8 62 1a bd
       -0.044753775 0.018153928 -0.0012521669 -0.037691742
000080 a4 3b 22 bd 6a 63 b4 3a 54 ac 8e bb 49 12 56 3c
       -0.03960766 0.0013762538 -0.004354039 0.013065883
000090 40 4c b7 3c 91 1a 19 bc 0d 0d dd bc a4 3d a5 bc
       0.022375226 -0.009344713 -0.026983762 -0.020170994
0000a0 8e 1e 28 3d f7 2b 27 3b 96 6f 0f bb a6 8e c9 3c
       0.041044764 0.0025508383 -0.0021886579 0.024604153
0000b0 7e 6b 20 3d 4c 11 c6 3c 96 1d 87 3d d4 56 66 bd
       0.039165013 0.02417817 0.0659744 -0.05623515
0000c0 2e ed 6d 3c 3e a6 18 bd 98 bf 39 3d 35 92 af 3c
       0.01452188 -0.037267916 0.045348734 0.021432022
0000d0 2e 0d 6c 3d c6 2e 45 3d 2e 71 61 3c 10 f3 f8 bb
       0.057629757 0.04814031 0.013759894 -0.0075973347
0000e0 62 ac 64 3d f1 72 64 bb d4 38 b7 bc 4a b7 17 3d
       0.05582846 -0.003485855 -0.022365965 0.037040032
0000f0 5c 7c 2d 3d 22 94 7e 3d c8 93 4d 3d fa 31 73 bc
       0.042354926 0.06215299 0.050189763 -0.014843458
000100 32 b6 6f 3d 58 89 6b bd ee 48 6f 3d 0c 1e 65 bd
       0.058523364 -0.057504028 0.05841916 -0.055936858
000110 15 79 ba 39 21 53 57 3c 52 28 c6 3c 52 3a 4d 3d
       0.00035566898 0.013142378 0.024189148 0.050104447
000120 1a 5e e3 bc f7 fd d4 3c d9 e0 3d 3d 77 03 47 bb
       -0.027754832 0.026000006 0.04635701 -0.0030367055
000130 18 8e 11 bd 85 f2 e9 ba 68 c9 42 bc a6 25 7e 3d
       -0.0355359 -0.0017848766 -0.011888839 0.062047623
000140 fa 9d 7b 3d 4e 3e 6b bd 84 eb 32 bd ec 19 d9 3c
       0.061429955 -0.057432465 -0.043681636 0.026501618
000150 27 ec aa 3c 22 e9 eb 3c b6 28 67 3d 73 05 8d bc
       0.02086456 0.02879769 0.05643531 -0.017214512
000160 d2 38 6a 3c e1 51 71 3c 42 02 14 3d 45 e0 a1 bc
       0.014295774 0.014728994 0.036134966 -0.01976026
000170 8c ef fa 3c 42 69 9c 3d ea e9 f1 3b fc 26 bc bc
       0.030631803 0.07637264 0.007382621 -0.022967808
000180 10 d7 df bc eb 91 25 3d 03 91 84 3c a9 a7 c2 3b
       -0.02732423 0.04042236 0.016182428 0.005940397
000190 d2 7b 67 bd b6 99 0e 3d fa 3b cb 3c 80 1f 80 ba
       -0.05651457 0.03481456 0.024808872 -0.0009775013
0001a0 ce e7 15 3d 3c 06 b9 bc 2e 75 92 3d 45 0d 88 bd
       0.03659802 -0.02258598 0.071512565 -0.06643156
0001b0 d8 03 4b bc b8 10 d0 3b d1 e7 28 bd cc 33 6b 3d
       -0.012391053 0.0063496493 -0.041236702 0.057422444
0001c0 24 2e ab 3c 62 c2 23 3d 4c ae b1 bc 68 1b 59 3b
       0.020896025 0.0399803 -0.021689557 0.0033127908
0001d0 cc 2e ca 3c 8e 73 10 3d 08 a3 6f bd 04 a5 b1 3c
       0.024680518 0.03526645 -0.058505088 0.02168513
0001e0 cd 07 2e bd 60 ea 5b bd 1c 6d f2 bc ef 38 0e 3d
       -0.04248791 -0.053690314 -0.029593043 0.034722265
0001f0 7c f3 1f 3d 46 51 78 bd 24 60 df 3c 32 33 30 3d
       0.039050564 -0.060624383 0.027267523 0.043017574
000200 53 c6 10 bd c0 dd 9c 3b 4a 7a 92 3d d0 77 54 3d
       -0.035345387 0.004787177 0.07152231 0.051872075
000210 ea e4 43 3d 3f 01 28 bd a6 86 5c 3d 8a e4 b9 3b
       0.04782573 -0.041016813 0.05383935 0.005672996
000220 6d a3 38 3d 78 cf 61 bc 30 cf 24 bd 3c 83 37 3d
       0.04507773 -0.013782375 -0.040236652 0.04480289
000230 27 65 83 3c 08 b7 34 bd 20 ae 54 bb e1 f6 76 3c
       0.016039444 -0.044119865 -0.003245242 0.015073509
000240 a1 c4 1f 3b 10 ef 00 bd 96 85 cf bc 20 e0 e5 bb
       0.0024378675 -0.031477988 -0.025332253 -0.007015243
000250 22 b4 20 bc 05 79 3e 3d 24 60 18 bd e6 83 86 3d
       -0.009808572 0.046502132 -0.03720106 0.065681264
000260 ca 44 30 bd 68 5e 84 bc 13 6d 19 bd f0 74 33 bc
       -0.043034352 -0.016158298 -0.037457537 -0.010953173
000270 28 7f 67 bd 35 8b bf 3c 38 9f 82 bc a6 bf 0a 3d
       -0.05651775 0.023381809 -0.015945062 0.033874176
000280 fa 55 35 3c 54 7d 1a bd 82 3c 6c 3d b6 d6 83 bd
       0.011067862 -0.03771718 0.057674892 -0.06437437
000290 03 b6 dd bc 04 aa 60 bd 56 62 4f 3d bc 7d ee bc
       -0.027064329 -0.05484964 0.05063089 -0.02911269
0002a0 7a 4c 29 3d 8c 07 7b 3d 0a b8 34 3d 5d e1 e2 3b
       0.0413327 0.061286494 0.044120826 0.006923838
0002b0 6e e6 0e 3d e1 4b 3b 3d 12 f1 12 bd ce fc 3a 3d
       0.034887724 0.04572666 -0.035874434 0.04565125
0002c0 d4 0e 72 bd 5a 0d b0 bc 1c e4 52 bc 27 6a 53 bc
       -0.059096172 -0.021490742 -0.012871768 -0.012903727
0002d0 f2 9a 91 bc 4b 33 db 3c 32 8b 50 3c 06 50 8d 3c
       -0.017774079 0.026757857 0.012728499 0.017250072
0002e0 70 b8 bc 3b 96 9b 68 bc 08 57 72 3d 2c 86 05 3d
       0.0057592914 -0.014197251 0.05916503 0.03259866
0002f0 1a 66 af bc 2f 85 85 bd c9 61 b6 bc 82 16 6b bd
       -0.02141099 -0.065195434 -0.022263424 -0.057394512
000300 10 40 1f bd 3c 0b 4b bd 88 22 10 3d e8 fa ed bc
       -0.038879454 -0.04957126 0.03518918 -0.029050305
000310 86 a2 8f 3c 1c 79 45 bd 37 d6 67 3d 1a 98 c1 bc
       0.017533552 -0.048211202 0.056600776 -0.023632098
000320 f8 e8 04 bc df 28 8b bd 59 1f ef 3c 8b 67 f3 3c
       -0.008112185 -0.06794905 0.029189752 0.02971246
000330 10 6a ba b7 54 a1 3d 3d 61 2e 84 bd 6c ee a7 3c
       -2.2222317e-05 0.046296433 -0.064541586 0.02049943
000340 35 b1 be 3c 88 0e 1b bd d2 6b 2d 3d ad 96 64 bd
       0.023277858 -0.037855655 0.042339154 -0.055807758
000350 04 e3 77 3d cc f7 6f 3c 2a d2 38 3d 51 e2 0c bd
       0.060519233 0.014646482 0.045122303 -0.03439552
000360 ae e6 b0 3d fe b6 15 bd 50 bf 3f bc eb 04 fe bc
       0.08637749 -0.036551468 -0.011703327 -0.031008204
000370 bd 0d f1 3c 20 b8 c9 bc fe 6d 50 3d 60 f9 72 3b
       0.029425496 -0.02462393 0.050886147 0.0037074909
000380 58 39 52 3d 03 ea ec 3b 6e 6f d5 bc 8c 2f 45 3d
       0.05132422 0.007230045 -0.02605411 0.048141047
000390 b0 e9 bf 3c 8e 7f e1 3b 78 a8 73 bc ed d5 45 3d
       0.02342686 0.006881661 -0.014871709 0.04829972
0003a0 8e 14 c5 bc 76 aa f6 3c 20 31 7e bb a4 ee e5 3c
       -0.024057653 0.030110579 -0.0038786605 0.028067894
0003b0 8e f9 02 bd b4 52 18 bd 0c a3 2a 3d ea 82 5d bd
       -0.031976275 -0.037188247 0.0416594 -0.054079928
0003c0 d3 62 9b 3c d8 72 64 bc 35 2f 66 3b 38 5d 75 bd
       0.018968021 -0.0139433965 0.0035123352 -0.059903353
0003d0 d3 90 a4 bb 28 12 f5 3c d0 d7 d5 bb eb 4e aa bb
       -0.005022147 0.029915884 -0.006525971 -0.005197396
0003e0 6c d8 f5 bc de 26 80 3c 93 76 ed 3c cd 57 22 3c
       -0.030010425 0.015643533 0.028987205 0.009908629
0003f0 ab 75 06 3d 97 b4 20 bd be ab 2c 3d 78 24 f7 bc
       0.03282706 -0.039234724 0.042155974 -0.030168757

heads.0.bias f4 [3]
000000 52 cc 4c 3c b1 e8 86 3d d2 c1 b7 3d
       0.012499886 0.06587351 0.08972515

heads.1.weight f4 [3, 256]
000000 9e c0 35 bd 40 44 e9 bb 34 8f 2c bd d3 45 35 bd
       -0.044373147 -0.0071187317 -0.042128757 -0.044256043
000010 a2 55 94 bc 66 45 04 bd f8 21 5a bd cb 2e 82 bc
       -0.01810724 -0.032292746 -0.05325505 -0.015891453
000020 82 5c aa ba 16 53 4c 3d 98 d5 68 3d 88 1d 1c 3c
       -0.001299754 0.049883924 0.056844324 0.009528525
000030 90 23 21 bd 84 21 c4 3c b9 53 5a bd b3 76 6c 3c
       -0.039340556 0.023941763 -0.0533025 0.014432597
000040 e9 97 8a bc 99 fc 95 bc 30 77 f6 3c 20 66 01 3c
       -0.01691814 -0.018308925 0.03008613 0.007897884
000050 2d ae a4 3c 6a b1 07 bd 3a 60 43 3d 93 98 eb 3c
       0.020102585 -0.03312818 0.04769919 0.028759276
000060 91 b8 9e 3c d5 db 36 bd 6e ce 37 3d b3 12 da 3c
       0.019375117 -0.044643242 0.0448746 0.026620245
000070 28 0c 58 3c 02 41 07 3d 98 c8 53 3c 40 74 44 bc
       0.013186492 0.03302098 0.012926243 -0.011990607
000080 da 65 5f bd 1a f3 38 ba c7 57 44 bc 39 0a 4e 3d
       -0.054540493 -0.0007055268 -0.011983818 0.050302718
000090 30 92 c9 bb 6e a6 17 bd 32 04 2f bc 70 7f ba bb
       -0.00615146 -0.037023954 -0.010682153 -0.0056914613
0000a0 e4 bf 67 3d 33 66 67 3d 35 22 99 bb 17 7c d4 bc
       0.056579486 0.05649395 -0.0046732672 -0.025938077
0000b0 05 62 56 bd 0e 0f 63 3d a3 fd 05 3c c0 d3 b3 bc
       -0.052339572 0.05543428 0.0081781475 -0.021951556
0000c0 e6 1a 3c bc ae 9c 89 3d 4f a8 ea bb aa dd 89 3d
       -0.011481022 0.067193374 -0.007161177 0.06731732
0000d0 68 3c bc 3c 80 63 f0 ba b5 9a 65 3c 5c db 8f bc
       0.022978023 -0.00183402 0.014013936 -0.017560653
0000e0 10 47 c0 bb b0 8e 9d 3c fc bd 2f bd 87 28 f5 bc
       -0.0058678463 0.019233078 -0.042905793 -0.029926552
0000f0 b2 f7 15 bd da 7d 17 bd c1 22 09 3d 5d 6a 48 3d
       -0.036613174 -0.036985256 0.03348041 0.04892956
000100 74 a6 54 3d 47 a8 2f 3d e0 d2 69 3c f0 6f 48 3c
       0.051916555 0.04288509 0.014271468 0.012233719
000110 a5 48 58 3c 67 13 61 3d f0 7b 42 3d a0 c0 c3 ba
       0.013200914 0.054950144 0.047481477 -0.0014934726
000120 a7 9d 63 bd cc 94 a9 3b 3c db d8 3c ee fa 20 bc
       -0.05557027 0.0051752087 0.026471727 -0.009825451
000130 a0 0b 36 3d f2 c6 e6 3c 9e 87 24 bd b0 bf 77 3d
       0.04444468 0.028171036 -0.040168397 0.06048554
000140 df 0b 3a bd c0 82 94 3b e2 ba 21 bd 4b 6d da 3c
       -0.045421477 0.004532188 -0.039484866 0.026663443
000150 32 67 92 bc 5a fc ba 3b 57 9b 8c bc 1e b5 13 bd
       -0.017871473 0.005706352 -0.017163916 -0.0360614
000160 2d fe 21 3d d1 08 20 bd ce bb 4c 3d b6 d1 3b bd
       0.03954904 -0.039070908 0.049983792 -0.045854293
000170 e2 be 6c bd fa dc 4d bd 12 48 d1 3c 40 14 4b bb
       -0.057799228 -0.050259568 0.025547061 -0.0030987412
000180 68 a1 3c bc 3d 89 c9 3b d2 7a a1 bd e2 b9 4b bd
       -0.011513092 0.0061503933 -0.07884754 -0.04973782
000190 00 bc 2e 3c 9e de 1f bd 4e 95 34 bd 30 6c ae bb
       0.01066494 -0.039030664 -0.0440877 -0.0053229555
0001a0 a9 ab 15 bd 50 bb 59 bc ed a6 dc 3c 46 a3 08 3d
       -0.03654066 -0.013289288 0.026935065 0.033358835
0001b0 e0 10 71 3c b9 de ee bc b9 f6 38 3c ea 03 29 3d
       0.014713496 -0.029158937 0.011289292 0.0412635
0001c0 bc f2 f2 bc 13 c0 81 3d 70 06 ac 3c 6e 2c 57 bd
       -0.02965676 0.063354634 0.020999163 -0.052532606
0001d0 60 b7 46 3c 32 a9 33 3b fe d5 20 bd 62 4f 65 bc
       0.012128681 0.002741408 -0.03926658 -0.013995977
0001e0 43 98 da 3c e8 90 56 3c 46 7c 5c 3d 98 d0 a0 bc
       0.026683932 0.013096072 0.053829454 -0.019630715
0001f0 d0 67 76 3d dd 03 d1 3c d8 36 d5 3c 00 12 7c 3a
       0.060157597 0.025514537 0.026027128 0.00096157193
000200 4d 01 03 bb 36 f3 5c bd 27 9c 02 3d 2c ca fb 3c
       -0.001998979 -0.05394288 0.0318872 0.030736051
000210 10 35 89 3c 9c f9 c8 3c 2a ab 7b 3d 26 fb 35 bd
       0.016748935 0.024533086 0.06144253 -0.044428967
000220 1f 74 0d bc a8 9f 05 bd c5 51 d5 3c ab e1 60 3d
       -0.008633642 -0.032622963 0.026039967 0.054902714
000230 db 50 58 3d 30 de 25 3c 40 37 ff 3c 6a a4 7a 3d
       0.052811485 0.010123774 0.031154275 0.061191954
000240 68 36 39 3d 2f 9c 0a 3b bd 28 96 bc 68 39 87 bc
       0.0452179 0.0021150222 -0.018329972 -0.016506866
000250 79 4d 1d 3d ee 2f 5d bc 48 c6 7d 3c 38 e2 41 3d
       0.03840396 -0.013500197 0.015489168 0.04733488
000260 32 c5 f6 bb 88 c2 22 bd d0 9f 1c bd 90 e0 08 3a
       -0.0075308317 -0.0397363 -0.038238347 0.00052214507
000270 11 36 44 bd 7e f4 d4 3c 80 cb 3e bd 60 82 79 bc
       -0.047903124 0.02599549 -0.04658079 -0.015228838
000280 9a e6 94 bb 50 12 d0 3c f0 cd 3b 3d 82 9a 70 3d
       -0.0045440914 0.025399357 0.045850694 0.0587411
000290 0c ab 09 3b 0a a8 ad bd 8c 1a 8b bc 00 7c 13 3c
       0.0021006493 -0.084793165 -0.016980432 0.009001732
0002a0 1f b1 b0 3c c1 9a 32 3d d6 c9 5e bd 06 c9 9b bc
       0.021568833 0.043604616 -0.054391704 -0.019016754
0002b0 5c d0 24 3d 67 ae ed 3c bc 5b bc bc c0 81 91 3c
       0.04023777 0.029013826 -0.022992961 0.017762065
0002c0 40 b4 25 3d eb c5 98 3a 48 46 2a bb 00 8e 50 3c
       0.040455103 0.0011655664 -0.0025981832 0.012729168
0002d0 d8 b6 06 bd 92 c3 80 bd 35 0f 26 3d 73 1d 39 3c
       -0.032889217 -0.06287302 0.040541846 0.011298525
0002e0 b2 24 30 bd a8 ec 29 3c c4 fd a7 bc ce 9c 61 3d
       -0.043003745 0.010371365 -0.020506747 0.05508118
0002f0 5d f4 f2 bc 16 32 36 3d d9 71 9f 3c 37 0b 54 bc
       -0.029657537 0.04448136 0.019463466 -0.012942127
000300 14 46 8d 3c 48 e5 18 3c 9e a8 5f 39 8c 07 ea bc
       0.01724533 0.009332009 0.00021329752 -0.028568052
000310 f9 4a 11 3a 84 2d f4 bc fe 16 a8 3c ec e5 11 bd
       0.0005542483 -0.02980686 0.020518776 -0.03561966
000320 64 f6 07 3d 10 e1 01 bc 35 06 89 3d ed c3 6c 3c
       0.03319396 -0.007927194 0.06690637 0.014451009
000330 9c 3c 6b bd f8 cb 1f 3c 6d 02 8b 3c 04 03 26 bd
       -0.05743085 0.00975322 0.01696893 -0.04053022
000340 e8 c0 78 3c 0c 4b b3 3c 90 76 72 bd 21 57 48 bd
       0.015182711 0.021886371 -0.0591951 -0.048911218
000350 60 e5 4f bb f4 12 8d 3c 50 bb f1 bc 13 5f f9 bc
       -0.0031722412 0.017220952 -0.029508263 -0.030440843
000360 a8 8c 14 bc 60 80 61 3c 68 99 b8 bc 90 9e d5 bc
       -0.009066738 0.013763517 -0.022534087 -0.026076585
000370 a5 f0 f2 3c b0 e1 ef bb 50 bd 42 bb 8e 97 22 3d
       0.029655764 -0.007320605 -0.002971489 0.039695315
000380 4a 4e 73 bd 22 db 82 bc d3 48 cc ba 27 5e ec 3c
       -0.059400834 -0.015973631 -0.0015585668 0.02885349
000390 db e9 6a bd 99 3b 78 3b e2 98 6e bd eb 90 40 3d
       -0.05735193 0.003787732 -0.05825127 0.047013205
0003a0 d2 7b 1d 3c a3 00 a2 bc bc 7e 41 bd fe 87 3d 3d
       0.009612041 -0.019775694 -0.047240004 0.04627227
0003b0 58 31 2f 3d 2f a0 1b 3d 1a c4 0f bd 00 14 ff b9
       0.042771667 0.03799456 -0.035099126 -0.0004865229
0003c0 c4 58 09 bd 22 5b 21 bd a8 18 43 bd 1e 9a 22 3d
       -0.03353192 -0.03939355 -0.047630936 0.03969776
0003d0 3f 7d a6 bc 9a 90 03 3d 13 a3 71 bb e4 c7 8c bb
       -0.020323394 0.032120325 -0.0036870881 -0.0042962898
0003e0 80 b7 19 ba d3 cf 38 bd 81 12 51 bd 33 a4 9c 3c
       -0.00058638304 -0.04512007 -0.051043037 0.019121265
0003f0 6a 15 bf 3c 66 48 2f bb bd 9e f4 3a f9 7c 31 3a
       0.02332564 -0.0026746034 0.001866303 0.00067706365

heads.1.bias f4 [3]
000000 ca 9a eb 3c a0 e1 be 3d cc ee 08 3e
       0.028760333 0.09320378 0.13372344

heads.2.weight f4 [3, 256]
000000 20 8f 73 bb 28 04 36 3c a0 50 64 bd ca 88 16 3d
       -0.0037164167 0.011109389 -0.055740952 0.036751546
000010 21 59 ef 3c 28 69 15 3d 59 9e 1d 3b 67 c6 9c bc
       0.029217305 0.036477238 0.0024050681 -0.019137574
000020 5b 0b 3f bc a2 e4 be 3c 82 4c 23 bd 7c 2d c3 3c
       -0.011660422 0.02330238 -0.039867885 0.0238254
000030 0a 66 72 3d 7b ef 81 3d 30 c0 9c 3c 0a e2 63 3d
       0.059179343 0.063445054 0.01913461 0.05563549
000040 74 27 08 bd 13 e5 af bc 48 a4 0f bd 88 90 e4 bc
       -0.03324075 -0.021471536 -0.03506878 -0.02790095
000050 82 da 81 bc 30 fc b9 bc 6c e9 4f 3d 00 52 79 bc
       -0.015851263 -0.02270326 0.050759718 -0.015217304
000060 c4 91 ba 3c 2e ed 1a 3c 74 df 97 3c c9 4c b6 bc
       0.022774585 0.009455962 0.018539168 -0.02225341
000070 78 3c 00 bc da e0 12 bd b4 4e 6a bd 00 93 14 bd
       -0.007826917 -0.035858966 -0.057203963 -0.036273003
000080 68 43 58 3d d7 4a 4d 3c aa 66 9f bb 8b b9 f7 ba
       0.05279866 0.01253005 -0.0048645334 -0.0018899901
000090 00 e4 5c 3b e2 36 0e 3c c3 3d 3f 3d 80 ea 51 bb
       0.0033705235 0.008680077 0.04668976 -0.0032030642
0000a0 00 ca 77 3d 52 d9 2f bb b4 5c 18 3d 60 10 2f bc
       0.060495377 -0.0026832414 0.037197784 -0.010685056
0000b0 e9 ad 68 3c 00 ed b1 ba 70 9e 44 3d c2 e1 7f 3d
       0.01420162 -0.001357466 0.04800266 0.06247116
0000c0 04 19 0c bd f8 7b 61 3c 1e 82 38 bd 45 c4 27 bc
       -0.034203544 0.013762467 -0.045045964 -0.010239665
0000d0 6a 9f 7d bd 00 7c 20 bb d2 92 be 3b 88 40 2f 3d
       -0.061919607 -0.0024487972 0.005815842 0.04278615
0000e0 48 9d fc 3c c4 8c 4a bd 68 6b e0 3c 8c 9c 7d bd
       0.030836716 -0.04945065 0.027394965 -0.061916873
0000f0 d2 f2 2a 3d ca 86 1e 3d ca 82 2e bb cf df e7 3c
       0.041735478 0.038702764 -0.002662825 0.028304962
000100 5a 6e 6c 3d 52 64 94 3c 40 f4 ec ba 0c 21 cf 3c
       0.057722427 0.018114243 -0.0018078163 0.025284313
000110 04 0c 56 bd eb 74 e4 bc 95 af 0a bb b3 e6 ea 3c
       -0.052257553 -0.027887782 -0.0021161784 0.02867446
000120 a6 5a 84 bd 4c a5 2d bb 43 9e 7d bd d3 95 0d 3d
       -0.06462602 -0.002649623 -0.06191851 0.03456671
000130 d6 70 17 bd 71 22 66 bd a0 f9 2f bc a0 8b 9d 3c
       -0.036972843 -0.05618519 -0.010740668 0.019231617
000140 82 69 37 3b 70 dc 10 3c 96 03 16 3c 51 72 fd 3c
       0.0027986472 0.008841619 0.009156128 0.0309383
000150 e0 b0 87 bc b9 22 3d 3b c9 ac 21 3d 79 e4 ef 3c
       -0.016563833 0.0028859808 0.03947142 0.029283749
000160 99 07 0d 3d 41 00 31 bc 88 f5 c6 bc e8 71 4d bd
       0.034431074 -0.010803283 -0.024287 -0.050157458
000170 c8 6a 46 3c e2 4c 91 3b 1f 3a 0e bd 80 8a fe bb
       0.01211042 0.004434214 -0.034723397 -0.0077679753
000180 6a 73 4c bd bb c7 6f 3b 3d 06 9f bd 18 29 54 bd
       -0.049914755 0.0036587554 -0.07764862 -0.051797003
000190 1c 0a 8b bc 00 0a 6d bb c7 c1 bd 3c 4e 0d 36 3d
       -0.016972594 -0.003616929 0.02316369 0.044446282
0001a0 28 43 2c bc 8a 3b 4e 3d 9d d9 ea bc 67 44 e6 3c
       -0.010514058 0.05034975 -0.02866822 0.028108789
0001b0 0c 3a 6e 3d 1f 43 1f bd 4d 80 d8 bc 98 1e 32 3d
       0.058160827 -0.03888237 -0.026428366 0.043486208
0001c0 e8 c2 fa bc 06 60 3a 3d 00 be 70 bd 86 88 1c bd
       -0.030610517 0.04550173 -0.058774948 -0.038216136
0001d0 10 34 98 3b f1 be 0f 3b c2 53 3d 3d 73 6c 24 bd
       0.004644878 0.0021933878 0.046222456 -0.040142488
0001e0 b8 4d 10 3c ed 24 d6 bc a0 d6 37 3d d9 e8 14 bd
       0.008807592 -0.026140654 0.044882417 -0.036354873
0001f0 84 9b 46 3d 91 01 24 3a 00 3b 5c 3b 38 52 4f bd
       0.048488155 0.0006256337 0.0033604503 -0.05061552
000200 92 f7 e4 ba ca 4c 1a 3d 3a 6e 48 bd 45 05 7a 3c
       -0.0017468801 0.037670888 -0.048933245 0.015260045
000210 e0 6c 81 bb b4 e5 97 bc b4 81 4a bd b3 01 ae bc
       -0.0039497465 -0.018542148 -0.0494401 -0.021241045
000220 38 74 30 3d 70 63 99 3c fb e2 58 3d 63 e0 53 3d
       0.043079585 0.018724173 0.05295084 0.051727664
000230 e3 3d 7d 3c f8 d0 fb 3c 78 5c 71 3d 85 fe 58 bb
       0.0154566495 0.030739293 0.058926076 -0.003311069
000240 ea 73 22 bd 2e d6 0b bd 98 3c 6e 3c 16 2a 1c 3d
       -0.039661326 -0.034139805 0.014540814 0.038126074
000250 a0 7e 37 bc 8d 27 2e 3b 3e f6 4b bd 90 17 12 bd
       -0.011199623 0.0026573867 -0.04979538 -0.035667002
000260 74 7d 22 3d 60 10 b3 3c d4 c6 2c 3c 26 ed 39 3d
       0.039670423 0.021858394 0.010545451 0.045392178
000270 26 17 15 bd 60 22 f3 3c 2a 97 14 bd e2 31 38 3d
       -0.03639903 0.029679477 -0.036276974 0.044969447
000280 20 3f 6e bc d6 23 4a bd 80 88 c3 bc 6c f2 44 bd
       -0.014541417 -0.049350582 -0.0238688 -0.048082754
000290 b1 7e 08 bb f8 ba d5 3c b0 8d a9 bc 94 35 1f bd
       -0.0020827467 0.02609013 -0.020697445 -0.038869455
0002a0 01 25 35 3c e9 f0 ed 3c 55 96 16 bd 20 fa fa bb
       0.011056186 0.029045539 -0.03676446 -0.0076592118
0002b0 e0 41 c4 3c 0d 4e 1e 3d 9c 5f f1 bc ac df 3d 3d
       0.023957193 0.038648654 -0.029464535 0.04635589
0002c0 22 57 02 bd 23 64 8b bc 7c 1a 58 bc a0 ce dd bc
       -0.031821378 -0.017015522 -0.013189908 -0.027076066
0002d0 46 b9 9e bc 48 6f 20 3c d6 ee 1f bd 7e f5 20 bd
       -0.019375455 0.0097921565 -0.03904613 -0.03929662
0002e0 98 43 69 3c be 03 06 3d 20 93 94 3b 98 e3 9c 3c
       0.014237307 0.032718413 0.00453414 0.019151494
0002f0 7e 2d 2b 3d 2f b9 2a bb fa 00 89 bc f3 68 2b 3c
       0.04179143 -0.002605032 -0.016724098 0.010462034
000300 18 b7 13 bc d8 9e 56 3c d8 28 01 bd 58 76 89 3c
       -0.009015821 0.013099395 -0.031533092 0.016780064
000310 73 c8 d6 3b 0e 89 06 bd c2 96 3e bd ae e3 c5 3c
       0.006554657 -0.03284555 -0.046530493 0.024156418
000320 88 aa 0c 3d fe cb 27 3d be 6e 98 bc d0 8a ba bc
       0.03434232 0.040966026 -0.018607493 -0.02277127
000330 9c 66 19 bd 72 ce 15 3d ba df 18 bd ac 31 f5 bc
       -0.03745137 0.036573835 -0.037322737 -0.029930912
000340 43 31 6a bc aa d8 38 bd 20 59 59 3c 7b d8 92 3c
       -0.0142939715 -0.045128502 0.013265878 0.017925492
000350 8c e9 8b 3c 8a e1 2c 3d 87 04 56 bd 11 d4 8f bb
       0.017079137 0.04220728 -0.05225041 -0.004389294
000360 6c fa 7a 3d 4c 04 80 3c 90 ef ff 3c 99 8e 76 3d
       0.061273977 0.015627049 0.031242162 0.060194585
000370 b2 a2 3b bc e8 97 58 bc ae 60 72 3d a0 e7 4f 3c
       -0.011452364 -0.013219811 0.059174232 0.012689501
000380 17 b6 30 3c 6b db 03 3c 94 8e b7 3c 91 76 5e 3c
       0.010785601 0.008047919 0.022406854 0.013578073
000390 27 0e 8a bd 68 34 cc 3c 8e 74 15 3d c4 73 1a bc
       -0.067409806 0.024927333 0.03648811 -0.009427015
0003a0 c2 e4 95 3a 5f 8b 4e 3d 16 40 30 bd f0 2c 9d bb
       0.0011435973 0.050425883 -0.043029867 -0.0047966167
0003b0 70 a7 f6 3c 72 c2 87 bc b3 53 a0 3c c6 d5 22 bd
       0.030109137 -0.016572211 0.01957116 -0.03975465
0003c0 69 ef 3d bc 39 b6 86 bc 10 d9 c9 3c 50 1e ea 3c
       -0.011592724 -0.016444312 0.024639636 0.028578907
0003d0 d1 8a a1 bc a4 20 73 bd d1 ad 64 3d c0 05 ff 3c
       -0.019719513 -0.0593573 0.055829827 0.031130672
0003e0 6e 3c 33 3d ee bc 44 bd 05 47 53 bd e7 74 bf bb
       0.043758802 -0.04803174 -0.0515814 -0.0058427933
0003f0 68 98 d5 bc d1 dd 39 bd cf 98 12 3d 31 b0 3e 3b
       -0.02607365 -0.045377556 0.03579026 0.0029096717

heads.2.bias f4 [3]
000000 0b aa f2 3d 6c 7a 7b 3d 1d 91 24 3d
       0.11848839 0.061396047 0.040177453
