results/arq/models/arq_checkpoint_0.pt (torch, 332441 bytes, 25 tensors)

trunk.0.weight f4 [256, 30]
00000000: e695 0b3e 8f34 183e cc31 2fbd e896 283e
00000010: bb9c 30bd 5980 0b3d 2bf1 bbbd a037 d53d
00000020: 7117 213e 7282 08be 7885 1f3e a030 213d
00000030: 6b1a 073e a643 b73c c173 a23d 530f e5bc
00000040: 6e3e 113e 9717 d73c 05c7 b6bd 2bef 2f3d
00000050: c94b b1bd fc99 c3bc e4aa 9dbd 399f f43d
00000060: 09ab 16be a13a b3bd 20a0 54bd 2d13 d5bd
00000070: f829 8d3c 0aa7 38be 74d7 283e 2bd0 1ebe
00000080: ca55 103e 88e7 f83c 60d2 72bd 100f e73d
00000090: 1019 e93c b60d 173e f880 a33c f6d7 6bbd
000000a0: 94ed 483d 60cb 4abd 185d 9d3d 1eeb 263e
000000b0: b424 d83d ca76 a3bd 9cd8 d73d 28ce 053d
000000c0: b4e2 bd3d b6e6 e3bd bd11 39be fe76 90bd
000000d0: 4566 0fbe 9667 193e 9065 573d 20e1 9a3d
000000e0: f481 6c3d 4025 50bb 3450 123e b2d5 04be
000000f0: d057 3c3c bd35 ffbd cc97 663d c6c4 80bd
00000100: 3825 653d 80cd 1bbd 4c0f 1b3e 4a9e ddbd
00000110: 1500 dfbd 8703 dfbd fc27 283e 9036 793d
00000120: 04e6 333e 524a 1abe e96f 39be 8044 12be
00000130: c686 fbbd 0873 973d 8ae3 853d a658 1b3e
00000140: fd18 c1bd 72e6 febd b463 c63d 0a23 97bd
00000150: a0ef e23d 8475 31bd 10e5 d53d 4142 11be
00000160: cfb1 bcbd 70fe 633d 7818 1e3d 0caa 3ebd
00000170: a4e0 de3d 5430 fe3d 5393 07be a49e c7bd
00000180: 3e30 2b3e 1057 7cbd d38e 84bd c8e5 34be
00000190: d320 d6bd 24cf 3a3d 506a c5bc 6eb5 07be
000001a0: 0055 8c3b 8e69 ffbd e19c 1ebe 3ae6 cdbd
000001b0: 49a0 23be 7e15 eebd 02e2 3a3e c43e 0d3d
000001c0: fc72 663d f35e 2ebe 5893 f5bd e2ea 78bd
000001d0: 48e0 e93c ac81 24be cb1b a1bd 6dd9 dfbd
000001e0: 00a2 043a 4322 8bbd c048 4fbc b45f fdbd
000001f0: 5f53 00be 1124 dabd 6afa 7fbd 8e8f 13be
00000200: c6c1 1c3e 886a 14bd 36db 203e 3002 693d
00000210: 5250 1ebe 4e61 013e 84c2 4dbd 8754 8fbd
00000220: c72f 1bbe 40dd 39be dcf5 553d 885b 23bd
00000230: 9492 913d 8c6d 19be 32cd 0a3e 583c 09be
00000240: 1821 01bd a032 1c3d 6008 c13d 76ee 163e
00000250: 2c4f 2a3e d43d 14be e833 3c3d 48d4 a0bd
00000260: 78e6 a3bc 48ef 0bbe 5c4a 2a3e 6837 09be
00000270: 74d6 c73d 5068 833d 8402 733d 7027 cabd
00000280: 14ef 293e a855 243d 7066 c03c 7fc1 24be
00000290: c4f6 9c3d c060 e0bc 524c abbd ce95 203e
000002a0: f8b9 263d 6ce0 cebd 5a40 bdbd 00da 0ebc
000002b0: 28c7 d03d 2418 3fbd 4258 d5bd 210b 80bd
000002c0: 8cab 0bbe 6059 853d 20b6 103e 0502 30be
000002d0: 8a2a 243d fccc bb3d 389a 073d e5a0 89bd
000002e0: 414f bd3d 5e8c bf3d c2b4 903d 7322 0bbd
000002f0: d33f 4bbd 89f6 633c 9152 0fbd 70ea 66bd
00000300: a7cb eb3d 8e38 1e3e a41d 8ebc 95a0 2ebd
00000310: b86f b538 17ad 58bc 0abb 323d 7c87 723d
00000320: 2422 2abe 0660 a2bd 7e66 283e 2560 8b3d
00000330: 03e2 8bbc 95c6 ecbd a0fa e7bd 2a50 25be
00000340: 32c3 73bd 108b 7c3d 47c1 e93d 9827 a83d
00000350: 3442 25be aa7b e6bd 64ac fbbc e13b 323e
00000360: 743e a23c 46d6 4dbd 4069 943d 1ff3 8bbd
00000370: ec06 f6bd 14d1 0b3e f755 aebd 3765 1dbd
00000380: c8f7 43be 7414 f83d 64e4 0b3e 6e73 853d
00000390: b85d 08be a5cc 3cbe 8484 1cbe cddd 033e
000003a0: fdf2 8c3d 8cb8 1a3e b530 b53d aca2 1b3d
000003b0: d902 93bc e63e 1cbe bd2d 20be 77de 2ebe
000003c0: b810 993d 2b94 b7bd 6080 16bd 3330 d7bd
000003d0: 6845 08bd 0c96 03be e651 f4bd b00f 783d
000003e0: 2440 5ebd fcd4 e63d 90e8 6fbd 1025 09be
000003f0: fcf1 03bd ba40 b5bd 58ca 64bd 34fb 31be
0.136314 0.148638 -0.0427721 0.16463816 -0.04311822 0.03405795 -0.091768585 0.10411
0.15731598 -0.13331011 0.15578258 0.039353013 0.13193671 0.022371124 0.079322346 -0.027961409
0.14183971 0.026256366 -0.08924679 0.042952698 -0.08657033 -0.023877136 -0.076986104 0.11944432
-0.14713682 -0.08751417 -0.05191052 -0.10404048 0.017231926 -0.1803247 0.16488439 -0.15509097
0.14095226 0.03038384 -0.05928266 0.1128217 0.028454334 0.14751324 0.019958958 -0.057579003
0.049054697 -0.04951036 0.07683772 0.16300628 0.105538756 -0.079816416 0.10539362 0.03266731
0.09271756 -0.11127989 -0.18073173 -0.07053946 -0.14003856 0.14980921 0.052587092 0.075624704
0.05774112 -0.0031760484 0.14288408 -0.12972143 0.0114955455 -0.12461422 0.05629711 -0.062875316
0.055943698 -0.038037777 0.15142554 -0.10821207 -0.108886875 -0.10889345 0.16421503 0.06084305
0.17568213 -0.15067413 -0.18109097 -0.14283943 -0.12281565 0.07394987 0.0653754 0.15170535
-0.09428594 -0.12446298 0.096869856 -0.0737973 0.11080861 -0.043324962 0.10444081 -0.1418543
-0.09213602 0.055662572 0.038597554 -0.046548888 0.108826905 0.124115616 -0.13239793 -0.09747055
0.16717622 -0.061606467 -0.06472554 -0.1766578 -0.104554795 0.0456077 -0.024098545 -0.13252804
0.0042825937 -0.12471305 -0.15489532 -0.10053678 -0.15979113 -0.11625193 0.18250278 0.034483686
0.056262 -0.17028408 -0.11990994 -0.060770877 0.028549328 -0.16065091 -0.07866629 -0.109301426
0.000505954 -0.06793644 -0.012651622 -0.123717695 -0.12531804 -0.1065141 -0.062494673 -0.1441023
0.15308294 -0.03623441 0.15708622 0.05688685 -0.15460327 0.12634775 -0.050234333 -0.06998544
-0.15154944 -0.18150806 0.052236423 -0.039882213 0.07108036 -0.14983195 0.13554838 -0.13401926
-0.0315257 0.038134217 0.094254255 0.14739403 0.16631764 -0.1447671 0.04594794 -0.078529894
-0.020007357 -0.13665497 0.16629928 -0.13400042 0.097577006 0.064163804 0.05932857 -0.09870803
0.16595107 0.04012075 0.023486346 -0.16089438 0.07664254 -0.027389884 -0.08364166 0.15682146
0.040704697 -0.10101399 -0.0924079 -0.008718967 0.10194236 -0.04665388 -0.104172245 -0.06252123
-0.13639659 0.065111876 0.14131975 -0.1718827 0.04007963 0.09169957 0.03310606 -0.06720141
0.09243632 0.09352945 0.07065727 -0.0339684 -0.049621414 0.013913759 -0.03499085 -0.05637592
0.11513453 0.15451261 -0.017348118 -0.04263361 8.651562e-05 -0.013224862 0.043635406 0.05921124
-0.16614586 -0.07928471 0.16445348 0.068054475 -0.017075544 -0.11561314 -0.113271 -0.16143861
-0.059512325 0.061656058 0.11413818 0.08210677 -0.16138536 -0.11254056 -0.03072185 0.17405654
0.01980517 -0.050253175 0.07246637 -0.06833481 -0.12013039 0.13653976 -0.0851249 -0.038426604
-0.1913749 0.12113276 0.13661343 0.06516157 -0.13317001 -0.1843744 -0.15284926 0.12877579
0.06882284 0.15109462 0.08847181 0.037996933 -0.017945694 -0.15258369 -0.15642448 -0.17077051
0.07473892 -0.08963808 -0.03674352 -0.1050724 -0.033269316 -0.12850207 -0.119296834 0.060561836
-0.054260388 0.11271092 -0.0585714 -0.13393044 -0.032213196 -0.08850236 -0.055857033 -0.17380983

trunk.0.bias f4 [256]
00000000: f244 1fbe 6680 2fbe a050 50bd 0a86 153e
00000010: 38eb bc3d c04f f03d 7f28 37bd 7355 223e
00000020: 217e aabd 5064 51bc a1ad 2bbe 9cf9 6f3b
00000030: 3873 2b3d 6170 33be 102b 1d3e 0cb2 0c3d
00000040: 9e4b 323e d8f6 a0bd 1858 633b 3001 70bd
00000050: 896c 133e d005 d1bd c742 c33d bf4a 09be
00000060: 2769 0b3e bbbd 30be 63e2 b9bd 1dce abbd
00000070: e8f6 fdbc c613 02bc 0c0b 6a3d 76a8 273e
00000080: fd4c c13d a370 babd 3cac 2f3e 303f dcbc
00000090: 0981 d0bd 14c4 8b3d cc51 02bd ec6b 323e
000000a0: 78d8 a63c 4bdf f23d 3c1d 2a3d c681 07be
000000b0: 4fa2 b43c ab61 d8bd 6840 48bd 45be 7fbd
000000c0: 7c22 14be 9aee 6f3d f64a 043e da8a 3cbe
000000d0: c2a9 b73d 9269 1abe 72f7 36be dcf2 803d
000000e0: 304c d2bb 9cca f2bd 91e2 243e 7015 743c
000000f0: 5c87 eabd 4087 ab3d 00b8 533c 8c21 1fbd
00000100: aa17 05be cde1 7fbc e699 d63d a6ab b6bd
00000110: b438 ac3d 9f88 3dbe dad4 91bd 1421 7ebd
00000120: 6078 24be 1aa3 853d fde3 18be 9867 d83d
00000130: 2c1d 193d c0d7 1e3b fa0c ddbd b5f6 83bd
00000140: 9c8c 353d 28bd 333e 0da3 c7bd a470 0ebe
00000150: 17dc a5bd 994b 06be 00e6 c4bc 808b 13be
00000160: c0f9 023e 88d5 013e 8e10 fabd 0afa 1f3e
00000170: 2ecf d43c bee3 edbd e063 783d f9dc 2abe
00000180: e3da c6bd 7dc0 0cbe 03a0 dabd 4cdf 21bd
00000190: 4c49 1b3d 81b9 ac3c cec9 38be def2 32be
000001a0: a0e7 e2bc 1562 1d3e e083 8a3d 4af6 193e
000001b0: ad29 b1bd 8718 503d d7c2 22be 6c98 c23d
000001c0: c065 93bb e0e2 62bc 074d dfbd b859 23be
000001d0: 9aaa 89bd 5b08 efbc 84f9 cbbd 8848 9c3d
000001e0: 2cc4 01bd e043 933c 741b 2ebe 8c79 5e3d
000001f0: a0ce b6bd 4444 0dbe 0343 a7bd a7c1 2fbe
00000200: 8ff2 11be d663 0b3e 8807 193e ba6e 01be
00000210: 142e 223d daf1 c6bd ffb9 2c3e 1ac6 db3d
00000220: a0ab 943d 7f7a 1ebe 6dea b7bd b829 1dbd
00000230: 30b7 30be 7c85 dabd ace3 443d 6d38 1bbe
00000240: 1247 453d b4b3 a0bb 953a ebbc 0871 5abd
00000250: 72c7 d1bd 1ecb 2ebe 5271 febd 5cce 063e
00000260: 8867 9ebc 16dc 333e 30b3 1d3c f04a b0bc
00000270: 5de3 d23d 50e7 35be fbc1 e7bd f07d d63d
00000280: ee34 5bbd c703 0d3e 46bb a2bc e1c6 033e
00000290: 0047 113c 91b3 3f3c 980b 2dbe 1d38 81bd
000002a0: 628d 023c c0d7 aa3d 9e49 063d 645d 22bd
000002b0: 8090 a13a cef8 1d3e 42a9 ef3d f1a7 823d
000002c0: 4b3a 09be e472 7bbd 84b8 ee3d e7ac 213e
000002d0: 4857 cbbd 1ae2 9e3d 081c 2fbd 3235 d93d
000002e0: f8bb e0bc d59c 14be b673 3ebe ec2f 5abc
000002f0: 6076 5c3d 416b dcbd d059 0e3e 885b b13d
00000300: fc7a e13d 7352 aa3d 98c6 43be b6b3 26bd
00000310: 0fb6 c23d 7818 b93d a95e 30be e827 ddbd
00000320: f444 083e 7cc9 1abe 3dc8 023e 0448 10bd
00000330: 9073 5b3c 8b1e b13d f950 2c3d 64b1 efbd
00000340: 3401 4d3d 5915 2ebe 6d39 bdbd 285c 03bd
00000350: 0097 15bd 1818 083e 1b8b c1bd 3a19 1b3e
00000360: 45d9 a63d 0a1a 563d 4514 053e cb0a 12be
00000370: 5716 21be e0c9 993b 5aa2 b63d e025 b23d
00000380: e0c9 f83b 4ece 323e b0b0 823d dd5a 9c3d
00000390: bdd0 bebd 601d 643d 8ff6 8bbd 7186 1bbe
000003a0: eb65 09be 8c9d e6bd 1cc2 1cbd b24f a1bd
000003b0: d29f 233e 2c67 993d c4ae 1ebe 66a8 b03b
000003c0: 5fec 1c3e c030 f1bb 80ee de3c 8882 473d
000003d0: 06c0 76bd c815 f2bd 1522 8cbd dd7a 4ebd
000003e0: 43f1 053e c7f8 17be e6cb af3c 0aef 8ebd
000003f0: 8e49 bcbc 20df 84bc ac0a 91bd 2f36 163d
-0.15553644 -0.17138824 -0.05085814 0.14601913 0.09224552 0.11733961 -0.044716354 0.15852909
-0.083248384 -0.012780264 -0.16765453 0.0036617285 0.041857928 -0.17523338 0.15348458 0.034349486
0.17411658 -0.07859582 0.003468996 -0.058594882 0.14396872 -0.10206187 0.09534221 -0.1340742
0.13614331 -0.17259876 -0.09076383 -0.08388922 -0.031001523 -0.007939285 0.05713944 0.16372856
0.094385125 -0.09103515 0.17155546 -0.026885599 -0.101808615 0.06824508 -0.03181629 0.17423981
0.020366892 0.11858996 0.041531786 -0.13233098 0.022050051 -0.10565504 -0.048889548 -0.062437315
-0.1446628 0.058577158 0.1291922 -0.18412343 0.089679256 -0.15079334 -0.1786783 0.06296322
-0.0064177737 -0.11855051 0.16102053 0.014897689 -0.11451599 0.08375406 0.012922287 -0.038850352
-0.12997308 -0.0156178 0.104785725 -0.08919458 0.08409253 -0.18509148 -0.07120676 -0.062043265
-0.16061544 0.0652525 -0.1493072 0.10566634 0.037381336 0.0024237484 -0.10793491 -0.0644354
0.04432355 0.17552626 -0.09747896 -0.13910156 -0.080986194 -0.13114776 -0.024035454 -0.14408684
0.12790585 0.12679112 -0.12210189 0.15622726 0.025977697 -0.11615704 0.060642123 -0.16685857
-0.09709718 -0.13745303 -0.10675051 -0.039519593 0.0379117 0.021084549 -0.18045732 -0.17475459
-0.027698338 0.15369447 0.067634344 0.15035358 -0.08650527 0.05080464 -0.15894638 0.095017284
-0.0044982135 -0.0138480365 -0.10903364 -0.15952194 -0.06721993 -0.029178789 -0.09959701 0.07631022
-0.031681225 0.017976701 -0.1700266 0.054315135 -0.08926129 -0.13795573 -0.08167078 -0.17163716
-0.14252685 0.13612303 0.14944279 -0.12639895 0.039594725 -0.09714098 0.16867827 0.10731144
0.07259297 -0.15476416 -0.0898026 -0.038369864 -0.1725738 -0.106699914 0.048068687 -0.15158243
0.04816348 -0.004904235 -0.028714458 -0.05333045 -0.10243119 -0.1706967 -0.12423958 0.13164657
-0.019336477 0.17564425 0.009625241 -0.021520108 0.10297272 -0.1776402 -0.11316296 0.104732394
-0.053517275 0.13770972 -0.01986469 0.12868835 0.008867025 0.011700527 -0.16898954 -0.06309531
0.007968279 0.08341932 0.03278505 -0.039639845 0.001232639 0.15426943 0.11702205 0.063796885
-0.13401143 -0.061388865 0.11656287 0.15788613 -0.09928757 0.07757969 -0.042751342 0.10605849
-0.02743338 -0.14512952 -0.18598828 -0.0133170895 0.05382383 -0.107626446 0.13901448 0.08660036
0.110097855 0.08316507 -0.19118726 -0.04069873 0.09507381 0.0903787 -0.1722361 -0.10798627
0.13307554 -0.15115923 0.12771697 -0.03522493 0.0133942515 0.08648404 0.04206941 -0.117037565
0.050049976 -0.17000331 -0.09239469 -0.03207031 -0.036520958 0.13290441 -0.094503604 0.15146342
0.081469096 0.052270927 0.12996013 -0.1426193 -0.15731178 0.004693255 0.08917685 0.0869863
0.0075924248 0.17461511 0.06381357 0.07634518 -0.093171574 0.055692077 -0.06834137 -0.15188004
-0.13417785 -0.112605184 -0.038271055 -0.07876529 0.15978935 0.074903816 -0.15496355 0.0053911684
0.15324543 -0.007360548 0.027213335 0.04870847 -0.06024172 -0.11820561 -0.06842438 -0.05041014
0.13080315 -0.14840995 0.021459531 -0.06979187 -0.022984292 -0.016219676 -0.070821136 0.036672767

trunk.2.weight f4 [256, 256]
00000000: 5802 723c 8a02 13bd 984a 1d3d 06ef 663d
00000010: 6810 d4bc a8b7 503c fc95 bdbc b27b 2f3d
00000020: 60cc 9ebb cc40 64bd d048 6e3c 9c24 543d
00000030: 00fc 7f39 e41e 83bc 80be e0ba 7cf5 103d
00000040: dc8e 5b3d 2822 80bc 5a5f 083d 7ca4 0e3d
00000050: ceb7 643d f666 373d ea6f 53bd e87e 53bd
00000060: 0672 54bd 54dc 203d e0ff 01bd 7c68 0d3d
00000070: 2078 18bc c0f8 d2bc eea2 403d e8c6 45bc
00000080: 5828 0abd c8ef 1cbc 78d1 22bd 4e7f 76bd
00000090: 8869 33bc a09b 66bb cae9 11bd eae4 623d
000000a0: 20c5 64bc 480d 82bc 96e0 4a3d 40e6 e33b
000000b0: 18e3 70bc b074 6b3c e24c 67bd 1aae 7b3d
000000c0: 240f 873c 1811 b43c 28d0 3cbd 66b9 433d
000000d0: 0a67 52bd 10ea b1bc b825 24bd c849 01bd
000000e0: 1086 5a3c e4e0 7dbd 3a9e 7abd 70ed 693c
000000f0: b4be a83c 80d9 6a3a b883 c2bc d038 8fbc
00000100: b86c 0dbc 609f 4fbc 825f 1ebd 48b1 403d
00000110: d040 4f3c 9445 2bbd 6820 50bc c83d 39bd
00000120: da92 15bd 3072 423d 144d 9c3c f84c e03c
00000130: e8da 04bc f883 7fbc a85c 043c 42de 35bd
00000140: e2b9 7ebd 22f9 333d 00f1 a63a 6a47 1b3d
00000150: c69e 403d 74f0 df3c 50ff aebc 70c7 3bbc
00000160: 40c5 55bb 2004 753b 8051 1f3b ac24 48bd
00000170: 86b9 0cbd ea8e 3a3d 801b 033b 7422 e8bc
00000180: 2a14 2d3d 34f5 97bc 3441 d0bc dcea 323d
00000190: baf8 49bd e032 f5bc ccbd 413d e040 c8bb
000001a0: b821 d3bc 4a6c 543d 28d2 1b3c 1a87 70bd
000001b0: 244e 3dbd c8ca 81bc 00c9 60bb dabe 40bd
000001c0: e0ef c0bc 7c14 ad3c fabc 6ebd 9ee7 6fbd
000001d0: 441d 853c 2070 433c da38 77bd 5431 6ebd
000001e0: fab4 543d 947c 7f3d 70c5 dfbc 2a02 7f3d
000001f0: 72cf 303d 868e 633d 9050 dcbc a896 7abc
00000200: 42ee 163d 30e9 bd3c ae51 4cbd 1035 193d
00000210: d2a4 793d 4493 22bd f4ae 6dbd 7adb 73bd
00000220: dcf6 21bd 5c78 e1bc 46ac 10bd c436 60bd
00000230: fee2 1f3d 4461 7a3d 7053 563d a84e 203d
00000240: f052 e33c 88d9 c9bc 5c95 4ebd 4433 17bd
00000250: d0d2 e73c f808 603c 08ba 023c 8c5e 1bbd
00000260: 34e2 f0bc dced d7bc f8fb 01bc f839 41bc
00000270: b093 d83b a480 aabc 000f e8bb 42d1 22bd
00000280: 3c02 fd3c e2bf 54bd 68e9 3a3c b48c 73bd
00000290: 18fe 11bd 3c87 773d b09c 3fbc 481d 3cbc
000002a0: 0011 043d ecd8 5cbd 50e4 6bbc 80d5 03bb
000002b0: 3080 e63b d095 29bc ce94 34bd 24a1 6abd
000002c0: 8098 303a 16c7 553d 88d6 e5bc 8076 013c
000002d0: c0b9 223d 6c20 7abd b68a 623d be37 583d
000002e0: 00fb dfbc 5c24 5f3d b6df 2e3d 68a9 543d
000002f0: d2b4 5d3d 30d6 6a3c 02ab 0c3d 2e13 09bd
00000300: b8f8 2b3c 067e 753d 546e b0bc 9050 713c
00000310: cecc 02bd 283f bd3c 9cb4 a63c 6246 413d
00000320: 00aa b439 2875 f43c d833 1b3d 10e6 243c
00000330: ea7f 71bd 8481 353d 2eec 23bd 682c ed3c
00000340: 2089 3fbd d422 953c f8a1 3fbc a041 65bd
00000350: 3cca e93c f843 6ebc 140b d5bc 2c15 9fbc
00000360: 3a10 2e3d a66c 163d 947a 8b3c 6c3c d63c
00000370: 307e 033d 7cd1 d33c f8fa 593d 1226 1a3d
00000380: 8abc 03bd b8f6 1bbc 9ccc ee3c c0ad 4b3d
00000390: 68b9 54bd 24f0 fdbc 60ea fdbc eaca 713d
000003a0: 5244 7b3d 48db e4bc 7039 9ebc 403d 913a
000003b0: e0d9 6f3b 50ec 91bc d6c3 3abd 903e 08bd
000003c0: d0e2 aabb 10af dd3b 402d 1d3b cc15 6bbd
000003d0: 50ac 623d 621d 15bd f8ba 7abc 3e79 6d3d
000003e0: 00d9 d539 50a3 4cbd 827a 133d d49f c0bc
000003f0: 4e2b 783d e08e 94bc 6a5b 3fbd 4e71 3ebd
0.014771067 -0.035891093 0.038401216 0.056380294 -0.02588673 0.0127391 -0.023142807 0.042842574
-0.0048461407 -0.055725858 0.014543727 0.051792726 0.00024412572 -0.01600594 -0.0017146617 0.035390362
0.05360304 -0.015641287 0.03329406 0.034824833 0.055839352 0.044775926 -0.0516204 -0.0516347
-0.051866554 0.03927262 -0.031738162 0.034523472 -0.009305984 -0.025753379 0.04703038 -0.012071349
-0.03372988 -0.009578653 -0.039750546 -0.06018 -0.010950454 -0.0035187975 -0.03562335 0.05539409
-0.013963014 -0.015875474 0.049530588 0.006954938 -0.014702581 0.014371082 -0.056469806 0.061445333
0.016486712 0.021980807 -0.04609695 0.04778423 -0.051367797 -0.021718055 -0.040075034 -0.031564504
0.013337627 -0.06198205 -0.061186053 0.014277801 0.020598747 0.00089588016 -0.023744449 -0.017483145
-0.008631878 -0.012672275 -0.038665302 0.04704407 0.01264973 -0.0418144 -0.012703039 -0.045224935
-0.036517 0.04747218 0.019079722 0.027380452 -0.008108832 -0.015595429 0.008078732 -0.044401415
-0.06218899 0.043938763 0.0012736619 0.037909903 0.04702642 0.027336337 -0.021361977 -0.011461124
-0.003261879 0.0037386492 0.0024310052 -0.048863098 -0.034356616 0.04554645 0.0020005405 -0.028336741
0.042255558 -0.01854954 -0.025421716 0.04368101 -0.04930947 -0.029931486 0.047300145 -0.0061112493
-0.025772914 0.051861085 0.009510554 -0.058722593 -0.0462171 -0.015843764 -0.0034299493 -0.04705701
-0.023551881 0.021127932 -0.05828569 -0.058570497 0.016249306 0.011928588 -0.060356952 -0.05815251
0.051930405 0.062374666 -0.027315825 0.062257923 0.043166585 0.055555843 -0.026893884 -0.015294708
0.036848314 0.023182482 -0.049882583 0.03740412 0.0609482 -0.039691225 -0.058028176 -0.05953548
-0.039542064 -0.027523212 -0.035320543 -0.05473973 0.039034836 0.061127916 0.052325666 0.039137512
0.027749509 -0.02463986 -0.05043541 -0.036914125 0.028298765 0.013674013 0.007978924 -0.037931964
-0.029404737 -0.026358537 -0.007933609 -0.011793606 0.0066094026 -0.020813294 -0.0070818663 -0.039750345
0.030884854 -0.051940806 0.011408187 -0.059460357 -0.035642713 0.060431704 -0.011695072 -0.011481591
0.032242775 -0.05391781 -0.014397696 -0.002011627 0.007034324 -0.0103506595 -0.044087224 -0.057282582
0.00067365915 0.052191816 -0.028056398 0.007901788 0.039727926 -0.061066076 0.055308066 0.052787535
-0.027341366 0.054478034 0.042693816 0.05191937 0.05412752 0.014333293 0.034342773 -0.033465557
0.010496311 0.05993464 -0.021536984 0.01472868 -0.0319336 0.023101404 0.020349793 0.047186263
0.00034458935 0.02984102 0.03789124 0.010064617 -0.05895988 0.04431297 -0.04002016 0.028951839
-0.046761632 0.018205084 -0.011696331 -0.055970788 0.028538816 -0.014542572 -0.026006259 -0.019419275
0.042495944 0.03672471 0.017026223 0.026151858 0.032102764 0.025856726 0.053217858 0.037633963
-0.032162227 -0.009519272 0.0291503 0.049726248 -0.05193463 -0.030998297 -0.030995548 0.059031405
0.061344452 -0.027936593 -0.019314498 0.0011080876 0.003659837 -0.017812878 -0.04559692 -0.03326279
-0.0052150264 0.006765254 0.002398327 -0.057393834 0.05534011 -0.036404975 -0.015303366 0.057976954
0.00040788203 -0.049960434 0.036005504 -0.023513712 0.060588174 -0.018134534 -0.04671804 -0.046494775

trunk.2.bias f4 [256]
00000000: ccc4 043d 5c25 4cbd 8c02 b6bc 406e 35bb
00000010: efa7 3a3d 34a5 913c a6e9 16bd 10ff 9c3c
00000020: c030 22bd 5e85 3f3d f08d b2bc 52a1 54bd
00000030: 2331 90bc da39 743c 6892 02bc 1650 283d
00000040: 7251 5fbd 5c61 5c3c d860 c43c caf1 623d
00000050: a67f 133d 70a3 893c 6a0a 203c 755d 463d
00000060: 262d 9a3c bce6 adbc 80d0 1ebd 6ca0 14bd
00000070: 71ab 14bc 5f88 7cbd bc89 29bd f608 5f3d
00000080: a5a2 a83c f7d5 0f3d 0bec e5bc 4848 f9bc
00000090: d932 9cbc 0a9f 603d 001e e5ba c86e 7cbc
000000a0: a816 063c fcb5 f5bc 00c7 ad39 9118 47bd
000000b0: be3e 343d 774b 7dbd c002 a4ba 5ea5 3dbd
000000c0: e0b6 65bc 6930 3f3d 0895 15bd 44b7 a1bc
000000d0: f041 83bb 0cb7 b93c f33c 1ebd bf18 743c
000000e0: 969a b53a 9a7f 153d c0f9 86bc 9083 643c
000000f0: 1075 1cbc 022b 2dbd 0436 db3c ac4d d23c
00000100: accb 553d 8553 afbc ca7b 373d 543f 0abd
00000110: 61a8 463d 2511 d3bc 7a0e 92bc 2909 873c
00000120: 4549 e53c be1c 663d cf8a 09bd 117f 70bd
00000130: 78fc 3abc fc67 1abd ceb8 3f3d 1c0d eabc
00000140: 5455 b23c 3497 9c3c 00d6 1d3c 60f9 683c
00000150: 378e d63c e4d8 ea3c 586e 393d 99c0 8e3c
00000160: 81c0 d83b d124 e73c 3f80 ed3c bf6d 2bbd
00000170: 7a50 4c3d efe8 453a a8e2 45bc 863e 3f3d
00000180: 2e88 823b 91b0 26bd 00c9 353d 588b 373c
00000190: 5df3 7b3c 9b7c df3c a97f 05bd 16b5 3fbd
000001a0: 971d 32bd da9a 24bd e1f1 263c e06d d9bc
000001b0: 60a8 933b fc95 d2bc ca39 3dbd 7e7e 473d
000001c0: 6681 c5bc 9c74 b33c a700 b7bc 3cf5 bebc
000001d0: 5458 bebc 5099 c83c 5cde cd3b 81e1 e0bc
000001e0: d22d 5bbd 96c2 85bd b5ff 1e3d a467 35bd
000001f0: c96e 29bd 3883 78bc 3b27 873a 3094 e9bb
00000200: 7bb4 1abc 9fdb 193d f8b6 5c3d 5e7e 2d3d
00000210: ed98 24bc 432f 0d3d 50c2 50bc 066e e63c
00000220: 4c63 d23c 8154 4dbc a3ff 84bc 70b9 913b
00000230: 2434 ee3c e788 22bc c38a 583d 5618 5bbd
00000240: e528 72bc 189b b7bc b4b9 91bc e849 56bd
00000250: 528a 7e3d d44d 6cbd 165d 3ebd 90c3 70bc
00000260: 1e88 dc3c 9c77 a63c b976 92bc ad77 023d
00000270: 710e 52bd 5e6d 02bd f700 6f3c a024 66bc
00000280: 4e1c 1fbd 548c 4bbd 46d8 75bd e845 23bd
00000290: 47d9 f2bc 1692 6ebd d326 ac39 3872 a7bc
000002a0: 4e0d 463d 1ebb bfba de8b 343d 33b1 473d
000002b0: e1eb 563d cc25 cb3c b05d 18bc 178d 2cbd
000002c0: e85d 0b3d 73dc cd3c 7d72 6f3d 37e1 7dbd
000002d0: 5025 25bd 2416 9e3c 061c 6bbd 1eba 15bd
000002e0: c001 87bc d0e2 813c ecb7 f03c 199f 6cbd
000002f0: 47f5 563d f101 8ebb 9a30 793d c801 313d
00000300: 1c08 fa3c 7bcc 2abd ead2 083d 9742 df3c
00000310: 73d8 013d 0957 023d d41d bfbb b63e a6bc
00000320: 59e2 943b 9d74 2bbd cde9 3c3d 0d30 21bd
00000330: 6fe9 283d 60d6 81bc cf64 d03c aeff 91bb
00000340: fb80 813c 2051 183c ce3b 9cbc a8e1 383c
00000350: a8c3 113d 3f72 81bd 2873 b9bc 79d6 ed3c
00000360: e999 81bd f909 93ba 5308 e9ba d801 153c
00000370: 80a5 61bb 4c00 0cbd f241 36bd aa97 2d3d
00000380: bacb 663d 9740 4ebd f02d 6c3c 591a 27bd
00000390: fbcb 313d c2eb 073d b8c0 073d e734 e73b
000003a0: d1ab b5bc 1700 603d 61fe 12bd f04c 643d
000003b0: 8b15 5bbd a14b ad3c 70c4 3d3d dc33 e4bc
000003c0: f0c7 2fbd 10a5 213d be64 613d f8ca 27bd
000003d0: 9a28 4dbd 50c4 203c ae2d 58bd 1534 613d
000003e0: 54eb 4cbd d569 83bb 26fd 243d a769 c73c
000003f0: e034 44bc 4e5e 18bd 0660 7cbd 14d2 333d
0.032414243 -0.049840316 -0.022218011 -0.0027684122 0.04557031 0.01777897 -0.03684392 0.019164592
-0.039597273 0.04675805 -0.021796197 -0.05191166 -0.017601555 0.014906371 -0.007969476 0.041092
-0.05452103 0.013450947 0.02397196 0.05540637 0.036010407 0.016801566 0.009768108 0.04842897
0.018820357 -0.021228187 -0.03877306 -0.036285803 -0.009074078 -0.06165349 -0.04139112 0.054451905
0.020585367 0.035116162 -0.028066656 -0.030429974 -0.019067215 0.05483917 -0.0017480254 -0.015407272
0.008184113 -0.029994003 0.00033145398 -0.048607413 0.044005148 -0.061839547 -0.0012513027 -0.046300285
-0.014020652 0.046677027 -0.03651908 -0.019740708 -0.004005663 0.022670291 -0.038632344 0.014898478
0.0013855274 0.036498643 -0.016476512 0.013947383 -0.009549394 -0.042277344 0.026759155 0.025671802
0.05219619 -0.02140213 0.04479579 -0.0337518 0.048500422 -0.025765011 -0.017829169 0.01648386
0.02798904 0.056179754 -0.033579644 -0.05871493 -0.011412732 -0.037696823 0.046807103 -0.028570704
0.021769203 0.019115068 0.009633541 0.014219612 0.02619086 0.028667875 0.045271248 0.017425822
0.006614745 0.028215798 0.028991817 -0.04185271 0.049881436 0.00075496634 -0.012077965 0.046690486
0.003983519 -0.04069573 0.04438114 0.011202656 0.015377847 0.027281096 -0.03259245 -0.046803556
-0.04348525 -0.04018674 0.010189504 -0.02654165 0.004506156 -0.025706284 -0.04619769 0.048704617
-0.024109554 0.02190619 -0.022339178 -0.023310296 -0.023235478 0.024487168 0.006282611 -0.027451279
-0.053510495 -0.06531255 0.03881808 -0.044288293 -0.04136542 -0.015168004 0.0010311374 -0.007128261
-0.009442444 0.037562963 0.05388543 0.04235684 -0.010046226 0.0344689 -0.01274164 0.028128635
0.025682114 -0.012532354 -0.016235178 0.0044471547 0.029077597 -0.009920335 0.05286671 -0.053490005
-0.014780258 -0.022412822 -0.017788745 -0.052316576 0.06214363 -0.05769141 -0.046475492 -0.014695063
0.026920374 0.020320706 -0.017878877 0.031852413 -0.051283304 -0.031842582 0.014587632 -0.014046818
-0.038845353 -0.049694374 -0.060020708 -0.03986159 -0.029644622 -0.058244787 0.00032835323 -0.020440206
0.048352532 -0.0014627909 0.0440787 0.048752975 0.052471045 0.024798296 -0.009299681 -0.04212674
0.034025103 0.025129532 0.058458794 -0.06198236 -0.040318787 0.019297667 -0.057399772 -0.03655445
-0.016480327 0.015855223 0.029384576 -0.057768915 0.05248001 -0.0043337275 0.060837366 0.04321459
0.030521445 -0.041698914 0.03340427 0.027253432 0.031700563 0.031821284 -0.005832413 -0.020293575
0.0045435843 -0.041859258 0.046121407 -0.039352465 0.041238245 -0.015849292 0.025438694 -0.004455528
0.015808573 0.009296685 -0.019071486 0.011284269 0.035586983 -0.06320619 -0.022637919 0.029032933
-0.06328184 -0.0011218182 -0.001777897 0.009094678 -0.003443092 -0.03417997 -0.044496484 0.042380966
0.056346633 -0.050354566 0.014415249 -0.04079661 0.04340742 0.03318382 0.033142775 0.007055867
-0.022176655 0.054687586 -0.035887126 0.055737436 -0.05348734 0.021154227 0.046329916 -0.02785676
-0.042915285 0.039464056 0.055027716 -0.04096505 -0.05008755 0.00981243 -0.05277794 0.05498131
-0.050029114 -0.004010419 0.040280484 0.024342371 -0.011975497 -0.03719931 -0.061615013 0.043901518

V_heads.0.weight f4 [1, 256]
00000000: 40ac dfbb 9cc4 4f3d 988a 8a3c 32bb 68bd
00000010: a9d4 10bc a246 7b3d 4b59 57bd 60a3 573b
00000020: b0fa 683d 58cb c63c 6c5f 60bd c0d5 343d
00000030: 1164 583c 823b 66bd b09a 673c 7693 56bd
00000040: d442 523d 3537 533c 52c4 08bd ca8f 7c3d
00000050: d268 013d 9f32 9e3c 1cdb 0b3d a0e3 10bd
00000060: 973d 283d f88b 72bd b081 fc3b 8ca5 77bd
00000070: e086 46bc f872 e8bc 4004 95bc 9dae fbbb
00000080: a20a 22bd 67ea 963c 0b3d 353c c36f 303d
00000090: aa4a 743a 4a90 6a3d 4c12 34bd d26a 0bbd
000000a0: 20a8 6cbb 0dbd ca3b 5818 b6bc 57ca 223d
000000b0: 26d7 44bd 020e b53c 825c 483d 8276 763d
000000c0: 8098 313b e269 d9bc e8b5 363d 1a1b 0ebd
000000d0: eeee 54bd 2e6c 7fbd 85ac 2f3b edd4 cf3c
000000e0: 7b09 303d b08a 57bd 8cce 843c c0e9 b63c
000000f0: b03a 9ebc 363e 5c3d 19a6 013c 166f 3bbd
00000100: 65f8 be3b ab42 8c3b b4d6 49bd 34c4 3c3d
00000110: ae3a 423d c704 c2bb b9fe cfbc a322 78bd
00000120: b16c 7e3c 7b6d 2abd aaba a93c 6e19 ac3b
00000130: be60 723d 04ac ed3b 80e5 313c d040 5c3c
00000140: 6876 7e3d 6022 023d 27d3 25bd 285b 5d3c
00000150: 82f2 4cbd cb3f 553d 4c11 d9bc 516a 02bd
00000160: 79f3 983c e0e7 2e3d 9476 65bd 8b85 7ebd
00000170: 60ad 7fbb 61cb 043d b631 663d 9c70 623d
00000180: c9e6 08bd a785 c83c de01 0f3d 3006 39bc
00000190: 3796 5d3c 3a05 43bd 95af 5abd 9cdc c8bc
000001a0: 54a4 163d 7cde 3cbd 444f b9bc 109f febb
000001b0: bded 84bd 0510 2f3d 9ccb 4cbd c662 5d3d
000001c0: ef74 b4bc 2831 0cbc ce63 6abd c712 d23c
000001d0: 1acb 7abd 1fd0 bbba 5bad 22bd 6a8b 033d
000001e0: 9a2d 24bd b357 dcbc c018 b43b a086 7fbc
000001f0: 4fb6 65b8 7e9a 633d f183 68bc 42f7 003d
00000200: fb45 eabc 35f3 b13a cb55 643d 5014 2c3c
00000210: 3070 09bd dffb 683d 802d 253a 003a 36bd
00000220: f06f d3bc 87d8 673d 7ed0 06bc 4c3a 6d3d
00000230: 7023 f2bb 201b 143d be89 b9ba 7812 833d
00000240: c1ac 68bd 00bc 44bd bc65 1d3d 9b13 ecbc
00000250: 00c6 eb3c a0df 07bb 3856 a83c 31bc 56bc
00000260: 3bb0 f23c ec9d efbc 771c febb d0f7 473d
00000270: eb1c 9a3b 8647 7fbd 80e1 5c3d 001f cdba
00000280: 967b 52bd 4643 8d3c 0ce0 5c3d 3a99 59bd
00000290: e2d4 483d d2bb 953c 368e 26bd 7843 533d
000002a0: 70ca 1e3c 2721 be3b cd39 bfbc 751f 723d
000002b0: d9a7 0dbd 1648 603d c817 323d e6bf c9bb
000002c0: e0e6 dd3b 7df1 2e3c b8ea fe3b bbda 34bd
000002d0: de1f d93c 800d 33bd 2cd7 4dbd 7390 3d3d
000002e0: 857c 893b 7ca7 e5bc e072 ccbb 1423 46bd
000002f0: 8385 253d 599f d0bc f27d 60bd 80da 34bb
00000300: d3c0 563d f46f afbc ce20 053d 942a 2e3d
00000310: e6c3 033d 39d5 24bb 8985 53bd 89df 4fbd
00000320: 454a ffbc e49e 39bd 830f 893c a765 4c3c
00000330: 8df4 953c 9520 523d c833 4d3c a591 9ebc
00000340: 98dc 47bc a0ee 233d e12e 32bd d83f d2bc
00000350: 52fe 53bd 6c81 ad3c f538 493d b20c 2a3d
00000360: db2a 7ebc 81ad c93b 820c 29bd f78a 78bc
00000370: 208e 83bb c0ff 9ebc 7e06 2cbd 10e8 263d
00000380: 2755 41bd 9be9 353d 4cb1 c53c f707 153c
00000390: f993 c8bb 1c7f 9bbc b0e7 643d 5902 933c
000003a0: 764d 093d 4f03 0a3d 7a2f 2d3d cc1c b93c
000003b0: 09ae ca3b fcab 663c e064 cebb 000e b7ba
000003c0: 88fa 683d e7a4 9e3b 64c4 84bc f838 243d
000003d0: 227a 1c3d 9a3b 783d 4048 803a a26b 20ba
000003e0: ca96 683d 0b20 42bd a411 bcbc ac49 bfbb
000003f0: 4c26 bb3c b8c5 703d e84b 14bd 20c8 f6bc
-0.0068259537 0.05072461 0.01691179 -0.05681915 -0.008839765 0.061346658 -0.05257539 0.0032903776
0.0568797 0.024266884 -0.0547785 0.04414916 0.013207451 -0.056209095 0.0141360015 -0.052386723
0.051333264 0.01289158 -0.03339035 0.061660565 0.031594105 0.019311247 0.034144506 -0.03537333
0.04107436 -0.059215516 0.0077058896 -0.060460612 -0.012117118 -0.028375134 -0.018190503 -0.0076807276
-0.03956092 0.018422319 0.011061917 0.043075334 0.0009318987 0.05726651 -0.04396276 -0.03403742
-0.0036110952 0.0061870874 -0.022228405 0.039743748 -0.048056744 0.022101406 0.048916347 0.06017161
0.0027098954 -0.026539747 0.044607073 -0.034693815 -0.051985674 -0.062359028 0.002680571 0.025370086
0.04297779 -0.052622497 0.01621177 0.022328258 -0.019315094 0.053770266 0.007913136 -0.045760237
0.005827951 0.0042804084 -0.049277022 0.04608555 0.047419243 -0.0059209797 -0.025390016 -0.060579907
0.015528844 -0.041608315 0.020718891 0.005252055 0.05917429 0.007253172 0.01085794 0.013443187
0.06212464 0.031771064 -0.040484574 0.013510503 -0.05003596 0.05206279 -0.026497506 -0.031839672
0.018670784 0.042701602 -0.056021288 -0.062139075 -0.0039013252 0.03242052 0.05619975 0.055283174
-0.03342322 0.024477793 0.03491389 -0.011292979 0.013524584 -0.047612406 -0.053390104 -0.024519257
0.03677781 -0.046110615 -0.022620805 -0.0077704266 -0.064906575 0.042739887 -0.049998865 0.054049276
-0.022028415 -0.008556642 -0.057224087 0.02564372 -0.06122885 -0.0014328993 -0.039716106 0.032115377
-0.04008255 -0.026897287 0.0054961145 -0.015596062 -5.4767643e-05 0.055567257 -0.0141916135 0.031485803
-0.028597822 0.001357651 0.05574588 0.01050289 -0.033554256 0.056880828 0.00063010305 -0.044488907
-0.025810212 0.05660298 -0.008228419 0.057916924 -0.0073894784 0.03615868 -0.001415543 0.06400007
-0.056805376 -0.048030853 0.0384271 -0.028817942 0.028780937 -0.0020732656 0.020548925 -0.013106392
0.029625049 -0.029250108 -0.007754858 0.048820317 0.0047031543 -0.06232407 0.05392599 -0.0015649498
-0.051387392 0.017243993 0.053924605 -0.053124644 0.049031146 0.018278036 -0.040662967 0.051578015
0.00969182 0.005802292 -0.023342991 0.05911203 -0.0345839 0.054756247 0.04347971 -0.0061569093
0.006771907 0.0106776925 0.0077794455 -0.04415391 0.026504453 -0.043714046 -0.050254032 0.046280336
0.004195752 -0.028033964 -0.00623928 -0.048373297 0.04041053 -0.025466608 -0.05480761 -0.0027596056
0.052429985 -0.021415688 0.032501988 0.042521074 0.032169245 -0.0025151505 -0.05164102 -0.05075029
-0.031163344 -0.045317546 0.01673103 0.012475408 0.018305087 0.051300604 0.012524553 -0.019356558
-0.01219859 0.040022492 -0.04350174 -0.025665209 -0.05175621 0.021179877 0.049126584 0.041516013
-0.015513147 0.0061547165 -0.041271694 -0.015169851 -0.0040147454 -0.01940906 -0.04199838 0.040748656
-0.04720035 0.044412237 0.024132393 0.009096137 -0.0061211553 -0.018981509 0.055885017 0.017945455
0.033521138 0.03369456 0.042281605 0.02259674 0.0061852974 0.01407909 -0.0062986463 -0.0013965964
0.05687955 0.0048414352 -0.016206928 0.040093392 0.038202412 0.060603715 0.0009787157 -0.0006119554
0.05678443 -0.04739384 -0.02295763 -0.00583764 0.02284541 0.05878231 -0.036205202 -0.030124724

V_heads.1.weight f4 [1, 256]
00000000: 68f1 c43c 002a 33bc 74e2 09bd 0c6c da3c
00000010: b2ff 163d 6ed9 4fbd ef17 2cbd 88db ad3c
00000020: 2860 f7bc 4cf1 423d 0c06 4fbd 7c5b 143d
00000030: 543c 7b3d 3208 25bd e221 58bd 40fb 693b
00000040: 4cc5 bb3c 0399 ff3a 24f2 b13c 0094 b7b9
00000050: 0cd3 b0bc 0b5c 053d e9fb c4bc 317b eb39
00000060: 3ad5 6cbd a610 14bd aa22 703d d457 3f3d
00000070: 3951 aabb 858c 083b 0e8d 4bbd a379 d339
00000080: 18cc 0f3d 9f5d 47bd 90b2 cd3c 1fe4 3abd
00000090: c0b0 283d 12db 6ebd 224b 3d3d 0a2b 443d
000000a0: 2ed5 79bd 5df5 9ebc 08ca b5bc f821 423b
000000b0: b01c 65bc 02eb 2f3d 00f1 bd3a b0a1 9c3b
000000c0: 90cb a43b 88ba 73bc b1b7 3a3d 53a7 25bc
000000d0: ce46 123d 4095 9cbc b9eb 0bbd 28e4 7a3d
000000e0: 3d1d 4cbd 0061 8ab9 428d 3ebd fc0a 6f3d
000000f0: 48bb 933c 10fc 743c 68ea 18bd 82f6 2d3d
00000100: 7cb7 d8bc 6185 3c3d 00b7 1f3a 7ddf ff3c
00000110: 24ca 96bc a7bf 67bd 9fa0 9a3c 55ef 373d
00000120: 4bc6 293d fd97 833d d37b 0fbd 78ac 14bd
00000130: 402c beba 9f5c 173d 1699 5dbd 001c 9d3a
00000140: 067d 143d c2d4 49bd f020 2fbc 386f 053d
00000150: 17e2 123d 585f 65bd 9097 7f3d 558d bc3b
00000160: 8908 16bd f889 89bc 8700 b53c f4ca 333c
00000170: 1ef5 05bd 8db8 243d 28d8 083d c763 c4bc
00000180: 4cc6 cdbc 6e32 62bd e6e3 2dbd 42d9 2ebd
00000190: 19f9 c1bc 0946 6a3d 15a5 cb3b 9ad8 793d
000001a0: 0706 25bb 3cfc e33c 48f9 74bc 004c c93c
000001b0: 7828 383d 4717 523d 4242 363d b269 0b3d
000001c0: 3c95 9dbc c630 383d e09a 50bd df5a 15bc
000001d0: 301b 50bc 897e 85ba cf96 1abc 231d 6a3c
000001e0: 8927 39bd a4a1 1c3c 6fb2 593d 94de d6bc
000001f0: 6870 8abc 5590 e4bb 62bb 963b b09f f2bc
00000200: 45bb 393d 769a 37bd e9cc c3bc d293 7abd
00000210: 6d6c 94bb 2c18 92bb 5862 3f3d bb98 20bd
00000220: 7086 c53c 9844 24bd fe67 25bd 28e2 943c
00000230: 403a c2ba 1d92 093d 6784 36bd de10 2ebd
00000240: 776f 45bd a0f0 4b3d 486c 833b 0200 3f3d
00000250: a066 09bb 20db f0bb 0821 3dbc 8755 4cbd
00000260: e1c4 f3bc f4da 003d 736f 423c 976f 003b
00000270: c84c f4bc 586d 2e3c 96f5 093d 96cc 173d
00000280: 98f4 b6bc 5a9c 69bd 28b2 323d 80d0 d93b
00000290: 8ea2 c23c 0a71 1cbd 7efd 483d 601f 09bc
000002a0: 768b 103d 2d33 103d f032 6b3d c24e 5abd
000002b0: 65a4 25bd 146d f13c d8d4 1dbd e84c 39bd
000002c0: 7088 ba3c 5b36 0dbd 9c5c 733d 8a29 93bc
000002d0: 1f45 33bd 3c53 08bd 7435 0e3c 423c 5a3d
000002e0: 06c4 123b e41b 39bd 06a8 6fbd 8f31 743d
000002f0: def6 04bd 91b4 2b3d 8895 24bc 9cc6 b43c
00000300: c7a3 73bb 9ef4 393d 5411 7abd 5d08 e73c
00000310: 9818 50bd d0a8 76bc 798c 4cbd 30e7 d03c
00000320: c255 32bd 4487 663d 930b febc fb74 64bd
00000330: ba4e 44bd a2b2 e03c 8832 dabc 69d0 5b3d
00000340: 26bd 343d 82fe 0e3d 9938 c93c 7822 f1bc
00000350: 94ca 6cbd fd71 583d 4470 f9bc 8cea 2f3d
00000360: cdb3 6fbd 6867 86bc b055 7fbc a478 09bd
00000370: 1419 f03c 231f 63bc 601c 77bc 2259 6abd
00000380: d0ce 4dbc df23 04bd a0fc 27bb f5d3 6a3d
00000390: 6f95 65bd 6698 26bd 402a 223c 1987 36bd
000003a0: 99fc d6bc d99b dabb 60a1 cb3a c0ef b5bb
000003b0: db28 7cbb 4bc1 eb3b 99bc 0bbd 8862 e43c
000003c0: e278 093d 8fa6 4abd 8621 143d a897 20bd
000003d0: 93ce a1bc f0b8 65bd 38dd 89bc 48fb 55bc
000003e0: d7ab 5ebd 4306 17bd f068 84bb 091e 733d
000003f0: eef9 17bd b4fa 173d b0e7 65bc 748e 933c
0.024040893 -0.010935307 -0.03366323 0.026662849 0.036864944 -0.050744466 -0.042015012 0.021222845
-0.030197218 0.0475934 -0.050542876 0.03622006 0.06133683 -0.04029102 -0.05276669 0.0035702735
0.022921227 0.0019500557 0.021721907 -0.0003501475 -0.02158501 0.032558482 -0.024045901 0.00044914478
-0.057820536 -0.03614869 0.05862681 0.04671462 -0.005197671 0.002083571 -0.049695067 0.00040335683
0.03510675 -0.04867327 0.02510956 -0.04562771 0.041184187 -0.05831439 0.04621423 0.047892608
-0.06099432 -0.019404108 -0.022191063 0.0029622298 -0.01398389 0.04294873 0.0014491379 0.004780017
0.0050291494 -0.0148760155 0.045585338 -0.010110694 0.035712056 -0.019114137 -0.03416035 0.061252743
-0.04983257 -0.00026393682 -0.046521433 0.058360085 0.018033639 0.0149526745 -0.037332922 0.042471416
-0.02645468 0.046025638 0.0006092638 0.031234497 -0.018406935 -0.05657926 0.018875418 0.04490598
0.041448873 0.06425474 -0.035030197 -0.03629729 -0.0014509037 0.036953565 -0.054101072 0.0011986494
0.036252044 -0.049275167 -0.010689005 0.03257677 0.035860147 -0.05599913 0.0624004 0.005754153
-0.036629234 -0.016789421 0.022094978 0.010973681 -0.032704465 0.040215064 0.033409268 -0.023973359
-0.02511897 -0.055223875 -0.04245367 -0.042687662 -0.02367835 0.057195697 0.0062147477 0.060997583
-0.0025180595 0.027830236 -0.014952011 0.024572372 0.04496047 0.05129173 0.044496782 0.034036346
-0.0192362 0.04496839 -0.05092895 -0.009115904 -0.0127017945 -0.0010184805 -0.00943537 0.014289173
-0.04520372 0.0095600225 0.053148683 -0.02622918 -0.016899303 -0.0069752135 0.0045999745 -0.02961716
0.04534461 -0.04482504 -0.02390142 -0.06117613 -0.004529527 -0.004458448 0.046724647 -0.039208155
0.024111956 -0.04010448 -0.040382378 0.018174246 -0.0014818385 0.03358661 -0.044559862 -0.042496555
-0.048202004 0.049790025 0.004010711 0.046630867 -0.002096571 -0.0073503405 -0.01154352 -0.049886253
-0.029756965 0.03145881 0.011867392 0.0019597763 -0.029821768 0.010646187 0.033681475 0.037060343
-0.022333428 -0.057033874 0.043626934 0.0066471696 0.023759153 -0.03819374 0.049069874 -0.008369297
0.03528925 0.035205055 0.057421625 -0.053297766 -0.040439982 0.029470958 -0.03853306 -0.04523936
0.022770137 -0.034475666 0.05941449 -0.017964143 -0.04376709 -0.033282503 0.008679736 0.053280123
0.002239467 -0.045192614 -0.05850985 0.059617575 -0.032461993 0.04192025 -0.010045417 0.02206736
-0.0037176476 0.0453993 -0.06105168 0.02820223 -0.050804704 -0.0150548965 -0.049938653 0.025500864
-0.043538816 0.056281343 -0.031011378 -0.055775624 -0.047926642 0.027428929 -0.026635423 0.053665552
0.0441257 0.034910686 0.02456312 -0.029435381 -0.05781038 0.052843083 -0.03044904 0.04294829
-0.05852108 -0.01640673 -0.015584394 -0.033562317 0.029308833 -0.013862404 -0.015082449 -0.05721391
-0.012561515 -0.03226077 -0.0025632754 0.057331044 -0.056050714 -0.040672682 0.0098977685 -0.044562433
-0.026243495 -0.0066714105 0.0015535764 -0.005552262 -0.00384765 0.007194673 -0.034115408 0.027879015
0.03356255 -0.04947525 0.036164783 -0.03920713 -0.019751823 -0.056084573 -0.016829118 -0.013060398
-0.054363098 -0.036871206 -0.00404083 0.059354816 -0.037103586 0.037104324 -0.014032289 0.018012263

V_heads.2.weight f4 [1, 256]
00000000: c8f2 663d b426 6bbd 08eb 463c 1c8f 69bd
00000010: ec5d 763a 6273 1ebd 5d4d ef3c 1827 1abc
00000020: 2e0f 393d 7c6d 06bd 383c 1d3d a480 863c
00000030: 3573 a8bc 5c54 5a3c 7a64 143d 300b 5dbc
00000040: 380e 163d 9fd0 55bc 7043 203d 78e9 603d
00000050: e0c8 453c 99a9 203d abca 073d fe47 3a3b
00000060: af58 513d 1af1 46bd ac9a a03c 04ca 83bc
00000070: 95db 1bbd 832f 04bd d4dc 4fbd 7d26 c8bb
00000080: 241f 1dbd 31e2 8abc 80b0 75bd 6535 b33b
00000090: 721f febc 52e0 27bd c2c4 00bd b056 c2bc
000000a0: 7871 1bbd efea 33bd ba61 20bd c4bf 553d
000000b0: d866 783c fbc5 0b3d 8c3e 74bd fc2d 9c3c
000000c0: 2882 5ebc bcb4 00bd d29f 36bc f0ac dc3c
000000d0: 2029 4d3b b8b2 6d3d e5b4 5dbd aa8c 4cbd
000000e0: d37e dd3b 5c38 aabc c0be cb3b d2bd 7dbd
000000f0: 54f9 06bd f3d8 ddbb be90 303d 2818 6fbd
00000100: e2ae 9a3c 8e3d b3bb 56e3 1c3d 5b14 be3b
00000110: 5499 223d 43a5 043d 43c0 aa3c 72aa 0d3c
00000120: e60a 2d3d 0ef5 6fbd 741e 72bd ca70 a3bb
00000130: 909a 1fbd cec1 5c3d 08e3 7fbc 307c af3b
00000140: a404 c3bc 4005 c6ba 0897 103d fe32 2dbd
00000150: 005b 2d3d 449f 283d e06a 52bb 81e0 62bd
00000160: b980 cd3c 52c4 8c3b 7705 35bd db8f 223d
00000170: 583d 9abc 61ac 4d3c ba72 56bd e3a3 5b3d
00000180: 7c19 7c3d 99b7 ba3c f0f6 bebc b61c 11bd
00000190: 521b 94bc 280f f53c 38fb 90bc 88e4 27bc
000001a0: 296f 5d3d a8ed f53c 1048 4fbd 786e c83c
000001b0: 7024 22bd 5411 293c d2c8 1b3d 90a2 9bbc
000001c0: e6c9 3e3c c044 1e3d f5d4 243c 9980 493d
000001d0: cc6b 49bd 10b8 82bd a74b b1bc ce1f e7bc
000001e0: cb62 733d f9f1 223c cf39 03bc 609c a13c
000001f0: 9af4 013d 0e48 0f3d df85 81bb 3a08 77bd
00000200: b008 403d 0453 d13c a994 5abd 80b0 723d
00000210: 67a5 223d 02bb 3bbc e0cc 16bd b035 65bb
00000220: 3c34 70bd 3039 a63b 1253 4f3d d029 3b3c
00000230: 60f1 b03c 1569 bc3b ec59 65bb 2a4e 8dbc
00000240: 51b5 64bd b44d b23c 2d9d 333d ffdd 12bc
00000250: de85 143d ecc7 b1bc a0e8 7fbc 8f35 6c3d
00000260: 2c13 a7bc 6201 24bd 2da9 803d e203 2b3d
00000270: eeb0 4bbd b8b6 3ebd de87 393d 806b 8f3b
00000280: 3235 313d da76 58bd b0cd ecbc 900e 48bd
00000290: 1bcc 0d3d 1721 393d a710 a93c 7c85 143d
000002a0: 889a c03c 729a 323d b920 25bd 646b 3a3d
000002b0: f8b6 023c 7a81 7bbd e83e 3e3c 8141 53bd
000002c0: 5099 55bd 09bc 68bc edfc 0bbd 2cf2 36bd
000002d0: 84ce 133d 886d 103c 59ba 193b 5182 29bd
000002e0: b3b7 3d3d b0c8 4fbd be68 1c3d f616 74bd
000002f0: 6a2e 7cbd be68 6fbb 6855 58bc f06a 9e3b
00000300: b1f0 343d adfa eaba 5097 30bc b10d 82bd
00000310: 33f9 fbbc 3cab 08bd 673f 3cbc 775a 21bd
00000320: aa34 1a3d 3463 223d c32a 7bbd 7060 593d
00000330: 70f8 1d3c b081 5bbd 3b4c 8dbc ae01 49bd
00000340: 8c23 b53c fc0e 6f3d d643 203d 907a c5bb
00000350: 46e5 79bd 441f 4bbd ee74 f5bc 26b4 383d
00000360: f5da ff3c 60a1 20bc 8629 d43c 2381 63bd
00000370: f28e 09bd b9a9 3cbd b2ef 7abd 123d 113d
00000380: 4474 5dbd c200 5b3d 02be 70bd fda9 573d
00000390: 7494 773c a8ac 013d 8c96 b93c d9cd d4bc
000003a0: 0cca 383b b792 2dbc 6dbb c8bb 8a65 57bd
000003b0: e721 72bc 6fc2 1a3b 918e 5abb 98a6 a0bc
000003c0: 3a69 4fbd 3d18 81bd 3494 073d 202d 87bb
000003d0: 92b1 093d f6f0 6ebd 441f ea3c 68c3 263d
000003e0: ec67 803d d0d2 da3c ccb7 e03c 58e1 4abd
000003f0: 21c2 783d 565a 283d e620 01bd e818 59bd
0.056383878 -0.057409957 0.012140997 -0.057021245 0.0009398151 -0.038684256 0.029211694 -0.009408735
0.045180492 -0.032819256 0.038387507 0.016418763 -0.020562747 0.013325777 0.036228634 -0.013491437
0.036634654 -0.013050227 0.039126813 0.054910153 0.012071818 0.03922424 0.033152264 0.0028424258
0.051109966 -0.048569776 0.019605003 -0.01608754 -0.038051207 -0.032271873 -0.050747707 -0.006108104
-0.038359776 -0.01695356 -0.059982777 0.0054690116 -0.031020854 -0.040985413 -0.031437643 -0.023722976
-0.03795001 -0.043925222 -0.0391557 0.052184835 0.015161239 0.034124356 -0.05962996 0.019064896
-0.013580836 -0.03142236 -0.011146503 0.026937932 0.003130503 0.058031768 -0.054127593 -0.049938835
0.0067595034 -0.020778827 0.0062178075 -0.061948605 -0.03295262 -0.006770247 0.043106787 -0.058372647
0.018882219 -0.0054699844 0.038302742 0.0058007664 0.039697006 0.03238417 0.02084363 0.008646594
0.04224672 -0.05858331 -0.059111074 -0.0049878107 -0.03896576 0.053895764 -0.015618093 0.0053553805
-0.023805924 -0.0015107766 0.035300285 -0.042284958 0.042323112 0.041167513 -0.003210716 -0.055389885
0.025085794 0.004295864 -0.044194665 0.039687973 -0.01882808 0.012553305 -0.052355506 0.05362309
0.06154774 0.022792624 -0.023311108 -0.03542777 -0.018079434 0.029914454 -0.017697915 -0.010247357
0.05406109 0.03002055 -0.050605834 0.024466738 -0.03958553 0.010319073 0.038033314 -0.018998414
0.011644816 0.038639784 0.010060539 0.049194906 -0.04917507 -0.063827634 -0.02164252 -0.028213408
0.05942039 0.009945386 -0.008009388 0.019727886 0.03172741 0.034980826 -0.0039527263 -0.06031058
0.046883285 0.02555228 -0.05336443 0.059250355 0.03970852 -0.01145816 -0.036816478 -0.0034974627
-0.058643565 0.0050727352 0.05061633 0.011423543 0.021599472 0.0057498314 -0.0034996225 -0.017249186
-0.05583698 0.021765567 0.043851066 -0.008964061 0.03626048 -0.021701775 -0.015619427 0.057668265
-0.020394884 -0.04004038 0.06282268 0.04175175 -0.04972928 -0.046560973 0.04529559 0.0043768287
0.04326362 -0.05284772 -0.028906673 -0.048842013 0.03461848 0.045197573 0.020637823 0.036260113
0.023511186 0.04360432 -0.04031441 0.045512572 0.007978193 -0.061402775 0.011611678 -0.05157614
-0.052148163 -0.014204987 -0.034176756 -0.044664547 0.03608562 0.008815177 0.002345702 -0.041384045
0.046317767 -0.0507285 0.038185827 -0.05959221 -0.0615677 -0.0036530937 -0.013203956 0.0048345253
0.044174854 -0.001792749 -0.010778263 -0.06350268 -0.030758476 -0.033366427 -0.011489726 -0.039392915
0.03764788 0.03964539 -0.061320078 0.053070486 0.009641752 -0.053590477 -0.017248264 -0.049073867
0.022111677 0.0583639 0.039127193 -0.0060265735 -0.061009668 -0.049590364 -0.029962983 0.045093678
0.031232337 -0.0098041 0.025898706 -0.055543076 -0.03358359 -0.046060298 -0.061263748 0.03545863
-0.054065958 0.05346752 -0.058774956 0.052652348 0.015111078 0.0316588 0.022654794 -0.025977062
0.0028196601 -0.010594062 -0.0061258585 -0.05258707 -0.014778591 0.0023614427 -0.0033349136 -0.019610688
-0.05063746 -0.06303451 0.033100322 -0.0041252524 0.03361661 -0.058335267 0.028579362 0.040713698
0.062698215 0.026711851 0.027431391 -0.04953131 0.06073201 0.041101776 -0.031525515 -0.053002268
