results/arq/models/arq_best.pt (torch, 332137 bytes, 25 tensors)

trunk.0.weight f4 [256, 30]
000000 00 68 0e 3e 64 15 18 3e cc 31 2f bd 6c 36 27 3e
       0.1390686 0.1485191 -0.0427721 0.16329354
000010 09 e3 33 bd 82 91 1b 3d 6b ba c7 bd 26 c1 c9 3d
       -0.04391769 0.037980564 -0.09752353 0.09851293
000020 e0 4d 21 3e 16 7a 06 be 7b e7 1f 3e a3 bb 53 3d
       0.15752363 -0.1313251 0.15615647 0.051692616
000030 df b9 05 3e 76 d4 89 3c ab 89 90 3d 7f 96 f2 bc
       0.13059185 0.016824942 0.07057508 -0.029612778
000040 95 e1 14 3e ee 78 d3 3c 79 47 b7 bd 0c 1c 21 3d
       0.14539178 0.0258145 -0.08949179 0.03933339
000050 5e f2 b0 bd b6 19 da bc 3c e4 8f bd e0 e1 f9 3d
       -0.08639978 -0.026623588 -0.07025954 0.12201285
000060 16 2f 1d be a4 da be bd b0 60 56 bd 13 06 d1 bd
       -0.15349993 -0.09319046 -0.052338302 -0.10206237
000070 f8 29 8d 3c 0a a7 38 be 74 d7 28 3e 2b d0 1e be
       0.017231926 -0.1803247 0.16488439 -0.15509097
000080 ca 55 10 3e 88 e7 f8 3c 60 d2 72 bd 10 0f e7 3d
       0.14095226 0.03038384 -0.05928266 0.1128217
000090 10 19 e9 3c b6 0d 17 3e f8 80 a3 3c f6 d7 6b bd
       0.028454334 0.14751324 0.019958958 -0.057579003
0000a0 94 ed 48 3d 60 cb 4a bd 18 5d 9d 3d 1e eb 26 3e
       0.049054697 -0.04951036 0.07683772 0.16300628
0000b0 b4 24 d8 3d ca 76 a3 bd 9c d8 d7 3d 28 ce 05 3d
       0.105538756 -0.079816416 0.10539362 0.03266731
0000c0 b4 e2 bd 3d b6 e6 e3 bd bd 11 39 be fe 76 90 bd
       0.09271756 -0.11127989 -0.18073173 -0.07053946
0000d0 45 66 0f be 96 67 19 3e 90 65 57 3d 20 e1 9a 3d
       -0.14003856 0.14980921 0.052587092 0.075624704
0000e0 f4 81 6c 3d 40 25 50 bb 34 50 12 3e b2 d5 04 be
       0.05774112 -0.0031760484 0.14288408 -0.12972143
0000f0 d0 57 3c 3c bd 35 ff bd cc 97 66 3d c6 c4 80 bd
       0.0114955455 -0.12461422 0.05629711 -0.062875316
000100 38 25 65 3d 80 cd 1b bd 4c 0f 1b 3e 4a 9e dd bd
       0.055943698 -0.038037777 0.15142554 -0.10821207
000110 15 00 df bd 87 03 df bd fc 27 28 3e 90 36 79 3d
       -0.108886875 -0.10889345 0.16421503 0.06084305
000120 04 e6 33 3e 52 4a 1a be e9 6f 39 be 80 44 12 be
       0.17568213 -0.15067413 -0.18109097 -0.14283943
000130 c6 86 fb bd 08 73 97 3d 8a e3 85 3d a6 58 1b 3e
       -0.12281565 0.07394987 0.0653754 0.15170535
000140 fd 18 c1 bd 72 e6 fe bd b4 63 c6 3d 0a 23 97 bd
       -0.09428594 -0.12446298 0.096869856 -0.0737973
000150 a0 ef e2 3d 84 75 31 bd 10 e5 d5 3d 41 42 11 be
       0.11080861 -0.043324962 0.10444081 -0.1418543
000160 cf b1 bc bd 70 fe 63 3d 78 18 1e 3d 0c aa 3e bd
       -0.09213602 0.055662572 0.038597554 -0.046548888
000170 a4 e0 de 3d 54 30 fe 3d 53 93 07 be a4 9e c7 bd
       0.108826905 0.124115616 -0.13239793 -0.09747055
000180 3e 30 2b 3e 10 57 7c bd d3 8e 84 bd c8 e5 34 be
       0.16717622 -0.061606467 -0.06472554 -0.1766578
000190 d3 20 d6 bd 24 cf 3a 3d 50 6a c5 bc 6e b5 07 be
       -0.104554795 0.0456077 -0.024098545 -0.13252804
0001a0 00 55 8c 3b 8e 69 ff bd e1 9c 1e be 3a e6 cd bd
       0.0042825937 -0.12471305 -0.15489532 -0.10053678
0001b0 49 a0 23 be 7e 15 ee bd 02 e2 3a 3e c4 3e 0d 3d
       -0.15979113 -0.11625193 0.18250278 0.034483686
0001c0 fc 72 66 3d f3 5e 2e be 58 93 f5 bd e2 ea 78 bd
       0.056262 -0.17028408 -0.11990994 -0.060770877
0001d0 48 e0 e9 3c ac 81 24 be cb 1b a1 bd 6d d9 df bd
       0.028549328 -0.16065091 -0.07866629 -0.109301426
0001e0 00 a2 04 3a 43 22 8b bd c0 48 4f bc b4 5f fd bd
       0.000505954 -0.06793644 -0.012651622 -0.123717695
0001f0 5f 53 00 be 11 24 da bd 6a fa 7f bd 8e 8f 13 be
       -0.12531804 -0.1065141 -0.062494673 -0.1441023
000200 c6 c1 1c 3e 88 6a 14 bd 36 db 20 3e 30 02 69 3d
       0.15308294 -0.03623441 0.15708622 0.05688685
000210 52 50 1e be 4e 61 01 3e 84 c2 4d bd 87 54 8f bd
       -0.15460327 0.12634775 -0.050234333 -0.06998544
000220 c7 2f 1b be 40 dd 39 be dc f5 55 3d 88 5b 23 bd
       -0.15154944 -0.18150806 0.052236423 -0.039882213
000230 94 92 91 3d 8c 6d 19 be 32 cd 0a 3e 58 3c 09 be
       0.07108036 -0.14983195 0.13554838 -0.13401926
000240 18 21 01 bd a0 32 1c 3d 60 08 c1 3d 76 ee 16 3e
       -0.0315257 0.038134217 0.094254255 0.14739403
000250 2c 4f 2a 3e d4 3d 14 be e8 33 3c 3d 48 d4 a0 bd
       0.16631764 -0.1447671 0.04594794 -0.078529894
000260 78 e6 a3 bc 48 ef 0b be 5c 4a 2a 3e 68 37 09 be
       -0.020007357 -0.13665497 0.16629928 -0.13400042
000270 74 d6 c7 3d 50 68 83 3d 84 02 73 3d 70 27 ca bd
       0.097577006 0.064163804 0.05932857 -0.09870803
000280 14 ef 29 3e a8 55 24 3d 70 66 c0 3c 7f c1 24 be
       0.16595107 0.04012075 0.023486346 -0.16089438
000290 c4 f6 9c 3d c0 60 e0 bc 52 4c ab bd ce 95 20 3e
       0.07664254 -0.027389884 -0.08364166 0.15682146
0002a0 f8 b9 26 3d 6c e0 ce bd 5a 40 bd bd 00 da 0e bc
       0.040704697 -0.10101399 -0.0924079 -0.008718967
0002b0 28 c7 d0 3d 24 18 3f bd 42 58 d5 bd 21 0b 80 bd
       0.10194236 -0.04665388 -0.104172245 -0.06252123
0002c0 8c ab 0b be 60 59 85 3d 20 b6 10 3e 05 02 30 be
       -0.13639659 0.065111876 0.14131975 -0.1718827
0002d0 ad a8 21 3d c1 d5 bb 3d 38 9a 07 3d e5 b4 89 bd
       0.039467502 0.0917163 0.03310606 -0.06723956
0002e0 de 7e bc 3d e3 0b bb 3d 2a e2 98 3d 21 98 02 bd
       0.092038855 0.091331266 0.07465012 -0.031883363
0002f0 91 25 49 bd 49 71 5f 3c c2 af 0e bd 86 e5 67 bd
       -0.04910809 0.013637849 -0.034835584 -0.056615375
000300 d0 40 eb 3d d1 2c 1f 3e 21 f0 65 bc fa d8 2c bd
       0.114869714 0.1554444 -0.014034302 -0.042199112
000310 94 5b e5 bb 64 8c 73 bc 05 b7 da 3c b2 f9 c5 3d
       -0.0069994424 -0.014865015 0.026698599 0.09666766
000320 de 61 3a be c0 a7 9c bd 82 14 23 3e 9b eb 94 3d
       -0.18201396 -0.07649183 0.15925792 0.07271501
000330 19 61 b5 bc 99 17 f7 bd ab 86 e8 bd d8 68 22 be
       -0.022141026 -0.12065048 -0.11353811 -0.15860307
000340 32 c3 73 bd 10 8b 7c 3d 2d 20 f2 3d ed d9 a7 3d
       -0.059512325 0.061656058 0.11822543 0.08195863
000350 34 42 25 be 4e e3 e8 bd ee fb f9 bc b5 c8 33 3e
       -0.16138536 -0.1137148 -0.030515637 0.17557032
000360 cd 93 5a 3c 07 37 63 bd dc 1e 91 3d ee d4 8a bd
       0.0133409025 -0.0554724 0.07085964 -0.06778894
000370 62 a7 f4 bd eb 58 14 3e a1 2f b0 bd 84 8c 28 bd
       -0.11945988 0.14487045 -0.086028345 -0.04114963
000380 64 34 4e be bc 52 f7 3d 57 c2 0e 3e 29 e2 85 3d
       -0.20137173 0.12076327 0.13941322 0.06537277
000390 cd be 09 be 72 e8 40 be d5 dc 14 be 43 c8 01 3e
       -0.13451691 -0.18838671 -0.14537366 0.1267405
0003a0 a3 09 9a 3d 9d 42 1e 3e e4 f5 a1 3d 25 8e 00 3d
       0.07521369 0.15455098 0.07908228 0.03138556
0003b0 f4 c6 88 bc 57 71 17 be bd 2d 20 be 77 de 2e be
       -0.01669643 -0.1478933 -0.15642448 -0.17077051
0003c0 b8 10 99 3d 2b 94 b7 bd 60 80 16 bd 33 30 d7 bd
       0.07473892 -0.08963808 -0.03674352 -0.1050724
0003d0 68 45 08 bd 0c 96 03 be e6 51 f4 bd b0 0f 78 3d
       -0.033269316 -0.12850207 -0.119296834 0.060561836
0003e0 24 40 5e bd fc d4 e6 3d 90 e8 6f bd 10 25 09 be
       -0.054260388 0.11271092 -0.0585714 -0.13393044
0003f0 fc f1 03 bd ba 40 b5 bd 58 ca 64 bd 34 fb 31 be
       -0.032213196 -0.08850236 -0.055857033 -0.17380983

trunk.0.bias f4 [256]
000000 6e a5 20 be 66 80 2f be a0 50 50 bd 0a 86 15 3e
       -0.15688106 -0.17138824 -0.05085814 0.14601913
000010 38 eb bc 3d c0 4f f0 3d 82 50 37 bd 9e 21 21 3e
       0.09224552 0.11733961 -0.044754513 0.1573548
000020 21 7e aa bd 50 64 51 bc a1 ad 2b be 84 fb 18 3b
       -0.083248384 -0.012780264 -0.16765453 0.0023343274
000030 38 73 2b 3d 61 70 33 be 10 2b 1d 3e 0c b2 0c 3d
       0.041857928 -0.17523338 0.15348458 0.034349486
000040 9e 4b 32 3e d8 f6 a0 bd e9 6b 81 3a 30 01 70 bd
       0.17411658 -0.07859582 0.0009874079 -0.058594882
000050 de ed 14 3e d0 05 d1 bd 10 fd c1 3d a2 4f 09 be
       0.14543864 -0.10206187 0.09472096 -0.13409284
000060 09 f0 0a 3e bb 2c 2f be 63 e2 b9 bd 66 49 ab bd
       0.13568129 -0.17106907 -0.09076383 -0.08363609
000070 e8 f6 fd bc d6 c0 f6 bb da 25 70 3d 76 a8 27 3e
       -0.031001523 -0.007530312 0.058629848 0.16372856
000080 59 d0 c2 3d 4c 24 ba bd 3c ac 2f 3e 30 3f dc bc
       0.095123954 -0.09088954 0.17155546 -0.026885599
000090 09 81 d0 bd 14 c4 8b 3d cc 51 02 bd ec 6b 32 3e
       -0.101808615 0.06824508 -0.03181629 0.17423981
0000a0 78 d8 a6 3c 69 15 f2 3d f2 e2 28 3d 38 98 05 be
       0.020366892 0.1182049 0.041232057 -0.13046348
0000b0 a7 08 ce 3c ab 61 d8 bd 68 40 48 bd b0 9e 84 bd
       0.02515061 -0.10565504 -0.048889548 -0.0647558
0000c0 7c 22 14 be 8c 45 72 3d f6 4a 04 3e 54 da 3b be
       -0.1446628 0.059148356 0.1291922 -0.18345004
0000d0 0d 42 b6 3d d9 68 1d be 72 f7 36 be dc f2 80 3d
       0.08899317 -0.15372027 -0.1786783 0.06296322
0000e0 7a 8f 09 bc 4d a5 f2 bd 3e 7d 22 3e 70 15 74 3c
       -0.008396024 -0.11847935 0.15868089 0.014897689
0000f0 5c 87 ea bd 40 87 ab 3d 00 b8 53 3c 4a 6e 1f bd
       -0.11451599 0.08375406 0.012922287 -0.03892354
000100 aa 17 05 be de cf b7 bc fd 68 d8 3d a6 ab b6 bd
       -0.12997308 -0.022437986 0.105669 -0.08919458
000110 b4 38 ac 3d 20 5b 3c be 93 44 91 bd 28 36 8a bd
       0.08409253 -0.18394136 -0.070931576 -0.06748611
000120 60 78 24 be 1a a3 85 3d d1 e3 18 be 98 67 d8 3d
       -0.16061544 0.0652525 -0.14930655 0.10566634
000130 2c 1d 19 3d c0 d7 1e 3b 71 cd db bd 89 f5 83 bd
       0.037381336 0.0024237484 -0.10732544 -0.064433165
000140 9c 8c 35 3d 28 bd 33 3e 72 3a a0 bd 74 69 0d be
       0.04432355 0.17552626 -0.078236476 -0.13809758
000150 17 dc a5 bd 99 4b 06 be 00 e6 c4 bc 17 8d 13 be
       -0.080986194 -0.13114776 -0.024035454 -0.1440929
000160 8a 80 08 3e eb 09 02 3e 7c 59 00 be 2a 82 20 3e
       0.13330284 0.12699096 -0.12534136 0.15674654
000170 3f 25 ca 3c be e3 ed bd e0 63 78 3d 94 9a 2b be
       0.024675963 -0.11615704 0.060642123 -0.16758186
000180 e3 da c6 bd d4 79 0c be 1a 7f da bd 4c df 21 bd
       -0.09709718 -0.13718349 -0.10668774 -0.039519593
000190 fd 8d 16 3d c4 c7 b0 3c 5b 1f 38 be de f2 32 be
       0.036756504 0.02157963 -0.17980711 -0.17475459
0001a0 eb 8d 01 bd fb 53 1d 3e e0 83 8a 3d b1 c5 19 3e
       -0.031629484 0.15364067 0.067634344 0.1501682
0001b0 ad 29 b1 bd 46 16 52 3d d7 c2 22 be 6c 98 c2 3d
       -0.08650527 0.051290773 -0.15894638 0.095017284
0001c0 c0 65 93 bb e0 e2 62 bc db 64 e3 bd b8 59 23 be
       -0.0044982135 -0.0138480365 -0.11103221 -0.15952194
0001d0 9a aa 89 bd 58 60 ef bc 5d 56 cc bd 88 48 9c 3d
       -0.06721993 -0.029220745 -0.0997741 0.07631022
0001e0 2c c4 01 bd e0 43 93 3c 74 1b 2e be 32 09 5c 3d
       -0.031681225 0.017976701 -0.1700266 0.053719707
0001f0 a0 ce b6 bd 44 44 0d be 68 1a a6 bd a0 be 2e be
       -0.08926129 -0.13795573 -0.08110505 -0.17064905
000200 6f e0 11 be d6 63 0b 3e 88 07 19 3e 61 5a 01 be
       -0.14245771 0.13612303 0.14944279 -0.12632133
000210 14 2e 22 3d f4 5b c9 bd ff 0f 2e 3e 41 56 d9 3d
       0.039594725 -0.09831992 0.1699829 0.10612155
000220 a0 ab 94 3d c3 80 20 be 6d ea b7 bd b8 29 1d bd
       0.07259297 -0.15674119 -0.0898026 -0.038369864
000230 f3 ab 32 be 7c 85 da bd ac e3 44 3d 0f a8 1a be
       -0.17448406 -0.106699914 0.048068687 -0.15103172
000240 93 13 40 3d d6 c1 b0 bb 3a 5d e1 bc 08 71 5a bd
       0.046893667 -0.005394201 -0.027510274 -0.05333045
000250 c8 34 cf bd 1e cb 2e be 52 71 fe bd 67 ed 05 3e
       -0.10117489 -0.1706967 -0.12423958 0.13078843
000260 19 dd 9b bc e4 11 34 3e 30 b3 1d 3c f0 4a b0 bc
       -0.019026326 0.1758495 0.009625241 -0.021520108
000270 63 c3 d2 3d e1 5a 35 be fb c1 e7 bd f0 7d d6 3d
       0.10291173 -0.17710449 -0.11316296 0.104732394
000280 66 e3 65 bd 53 81 09 3e 22 5b ab bc a8 4e 04 3e
       -0.056125067 0.1342824 -0.020917479 0.1292063
000290 00 47 11 3c ac aa 2f 3c 61 12 2c be 1d 38 81 bd
       0.008867025 0.010721844 -0.16803886 -0.06309531
0002a0 2a a5 07 3c c0 d7 aa 3d c6 e4 03 3d 64 5d 22 bd
       0.008279124 0.08341932 0.032200597 -0.039639845
0002b0 80 90 a1 3a 8e b8 21 3e c0 16 f4 3d 08 9b 7c 3d
       0.001232639 0.15793058 0.11918402 0.061671287
0002c0 63 aa 0a be e4 72 7b bd 84 b8 ee 3d e6 fb 21 3e
       -0.1354156 -0.061388865 0.11656287 0.15818748
0002d0 23 8a c9 bd 9a a4 9f 3d 08 1c 2f bd 36 91 d6 3d
       -0.098408006 0.07795067 -0.042751342 0.104769155
0002e0 f8 bb e0 bc d5 9c 14 be 82 17 3f be 7d 20 7c bc
       -0.02743338 -0.14512952 -0.18661311 -0.015388605
0002f0 60 76 5c 3d 41 6b dc bd 20 08 11 3e 88 5b b1 3d
       0.05382383 -0.107626446 0.14163256 0.08660036
000300 fc 7a e1 3d c2 01 ab 3d 73 cb 43 be 17 17 21 bd
       0.110097855 0.08349945 -0.19120578 -0.03932866
000310 08 c6 c2 3d 78 18 b9 3d 07 51 32 be 9f 28 dd bd
       0.09510428 0.0903787 -0.17413722 -0.107987635
000320 f4 44 08 3e 7c c9 1a be 51 e9 01 3e 04 48 10 bd
       0.13307554 -0.15115923 0.1268666 -0.03522493
000330 90 73 5b 3c cb 65 ab 3d c4 62 2f 3d 64 b1 ef bd
       0.0133942515 0.08369025 0.0428188 -0.117037565
000340 56 1a 4e 3d ee 01 28 be 97 a7 b6 bd 28 5c 03 bd
       0.050318085 -0.16406986 -0.08918684 -0.03207031
000350 00 97 15 bd 31 24 f0 3d 1c 29 bb bd e2 22 1c 3e
       -0.036520958 0.11725653 -0.091387 0.15247682
000360 50 7f a5 3d 96 5f 52 3d 16 e9 05 3e 13 6a 19 be
       0.080809236 0.05136069 0.13077196 -0.1498187
000370 57 16 21 be b6 8e 76 3b 61 45 b5 3d 04 7e a8 3d
       -0.15731178 0.0037621683 0.088511236 0.082271606
000380 e0 c9 f8 3b 4e ce 32 3e 71 cd 84 3d 39 ee 90 3d
       0.0075924248 0.17461511 0.06484497 0.07076687
000390 57 db b8 bd 60 1d 64 3d 8f f6 8b bd a3 6d 1d be
       -0.09026211 0.055692077 -0.06834137 -0.15373854
0003a0 79 0e 07 be ca 0f ee bd 9e b2 1c bd d7 a1 9f bd
       -0.13189115 -0.11624105 -0.03825628 -0.077945404
0003b0 87 16 24 3e 05 b4 9a 3d 96 c0 22 be 9a 32 bc 3b
       0.16024218 0.07553867 -0.15893778 0.005743337
0003c0 79 15 1c 3e c0 30 f1 bb 20 8c a3 3c a9 11 49 3d
       0.15242566 -0.007360548 0.019964278 0.049089108
0003d0 06 c0 76 bd c8 15 f2 bd 15 22 8c bd e8 fb 55 bd
       -0.06024172 -0.11820561 -0.06842438 -0.05224219
0003e0 72 7a 05 3e c7 f8 17 be 78 ce a8 3c 0a ef 8e bd
       0.1303499 -0.14840995 0.020606264 -0.06979187
0003f0 60 04 b2 bc 20 df 84 bc ac 0a 91 bd 9f d5 17 3d
       -0.021730602 -0.016219676 -0.070821136 0.03706896

trunk.2.weight f4 [256, 256]
000000 58 02 72 3c 8a 02 13 bd 98 4a 1d 3d 06 ef 66 3d
       0.014771067 -0.035891093 0.038401216 0.056380294
000010 68 10 d4 bc a8 b7 50 3c fc 95 bd bc b2 7b 2f 3d
       -0.02588673 0.0127391 -0.023142807 0.042842574
000020 60 cc 9e bb cc 40 64 bd d0 48 6e 3c 9c 24 54 3d
       -0.0048461407 -0.055725858 0.014543727 0.051792726
000030 00 fc 7f 39 e4 1e 83 bc 80 be e0 ba 7c f5 10 3d
       0.00024412572 -0.01600594 -0.0017146617 0.035390362
000040 dc 8e 5b 3d 28 22 80 bc 5a 5f 08 3d 7c a4 0e 3d
       0.05360304 -0.015641287 0.03329406 0.034824833
000050 ce b7 64 3d f6 66 37 3d ea 6f 53 bd e8 7e 53 bd
       0.055839352 0.044775926 -0.0516204 -0.0516347
000060 06 72 54 bd 54 dc 20 3d e0 ff 01 bd 7c 68 0d 3d
       -0.051866554 0.03927262 -0.031738162 0.034523472
000070 20 78 18 bc c0 f8 d2 bc ee a2 40 3d e8 c6 45 bc
       -0.009305984 -0.025753379 0.04703038 -0.012071349
000080 58 28 0a bd c8 ef 1c bc 78 d1 22 bd 4e 7f 76 bd
       -0.03372988 -0.009578653 -0.039750546 -0.06018
000090 88 69 33 bc a0 9b 66 bb ca e9 11 bd ea e4 62 3d
       -0.010950454 -0.0035187975 -0.03562335 0.05539409
0000a0 20 c5 64 bc 48 0d 82 bc 96 e0 4a 3d 40 e6 e3 3b
       -0.013963014 -0.015875474 0.049530588 0.006954938
0000b0 18 e3 70 bc b0 74 6b 3c e2 4c 67 bd 1a ae 7b 3d
       -0.014702581 0.014371082 -0.056469806 0.061445333
0000c0 24 0f 87 3c 18 11 b4 3c 28 d0 3c bd 66 b9 43 3d
       0.016486712 0.021980807 -0.04609695 0.04778423
0000d0 0a 67 52 bd 10 ea b1 bc b8 25 24 bd c8 49 01 bd
       -0.051367797 -0.021718055 -0.040075034 -0.031564504
0000e0 10 86 5a 3c e4 e0 7d bd 3a 9e 7a bd 70 ed 69 3c
       0.013337627 -0.06198205 -0.061186053 0.014277801
0000f0 b4 be a8 3c 80 d9 6a 3a b8 83 c2 bc d0 38 8f bc
       0.020598747 0.00089588016 -0.023744449 -0.017483145
000100 b8 6c 0d bc 60 9f 4f bc 82 5f 1e bd 48 b1 40 3d
       -0.008631878 -0.012672275 -0.038665302 0.04704407
000110 d0 40 4f 3c 94 45 2b bd 68 20 50 bc c8 3d 39 bd
       0.01264973 -0.0418144 -0.012703039 -0.045224935
000120 da 92 15 bd 30 72 42 3d 14 4d 9c 3c f8 4c e0 3c
       -0.036517 0.04747218 0.019079722 0.027380452
000130 e8 da 04 bc f8 83 7f bc a8 5c 04 3c 42 de 35 bd
       -0.008108832 -0.015595429 0.008078732 -0.044401415
000140 e2 b9 7e bd 22 f9 33 3d 00 f1 a6 3a 6a 47 1b 3d
       -0.06218899 0.043938763 0.0012736619 0.037909903
000150 c6 9e 40 3d 74 f0 df 3c 50 ff ae bc 70 c7 3b bc
       0.04702642 0.027336337 -0.021361977 -0.011461124
000160 40 c5 55 bb 20 04 75 3b 80 51 1f 3b ac 24 48 bd
       -0.003261879 0.0037386492 0.0024310052 -0.048863098
000170 86 b9 0c bd ea 8e 3a 3d 80 1b 03 3b 74 22 e8 bc
       -0.034356616 0.04554645 0.0020005405 -0.028336741
000180 2a 14 2d 3d 34 f5 97 bc 34 41 d0 bc dc ea 32 3d
       0.042255558 -0.01854954 -0.025421716 0.04368101
000190 ba f8 49 bd e0 32 f5 bc cc bd 41 3d e0 40 c8 bb
       -0.04930947 -0.029931486 0.047300145 -0.0061112493
0001a0 b8 21 d3 bc 4a 6c 54 3d 28 d2 1b 3c 1a 87 70 bd
       -0.025772914 0.051861085 0.009510554 -0.058722593
0001b0 24 4e 3d bd c8 ca 81 bc 00 c9 60 bb da be 40 bd
       -0.0462171 -0.015843764 -0.0034299493 -0.04705701
0001c0 e0 ef c0 bc 7c 14 ad 3c fa bc 6e bd 9e e7 6f bd
       -0.023551881 0.021127932 -0.05828569 -0.058570497
0001d0 44 1d 85 3c 20 70 43 3c da 38 77 bd 54 31 6e bd
       0.016249306 0.011928588 -0.060356952 -0.05815251
0001e0 fa b4 54 3d 94 7c 7f 3d 70 c5 df bc 2a 02 7f 3d
       0.051930405 0.062374666 -0.027315825 0.062257923
0001f0 72 cf 30 3d 86 8e 63 3d 90 50 dc bc a8 96 7a bc
       0.043166585 0.055555843 -0.026893884 -0.015294708
000200 42 ee 16 3d 30 e9 bd 3c ae 51 4c bd 10 35 19 3d
       0.036848314 0.023182482 -0.049882583 0.03740412
000210 d2 a4 79 3d 44 93 22 bd f4 ae 6d bd 7a db 73 bd
       0.0609482 -0.039691225 -0.058028176 -0.05953548
000220 dc f6 21 bd 5c 78 e1 bc 46 ac 10 bd c4 36 60 bd
       -0.039542064 -0.027523212 -0.035320543 -0.05473973
000230 fe e2 1f 3d 44 61 7a 3d 70 53 56 3d a8 4e 20 3d
       0.039034836 0.061127916 0.052325666 0.039137512
000240 f0 52 e3 3c 88 d9 c9 bc 5c 95 4e bd 44 33 17 bd
       0.027749509 -0.02463986 -0.05043541 -0.036914125
000250 d0 d2 e7 3c f8 08 60 3c 08 ba 02 3c 8c 5e 1b bd
       0.028298765 0.013674013 0.007978924 -0.037931964
000260 34 e2 f0 bc dc ed d7 bc f8 fb 01 bc f8 39 41 bc
       -0.029404737 -0.026358537 -0.007933609 -0.011793606
000270 b0 93 d8 3b a4 80 aa bc 00 0f e8 bb 42 d1 22 bd
       0.0066094026 -0.020813294 -0.0070818663 -0.039750345
000280 3c 02 fd 3c e2 bf 54 bd 68 e9 3a 3c b4 8c 73 bd
       0.030884854 -0.051940806 0.011408187 -0.059460357
000290 18 fe 11 bd 3c 87 77 3d b0 9c 3f bc 48 1d 3c bc
       -0.035642713 0.060431704 -0.011695072 -0.011481591
0002a0 00 11 04 3d ec d8 5c bd 50 e4 6b bc 80 d5 03 bb
       0.032242775 -0.05391781 -0.014397696 -0.002011627
0002b0 30 80 e6 3b d0 95 29 bc ce 94 34 bd 24 a1 6a bd
       0.007034324 -0.0103506595 -0.044087224 -0.057282582
0002c0 80 98 30 3a 16 c7 55 3d 88 d6 e5 bc 80 76 01 3c
       0.00067365915 0.052191816 -0.028056398 0.007901788
0002d0 c0 b9 22 3d 6c 20 7a bd b6 8a 62 3d be 37 58 3d
       0.039727926 -0.061066076 0.055308066 0.052787535
0002e0 00 fb df bc 5c 24 5f 3d b6 df 2e 3d 68 a9 54 3d
       -0.027341366 0.054478034 0.042693816 0.05191937
0002f0 d2 b4 5d 3d 30 d6 6a 3c 02 ab 0c 3d 2e 13 09 bd
       0.05412752 0.014333293 0.034342773 -0.033465557
000300 b8 f8 2b 3c 06 7e 75 3d 54 6e b0 bc 90 50 71 3c
       0.010496311 0.05993464 -0.021536984 0.01472868
000310 ce cc 02 bd 28 3f bd 3c 9c b4 a6 3c 62 46 41 3d
       -0.0319336 0.023101404 0.020349793 0.047186263
000320 00 aa b4 39 28 75 f4 3c d8 33 1b 3d 10 e6 24 3c
       0.00034458935 0.02984102 0.03789124 0.010064617
000330 ea 7f 71 bd 84 81 35 3d 2e ec 23 bd 68 2c ed 3c
       -0.05895988 0.04431297 -0.04002016 0.028951839
000340 20 89 3f bd d4 22 95 3c f8 a1 3f bc a0 41 65 bd
       -0.046761632 0.018205084 -0.011696331 -0.055970788
000350 3c ca e9 3c f8 43 6e bc 14 0b d5 bc 2c 15 9f bc
       0.028538816 -0.014542572 -0.026006259 -0.019419275
000360 3a 10 2e 3d a6 6c 16 3d 94 7a 8b 3c 6c 3c d6 3c
       0.042495944 0.03672471 0.017026223 0.026151858
000370 30 7e 03 3d 7c d1 d3 3c f8 fa 59 3d 12 26 1a 3d
       0.032102764 0.025856726 0.053217858 0.037633963
000380 8a bc 03 bd b8 f6 1b bc 9c cc ee 3c c0 ad 4b 3d
       -0.032162227 -0.009519272 0.0291503 0.049726248
000390 68 b9 54 bd 24 f0 fd bc 60 ea fd bc ea ca 71 3d
       -0.05193463 -0.030998297 -0.030995548 0.059031405
0003a0 52 44 7b 3d 48 db e4 bc 70 39 9e bc 40 3d 91 3a
       0.061344452 -0.027936593 -0.019314498 0.0011080876
0003b0 e0 d9 6f 3b 50 ec 91 bc d6 c3 3a bd 90 3e 08 bd
       0.003659837 -0.017812878 -0.04559692 -0.03326279
0003c0 d0 e2 aa bb 10 af dd 3b 40 2d 1d 3b cc 15 6b bd
       -0.0052150264 0.006765254 0.002398327 -0.057393834
0003d0 50 ac 62 3d 62 1d 15 bd f8 ba 7a bc 3e 79 6d 3d
       0.05534011 -0.036404975 -0.015303366 0.057976954
0003e0 00 d9 d5 39 50 a3 4c bd 82 7a 13 3d d4 9f c0 bc
       0.00040788203 -0.049960434 0.036005504 -0.023513712
0003f0 4e 2b 78 3d e0 8e 94 bc 6a 5b 3f bd 4e 71 3e bd
       0.060588174 -0.018134534 -0.04671804 -0.046494775

trunk.2.bias f4 [256]
000000 cc c4 04 3d 5c 25 4c bd 7b c2 fe bc 40 6e 35 bb
       0.032414243 -0.049840316 -0.031098595 -0.0027684122
000010 f1 40 39 3d 34 a5 91 3c c4 ee 16 bd 10 ff 9c 3c
       0.04522795 0.01777897 -0.0368488 0.019164592
000020 c0 30 22 bd 5e 85 3f 3d f0 8d b2 bc 52 a1 54 bd
       -0.039597273 0.04675805 -0.021796197 -0.05191166
000030 e3 34 90 bc 03 2e 6a 3c 68 92 02 bc 16 50 28 3d
       -0.017603343 0.014293197 -0.007969476 0.041092
000040 72 51 5f bd 4e 38 66 3c d8 60 c4 3c ca f1 62 3d
       -0.05452103 0.01405151 0.02397196 0.05540637
000050 a6 7f 13 3d 6e 9f 89 3c 58 34 9a 3c 01 6d 41 3d
       0.036010407 0.016799655 0.018823788 0.047223095
000060 f4 28 9a 3c bc e6 ad bc 80 d0 1e bd 6c a0 14 bd
       0.018818356 -0.021228187 -0.03877306 -0.036285803
000070 79 b3 14 bc 5c 8a 7c bd bc 89 29 bd 7f a9 62 3d
       -0.009075993 -0.061655387 -0.04139112 0.055337425
000080 3b e4 a5 3c af 4b 15 3d b2 f0 e5 bc 63 cd f4 bc
       0.02025043 0.03644913 -0.028068874 -0.029883092
000090 1d a1 85 bc 0a 9f 60 3d 00 1e e5 ba c8 6e 7c bc
       -0.016312176 0.05483917 -0.0017480254 -0.015407272
0000a0 a8 16 06 3c 4b ba f5 bc 00 c7 ad 39 37 c5 44 bd
       0.008184113 -0.029996058 0.00033145398 -0.04803964
0000b0 be 3e 34 3d 01 4d 7d bd c0 02 a4 ba 5e a5 3d bd
       0.044005148 -0.061841015 -0.0012513027 -0.046300285
0000c0 e0 b6 65 bc bd 92 3c 3d b9 6e 13 bd 71 95 a6 bc
       -0.014020652 0.046038378 -0.035994265 -0.020334931
0000d0 f0 41 83 bb 0c b7 b9 3c ac 73 20 bd 18 ab 89 3c
       -0.004005663 0.022670291 -0.039172813 0.016805217
0000e0 6e fd 42 bb 9a 7f 15 3d c0 f9 86 bc 90 83 64 3c
       -0.0029753107 0.036498643 -0.016476512 0.013947383
0000f0 10 75 1c bc ec c6 2a bd ec a2 d5 3c ac 4d d2 3c
       -0.009549394 -0.041693613 0.026078664 0.025671802
000100 ae a1 4f 3d 9c 5b af bc ca 7b 37 3d b8 40 0a bd
       0.0506913 -0.021405987 0.04479579 -0.033753127
000110 10 b6 44 3d ce d5 c9 bc 83 fd 90 bc c4 7e 68 3c
       0.04802519 -0.024638083 -0.017699009 0.0141903795
000120 7a 34 dc 3c 28 10 65 3d a4 f6 0b bd 35 c2 6f bd
       0.026880492 0.05592361 -0.03417076 -0.05853482
000130 78 fc 3a bc 3f 6a 1a bd ce b8 3f 3d 1c 0d ea bc
       -0.011412732 -0.03769898 0.046807103 -0.028570704
000140 54 55 b2 3c 34 97 9c 3c f8 cd 1d 3c 60 f9 68 3c
       0.021769203 0.019115068 0.009631626 0.014219612
000150 36 16 e5 3c bb 16 e7 3c f9 58 0b 3d 97 bc 8e 3c
       0.027964693 0.02820908 0.034020398 0.017423911
000160 0a 26 15 3c ba 1e e7 3c 05 30 e7 3c b6 6f 2b bd
       0.0091033075 0.028212894 0.02822114 -0.041854583
000170 7a 50 4c 3d 5b 7f 44 3a a8 e2 45 bc 7e 36 3f 3d
       0.049881436 0.0007495784 -0.012077965 0.046682827
000180 ce 75 82 3b 77 b2 26 bd 00 c9 35 3d 58 8b 37 3c
       0.0039813286 -0.04069754 0.04438114 0.011202656
000190 d1 ec 7b 3c 6a b3 d1 3c a6 81 05 bd 16 b5 3f bd
       0.015376286 0.025598247 -0.032594346 -0.046803556
0001a0 90 26 32 bd da 9a 24 bd d7 84 17 3c e0 6d d9 bc
       -0.043493807 -0.04018674 0.00924798 -0.02654165
0001b0 a6 5f 93 3b 58 98 d2 bc ca 39 3d bd 7e 7e 47 3d
       0.004497486 -0.025707409 -0.04619769 0.048704617
0001c0 16 84 c5 bc 9c 74 b3 3c 9e 09 b7 bc 23 92 b3 bc
       -0.024110835 0.02190619 -0.022343453 -0.02192027
0001d0 54 58 be bc ce 00 d3 3c 48 ce cd 3b 8a 82 e1 bc
       -0.023235478 0.02575722 0.006280694 -0.027528066
0001e0 a2 63 5d bd 81 c3 85 bd 25 3c 25 3d a4 67 35 bd
       -0.054050095 -0.0653143 0.04034056 -0.044288293
0001f0 b9 a1 34 bd a8 86 78 bc d4 08 87 3a 30 94 e9 bb
       -0.044099543 -0.015168823 0.0010302314 -0.007128261
000200 05 b9 1a bc 2d 18 1c 3d 25 e5 56 3d 5e 7e 2d 3d
       -0.009443526 0.038108993 0.052464623 0.04235684
000210 da c2 2e bc 82 59 10 3d 50 c2 50 bc 66 04 e7 3c
       -0.010666573 0.03524161 -0.01274164 0.02820034
000220 4c 63 d2 3c 1c 38 46 bc b9 10 85 bc 70 b9 91 3b
       0.025682114 -0.012098338 -0.016243326 0.0044471547
000230 61 d4 46 3c ba 90 22 bc 6b b2 4d 3d a9 18 5b bd
       0.012135596 -0.009922201 0.05021898 -0.053490315
000240 b7 78 78 bc 18 9b b7 bc b0 78 8c bc 2a 29 50 bd
       -0.015165499 -0.022412822 -0.017147392 -0.050820507
000250 52 8a 7e 3d d4 4d 6c bd 16 5d 3e bd c1 c8 70 bc
       0.06214363 -0.05769141 -0.046475492 -0.014696301
000260 db 55 d6 3c 9c 77 a6 3c d8 7e 92 bc 05 a5 01 3d
       0.026163986 0.020320706 -0.01788275 0.031651516
000270 71 0f 52 bd 5e 6d 02 bd 61 da 63 3c a0 24 66 bc
       -0.051284257 -0.031842582 0.013907046 -0.014046818
000280 4e 1c 1f bd ef 92 4e bd 46 d8 75 bd e8 45 23 bd
       -0.038845353 -0.050433096 -0.060020708 -0.03986159
000290 66 b1 f3 bc 75 94 6e bd 28 a9 3f 3b 38 72 a7 bc
       -0.029747676 -0.05824705 0.0029245112 -0.020440206
0002a0 4e 0d 46 3d 68 28 9a ba 40 ad 34 3d 80 68 45 3d
       0.048352532 -0.001176131 0.044110537 0.048195362
0002b0 4a ea 56 3d cc 25 cb 3c b0 5d 18 bc 4a 5c 2f bd
       0.05246953 0.024798296 -0.009299681 -0.042812623
0002c0 e8 5d 0b 3d 43 56 c2 3c b2 fc 70 3d 1d bc 75 bd
       0.034025103 0.023722773 0.05883474 -0.059993852
0002d0 0d 9d 25 bd 24 16 9e 3c a2 40 6b bd ca c8 15 bd
       -0.04043298 0.019297667 -0.057434686 -0.03656844
0002e0 c2 05 87 bc d0 e2 81 3c ec b7 f0 3c 01 ad 6c bd
       -0.016482238 0.015855223 0.029384576 -0.057782177
0002f0 65 f4 56 3d b2 0c 8e bb 9a 30 79 3d d9 dd 09 3d
       0.052479167 -0.0043350095 0.060837366 0.033658836
000300 a5 32 ff 3c a7 0e 2e bd ea d2 08 3d b6 fc d9 3c
       0.031152079 -0.042494442 0.03340427 0.02660976
000310 b8 e9 0b 3d e5 53 02 3d e8 2d bf bb a8 7c a6 bc
       0.03415844 0.03181829 -0.00583433 -0.020323113
000320 04 d3 94 3b ee 75 2b bd 22 a3 39 3d 56 6d 1b bd
       0.0045417566 -0.041860513 0.04532159 -0.037946068
000330 e0 e8 28 3d 3d 58 5e bc cd 60 d0 3c 8b cd 17 bc
       0.041237712 -0.013570842 0.025436783 -0.009265314
000340 f9 7c 81 3c 20 51 18 3c bb 3d 9c bc a8 e1 38 3c
       0.015806662 0.009296685 -0.019072404 0.011284269
000350 a8 c3 11 3d 31 63 7a bd 2a 77 b9 bc cf d2 ed 3c
       0.035586983 -0.061129753 -0.02263983 0.029031185
000360 be cf 82 bd cc 6b 93 ba 17 91 0f 39 d0 f9 14 3c
       -0.0638728 -0.0011247336 0.00013691593 0.009092763
000370 80 a5 61 bb 15 02 0c bd f2 41 36 bd aa 97 2d 3d
       -0.003443092 -0.034181673 -0.044496484 0.042380966
000380 cf b6 5f 3d 1e 71 4b bd f0 2d 6c 3c 53 cf 2a bd
       0.0546177 -0.049668424 0.014415249 -0.041701626
000390 2b dd 31 3d c2 eb 07 3d b8 c0 07 3d 9f 2e 07 3c
       0.043423813 0.03318382 0.033142775 0.008250861
0003a0 2f b2 b5 bc a5 fd 5f 3d 17 ad 19 bd f0 4c 64 3d
       -0.022179691 0.054685254 -0.037518587 0.055737436
0003b0 b5 29 5e bd 5f 6b b4 3c 17 67 39 3d dc 33 e4 bc
       -0.054238994 0.022023855 0.04526433 -0.02785676
0003c0 f0 c7 2f bd 96 dc 25 3d be 64 61 3d f8 ca 27 bd
       -0.042915285 0.04049357 0.055027716 -0.04096505
0003d0 e6 2a 4d bd 50 c4 20 3c ae 2d 58 bd e3 6b 66 3d
       -0.05008974 0.00981243 -0.05277794 0.056255233
0003e0 cc ae 4a bd e9 79 83 bb 26 fd 24 3d 3b 3f bf 3c
       -0.049483106 -0.0040123356 0.040280484 0.02334558
0003f0 e8 3c 44 bc 4e 5e 18 bd 06 60 7c bd 14 d2 33 3d
       -0.011977412 -0.03719931 -0.061615013 0.043901518

V_heads.0.weight f4 [1, 256]
000000 40 ac df bb 9c c4 4f 3d 41 86 db 3c 32 bb 68 bd
       -0.0068259537 0.05072461 0.026797416 -0.05681915
000010 e3 58 10 bc a2 46 7b 3d 99 57 57 bd 60 a3 57 3b
       -0.008810255 0.061346658 -0.052573774 0.0032903776
000020 b0 fa 68 3d 58 cb c6 3c 6c 5f 60 bd c0 d5 34 3d
       0.0568797 0.024266884 -0.0547785 0.04414916
000030 4b 70 58 3c 32 86 65 bd b0 9a 67 3c 76 93 56 bd
       0.0132103665 -0.05603618 0.0141360015 -0.052386723
000040 d4 42 52 3d c0 71 56 3c 52 c4 08 bd ca 8f 7c 3d
       0.051333264 0.013088644 -0.03339035 0.061660565
000050 d2 68 01 3d 9d 2e 9e 3c eb 60 0b 3d f8 bd 10 bd
       0.031594105 0.019309336 0.034027975 -0.03533742
000060 64 3b 28 3d f8 8b 72 bd b0 81 fc 3b 8c a5 77 bd
       0.041072264 -0.059215516 0.0077058896 -0.060460612
000070 d8 7e 46 bc f6 6e e8 bc 40 04 95 bc d0 62 fe bb
       -0.012115203 -0.028373223 -0.018190503 -0.007763244
000080 85 a2 22 bd 8f 6d 97 3c ba 33 35 3c f5 02 30 3d
       -0.039705772 0.018484859 0.011059696 0.04297157
000090 81 51 41 3a 4a 90 6a 3d 4c 12 34 bd d2 6a 0b bd
       0.0007374511 0.05726651 -0.04396276 -0.03403742
0000a0 20 a8 6c bb a5 a9 ca 3b 58 18 b6 bc 11 2e 21 3d
       -0.0036110952 0.006184774 -0.022228405 0.039350573
0000b0 26 d7 44 bd b1 11 b5 3c 82 5c 48 3d 82 76 76 3d
       -0.048056744 0.022103162 0.048916347 0.06017161
0000c0 80 98 31 3b d9 c3 d9 bc 34 e9 35 3d f5 e6 0d bd
       0.0027098954 -0.026582645 0.044411853 -0.034644086
0000d0 ee ee 54 bd 2e 6c 7f bd 8a 42 2c 3b 3c 55 cf 3c
       -0.051985674 -0.062359028 0.0026284778 0.025309198
0000e0 12 37 30 3d b0 8a 57 bd 8c ce 84 3c c0 e9 b6 3c
       0.04302127 -0.052622497 0.01621177 0.022328258
0000f0 b0 3a 9e bc 8e aa 5a 3d 1d cc 00 3c 16 6f 3b bd
       -0.019315094 0.05338531 0.007861164 -0.045760237
000100 0b 8d bf 3b 23 57 8c 3b b4 d6 49 bd 95 c3 3c 3d
       0.005845671 0.0042828484 -0.049277022 0.04608496
000110 0d 00 42 3d 6f ef cf bb ed cf cf bc 15 6d 78 bd
       0.04736333 -0.0063456814 -0.025367701 -0.060650904
000120 1e 09 7a 3c 8b 87 2a bd b5 7c ab 3c 7e fd a0 3b
       0.015260963 -0.04163317 0.020933488 0.004913031
000130 be 60 72 3d e4 97 ed 3b 80 e5 31 3c d0 40 5c 3c
       0.05917429 0.007250773 0.01085794 0.013443187
000140 68 76 7e 3d 60 22 02 3d 2a d1 25 bd 28 5b 5d 3c
       0.06212464 0.031771064 -0.040482678 0.013510503
000150 0b 8c 4d bd fd 30 55 3d 14 13 34 bd 54 68 02 bd
       -0.050182384 0.052048672 -0.043963507 -0.031837776
000160 c6 40 97 3c e9 ea 2e 3d cf 8a 65 bd f5 87 7e bd
       0.018463504 0.042704497 -0.05604058 -0.062141377
000170 60 ad 7f bb a8 c5 04 3d b6 31 66 3d ff 72 62 3d
       -0.0039013252 0.032415062 0.05619975 0.05528545
000180 cc e4 08 bd 44 81 c8 3c de 01 0f 3d 30 06 39 bc
       -0.033421323 0.024475701 0.03491389 -0.011292979
000190 0f 92 5d 3c 96 8e 41 bd 98 ad 5a bd 9c dc c8 bc
       0.013523593 -0.04725512 -0.05338821 -0.024519257
0001a0 cc a7 16 3d 7c de 3c bd f7 3e b8 bc 10 9f fe bb
       0.036781117 -0.046110615 -0.022490961 -0.0077704266
0001b0 b6 f3 84 bd d2 0d 2f 3d 9c cb 4c bd c6 62 5d 3d
       -0.06491797 0.04273779 -0.049998865 0.054049276
0001c0 07 71 b4 bc 28 31 0c bc bd 5f 6a bd 7c 35 d1 3c
       -0.022026552 -0.008556642 -0.05722021 0.025538199
0001d0 1a cb 7a bd 0d ab 8b ba 5e ab 22 bd 53 2f 04 3d
       -0.06122885 -0.0010655836 -0.03971421 0.032271694
0001e0 2c dd 23 bd 78 5c dc bc 75 e1 ad 3b a0 86 7f bc
       -0.040005848 -0.026899561 0.0053064176 -0.015596062
0001f0 d8 36 0a b9 5e 98 63 3d 18 8d 68 bc 42 f7 00 3d
       -0.00013181136 0.05556523 -0.014193796 0.031485803
000200 9b 4a ea bc 89 7b aa 3a 14 73 64 3d 50 14 2c 3c
       -0.028600028 0.0013006787 0.05577381 0.01050289
000210 7d 52 06 bd 86 cf 68 3d 80 2d 25 3a ef 92 35 bd
       -0.03279351 0.056838535 0.00063010305 -0.04432958
000220 f0 6f d3 bc c4 23 67 3d 30 c8 06 bc 4c 3a 6d 3d
       -0.025810212 0.056430593 -0.008226439 0.057916924
000230 a5 0e 3e 3c c1 18 14 3d 3b a0 b0 ba 67 13 83 3d
       0.011600171 0.03615642 -0.0013475487 0.06400185
000240 13 42 67 bd 00 bc 44 bd 0f ca 1c 3d 54 ad ed bc
       -0.056459498 -0.048030853 0.038278636 -0.029013313
000250 00 c6 eb 3c a0 df 07 bb 38 56 a8 3c 44 c5 56 bc
       0.028780937 -0.0020732656 0.020548925 -0.013108555
000260 5d 6b f2 3c ec 9d ef bc 6b f8 fd bb 5b 3e 47 3d
       0.02959221 -0.029250108 -0.007750561 0.04864345
000270 cf 2a 9a 3b 86 47 7f bd a6 eb 5c 3d 00 1f cd ba
       0.00470481 -0.06232407 0.05393567 -0.0015649498
000280 96 7b 52 bd 9c 10 8d 3c 0c e0 5c 3d 3a 99 59 bd
       -0.051387392 0.017219834 0.053924605 -0.053124644
000290 d4 68 48 3d 1d b7 95 3c ec 73 26 bd 78 43 53 3d
       0.048928097 0.018275792 -0.040637895 0.051578015
0002a0 70 ca 1e 3c 3e 72 be 3b b2 36 c0 bc 78 ab 72 3d
       0.00969182 0.0058119586 -0.02346358 0.059245557
0002b0 3e aa 0d bd 16 48 60 3d c8 17 32 3d e0 77 c9 bb
       -0.034586184 0.054756247 0.04347971 -0.0061483234
0002c0 e0 e6 dd 3b b9 d3 2f 3c 4d b5 fc 3b be a5 34 bd
       0.006771907 0.010731631 0.0077120424 -0.044103377
0002d0 da 0f da 3c 80 0d 33 bd 57 d2 4d bd b2 8e 3d 3d
       0.026618887 -0.043714046 -0.050249424 0.046278663
0002e0 99 8c 89 3b 7c a7 e5 bc e0 72 cc bb 79 25 46 bd
       0.0041976687 -0.028033964 -0.00623928 -0.04837558
0002f0 47 83 25 3d 47 a3 d0 bc f2 7d 60 bd 18 c6 49 bc
       0.0404084 -0.025468482 -0.05480761 -0.012315296
000300 75 c3 56 3d ee 18 b4 bc ce 20 05 3d 17 0e 2e 3d
       0.052432496 -0.021984544 0.032501988 0.042493906
000310 66 15 04 3d c5 b8 24 bb 8c 83 53 bd 1f d8 4f bd
       0.03224697 -0.0025134545 -0.051639125 -0.05074322
000320 25 4e ff bc 10 9d 39 bd 02 12 89 3c d3 de 49 3c
       -0.031165192 -0.045315802 0.01673222 0.012321192
000330 72 f8 95 3c 6e a4 51 3d d0 3b 4d 3c 82 50 9d bc
       0.018306945 0.051182203 0.012526467 -0.019203428
000340 90 d4 47 bc a0 ee 23 3d 14 31 32 bd d8 3f d2 bc
       -0.012196675 0.040022492 -0.043503836 -0.025665209
000350 52 fe 53 bd d9 69 ad 3c f2 3a 49 3d 75 0a 2a 3d
       -0.05175621 0.021168636 0.04912848 0.04151388
000360 70 45 7b bc f2 c5 c9 3b cf 96 28 bd ef 82 78 bc
       -0.015336379 0.00615763 -0.041159447 -0.015167936
000370 20 8e 83 bb 88 04 9f bc 7e 06 2c bd 10 e8 26 3d
       -0.0040147454 -0.01941134 -0.04199838 0.040748656
000380 1f bf 40 bd 3d 44 35 3d 4c b1 c5 3c d7 88 12 3c
       -0.047057267 0.04425453 0.024132393 0.008943758
000390 b8 9c bb bb 1c 7f 9b bc b0 e7 64 3d 05 16 93 3c
       -0.0057254694 -0.018981509 0.055885017 0.017954836
0003a0 8d 4a 09 3d e5 00 0a 3d d2 f1 2c 3d cc 1c b9 3c
       0.033518363 0.03369226 0.042222805 0.02259674
0003b0 fe a2 c4 3b f9 53 65 3c 2d 03 d0 bb 00 0e b7 ba
       0.0060008755 0.013997071 -0.006348035 -0.0013965964
0003c0 88 fa 68 3d 6c a2 a5 3b 64 c4 84 bc f8 38 24 3d
       0.05687955 0.0050547626 -0.016206928 0.040093392
0003d0 d1 77 1c 3d 9a 3b 78 3d 40 48 80 3a 1b 67 48 ba
       0.038200203 0.060603715 0.0009787157 -0.00076447584
0003e0 52 28 68 3d 0e 1e 42 bd a4 11 bc bc b8 3b bb bb
       0.056679077 -0.047391944 -0.02295763 -0.005713906
0003f0 4e 2a bb 3c b8 c5 70 3d e8 4b 14 bd 20 c8 f6 bc
       0.02284732 0.05878231 -0.036205202 -0.030124724

V_heads.1.weight f4 [1, 256]
000000 68 f1 c4 3c 00 2a 33 bc 41 c9 c2 bc 0c 6c da 3c
       0.024040893 -0.010935307 -0.023777606 0.026662849
000010 e7 1c 17 3d 6e d9 4f bd 3d 16 2c bd 88 db ad 3c
       0.036892798 -0.050744466 -0.042013396 0.021222845
000020 28 60 f7 bc 4c f1 42 3d 0c 06 4f bd 7c 5b 14 3d
       -0.030197218 0.0475934 -0.050542876 0.03622006
000030 5d 3f 7b 3d 9a 50 24 bd e2 21 58 bd 40 fb 69 3b
       0.061339725 -0.04011593 -0.05276669 0.0035702735
000040 4c c5 bb 3c 40 e1 0c 3b 24 f2 b1 3c 00 94 b7 b9
       0.022921227 0.0021496564 0.021721907 -0.0003501475
000050 0c d3 b0 bc 0e 5a 05 3d 41 f1 c5 bc 08 87 fd 39
       -0.02158501 0.032556586 -0.02416289 0.00048356527
000060 6d d7 6c bd a6 10 14 bd aa 22 70 3d d4 57 3f 3d
       -0.057822634 -0.03614869 0.05862681 0.04671462
000070 25 41 aa bb aa ac 08 3b 0e 8d 4b bd fb 18 a9 39
       -0.005195754 0.002085487 -0.049695067 0.00032252804
000080 d7 2f 0f 3d f4 19 47 bd eb ad cd 3c 0f 52 3b bd
       0.034957733 -0.048608735 0.025107345 -0.045732554
000090 bd e5 27 3d 12 db 6e bd 22 4b 3d 3d 0a 2b 44 3d
       0.04099058 -0.05831439 0.04621423 0.047892608
0000a0 2e d5 79 bd 37 fa 9e bc 08 ca b5 bc db 64 28 3b
       -0.06099432 -0.019406421 -0.022191063 0.002569488
0000b0 b0 1c 65 bc d6 ec 2f 3d 00 f1 bd 3a b0 a1 9c 3b
       -0.01398389 0.042950474 0.0014491379 0.004780017
0000c0 90 cb a4 3b ca 5b 74 bc 3b ef 39 3d 4b db 24 bc
       0.0050291494 -0.014914462 0.045394164 -0.010062049
0000d0 ce 46 12 3d 40 95 9c bc 01 2b 0c bd de a4 7a 3d
       0.035712056 -0.019114137 -0.0342207 0.061192386
0000e0 f8 ec 4b bd 00 61 8a b9 42 8d 3e bd fc 0a 6f 3d
       -0.049786538 -0.00026393682 -0.046521433 0.058360085
0000f0 48 bb 93 3c 85 af 6e 3c 4c 25 19 bd 82 f6 2d 3d
       0.018033639 0.014568214 -0.037389085 0.042471416
000100 b9 90 d8 bc ec 87 3c 3d 00 b7 1f 3a 3b de ff 3c
       -0.026436197 0.046028063 0.0006092638 0.031233897
000110 74 3c 97 bc 73 7c 69 bd b7 d5 9a 3c 6a a5 37 3d
       -0.018461443 -0.05700345 0.018900735 0.044835486
000120 71 ad 28 3d 40 8d 83 3d 9b 9c 0e bd 29 0e 16 bd
       0.04118103 0.06423426 -0.03481732 -0.036634598
000130 40 2c be ba 1e 5a 17 3d 16 99 5d bd 00 1c 9d 3a
       -0.0014509037 0.036951177 -0.054101072 0.0011986494
000140 06 7d 14 3d c2 d4 49 bd e8 18 2f bc 38 6f 05 3d
       0.036252044 -0.049275167 -0.01068709 0.03257677
000150 fc 42 12 3d 57 6a 65 bd 21 39 38 3d 69 9d bc 3b
       0.035708413 -0.056009617 0.044976357 0.0057560694
000160 cc e8 16 bd e1 83 89 bc 0d dc b4 3c 3b c1 33 3c
       -0.036843106 -0.016786518 0.022077585 0.010971363
000170 1e f5 05 bd d4 b2 24 3d 28 d8 08 3d f9 5e c4 bc
       -0.032704465 0.040209606 0.033409268 -0.023971068
000180 4a c2 cd bc 9d 34 62 bd e6 e3 2d bd 42 d9 2e bd
       -0.025117058 -0.055225957 -0.04245367 -0.042687662
000190 2e fb c1 bc 25 ca 6b 3d 29 b5 cb 3b 9a d8 79 3d
       -0.023679342 0.057565827 0.0062166643 0.060997583
0001a0 22 cf 24 bb 3c fc e3 3c 00 c1 72 bc 00 4c c9 3c
       -0.0025147875 0.027830236 -0.014816523 0.024572372
0001b0 82 1c 38 3d 14 15 52 3d 42 42 36 3d b2 69 0b 3d
       0.044949062 0.051289633 0.044496782 0.034036346
0001c0 4d 91 9d bc c6 30 38 3d d0 96 50 bd 50 0d 17 bc
       -0.019234324 0.04496839 -0.050925076 -0.009219483
0001d0 30 1b 50 bc c3 ec 28 ba c7 8e 1a bc e4 b5 6c 3c
       -0.0127017945 -0.00064439717 -0.009433455 0.014447663
0001e0 9f d7 38 bd 15 98 1c 3c c8 e6 58 3d 94 de d6 bc
       -0.045127507 0.009557744 0.052954465 -0.02622918
0001f0 3c 0f 8b bc 68 a1 e4 bb f6 a8 96 3b b0 9f f2 bc
       -0.016975038 -0.006977249 0.0045977784 -0.02961716
000200 f8 b8 39 3d c6 d3 37 bd c5 98 c3 bc d2 93 7a bd
       0.045342416 -0.044879697 -0.023876557 -0.06117613
000210 59 03 78 bb 5d 6e 93 bb 58 62 3f 3d 4e eb 1f bd
       -0.0037843792 -0.0044992403 0.046724647 -0.039042763
000220 70 86 c5 3c 8b fb 24 bd e9 65 25 bd 28 e2 94 3c
       0.024111956 -0.040278953 -0.040380392 0.018174246
000230 89 6c 8f 3c be 8f 09 3d 3d 3c 36 bd fe 0e 2e bd
       0.017507808 0.03358435 -0.04449104 -0.042494766
000240 9d 02 44 bd a0 f0 4b 3d a5 39 7d 3b da 32 3e 3d
       -0.047854055 0.049790025 0.0038639095 0.046435215
000250 a0 66 09 bb 20 db f0 bb 08 21 3d bc cd 57 4c bd
       -0.002096571 -0.0073503405 -0.01154352 -0.04988842
000260 fe 00 f4 bc f4 da 00 3d 77 81 42 3c 96 7f e9 3a
       -0.02978563 0.03145881 0.011871687 0.0017814513
000270 58 49 f4 bc 58 6d 2e 3c 92 00 0a 3d 96 cc 17 3d
       -0.02982013 0.010646187 0.03369195 0.037060343
000280 98 f4 b6 bc d8 b6 69 bd 28 b2 32 3d 80 d0 d9 3b
       -0.022333428 -0.05705914 0.043626934 0.0066471696
000290 6f ca c1 3c 66 73 1c bd 8a 18 49 3d 60 1f 09 bc
       0.023656098 -0.03819599 0.049095668 -0.008369297
0002a0 76 8b 10 3d 6d 3d 10 3d a3 b2 6a 3d 56 c4 59 bd
       0.03528925 0.03521483 0.057299268 -0.053165756
0002b0 c7 a6 25 bd 14 6d f1 3c d8 d4 1d bd 64 45 39 bd
       -0.040442254 0.029470958 -0.03853306 -0.04523219
0002c0 70 88 ba 3c 26 fe 0c bd 1a 1d 73 3d 74 c1 92 bc
       0.022770137 -0.034422062 0.059353925 -0.017914511
0002d0 3f cd 32 bd 3c 53 08 bd 77 49 0e 3c 80 3a 5a 3d
       -0.04365277 -0.033282503 0.008684508 0.053278446
0002e0 2b e4 12 3b e4 1b 39 bd 06 a8 6f bd 2a 2f 74 3d
       0.002241383 -0.045192614 -0.05850985 0.05961529
0002f0 17 f9 04 bd 9e b2 2b 3d 88 95 24 bc a4 fd 4c 3c
       -0.032464113 0.04191839 -0.010045417 0.0125116445
000300 cf 95 73 bb cc 9f 37 3d 54 11 7a bd bd d1 e6 3c
       -0.003716815 0.04483013 -0.06105168 0.028176183
000310 80 c6 4f bd b4 a1 76 bc 7c 8a 4c bd 09 f6 d0 3c
       -0.050726414 -0.0150532015 -0.049936756 0.025507944
000320 b2 57 32 bd 10 89 66 3d 64 08 fe bc 10 0a 65 bd
       -0.043540664 0.056283057 -0.03100986 -0.0559178
000330 d3 4c 44 bd c1 bb df 3c 86 2e da bc 57 72 5c 3d
       -0.047924828 0.027311208 -0.026633512 0.05381998
000340 26 bd 34 3d 82 fe 0e 3d 26 34 c9 3c 78 22 f1 bc
       0.0441257 0.034910686 0.024561 -0.029435381
000350 94 ca 6c bd 7f 67 58 3d 42 6c f9 bc 56 e8 2f 3d
       -0.05781038 0.052833077 -0.03044713 0.042946182
000360 65 fb 6e bd 68 67 86 bc ac 6d 7d bc a7 76 09 bd
       -0.058345217 -0.01640673 -0.015468042 -0.03356042
000370 14 19 f0 3c b9 28 63 bc 60 1c 77 bc 22 59 6a bd
       0.029308833 -0.0138646895 -0.015082449 -0.05721391
000380 77 71 4b bc 0b c8 04 bd a0 fc 27 bb c5 32 6a 3d
       -0.012417189 -0.03241734 -0.0025632754 0.057177324
000390 9d f4 63 bd 66 98 26 bd 40 2a 22 3c 71 7f 36 bd
       -0.055653203 -0.040672682 0.0098977685 -0.04455513
0003a0 78 02 d7 bc 40 af da bb 5c e8 c3 3a c0 ef b5 bb
       -0.026246294 -0.0066737235 0.0014946568 -0.005552262
0003b0 4d 39 84 bb e7 ee e8 3b 0b f1 0b bd 88 62 e4 3c
       -0.004035151 0.0071085575 -0.034165423 0.027879015
0003c0 e2 78 09 3d c6 c7 49 bd 86 21 14 3d a8 97 20 bd
       0.03356255 -0.049262784 0.036164783 -0.03920713
0003d0 36 d3 a1 bc f0 b8 65 bd 38 dd 89 bc 39 80 58 bc
       -0.019754034 -0.056084573 -0.016829118 -0.013214164
0003e0 84 1b 5f bd 46 04 17 bd f0 68 84 bb cf a5 73 3d
       -0.0544696 -0.03686931 -0.00404083 0.0594843
0003f0 f1 f7 17 bd b4 fa 17 3d b0 e7 65 bc 74 8e 93 3c
       -0.03710169 0.037104324 -0.014032289 0.018012263

V_heads.2.weight f4 [1, 256]
000000 c8 f2 66 3d b4 26 6b bd a8 1f bc 3c 1c 8f 69 bd
       0.056383878 -0.057409957 0.022964314 -0.057021245
000010 66 ad 7d 3a 62 73 1e bd c8 50 ef 3c 18 27 1a bc
       0.00096770225 -0.038684256 0.029213324 -0.009408735
000020 2e 0f 39 3d 7c 6d 06 bd 38 3c 1d 3d a4 80 86 3c
       0.045180492 -0.032819256 0.038387507 0.016418763
000030 1a 6d a8 bc e3 46 5d 3c 7a 64 14 3d 30 0b 5d bc
       -0.020559836 0.01350567 0.036228634 -0.013491437
000040 38 0e 16 3d 3b 86 52 bc 70 43 20 3d 78 e9 60 3d
       0.036634654 -0.012849386 0.039126813 0.054910153
000050 e0 c8 45 3c 9c a7 20 3d a3 4d 07 3d ba 84 3c 3b
       0.012071818 0.039222345 0.033033025 0.0028765635
000060 7b 56 51 3d 1a f1 46 bd ac 9a a0 3c 04 ca 83 bc
       0.051107865 -0.048569776 0.019605003 -0.01608754
000070 98 d9 1b bd 86 2d 04 bd d4 dc 4f bd c2 c1 ca bb
       -0.03804931 -0.032269977 -0.050747707 -0.0061876485
000080 eb c5 1d bd 4b 6c 8a bc d2 b2 75 bd f6 c3 af 3b
       -0.038518827 -0.016897341 -0.05998499 0.0053639365
000090 7e b1 ff bc 52 e0 27 bd c2 c4 00 bd b0 56 c2 bc
       -0.031212565 -0.040985413 -0.031437643 -0.023722976
0000a0 78 71 1b bd 59 ed 33 bd ba 61 20 bd 8f 1a 54 3d
       -0.03795001 -0.043927524 -0.0391557 0.05178314
0000b0 d8 66 78 3c cf c7 0b 3d 8c 3e 74 bd fc 2d 9c 3c
       0.015161239 0.0341261 -0.05962996 0.019064896
0000c0 28 82 5e bc 77 e1 00 bd 04 bd 39 bc db 0c dd 3c
       -0.013580836 -0.03146502 -0.011336569 0.026983669
0000d0 20 29 4d 3b b8 b2 6d 3d bc f4 5d bd 71 ca 4c bd
       0.003130503 0.058031768 -0.054188475 -0.04999775
0000e0 68 f4 de 3b 5c 38 aa bc c0 be cb 3b d2 bd 7d bd
       0.006804038 -0.020778827 0.0062178075 -0.061948605
0000f0 54 f9 06 bd 29 ce ea bb ea 56 30 3d 28 18 6f bd
       -0.03295262 -0.0071656895 0.043051638 -0.058372647
000100 31 d2 9a 3c 24 29 b3 bb 56 e3 1c 3d 3b 0f be 3b
       0.018899055 -0.005467551 0.038302742 0.0058001555
000110 01 60 22 3d f8 ed 02 3d be dd aa 3c c0 84 0c 3c
       0.039642338 0.031965226 0.020857688 0.008576572
000120 33 f9 2b 3d 18 0e 70 bd 3c 3e 71 bd d4 ce ae bb
       0.0419857 -0.05860719 -0.058897242 -0.0053347144
000130 90 9a 1f bd 4e bf 5c 3d 08 e3 7f bc 30 7c af 3b
       -0.03896576 0.05389338 -0.015618093 0.0053553805
000140 a4 04 c3 bc 40 05 c6 ba 05 99 10 3d fe 32 2d bd
       -0.023805924 -0.0015107766 0.03530218 -0.042284958
000150 63 c2 2c 3d a4 96 28 3d 35 d3 a8 bc 84 de 62 bd
       0.04217757 0.041159287 -0.020608524 -0.05538799
000160 0c cf cb 3c c4 dc 8c 3b ab 18 35 bd 70 8d 22 3d
       0.024879001 0.0042987783 -0.04421298 0.039685667
000170 58 3d 9a bc 71 95 4d 3c ba 72 56 bd 49 a6 5b 3d
       -0.01882808 0.012547837 -0.052355506 0.05362538
000180 79 1b 7c 3d 36 b3 ba 3c f0 f6 be bc b6 1c 11 bd
       0.061549637 0.022790533 -0.023311108 -0.03542777
000190 63 1d 94 bc c0 17 f8 3c 36 f7 90 bc 88 e4 27 bc
       -0.018080419 0.030284762 -0.017696004 -0.010247357
0001a0 8c 72 5d 3d a8 ed f5 3c 88 bd 4e bd 78 6e c8 3c
       0.05406432 0.03002055 -0.05047372 0.024466738
0001b0 63 30 22 bd 83 08 29 3c d2 c8 1b 3d 90 a2 9b bc
       -0.039596926 0.010316971 0.038033314 -0.018998414
0001c0 c5 d1 3e 3c c0 44 1e 3d 35 e5 24 3c fb 0e 49 3d
       0.011646693 0.038639784 0.010064413 0.049086552
0001d0 cc 6b 49 bd eb f2 81 bd a5 47 b1 bc d2 ca e5 bc
       -0.04917507 -0.06345161 -0.021640608 -0.028050814
0001e0 52 b4 73 3d 6a e8 22 3c 33 70 06 bc 60 9c a1 3c
       0.05949814 0.009943107 -0.008205461 0.019727886
0001f0 84 a3 01 3d ef 45 0f 3d 46 98 81 bb 3a 08 77 bd
       0.03165008 0.034978803 -0.00395492 -0.06031058
000200 61 06 40 3d d9 df d0 3c 04 7e 5a bd 80 b0 72 3d
       0.046881083 0.025497364 -0.053342834 0.059250355
000210 a8 bf 25 3d e3 6d 3c bc e0 cc 16 bd a7 11 5a bb
       0.04046598 -0.011500808 -0.036816478 -0.0033274682
000220 3c 34 70 bd e6 86 a0 3b 26 55 4f 3d d0 29 3b 3c
       -0.058643565 0.0048988936 0.050618313 0.011423543
000230 d4 ea 2d 3d 00 56 bc 3b 68 02 61 bb 81 4a 8d bc
       0.042460278 0.0057475567 -0.003433371 -0.01724744
000240 6d 49 63 bd b4 4d b2 3c 9e 0a 33 3d ec fa 15 bc
       -0.055489946 0.021765567 0.043711297 -0.009154063
000250 de 85 14 3d ec c7 b1 bc a0 e8 7f bc 49 33 6c 3d
       0.03626048 -0.021701775 -0.015619427 0.057666097
000260 de 61 a7 bc 62 01 24 bd 6a ab 80 3d 0b 4d 2a 3d
       -0.020432409 -0.04004038 0.06282695 0.04157738
000270 39 af 4b bd b8 b6 3e bd f3 90 39 3d 80 6b 8f 3b
       -0.049727652 -0.046560973 0.04530425 0.0043768287
000280 32 35 31 3d 83 92 58 bd b0 cd ec bc 90 0e 48 bd
       0.04326362 -0.0528741 -0.028906673 -0.048842013
000290 0d 60 0d 3d bb 1e 39 3d d7 3b a9 3c 7c 85 14 3d
       0.03451543 0.045195322 0.020658417 0.036260113
0002a0 88 9a c0 3c 41 a2 32 3d a1 a1 25 bd ef f2 3a 3d
       0.023511186 0.04361177 -0.040437344 0.045641836
0002b0 62 ad 02 3c 7a 81 7b bd e8 3e 3e 3c a6 37 53 bd
       0.007975908 -0.061402775 0.011611678 -0.051566742
0002c0 50 99 55 bd 70 da 67 bc 73 39 0c bd 69 c0 36 bd
       -0.052148163 -0.014151201 -0.034234475 -0.04461709
0002d0 6e 46 14 3d 88 6d 10 3c e4 0b 1a 3b 13 84 29 bd
       0.03619998 0.008815177 0.0023505623 -0.04138572
0002e0 b0 b9 3d 3d b0 c8 4f bd be 68 1c 3d 55 19 74 bd
       0.046319664 -0.0507285 0.038185827 -0.05959447
0002f0 a6 30 7c bd 30 88 6f bb 68 55 58 bc 30 b4 9a bb
       -0.061569832 -0.003654968 -0.013203956 -0.004721187
000300 4c f3 34 3d b4 64 1a bb 50 97 30 bc 1e 1b 82 bd
       0.04417734 -0.002355856 -0.010778263 -0.063528284
000310 cb 56 fb bc 77 a9 08 bd 5f 37 3c bc f7 52 21 bd
       -0.030681035 -0.03336474 -0.011487811 -0.039385762
000320 ba 32 1a 3d fb 64 22 3d d3 26 7b bd 87 c6 58 3d
       0.037646033 0.039647084 -0.061316323 0.052923705
000330 12 00 1e 3c 1d ff 5b bd 39 48 8d bc 7f 5d 48 bd
       0.009643571 -0.05371009 -0.017246353 -0.04891729
000340 8c 23 b5 3c fc 0e 6f 3d a3 41 20 3d 90 7a c5 bb
       0.022111677 0.0583639 0.039125096 -0.0060265735
000350 46 e5 79 bd f1 2a 4b bd ec 70 f5 bc f1 b1 38 3d
       -0.061009668 -0.0496015 -0.029961072 0.045091573
000360 ab a6 00 3d 60 a1 20 bc 18 17 d5 3c 26 7f 63 bd
       0.031408947 -0.0098041 0.026011989 -0.05554118
000370 f2 8e 09 bd 1b ac 3c bd b2 ef 7a bd 12 3d 11 3d
       -0.03358359 -0.04606257 -0.061263748 0.03545863
000380 b4 dc 5c bd dd 62 5a 3d 02 be 70 bd 3b 04 57 3d
       -0.053921416 0.05331694 -0.058774956 0.05249427
000390 5c 19 7e 3c a8 ac 01 3d 8c 96 b9 3c f1 c1 d4 bc
       0.015508976 0.0316588 0.022654794 -0.025971385
0003a0 d2 9a 38 3b 64 9c 2d bc 6c ad ca bb 8a 65 57 bd
       0.0028168452 -0.010596368 -0.0061852243 -0.05258707
0003b0 ae 3b 75 bc 7c 41 15 3b f9 c0 5d bb 98 a6 a0 bc
       -0.014967842 0.0022774627 -0.0033836944 -0.019610688
0003c0 3a 69 4f bd 5d ab 80 bd 34 94 07 3d 20 2d 87 bb
       -0.05063746 -0.06282685 0.033100322 -0.0041252524
0003d0 41 af 09 3d f6 f0 6e bd 44 1f ea 3c 76 1f 26 3d
       0.0336144 -0.058335267 0.028579362 0.040557347
0003e0 b0 32 80 3d d2 d6 da 3c cc b7 e0 3c 9f 59 4a bd
       0.06259668 0.026713762 0.027431391 -0.049401876
0003f0 1e c4 78 3d 56 5a 28 3d e6 20 01 bd e8 18 59 bd
       0.060733907 0.041101776 -0.031525515 -0.053002268
