results/arq/models/arq_checkpoint_20.pt (torch, 332479 bytes, 25 tensors)

trunk.0.weight f4 [256, 30]
0.1316908 0.14658983 -0.0427721 0.16656494 -0.035563957 0.041012615 -0.104372516 0.08331679
0.15871054 -0.13232674 0.14663227 0.05659539 0.13410378 0.0148939155 0.08325535 -0.03126386
0.15231751 0.027345708 -0.09242512 0.052089255 -0.08445814 -0.026828045 -0.05792091 0.13340247
-0.15130438 -0.104230195 -0.050698757 -0.10909664 0.017231926 -0.1803247 0.16488439 -0.15509097
0.14095226 0.03038384 -0.05928266 0.1128217 0.028454334 0.14751324 0.019958958 -0.057579003
0.049054697 -0.04951036 0.07683772 0.16300628 0.105538756 -0.079816416 0.10539362 0.03266731
0.09271756 -0.11127989 -0.18073173 -0.07053946 -0.14003856 0.14980921 0.052587092 0.075624704
0.05774112 -0.0031760484 0.14288408 -0.12972143 0.0114955455 -0.12461422 0.05629711 -0.062875316
0.055943698 -0.038037777 0.15142554 -0.10821207 -0.108886875 -0.10889345 0.16421503 0.06084305
0.17568213 -0.15067413 -0.18109097 -0.14283943 -0.12281565 0.07394987 0.0653754 0.15170535
-0.09428594 -0.12446298 0.096869856 -0.0737973 0.11080861 -0.043324962 0.10444081 -0.1418543
-0.09213602 0.055662572 0.038597554 -0.046548888 0.108826905 0.124115616 -0.13239793 -0.09747055
0.16717622 -0.061606467 -0.06472554 -0.1766578 -0.104554795 0.0456077 -0.024098545 -0.13252804
0.0042825937 -0.12471305 -0.15489532 -0.10053678 -0.15979113 -0.11625193 0.18250278 0.034483686
0.056262 -0.17028408 -0.11990994 -0.060770877 0.028549328 -0.16065091 -0.07866629 -0.109301426
0.000505954 -0.06793644 -0.012651622 -0.123717695 -0.12531804 -0.1065141 -0.062494673 -0.1441023
0.15308294 -0.03623441 0.15708622 0.05688685 -0.15460327 0.12634775 -0.050234333 -0.06998544
-0.15154944 -0.18150806 0.052236423 -0.039882213 0.07108036 -0.14983195 0.13554838 -0.13401926
-0.0315257 0.038134217 0.094254255 0.14739403 0.16631764 -0.1447671 0.04594794 -0.078529894
-0.020007357 -0.13665497 0.16629928 -0.13400042 0.097577006 0.064163804 0.05932857 -0.09870803
0.16595107 0.04012075 0.023486346 -0.16089438 0.07664254 -0.027389884 -0.08364166 0.15682146
0.040704697 -0.10101399 -0.0924079 -0.008718967 0.10194236 -0.04665388 -0.104172245 -0.06252123
-0.13639659 0.065111876 0.14131975 -0.1718827 0.045008417 0.08863265 0.03310606 -0.07313199
0.08884411 0.08251805 0.05364953 -0.034349773 -0.055798244 0.007937034 -0.03342723 -0.080333464
0.110949054 0.14952941 -0.028018523 -0.041123733 -0.036870115 -0.024622668 0.0048837163 0.112570934
-0.16542873 -0.09637413 0.10938944 0.078284696 -0.025570318 -0.12952635 -0.11050642 -0.17017742
-0.059512325 0.061656058 0.11768222 0.08006729 -0.16138536 -0.11362286 -0.030801876 0.1790303
0.012860216 -0.062319286 0.06850778 -0.072801515 -0.12265874 0.1393427 -0.084568374 -0.044954248
-0.1932521 0.12011544 0.13983925 0.064155065 -0.13717887 -0.17872778 -0.1523486 0.12602575
0.069868214 0.1693228 0.077510685 0.014813897 0.0040233205 -0.15736854 -0.15642448 -0.17077051
0.07473892 -0.08963808 -0.03674352 -0.1050724 -0.033269316 -0.12850207 -0.119296834 0.060561836
-0.054260388 0.11271092 -0.0585714 -0.13393044 -0.032213196 -0.08850236 -0.055857033 -0.17380983
00000000: f4d9 063e a51b 163e cc31 2fbd 0090 2a3e
00000010: 83ab 11bd d8fc 273d 42c1 d5bd fea1 aa3d
00000020: 0485 223e a980 07be c526 163e 91d0 673d
00000030: 8052 093e 9c05 743c c881 aa3d 890e 00bd
00000040: 1ff9 1b3e 1b04 e03c 6249 bdbd 8b5b 553d
00000050: 64f8 acbd 7dc6 dbbc 7a3e 6dbd a89a 083e
00000060: 89ef 1abe a476 d5bd 80a9 4fbd 0f6e dfbd
00000070: f829 8d3c 0aa7 38be 74d7 283e 2bd0 1ebe
00000080: ca55 103e 88e7 f83c 60d2 72bd 100f e73d
00000090: 1019 e93c b60d 173e f880 a33c f6d7 6bbd
000000a0: 94ed 483d 60cb 4abd 185d 9d3d 1eeb 263e
000000b0: b424 d83d ca76 a3bd 9cd8 d73d 28ce 053d
000000c0: b4e2 bd3d b6e6 e3bd bd11 39be fe76 90bd
000000d0: 4566 0fbe 9667 193e 9065 573d 20e1 9a3d
000000e0: f481 6c3d 4025 50bb 3450 123e b2d5 04be
000000f0: d057 3c3c bd35 ffbd cc97 663d c6c4 80bd
00000100: 3825 653d 80cd 1bbd 4c0f 1b3e 4a9e ddbd
00000110: 1500 dfbd 8703 dfbd fc27 283e 9036 793d
00000120: 04e6 333e 524a 1abe e96f 39be 8044 12be
00000130: c686 fbbd 0873 973d 8ae3 853d a658 1b3e
00000140: fd18 c1bd 72e6 febd b463 c63d 0a23 97bd
00000150: a0ef e23d 8475 31bd 10e5 d53d 4142 11be
00000160: cfb1 bcbd 70fe 633d 7818 1e3d 0caa 3ebd
00000170: a4e0 de3d 5430 fe3d 5393 07be a49e c7bd
00000180: 3e30 2b3e 1057 7cbd d38e 84bd c8e5 34be
00000190: d320 d6bd 24cf 3a3d 506a c5bc 6eb5 07be
000001a0: 0055 8c3b 8e69 ffbd e19c 1ebe 3ae6 cdbd
000001b0: 49a0 23be 7e15 eebd 02e2 3a3e c43e 0d3d
000001c0: fc72 663d f35e 2ebe 5893 f5bd e2ea 78bd
000001d0: 48e0 e93c ac81 24be cb1b a1bd 6dd9 dfbd
000001e0: 00a2 043a 4322 8bbd c048 4fbc b45f fdbd
000001f0: 5f53 00be 1124 dabd 6afa 7fbd 8e8f 13be
00000200: c6c1 1c3e 886a 14bd 36db 203e 3002 693d
00000210: 5250 1ebe 4e61 013e 84c2 4dbd 8754 8fbd
00000220: c72f 1bbe 40dd 39be dcf5 553d 885b 23bd
00000230: 9492 913d 8c6d 19be 32cd 0a3e 583c 09be
00000240: 1821 01bd a032 1c3d 6008 c13d 76ee 163e
00000250: 2c4f 2a3e d43d 14be e833 3c3d 48d4 a0bd
00000260: 78e6 a3bc 48ef 0bbe 5c4a 2a3e 6837 09be
00000270: 74d6 c73d 5068 833d 8402 733d 7027 cabd
00000280: 14ef 293e a855 243d 7066 c03c 7fc1 24be
00000290: c4f6 9c3d c060 e0bc 524c abbd ce95 203e
000002a0: f8b9 263d 6ce0 cebd 5a40 bdbd 00da 0ebc
000002b0: 28c7 d03d 2418 3fbd 4258 d5bd 210b 80bd
000002c0: 8cab 0bbe 6059 853d 20b6 103e 0502 30be
000002d0: bf5a 383d 0985 b53d 389a 073d 3ac6 95bd
000002e0: e7f3 b53d 39ff a83d 9cbf 5b3d 59b2 0cbd
000002f0: b38c 64bd 550a 023c feea 08bd df85 a4bd
00000300: 4239 e33d 3d1e 193e 1a87 e5bc 5c71 28bd
00000310: 1e05 17bd 7ab5 c9bc 9507 a03b 978b e63d
00000320: 2666 29be cd5f c5bd 9207 e03d ba53 a03d
00000330: d878 d1bc 8ea2 04be 3151 e2bd fd42 2ebe
00000340: 32c3 73bd 108b 7c3d 6003 f13d 52fa a33d
00000350: 3442 25be 1ab3 e8bd 3754 fcbc b853 373e
00000360: a8b3 523c 8242 7fbd cf4d 8c3d f618 95bd
00000370: 8134 fbbd daaf 0e3e 2f32 adbd f221 38bd
00000380: e1e3 45be 15ff f53d 0532 0f3e bb63 833d
00000390: 9e78 0cbe 6a04 37be 4501 1cbe e50c 013e
000003a0: 1117 8f3d f562 2d3e ecbd 9e3d fdb5 723c
000003b0: 0fd6 833b 3825 21be bd2d 20be 77de 2ebe
000003c0: b810 993d 2b94 b7bd 6080 16bd 3330 d7bd
000003d0: 6845 08bd 0c96 03be e651 f4bd b00f 783d
000003e0: 2440 5ebd fcd4 e63d 90e8 6fbd 1025 09be
000003f0: fcf1 03bd ba40 b5bd 58ca 64bd 34fb 31be

trunk.0.bias f4 [256]
-0.15360963 -0.17138824 -0.05085814 0.14601913 0.09224552 0.11733961 -0.05064695 0.15744714
-0.083248384 -0.012780264 -0.16765453 -0.0030730907 0.041857928 -0.17523338 0.15348458 0.034349486
0.17411658 -0.07859582 -0.005967805 -0.058594882 0.13791034 -0.10206187 0.08739372 -0.14199202
0.1293371 -0.1771232 -0.09076383 -0.086730346 -0.031001523 -0.015368006 0.0577876 0.16372856
0.08911464 -0.095313944 0.17155546 -0.026885599 -0.101808615 0.06824508 -0.03181629 0.17423981
0.020366892 0.11824593 0.037434228 -0.13582452 0.021636404 -0.10565504 -0.048889548 -0.06740399
-0.1446628 0.051122908 0.1291922 -0.1898086 0.07833618 -0.16442531 -0.1786783 0.06296322
-0.015481404 -0.12212053 0.1552263 0.014897689 -0.11451599 0.08375406 0.012922287 -0.04344939
-0.12997308 -0.022437986 0.1033901 -0.08919458 0.08409253 -0.18995965 -0.07580834 -0.072138585
-0.16061544 0.0652525 -0.14618813 0.10566634 0.037381336 0.0024237484 -0.11357914 -0.06418451
0.04432355 0.17552626 -0.055334333 -0.14166819 -0.080986194 -0.13114776 -0.024035454 -0.1440929
0.1508318 0.12408714 -0.12890333 0.15240161 0.01484228 -0.11615704 0.060642123 -0.16910401
-0.09709718 -0.1416104 -0.11271036 -0.039519593 0.036173828 0.01787816 -0.18648374 -0.17475459
-0.04859356 0.14825882 0.067634344 0.14755605 -0.08650527 0.050480347 -0.15894638 0.095017284
-0.0044982135 -0.0138480365 -0.11442387 -0.15952194 -0.06721993 -0.039577447 -0.0997741 0.07631022
-0.031681225 0.017976701 -0.1700266 0.04770427 -0.08926129 -0.13795573 -0.08502893 -0.17261304
-0.14956297 0.13612303 0.14944279 -0.13198921 0.039594725 -0.1034496 0.16613267 0.1039228
0.07259297 -0.15365355 -0.0898026 -0.038369864 -0.17476958 -0.106699914 0.048068687 -0.15473127
0.04883025 -0.0038266752 -0.02227931 -0.05333045 -0.105042055 -0.1706967 -0.10185806 0.12432028
-0.026872484 0.17930129 0.009625241 -0.021520108 0.084661365 -0.17533782 -0.11316296 0.104732394
-0.06385324 0.13269131 -0.028694797 0.124218956 0.008867025 0.00255994 -0.19061469 -0.06309531
0.004117694 0.08341932 0.027963586 -0.039639845 0.001232639 0.16072316 0.11826589 0.056405522
-0.1376154 -0.061388865 0.11656287 0.15929691 -0.11052066 0.07531728 -0.042751342 0.102072604
-0.02743338 -0.14512952 -0.19885752 -0.018018542 0.05382383 -0.107626446 0.14162402 0.08660036
0.110097855 0.08399883 -0.19348578 -0.048066903 0.094601534 0.0903787 -0.17894523 -0.107987635
0.13307554 -0.15115923 0.12652446 -0.03522493 0.0133942515 0.083092816 0.047453124 -0.117037565
0.051134765 -0.16353029 -0.080154955 -0.03207031 -0.036520958 0.11725653 -0.09447691 0.15065387
0.084082924 0.05082767 0.12815626 -0.17621556 -0.15731178 0.0035235216 0.08931822 0.07768281
0.0075924248 0.17461511 0.06463623 0.057940654 -0.0860764 0.055692077 -0.06834137 -0.1593589
-0.13591982 -0.12233594 -0.052374545 -0.07932446 0.15554515 0.0723744 -0.16205144 0.0012051166
0.14133906 -0.007360548 0.008634713 0.046492133 -0.06024172 -0.11820561 -0.06842438 -0.053269755
0.121049374 -0.14840995 0.022349088 -0.06979187 -0.01142885 -0.016219676 -0.070821136 0.03540353
00000000: d84b 1dbe 6680 2fbe a050 50bd 0a86 153e
00000010: 38eb bc3d c04f f03d 2d73 4fbd d339 213e
00000020: 217e aabd 5064 51bc a1ad 2bbe e865 49bb
00000030: 3873 2b3d 6170 33be 102b 1d3e 0cb2 0c3d
00000040: 9e4b 323e d8f6 a0bd 948d c3bb 3001 70bd
00000050: 5e38 0d3e d005 d1bd 7bfb b23d 5b66 11be
00000060: f270 043e c95f 35be 63e2 b9bd ae9f b1bd
00000070: e8f6 fdbc 17ca 7bbc b1b2 6c3d 76a8 273e
00000080: bd81 b63d f533 c3bd 3cac 2f3e 303f dcbc
00000090: 0981 d0bd 14c4 8b3d cc51 02bd ec6b 323e
000000a0: 78d8 a63c ec2a f23d a254 193d 9515 0bbe
000000b0: d43e b13c ab61 d8bd 6840 48bd 1a0b 8abd
000000c0: 7c22 14be 4166 513d f64a 043e 305d 42be
000000d0: b86e a03d 1c5f 28be 72f7 36be dcf2 803d
000000e0: b7a5 7dbc 541a fabd a5f3 1e3e 7015 743c
000000f0: 5c87 eabd 4087 ab3d 00b8 533c fdf7 31bd
00000100: aa17 05be decf b7bc 30be d33d a6ab b6bd
00000110: b438 ac3d c884 42be 6741 9bbd 65bd 93bd
00000120: 6078 24be 1aa3 853d 57b2 15be 9867 d83d
00000130: 2c1d 193d c0d7 1e3b 2e9c e8bd 2b73 83bd
00000140: 9c8c 353d 28bd 333e 41a6 62bd 7711 11be
00000150: 17dc a5bd 994b 06be 00e6 c4bc 178d 13be
00000160: a773 1a3e 6621 fe3d 3cff 03be 2b0f 1c3e
00000170: 092d 733c bee3 edbd e063 783d 9a29 2dbe
00000180: e3da c6bd 5102 11be b0d4 e6bd 4cdf 21bd
00000190: 022b 143d 3875 923c 98f5 3ebe def2 32be
000001a0: 0a0a 47bd 29d1 173e e083 8a3d ef18 173e
000001b0: ad29 b1bd 7bc4 4e3d d7c2 22be 6c98 c23d
000001c0: c065 93bb e0e2 62bc 1057 eabd b859 23be
000001d0: 9aaa 89bd f61b 22bd 5d56 ccbd 8848 9c3d
000001e0: 2cc4 01bd e043 933c 741b 2ebe 8d65 433d
000001f0: a0ce b6bd 4444 0dbe a623 aebd 79c1 30be
00000200: 0927 19be d663 0b3e 8807 193e 2e28 07be
00000210: 142e 223d 62dd d3bd af1e 2a3e 7ad5 d43d
00000220: a0ab 943d 5b57 1dbe 6dea b7bd b829 1dbd
00000230: ccf6 32be 7c85 dabd ace3 443d e071 1ebe
00000240: 3a02 483d f5c8 7abb 1983 b6bc 0871 5abd
00000250: 4a20 d7bd 1ecb 2ebe f59a d0bd a29b fe3d
00000260: af23 dcbc c29a 373e 30b3 1d3c f04a b0bc
00000270: f062 ad3d c28b 33be fbc1 e7bd f07d d63d
00000280: 7dc5 82bd 3be0 073e 5a11 ebbc 8266 fe3d
00000290: 0047 113c abc4 273b 7f30 43be 1d38 81bd
000002a0: b9ed 863b c0d7 aa3d e413 e53c 645d 22bd
000002b0: 8090 a13a 9d94 243e 6335 f23d 7a09 673d
000002c0: 0deb 0cbe e472 7bbd 84b8 ee3d bb1e 233e
000002d0: a858 e2bd f23f 9a3d 081c 2fbd 710b d13d
000002e0: f8bb e0bc d59c 14be 4ea1 4bbe 9f9b 93bc
000002f0: 6076 5c3d 416b dcbd e305 113e 885b b13d
00000300: fc7a e13d 9407 ac3d 2321 46be cde1 44bd
00000310: 73be c13d 7818 b93d 6b3d 37be 9f28 ddbd
00000320: f444 083e 7cc9 1abe a18f 013e 0448 10bd
00000330: 9073 5b3c 912c aa3d 355e 423d 64b1 efbd
00000340: b072 513d 7c74 27be 4828 a4bd 285c 03bd
00000350: 0097 15bd 3124 f03d 1c7d c1bd 0245 1a3e
00000360: ab33 ac3d ad30 503d 653b 033e da71 34be
00000370: 5716 21be e2ea 663b 79ec b63d 2a18 9f3d
00000380: e0c9 f83b 4ece 323e 0060 843d 2e53 6d3d
00000390: d348 b0bd 601d 643d 8ff6 8bbd fb2e 23be
000003a0: 912e 0bbe 448b fabd b186 56bd dd74 a2bd
000003b0: 3a47 1f3e 0839 943d d0f0 25be 01f5 9d3a
000003c0: 30bb 103e c030 f1bb 9c78 0d3c 896e 3e3d
000003d0: 06c0 76bd c815 f2bd 1522 8cbd 6331 5abd
000003e0: bce8 f73d c7f8 17be 6f15 b73c 0aef 8ebd
000003f0: 1240 3bbc 20df 84bc ac0a 91bd 4b03 113d

trunk.2.weight f4 [256, 256]
0.014771067 -0.035891093 0.038401216 0.056380294 -0.02588673 0.0127391 -0.023142807 0.042842574
-0.0048461407 -0.055725858 0.014543727 0.051792726 0.00024412572 -0.01600594 -0.0017146617 0.035390362
0.05360304 -0.015641287 0.03329406 0.034824833 0.055839352 0.044775926 -0.0516204 -0.0516347
-0.051866554 0.03927262 -0.031738162 0.034523472 -0.009305984 -0.025753379 0.04703038 -0.012071349
-0.03372988 -0.009578653 -0.039750546 -0.06018 -0.010950454 -0.0035187975 -0.03562335 0.05539409
-0.013963014 -0.015875474 0.049530588 0.006954938 -0.014702581 0.014371082 -0.056469806 0.061445333
0.016486712 0.021980807 -0.04609695 0.04778423 -0.051367797 -0.021718055 -0.040075034 -0.031564504
0.013337627 -0.06198205 -0.061186053 0.014277801 0.020598747 0.00089588016 -0.023744449 -0.017483145
-0.008631878 -0.012672275 -0.038665302 0.04704407 0.01264973 -0.0418144 -0.012703039 -0.045224935
-0.036517 0.04747218 0.019079722 0.027380452 -0.008108832 -0.015595429 0.008078732 -0.044401415
-0.06218899 0.043938763 0.0012736619 0.037909903 0.04702642 0.027336337 -0.021361977 -0.011461124
-0.003261879 0.0037386492 0.0024310052 -0.048863098 -0.034356616 0.04554645 0.0020005405 -0.028336741
0.042255558 -0.01854954 -0.025421716 0.04368101 -0.04930947 -0.029931486 0.047300145 -0.0061112493
-0.025772914 0.051861085 0.009510554 -0.058722593 -0.0462171 -0.015843764 -0.0034299493 -0.04705701
-0.023551881 0.021127932 -0.05828569 -0.058570497 0.016249306 0.011928588 -0.060356952 -0.05815251
0.051930405 0.062374666 -0.027315825 0.062257923 0.043166585 0.055555843 -0.026893884 -0.015294708
0.036848314 0.023182482 -0.049882583 0.03740412 0.0609482 -0.039691225 -0.058028176 -0.05953548
-0.039542064 -0.027523212 -0.035320543 -0.05473973 0.039034836 0.061127916 0.052325666 0.039137512
0.027749509 -0.02463986 -0.05043541 -0.036914125 0.028298765 0.013674013 0.007978924 -0.037931964
-0.029404737 -0.026358537 -0.007933609 -0.011793606 0.0066094026 -0.020813294 -0.0070818663 -0.039750345
0.030884854 -0.051940806 0.011408187 -0.059460357 -0.035642713 0.060431704 -0.011695072 -0.011481591
0.032242775 -0.05391781 -0.014397696 -0.002011627 0.007034324 -0.0103506595 -0.044087224 -0.057282582
0.00067365915 0.052191816 -0.028056398 0.007901788 0.039727926 -0.061066076 0.055308066 0.052787535
-0.027341366 0.054478034 0.042693816 0.05191937 0.05412752 0.014333293 0.034342773 -0.033465557
0.010496311 0.05993464 -0.021536984 0.01472868 -0.0319336 0.023101404 0.020349793 0.047186263
0.00034458935 0.02984102 0.03789124 0.010064617 -0.05895988 0.04431297 -0.04002016 0.028951839
-0.046761632 0.018205084 -0.011696331 -0.055970788 0.028538816 -0.014542572 -0.026006259 -0.019419275
0.042495944 0.03672471 0.017026223 0.026151858 0.032102764 0.025856726 0.053217858 0.037633963
-0.032162227 -0.009519272 0.0291503 0.049726248 -0.05193463 -0.030998297 -0.030995548 0.059031405
0.061344452 -0.027936593 -0.019314498 0.0011080876 0.003659837 -0.017812878 -0.04559692 -0.03326279
-0.0052150264 0.006765254 0.002398327 -0.057393834 0.05534011 -0.036404975 -0.015303366 0.057976954
0.00040788203 -0.049960434 0.036005504 -0.023513712 0.060588174 -0.018134534 -0.04671804 -0.046494775
00000000: 5802 723c 8a02 13bd 984a 1d3d 06ef 663d
00000010: 6810 d4bc a8b7 503c fc95 bdbc b27b 2f3d
00000020: 60cc 9ebb cc40 64bd d048 6e3c 9c24 543d
00000030: 00fc 7f39 e41e 83bc 80be e0ba 7cf5 103d
00000040: dc8e 5b3d 2822 80bc 5a5f 083d 7ca4 0e3d
00000050: ceb7 643d f666 373d ea6f 53bd e87e 53bd
00000060: 0672 54bd 54dc 203d e0ff 01bd 7c68 0d3d
00000070: 2078 18bc c0f8 d2bc eea2 403d e8c6 45bc
00000080: 5828 0abd c8ef 1cbc 78d1 22bd 4e7f 76bd
00000090: 8869 33bc a09b 66bb cae9 11bd eae4 623d
000000a0: 20c5 64bc 480d 82bc 96e0 4a3d 40e6 e33b
000000b0: 18e3 70bc b074 6b3c e24c 67bd 1aae 7b3d
000000c0: 240f 873c 1811 b43c 28d0 3cbd 66b9 433d
000000d0: 0a67 52bd 10ea b1bc b825 24bd c849 01bd
000000e0: 1086 5a3c e4e0 7dbd 3a9e 7abd 70ed 693c
000000f0: b4be a83c 80d9 6a3a b883 c2bc d038 8fbc
00000100: b86c 0dbc 609f 4fbc 825f 1ebd 48b1 403d
00000110: d040 4f3c 9445 2bbd 6820 50bc c83d 39bd
00000120: da92 15bd 3072 423d 144d 9c3c f84c e03c
00000130: e8da 04bc f883 7fbc a85c 043c 42de 35bd
00000140: e2b9 7ebd 22f9 333d 00f1 a63a 6a47 1b3d
00000150: c69e 403d 74f0 df3c 50ff aebc 70c7 3bbc
00000160: 40c5 55bb 2004 753b 8051 1f3b ac24 48bd
00000170: 86b9 0cbd ea8e 3a3d 801b 033b 7422 e8bc
00000180: 2a14 2d3d 34f5 97bc 3441 d0bc dcea 323d
00000190: baf8 49bd e032 f5bc ccbd 413d e040 c8bb
000001a0: b821 d3bc 4a6c 543d 28d2 1b3c 1a87 70bd
000001b0: 244e 3dbd c8ca 81bc 00c9 60bb dabe 40bd
000001c0: e0ef c0bc 7c14 ad3c fabc 6ebd 9ee7 6fbd
000001d0: 441d 853c 2070 433c da38 77bd 5431 6ebd
000001e0: fab4 543d 947c 7f3d 70c5 dfbc 2a02 7f3d
000001f0: 72cf 303d 868e 633d 9050 dcbc a896 7abc
00000200: 42ee 163d 30e9 bd3c ae51 4cbd 1035 193d
00000210: d2a4 793d 4493 22bd f4ae 6dbd 7adb 73bd
00000220: dcf6 21bd 5c78 e1bc 46ac 10bd c436 60bd
00000230: fee2 1f3d 4461 7a3d 7053 563d a84e 203d
00000240: f052 e33c 88d9 c9bc 5c95 4ebd 4433 17bd
00000250: d0d2 e73c f808 603c 08ba 023c 8c5e 1bbd
00000260: 34e2 f0bc dced d7bc f8fb 01bc f839 41bc
00000270: b093 d83b a480 aabc 000f e8bb 42d1 22bd
00000280: 3c02 fd3c e2bf 54bd 68e9 3a3c b48c 73bd
00000290: 18fe 11bd 3c87 773d b09c 3fbc 481d 3cbc
000002a0: 0011 043d ecd8 5cbd 50e4 6bbc 80d5 03bb
000002b0: 3080 e63b d095 29bc ce94 34bd 24a1 6abd
000002c0: 8098 303a 16c7 553d 88d6 e5bc 8076 013c
000002d0: c0b9 223d 6c20 7abd b68a 623d be37 583d
000002e0: 00fb dfbc 5c24 5f3d b6df 2e3d 68a9 543d
000002f0: d2b4 5d3d 30d6 6a3c 02ab 0c3d 2e13 09bd
00000300: b8f8 2b3c 067e 753d 546e b0bc 9050 713c
00000310: cecc 02bd 283f bd3c 9cb4 a63c 6246 413d
00000320: 00aa b439 2875 f43c d833 1b3d 10e6 243c
00000330: ea7f 71bd 8481 353d 2eec 23bd 682c ed3c
00000340: 2089 3fbd d422 953c f8a1 3fbc a041 65bd
00000350: 3cca e93c f843 6ebc 140b d5bc 2c15 9fbc
00000360: 3a10 2e3d a66c 163d 947a 8b3c 6c3c d63c
00000370: 307e 033d 7cd1 d33c f8fa 593d 1226 1a3d
00000380: 8abc 03bd b8f6 1bbc 9ccc ee3c c0ad 4b3d
00000390: 68b9 54bd 24f0 fdbc 60ea fdbc eaca 713d
000003a0: 5244 7b3d 48db e4bc 7039 9ebc 403d 913a
000003b0: e0d9 6f3b 50ec 91bc d6c3 3abd 903e 08bd
000003c0: d0e2 aabb 10af dd3b 402d 1d3b cc15 6bbd
000003d0: 50ac 623d 621d 15bd f8ba 7abc 3e79 6d3d
000003e0: 00d9 d539 50a3 4cbd 827a 133d d49f c0bc
000003f0: 4e2b 783d e08e 94bc 6a5b 3fbd 4e71 3ebd

trunk.2.bias f4 [256]
0.032414243 -0.049840316 -0.031098595 -0.0027684122 0.044667456 0.01777897 -0.0368488 0.019164592
-0.039597273 0.04675805 -0.021796197 -0.05191166 -0.017603343 0.014259173 -0.007969476 0.041092
-0.05452103 0.01155867 0.02397196 0.05540637 0.036010407 0.016799655 0.02105152 0.042865865
0.018818356 -0.021228187 -0.03877306 -0.036285803 -0.009075993 -0.061655387 -0.04139112 0.056634836
0.02059895 0.037505493 -0.028068874 -0.03417026 -0.016231693 0.05483917 -0.0017480254 -0.015407272
0.008184113 -0.029996058 0.00033145398 -0.052239582 0.044005148 -0.061841015 -0.0012513027 -0.046300285
-0.014020652 0.046616085 -0.03840466 -0.029897656 -0.004005663 0.022670291 -0.035301797 0.012674674
-0.015333972 0.036498643 -0.016476512 0.013947383 -0.009549394 -0.04265505 0.026026439 0.025671802
0.049917623 -0.021405987 0.04479579 -0.033753127 0.03907831 -0.02722285 -0.018705525 0.007875991
0.019807428 0.056443714 -0.033382233 -0.05907441 -0.011412732 -0.03769898 0.046807103 -0.028570704
0.021769203 0.019115068 0.009631626 0.014219612 0.025736773 0.02379797 0.034020398 0.017423911
0.007913563 0.028212894 0.029178513 -0.041854583 0.049881436 0.0007495784 -0.012077965 0.046682827
0.0039813286 -0.04069754 0.04438114 0.011202656 0.015376286 0.024689898 -0.032594346 -0.046803556
-0.043493807 -0.04018674 0.00924798 -0.02654165 0.004497486 -0.025707409 -0.04619769 0.048704617
-0.024110835 0.02190619 -0.022343453 -0.024132878 -0.023235478 0.02764651 0.006280694 -0.04001228
-0.06058946 -0.0653143 0.038558867 -0.044288293 -0.054598503 -0.015168823 0.0010302314 -0.007128261
-0.009443526 0.036271267 0.053849377 0.04235684 -0.010666573 0.03066814 -0.01274164 0.028114878
0.025682114 -0.014716649 -0.016243326 0.0044471547 0.012135571 -0.009922201 0.045791324 -0.053490315
-0.01247966 -0.022412822 -0.02225196 -0.051623352 0.06214363 -0.05769141 -0.046475492 -0.014696301
0.025553884 0.020320706 -0.01788275 0.029427342 -0.051284257 -0.031842582 0.0059028855 -0.014046818
-0.038845353 -0.04506639 -0.060020708 -0.03986159 -0.029747676 -0.05824705 0.00053878396 -0.020440206
0.048352532 -0.0063378513 0.03962551 0.049688566 0.05246953 0.024798296 -0.009299681 -0.039701827
0.034025103 0.015234665 0.060418777 -0.053548206 -0.04043298 0.019297667 -0.057434686 -0.03656844
-0.016482238 0.015855223 0.029384576 -0.057782177 0.052479167 -0.0043350095 0.060837366 0.033658836
0.026016258 -0.042743485 0.03340427 0.022075787 0.050777256 0.03181829 -0.00583433 -0.020323113
0.0045417566 -0.041860513 0.048400283 -0.038448583 0.041237712 -0.015209298 0.025436783 -0.018242251
0.015806662 0.009296685 -0.019072404 0.011284269 0.035586983 -0.058791418 -0.02263983 0.029031185
-0.060994152 -0.0011247336 0.0023968848 0.009092763 -0.003443092 -0.034181673 -0.044496484 0.042380966
0.055392362 -0.049998116 0.014415249 -0.04251725 0.045803487 0.03318382 0.033142775 0.014774203
-0.022179691 0.054685254 -0.037518587 0.055737436 -0.054701235 0.019106442 0.041380968 -0.02785676
-0.042915285 0.040767003 0.055027716 -0.04096505 -0.05008974 0.00981243 -0.05277794 0.051296283
-0.05216693 -0.0040123356 0.040280484 0.0243029 -0.011977412 -0.03719931 -0.061615013 0.043901518
00000000: ccc4 043d 5c25 4cbd 7bc2 febc 406e 35bb
00000010: 39f5 363d 34a5 913c c4ee 16bd 10ff 9c3c
00000020: c030 22bd 5e85 3f3d f08d b2bc 52a1 54bd
00000030: e334 90bc 4e9f 693c 6892 02bc 1650 283d
00000040: 7251 5fbd 9360 3d3c d860 c43c caf1 623d
00000050: a67f 133d 6e9f 893c 3d74 ac3c 1e94 2f3d
00000060: f428 9a3c bce6 adbc 80d0 1ebd 6ca0 14bd
00000070: 79b3 14bc 5c8a 7cbd bc89 29bd eef9 673d
00000080: 21bf a83c 5c9f 193d b2f0 e5bc 1df6 0bbd
00000090: 54f8 84bc 0a9f 603d 001e e5ba c86e 7cbc
000000a0: a816 063c 4bba f5bc 00c7 ad39 2cf9 55bd
000000b0: be3e 343d 014d 7dbd c002 a4ba 5ea5 3dbd
000000c0: e0b6 65bc 82f0 3e3d 344e 1dbd eeeb f4bc
000000d0: f041 83bb 0cb7 b93c 9e98 10bd 70a9 4f3c
000000e0: 573b 7bbc 9a7f 153d c0f9 86bc 9083 643c
000000f0: 1075 1cbc 10b7 2ebd 6635 d53c ac4d d23c
00000100: 6c76 4c3d 9c5b afbc ca7b 373d b840 0abd
00000110: 9410 203d 7402 dfbc 543c 99bc 4d0a 013c
00000120: 3043 a23c 8631 673d cfbb 08bd 02f8 71bd
00000130: 78fc 3abc 3f6a 1abd ceb8 3f3d 1c0d eabc
00000140: 5455 b23c 3497 9c3c f8cd 1d3c 60f9 683c
00000150: edd5 d23c f6f3 c23c f958 0b3d 97bc 8e3c
00000160: e4a7 013c ba1e e73c c707 ef3c b66f 2bbd
00000170: 7a50 4c3d 5b7f 443a a8e2 45bc 7e36 3f3d
00000180: ce75 823b 77b2 26bd 00c9 353d 588b 373c
00000190: d1ec 7b3c 7842 ca3c a681 05bd 16b5 3fbd
000001a0: 9026 32bd da9a 24bd d784 173c e06d d9bc
000001b0: a65f 933b 5898 d2bc ca39 3dbd 7e7e 473d
000001c0: 1684 c5bc 9c74 b33c 9e09 b7bc 50b2 c5bc
000001d0: 5458 bebc ef7a e23c 48ce cd3b ebe3 23bd
000001e0: a72c 78bd 81c3 85bd e7ef 1d3d a467 35bd
000001f0: aea2 5fbd a886 78bc d408 873a 3094 e9bb
00000200: 05b9 1abc 2e91 143d 2a91 5c3d 5e7e 2d3d
00000210: dac2 2ebc c03b fb3c 50c2 50bc 2c51 e63c
00000220: 4c63 d23c 1a1e 71bc b910 85bc 70b9 913b
00000230: 46d4 463c ba90 22bc af8f 3b3d a918 5bbd
00000240: 7d77 4cbc 189b b7bc be49 b6bc 0273 53bd
00000250: 528a 7e3d d44d 6cbd 165d 3ebd c1c8 70bc
00000260: 6156 d13c 9c77 a63c d87e 92bc 9c11 f13c
00000270: 710f 52bd 5e6d 02bd fe6c c13b a024 66bc
00000280: 4e1c 1fbd 8997 38bd 46d8 75bd e845 23bd
00000290: 66b1 f3bc 7594 6ebd 2e3d 0d3a 3872 a7bc
000002a0: 4e0d 463d c0ad cfbb 5c4e 223d 3d86 4b3d
000002b0: 4aea 563d cc25 cb3c b05d 18bc 629e 22bd
000002c0: e85d 0b3d d19a 793c ae79 773d 5d55 5bbd
000002d0: 0d9d 25bd 2416 9e3c a240 6bbd cac8 15bd
000002e0: c205 87bc d0e2 813c ecb7 f03c 01ad 6cbd
000002f0: 65f4 563d b20c 8ebb 9a30 793d d9dd 093d
00000300: 0c20 d53c cb13 2fbd ead2 083d 48d8 b43c
00000310: d0fb 4f3d e553 023d e82d bfbb a87c a6bc
00000320: 04d3 943b ee75 2bbd 603f 463d 437c 1dbd
00000330: e0e8 283d 6b30 79bc cd60 d03c c670 95bc
00000340: f97c 813c 2051 183c bb3d 9cbc a8e1 383c
00000350: a8c3 113d 45cf 70bd 2a77 b9bc cfd2 ed3c
00000360: 01d5 79bd cc6b 93ba 0e15 1d3b d0f9 143c
00000370: 80a5 61bb 1502 0cbd f241 36bd aa97 2d3d
00000380: 1ae3 623d d3ca 4cbd f02d 6c3c 9126 2ebd
00000390: 709c 3b3d c2eb 073d b8c0 073d 800f 723c
000003a0: 2fb2 b5bc a5fd 5f3d 17ad 19bd f04c 643d
000003b0: 670e 60bd 1d85 9c3c 177f 293d dc33 e4bc
000003c0: f0c7 2fbd 4dfb 263d be64 613d f8ca 27bd
000003d0: e62a 4dbd 50c4 203c ae2d 58bd 0d1c 523d
000003e0: feac 55bd e979 83bb 26fd 243d e016 c73c
000003f0: e83c 44bc 4e5e 18bd 0660 7cbd 14d2 333d

V_heads.0.weight f4 [1, 256]
-0.0068259537 0.05072461 0.026797416 -0.05681915 -0.008803783 0.061346658 -0.052573774 0.0032903776
0.0568797 0.024266884 -0.0547785 0.04414916 0.0132103665 -0.053412117 0.0141360015 -0.052386723
0.051333264 0.011985611 -0.03339035 0.061660565 0.031594105 0.019309336 0.033248924 -0.03570272
0.041072264 -0.059215516 0.0077058896 -0.060460612 -0.012115203 -0.028373223 -0.018190503 -0.007128333
-0.037227117 0.020392112 0.011059696 0.04113805 0.0014503372 0.05726651 -0.04396276 -0.03403742
-0.0036110952 0.006184774 -0.022228405 0.037481744 -0.048056744 0.022103162 0.048916347 0.06017161
0.0027098954 -0.024055293 0.04118052 -0.037595153 -0.051985674 -0.062359028 0.006882707 0.023968946
0.042077947 -0.052622497 0.01621177 0.022328258 -0.019315094 0.04856713 0.0087501835 -0.045760237
0.006874551 0.0042828484 -0.049277022 0.04608496 0.044826858 -0.009772101 -0.02532024 -0.062007632
0.010829038 -0.04021019 0.021884877 0.0050633843 0.05917429 0.007250773 0.01085794 0.013443187
0.06212464 0.031771064 -0.040482678 0.013510503 -0.05214976 0.049175162 -0.043963507 -0.031837776
0.017810052 0.042704497 -0.053931355 -0.062141377 -0.0039013252 0.032415062 0.05619975 0.05528545
-0.033421323 0.024475701 0.03491389 -0.011292979 0.013523593 -0.04733311 -0.05338821 -0.024519257
0.036781117 -0.046110615 -0.022490961 -0.0077704266 -0.06491797 0.04273779 -0.049998865 0.054049276
-0.022026552 -0.008556642 -0.05722021 0.023760919 -0.06122885 0.00012038033 -0.03971421 0.032634724
-0.041859925 -0.026899561 0.001136817 -0.015596062 -0.0020792955 0.05556523 -0.014193796 0.031485803
-0.028600028 0.0012702091 0.056971423 0.01050289 -0.03279351 0.055166136 0.00063010305 -0.04340289
-0.025810212 0.05419718 -0.008226439 0.057916924 0.011600196 0.03615642 0.00052754965 0.06400185
-0.054824486 -0.048030853 0.034205005 -0.030303199 0.028780937 -0.0020732656 0.020548925 -0.013108555
0.032234203 -0.029250108 -0.007750561 0.04907808 0.00470481 -0.06232407 0.051324632 -0.0015649498
-0.051387392 0.02022518 0.053924605 -0.053124644 0.048928097 0.018275792 -0.042157512 0.051578015
0.00969182 0.003026861 -0.024717232 0.06103749 -0.034586184 0.054756247 0.04347971 -0.0022592905
0.006771907 0.00956675 0.0075383945 -0.041566744 0.026618887 -0.043714046 -0.050249424 0.046278663
0.0041976687 -0.028033964 -0.00623928 -0.04837558 0.0404084 -0.025468482 -0.05480761 -0.012315296
0.049322594 -0.02195431 0.032501988 0.040872514 0.034494203 -0.0025134545 -0.051639125 -0.05074322
-0.031165192 -0.045315802 0.018992173 0.011050454 0.018306945 0.049605124 0.012526467 -0.018473731
-0.012196675 0.040022492 -0.043503836 -0.025665209 -0.05175621 0.020110164 0.04912848 0.04151388
-0.014288037 0.00615763 -0.037791543 -0.015167936 -0.0040147454 -0.01941134 -0.04199838 0.040748656
-0.04228594 0.043607865 0.024132393 0.008962148 -0.0029163803 -0.018981509 0.055885017 0.01973482
0.033518363 0.03369226 0.042222805 0.02259674 0.0059927125 0.01373078 -0.0067195217 -0.0013965964
0.05687955 0.0073408238 -0.016206928 0.040093392 0.038200203 0.060603715 0.0009787157 -0.003658088
0.053082712 -0.047391944 -0.02295763 -0.003928239 0.02284732 0.05878231 -0.036205202 -0.030124724
00000000: 40ac dfbb 9cc4 4f3d 4186 db3c 32bb 68bd
00000010: be3d 10bc a246 7b3d 9957 57bd 60a3 573b
00000020: b0fa 683d 58cb c63c 6c5f 60bd c0d5 343d
00000030: 4b70 583c aac6 5abd b09a 673c 7693 56bd
00000040: d442 523d 4c5f 443c 52c4 08bd ca8f 7c3d
00000050: d268 013d 9d2e 9e3c 0630 083d 043d 12bd
00000060: 643b 283d f88b 72bd b081 fc3b 8ca5 77bd
00000070: d87e 46bc f66e e8bc 4004 95bc cb94 e9bb
00000080: 767b 18bd 5c0d a73c ba33 353c 5f80 283d
00000090: 3e19 be3a 4a90 6a3d 4c12 34bd d26a 0bbd
000000a0: 20a8 6cbb a5a9 ca3b 5818 b6bc 7586 193d
000000b0: 26d7 44bd b111 b53c 825c 483d 8276 763d
000000c0: 8098 313b 9b0f c5bc e8ac 283d 60fd 19bd
000000d0: eeee 54bd 2e6c 7fbd 5588 e13b 865a c43c
000000e0: ed59 2c3d b08a 57bd 8cce 843c c0e9 b63c
000000f0: b03a 9ebc 54ee 463d ee5c 0f3c 166f 3bbd
00000100: ea43 e13b 2357 8c3b b4d6 49bd 95c3 3c3d
00000110: 5e9c 373d 2a1b 20bc 646c cfbc b7fb 7dbd
00000120: 476c 313c 71b3 24bd ea47 b33c bfea a53b
00000130: be60 723d e497 ed3b 80e5 313c d040 5c3c
00000140: 6876 7e3d 6022 023d 2ad1 25bd 285b 5d3c
00000150: fd9a 55bd e56b 493d 1413 34bd 5468 02bd
00000160: 63e6 913c e9ea 2e3d 20e7 5cbd f587 7ebd
00000170: 60ad 7fbb a8c5 043d b631 663d ff72 623d
00000180: cce4 08bd 4481 c83c de01 0f3d 3006 39bc
00000190: 0f92 5d3c 5de0 41bd 98ad 5abd 9cdc c8bc
000001a0: cca7 163d 7cde 3cbd f73e b8bc 109f febb
000001b0: b6f3 84bd d20d 2f3d 9ccb 4cbd c662 5d3d
000001c0: 0771 b4bc 2831 0cbc bd5f 6abd 42a6 c23c
000001d0: 1acb 7abd b374 fc38 5eab 22bd fdab 053d
000001e0: 5075 2bbd 785c dcbc 4001 953a a086 7fbc
000001f0: ca44 08bb 5e98 633d 188d 68bc 42f7 003d
00000200: 9b4a eabc 257d a63a de5a 693d 5014 2c3c
00000210: 7d52 06bd e3f5 613d 802d 253a 3bc7 31bd
00000220: f06f d3bc ddfd 5d3d 30c8 06bc 4c3a 6d3d
00000230: c00e 3e3c c118 143d 424b 0a3a 6713 833d
00000240: a48f 60bd 00bc 44bd 8c1a 0c3d 6a3e f8bc
00000250: 00c6 eb3c a0df 07bb 3856 a83c 44c5 56bc
00000260: 0308 043d ec9d efbc 6bf8 fdbb 1906 493d
00000270: cf2a 9a3b 8647 7fbd c739 523d 001f cdba
00000280: 967b 52bd 47af a53c 0ce0 5c3d 3a99 59bd
00000290: d468 483d 1db7 953c 5bad 2cbd 7843 533d
000002a0: 70ca 1e3c 4d5e 463b cb7b cabc 7202 7a3d
000002b0: 3eaa 0dbd 1648 603d c817 323d 9b10 14bb
000002c0: e0e6 dd3b dcbd 1c3c a304 f73b e441 2abd
000002d0: da0f da3c 800d 33bd 57d2 4dbd b28e 3d3d
000002e0: 998c 893b 7ca7 e5bc e072 ccbb 7925 46bd
000002f0: 4783 253d 47a3 d0bc f27d 60bd 18c6 49bc
00000300: 7d06 4a3d 86d9 b3bc ce20 053d f069 273d
00000310: cb49 0d3d c5b8 24bb 8c83 53bd 1fd8 4fbd
00000320: 254e ffbc 109d 39bd 7995 9b3c f70c 353c
00000330: 72f8 953c be2e 4b3d d03b 4d3c 3956 97bc
00000340: 90d4 47bc a0ee 233d 1431 32bd d83f d2bc
00000350: 52fe 53bd 12be a43c f23a 493d 750a 2a3d
00000360: 5f18 6abc f2c5 c93b 4ecb 1abd ef82 78bc
00000370: 208e 83bb 8804 9fbc 7e06 2cbd 10e8 263d
00000380: 0634 2dbd 299e 323d 4cb1 c53c f9d5 123c
00000390: be20 3fbb 1c7f 9bbc b0e7 643d ebaa a13c
000003a0: 8d4a 093d e500 0a3d d2f1 2c3d cc1c b93c
000003b0: 845e c43b 11f7 603c 6f2f dcbb 000e b7ba
000003c0: 88fa 683d 4b8b f03b 64c4 84bc f838 243d
000003d0: d177 1c3d 9a3b 783d 4048 803a 88bc 6fbb
000003e0: 426d 593d 0e1e 42bd a411 bcbc 75b8 80bb
000003f0: 4e2a bb3c b8c5 703d e84b 14bd 20c8 f6bc

V_heads.1.weight f4 [1, 256]
0.024040893 -0.010935307 -0.023777606 0.026662849 0.036909826 -0.050744466 -0.042013396 0.021222845
-0.030197218 0.0475934 -0.050542876 0.03622006 0.061339725 -0.037482426 -0.05276669 0.0035702735
0.022921227 0.0010453479 0.021721907 -0.0003501475 -0.02158501 0.032556586 -0.024948515 0.00012611323
-0.057822634 -0.03614869 0.05862681 0.04671462 -0.005195754 0.002085487 -0.049695067 0.0009580601
0.03743305 -0.046707094 0.025107345 -0.047570862 0.041691743 -0.05831439 0.04621423 0.047892608
-0.06099432 -0.019406421 -0.022191063 0.00069690746 -0.01398389 0.042950474 0.0014491379 0.004780017
0.0050291494 -0.012388002 0.04216071 -0.013019844 0.035712056 -0.019114137 -0.02994296 0.059859335
-0.05073991 -0.00026393682 -0.046521433 0.058360085 0.018033639 0.009764433 -0.036496487 0.042471416
-0.025402911 0.046028063 0.0006092638 0.031233897 -0.020994117 -0.060428895 0.01894008 0.04347771
0.0367429 0.065648384 -0.03386691 -0.036492385 -0.0014509037 0.036951177 -0.054101072 0.0011986494
0.036252044 -0.049275167 -0.01068709 0.03257677 0.033735488 -0.058879048 0.044976357 0.0057560694
-0.03748612 -0.016786518 0.02418825 0.010971363 -0.032704465 0.040209606 0.033409268 -0.023971068
-0.025117058 -0.055225957 -0.04245367 -0.042687662 -0.023679342 0.05748715 0.0062166643 0.060997583
-0.0025147875 0.027830236 -0.014816523 0.024572372 0.044949062 0.051289633 0.044496782 0.034036346
-0.019234324 0.04496839 -0.050925076 -0.011001144 -0.0127017945 0.00053257647 -0.009433455 0.014807431
-0.04698209 0.009557744 0.048778176 -0.02622918 -0.018921318 -0.006977249 0.0045977784 -0.02961716
0.045342416 -0.044922054 -0.02268046 -0.06117613 -0.0037843792 -0.006171689 0.046724647 -0.03810894
0.024111956 -0.042514432 -0.040380392 0.018174246 0.017507829 0.03358435 -0.042626042 -0.042494766
-0.04622294 0.049790025 -0.00021485992 0.045143075 -0.002096571 -0.0073503405 -0.01154352 -0.04988842
-0.027152764 0.03145881 0.011871687 0.0022126718 -0.02982013 0.010646187 0.031078095 0.037060343
-0.022333428 -0.054048706 0.043626934 0.0066471696 0.023656098 -0.03819599 0.047572404 -0.008369297
0.03528925 0.032431986 0.05604353 -0.051374555 -0.040442254 0.029470958 -0.03853306 -0.041340616
0.022770137 -0.035586488 0.0591876 -0.015378983 -0.04365277 -0.033282503 0.008684508 0.053278446
0.002241383 -0.045192614 -0.05850985 0.05961529 -0.032464113 0.04191839 -0.010045417 0.0125116445
-0.0068278313 0.044861898 -0.06105168 0.02655651 -0.048485827 -0.0150532015 -0.049936756 0.025507944
-0.043540664 0.056283057 -0.028747024 -0.057195697 -0.047924828 0.025735166 -0.026633512 0.054552346
0.0441257 0.034910686 0.024561 -0.029435381 -0.05781038 0.051777147 -0.03044713 0.042946182
-0.057298094 -0.01640673 -0.012115826 -0.03356042 0.029308833 -0.0138646895 -0.015082449 -0.05721391
-0.007650249 -0.03305378 -0.0025632754 0.057201076 -0.052858006 -0.040672682 0.0098977685 -0.04276759
-0.026246294 -0.0066737235 0.0014946568 -0.005552262 -0.0040469714 0.006847996 -0.03453784 0.027879015
0.03356255 -0.046970066 0.036164783 -0.03920713 -0.019754034 -0.056084573 -0.016829118 -0.016108572
-0.05806036 -0.03686931 -0.00404083 0.061250832 -0.03710169 0.037104324 -0.014032289 0.018012263
00000000: 68f1 c43c 002a 33bc 41c9 c2bc 0c6c da3c
00000010: c22e 173d 6ed9 4fbd 3d16 2cbd 88db ad3c
00000020: 2860 f7bc 4cf1 423d 0c06 4fbd 7c5b 143d
00000030: 5d3f 7b3d 2c87 19bd e221 58bd 40fb 693b
00000040: 4cc5 bb3c 0e04 893a 24f2 b13c 0094 b7b9
00000050: 0cd3 b0bc 0e5a 053d d460 ccbc 433d 0439
00000060: 6dd7 6cbd a610 14bd aa22 703d d457 3f3d
00000070: 2541 aabb aaac 083b 0e8d 4bbd 5326 7b3a
00000080: 6653 193d f04f 3fbd ebad cd3c aad9 42bd
00000090: f6c4 2a3d 12db 6ebd 224b 3d3d 0a2b 443d
000000a0: 2ed5 79bd 37fa 9ebc 08ca b5bc abb0 363a
000000b0: b01c 65bc d6ec 2f3d 00f1 bd3a b0a1 9c3b
000000c0: 90cb a43b 0cf7 4abc b5b0 2c3d 2f51 55bc
000000d0: ce46 123d 4095 9cbc f04a f5bc 102f 753d
000000e0: a7d4 4fbd 0061 8ab9 428d 3ebd fc0a 6f3d
000000f0: 48bb 933c 00fb 1f3c 577d 15bd 82f6 2d3d
00000100: c419 d0bc ec87 3c3d 00b7 1f3a 3bde ff3c
00000110: dbfb abbc 4a84 77bd 3a28 9b3c af15 323d
00000120: b97f 163d a972 863d 07b8 0abd 0a79 15bd
00000130: 402c beba 1e5a 173d 1699 5dbd 001c 9d3a
00000140: 067d 143d c2d4 49bd e818 2fbc 386f 053d
00000150: 392e 0a3d 282b 71bd 2139 383d 699d bc3b
00000160: 0c8b 19bd e183 89bc 7026 c63c 3bc1 333c
00000170: 1ef5 05bd d4b2 243d 28d8 083d f95e c4bc
00000180: 4ac2 cdbc 9d34 62bd e6e3 2dbd 42d9 2ebd
00000190: 2efb c1bc a577 6b3d 29b5 cb3b 9ad8 793d
000001a0: 22cf 24bb 3cfc e33c 00c1 72bc 004c c93c
000001b0: 821c 383d 1415 523d 4242 363d b269 0b3d
000001c0: 4d91 9dbc c630 383d d096 50bd 243e 34bc
000001d0: 301b 50bc 9a9c 0b3a c78e 1abc de9a 723c
000001e0: 4b70 40bd 1598 1c3c a0cb 473d 94de d6bc
000001f0: e100 9bbc 68a1 e4bb f6a8 963b b09f f2bc
00000200: f8b8 393d 3000 38bd 5fcc b9bc d293 7abd
00000210: 5903 78bb e13b cabb 5862 3f3d 1f18 1cbd
00000220: 7086 c53c 9d23 2ebd e965 25bd 28e2 943c
00000230: 946c 8f3c be8f 093d a598 2ebd fe0e 2ebd
00000240: 4454 3dbd a0f0 4b3d 054c 61b9 f2e7 383d
00000250: a066 09bb 20db f0bb 0821 3dbc cd57 4cbd
00000260: 796f debc f4da 003d 7781 423c 7902 113b
00000270: 5849 f4bc 586d 2e3c 7d97 fe3c 96cc 173d
00000280: 98f4 b6bc 2d62 5dbd 28b2 323d 80d0 d93b
00000290: 6fca c13c 6673 1cbd 48db 423d 601f 09bc
000002a0: 768b 103d 67d7 043d e78d 653d 206e 52bd
000002b0: c7a6 25bd 146d f13c d8d4 1dbd c754 29bd
000002c0: 7088 ba3c 23c3 11bd b26e 723d 21f8 7bbc
000002d0: 3fcd 32bd 3c53 08bd 7749 0e3c 803a 5a3d
000002e0: 2be4 123b e41b 39bd 06a8 6fbd 2a2f 743d
000002f0: 17f9 04bd 9eb2 2b3d 8895 24bc a4fd 4c3c
00000300: 00bc dfbb 1cc1 373d 5411 7abd 0a8d d93c
00000310: 1399 46bd b4a1 76bc 7c8a 4cbd 09f6 d03c
00000320: b257 32bd 1089 663d e17e ebbc 0946 6abd
00000330: d34c 44bd 8ed2 d23c 862e dabc 4872 5f3d
00000340: 26bd 343d 82fe 0e3d 2634 c93c 7822 f1bc
00000350: 94ca 6cbd 4614 543d 426c f9bc 56e8 2f3d
00000360: 68b1 6abd 6867 86bc 7581 46bc a776 09bd
00000370: 1419 f03c b928 63bc 601c 77bc 2259 6abd
00000380: f1ae fabb 6763 07bd a0fc 27bb ad4b 6a3d
00000390: a381 58bd 6698 26bd 402a 223c 122d 2fbd
000003a0: 7802 d7bc 40af dabb 5ce8 c33a c0ef b5bb
000003b0: 759c 84bb 2765 e03b 8d77 0dbd 8862 e43c
000003c0: e278 093d af63 40bd 8621 143d a897 20bd
000003d0: 36d3 a1bc f0b8 65bd 38dd 89bc 20f6 83bc
000003e0: b3d0 6dbd 4604 17bd f068 84bb 27e2 7a3d
000003f0: f1f7 17bd b4fa 173d b0e7 65bc 748e 933c

V_heads.2.weight f4 [1, 256]
0.056383878 -0.057409957 0.022964314 -0.057021245 0.0009825141 -0.038684256 0.029213324 -0.009408735
0.045180492 -0.032819256 0.038387507 0.016418763 -0.020559836 0.016127003 0.036228634 -0.013491437
0.036634654 -0.0139391 0.039126813 0.054910153 0.012071818 0.039222345 0.032247294 0.0025293252
0.051107865 -0.048569776 0.019605003 -0.01608754 -0.03804931 -0.032269977 -0.050747707 -0.005555592
-0.03602265 -0.015004586 -0.05998499 0.0035275575 -0.030505368 -0.040985413 -0.031437643 -0.023722976
-0.03795001 -0.043927524 -0.0391557 0.049880806 0.015161239 0.0341261 -0.05962996 0.019064896
-0.013580836 -0.028937073 -0.014551314 0.024022099 0.003130503 0.058031768 -0.04992101 -0.051320136
0.0058494313 -0.020778827 0.0062178075 -0.061948605 -0.03295262 -0.012059276 0.043943834 -0.058372647
0.019935837 -0.005467551 0.038302742 0.0058001555 0.037121207 0.028532851 0.020889973 0.0072227926
0.03755435 -0.057210494 -0.057957146 -0.005200071 -0.03896576 0.05389338 -0.015618093 0.0053553805
-0.023805924 -0.0015107766 0.03530218 -0.042284958 0.04021989 0.038298927 -0.020608524 -0.05538799
0.024240801 0.0042987783 -0.042103436 0.039685667 -0.01882808 0.012547837 -0.052355506 0.05362538
0.061549637 0.022790533 -0.023311108 -0.03542777 -0.018080419 0.0302082 -0.017696004 -0.010247357
0.05406432 0.03002055 -0.05047372 0.024466738 -0.039596926 0.010316971 0.038033314 -0.018998414
0.011646693 0.038639784 0.010064413 0.04729469 -0.04917507 -0.062276017 -0.021640608 -0.027694562
0.05764108 0.009943107 -0.012381124 0.019727886 0.029698076 0.034978803 -0.00395492 -0.06031058
0.046881083 0.025454616 -0.05215362 0.059250355 0.04046598 -0.013172477 -0.036816478 -0.0023731336
-0.058643565 0.0026557052 0.050618313 0.011423543 0.042460293 0.0057475567 -0.0015727455 -0.01724744
-0.05384198 0.021765567 0.039645225 -0.01042198 0.03626048 -0.021701775 -0.015619427 0.057666097
-0.017808428 -0.04004038 0.06282695 0.042015545 -0.049727652 -0.046560973 0.042687826 0.0043768287
0.04326362 -0.04985508 -0.028906673 -0.048842013 0.03451543 0.045195322 0.019125301 0.036260113
0.023511186 0.040837858 -0.04169725 0.047427904 0.007975908 -0.061402775 0.011611678 -0.04766966
-0.052148163 -0.0153123075 -0.034393415 -0.04206827 0.03619998 0.008815177 0.0023505623 -0.04138572
0.046319664 -0.0507285 0.038185827 -0.05959447 -0.061569832 -0.003654968 -0.013203956 -0.004721187
0.041073382 -0.002320844 -0.010778263 -0.0651466 -0.02844138 -0.03336474 -0.011487811 -0.039385762
0.037646033 0.039647084 -0.059055865 0.05162024 0.009643571 -0.05528412 -0.017246353 -0.04819117
0.022111677 0.0583639 0.039125096 -0.0060265735 -0.061009668 -0.05065022 -0.029961072 0.045091573
0.032450017 -0.0098041 0.029352266 -0.05554118 -0.03358359 -0.04606257 -0.061263748 0.03545863
-0.049164765 0.052682843 -0.058774956 0.052515764 0.01829178 0.0316588 0.022654794 -0.024183927
0.0028168452 -0.010596368 -0.0061852243 -0.05258707 -0.014980433 0.0020309903 -0.0037537834 -0.019610688
-0.05063746 -0.06054546 0.033100322 -0.0041252524 0.0336144 -0.058335267 0.028579362 0.03765697
0.05902217 0.026713762 0.027431391 -0.047627572 0.060733907 0.041101776 -0.031525515 -0.053002268
00000000: c8f2 663d b426 6bbd a81f bc3c 1c8f 69bd
00000010: b4c7 803a 6273 1ebd c850 ef3c 1827 1abc
00000020: 2e0f 393d 7c6d 06bd 383c 1d3d a480 863c
00000030: 1a6d a8bc c71c 843c 7a64 143d 300b 5dbc
00000040: 380e 163d d360 64bc 7043 203d 78e9 603d
00000050: e0c8 453c 9ca7 203d bd15 043d 09c3 253b
00000060: 7b56 513d 1af1 46bd ac9a a03c 04ca 83bc
00000070: 98d9 1bbd 862d 04bd d4dc 4fbd af0b b6bb
00000080: 7c8c 13bd ccd5 75bc d2b2 75bd 982e 673b
00000090: 65e6 f9bc 52e0 27bd c2c4 00bd b056 c2bc
000000a0: 7871 1bbd 59ed 33bd ba61 20bd d14f 4c3d
000000b0: d866 783c cfc7 0b3d 8c3e 74bd fc2d 9c3c
000000c0: 2882 5ebc 710d edbc a268 6ebc fec9 c43c
000000d0: 2029 4d3b b8b2 6d3d f979 4cbd 1035 52bd
000000e0: 96ac bf3b 5c38 aabc c0be cb3b d2bd 7dbd
000000f0: 54f9 06bd 4594 45bc 73fe 333d 2818 6fbd
00000100: 7b50 a33c 2429 b3bb 56e3 1c3d 3b0f be3b
00000110: 680c 183d babd e93c 7321 ab3c 2dad ec3b
00000120: 97d2 193d 8d55 6abd 7964 6dbd 5b65 aabb
00000130: 909a 1fbd 4ebf 5c3d 08e3 7fbc 307c af3b
00000140: a404 c3bc 4005 c6ba 0599 103d fe32 2dbd
00000150: 9dbd 243d 56df 1c3d 35d3 a8bc 84de 62bd
00000160: a594 c63c c4dc 8c3b a774 2cbd 708d 223d
00000170: 583d 9abc 7195 4d3c ba72 56bd 49a6 5b3d
00000180: 791b 7c3d 36b3 ba3c f0f6 bebc b61c 11bd
00000190: 631d 94bc 3077 f73c 36f7 90bc 88e4 27bc
000001a0: 8c72 5d3d a8ed f53c 88bd 4ebd 786e c83c
000001b0: 6330 22bd 8308 293c d2c8 1b3d 90a2 9bbc
000001c0: c5d1 3e3c c044 1e3d 35e5 243c 14b8 413d
000001d0: cc6b 49bd 2315 7fbd a547 b1bc b5df e2bc
000001e0: 0e19 6c3d 6ae8 223c 33da 4abc 609c a13c
000001f0: 6149 f33c ef45 0f3d 4698 81bb 3a08 77bd
00000200: 6106 403d 3386 d03c 099f 55bd 80b0 723d
00000210: a8bf 253d 5fd1 57bc e0cc 16bd 9386 1bbb
00000220: 3c34 70bd 570b 2e3b 2655 4f3d d029 3b3c
00000230: d8ea 2d3d 0056 bc3b 9524 ceba 814a 8dbc
00000240: 6889 5cbd b44d b23c 0863 223d f4c0 2abc
00000250: de85 143d ecc7 b1bc a0e8 7fbc 4933 6c3d
00000260: fbe2 91bc 6201 24bd 6aab 803d 7e18 2c3d
00000270: 39af 4bbd b8b6 3ebd 6ed9 2e3d 806b 8f3b
00000280: 3235 313d d734 4cbd b0cd ecbc 900e 48bd
00000290: 0d60 0d3d bb1e 393d aaac 9c3c 7c85 143d
000002a0: 889a c03c 9945 273d bcca 2abd c343 423d
000002b0: 62ad 023c 7a81 7bbd e83e 3e3c 4341 43bd
000002c0: 5099 55bd 79e0 7abc 1ce0 0cbd c74f 2cbd
000002d0: 6e46 143d 886d 103c e40b 1a3b 1384 29bd
000002e0: b0b9 3d3d b0c8 4fbd be68 1c3d 5519 74bd
000002f0: a630 7cbd 3088 6fbb 6855 58bc 30b4 9abb
00000300: 903c 283d 4d19 18bb 5097 30bc 956b 85bd
00000310: e6fd e8bc 77a9 08bd 5f37 3cbc f752 21bd
00000320: ba32 1a3d fb64 223d 90e4 71bd bf6f 533d
00000330: 1200 1e3c 9a71 62bd 3948 8dbc 1b64 45bd
00000340: 8c23 b53c fc0e 6f3d a341 203d 907a c5bb
00000350: 46e5 79bd 9b76 4fbd ec70 f5bc f1b1 383d
00000360: 4fea 043d 60a1 20bc 2a74 f03c 267f 63bd
00000370: f28e 09bd 1bac 3cbd b2ef 7abd 123d 113d
00000380: fe60 49bd f7c9 573d 02be 70bd c51a 573d
00000390: a5d8 953c a8ac 013d 8c96 b93c 5f1d c6bc
000003a0: d29a 383b 649c 2dbc 6cad cabb 8a65 57bd
000003b0: 7d70 75bc 5d1a 053b 0902 76bb 98a6 a0bc
000003c0: 3a69 4fbd 84fe 77bd 3494 073d 202d 87bb
000003d0: 41af 093d f6f0 6ebd 441f ea3c 323e 1a3d
000003e0: 3bc1 713d d2d6 da3c ccb7 e03c 2115 43bd
000003f0: 1ec4 783d 565a 283d e620 01bd e818 59bd
