results/ppo/models/ppo_ckpt_150.pt (torch, 303145 bytes, 19 tensors)

shared.0.weight f4 [256, 11]
0.22577475 0.24796332 -0.07063581 0.27321908 -0.07081468 0.059719086 -0.14825217 0.1755068
0.25124055 -0.22745691 0.261826 0.048918933 0.21924987 0.04083386 0.1400597 -0.05019265
0.22970691 0.041656964 -0.14389251 0.04362335 -0.15124056 -0.03607785 -0.1231062 0.19234535
-0.23800406 -0.144851 -0.06855527 -0.1899704 0.019452414 -0.30609283 0.28259555 -0.2531547
0.22398177 0.050177276 -0.097902104 0.18631893 0.046990782 0.24361014 0.03296113 -0.095088586
0.081011176 -0.081763685 0.12689331 0.26919603 0.17429152 -0.13181248 0.17405185 0.053948283
0.15311801 -0.18377268 -0.29846862 -0.11649208 -0.23126608 0.24740177 0.08684471 0.1098138
0.07161752 -0.0052450895 0.21137072 -0.24086508 -0.002171341 -0.22677553 0.07097968 -0.115113124
0.082673945 -0.07831891 0.25007105 -0.17870635 -0.17982076 -0.17983162 0.2711922 0.10047901
0.29012948 -0.24883015 -0.2990619 -0.23589155 -0.2028234 0.10956963 0.096568145 0.2505331
-0.16954355 -0.21872362 0.14968647 -0.13222435 0.17186047 -0.09466697 0.15879972 -0.24227588
-0.1607306 0.089726344 0.06374177 -0.08164134 0.1742583 0.20304753 -0.2208748 -0.16324925
0.2488654 -0.114753745 -0.10629339 -0.29174075 -0.17266656 0.075318635 -0.039797425 -0.21886286
0.0070724487 -0.20595682 -0.25580123 -0.16603103 -0.26388636 -0.19198376 0.29083142 0.054257892
0.09291366 -0.2856272 -0.20498447 -0.10259545 0.044626504 -0.2681564 -0.15890859 -0.18159778
-5.470545e-06 -0.112193346 -0.020893455 -0.20431304 -0.20695594 -0.17590226 -0.10320656 -0.23797715
0.25280815 -0.05983916 0.25941938 0.09394553 -0.28739285 0.18299833 -0.08295928 -0.14062454
-0.24054225 -0.32781422 0.05733596 -0.09479518 0.11247232 -0.21951732 0.19536886 -0.22132553
-0.052062973 0.06297657 0.15565577 0.24341321 0.27466452 -0.23907502 0.07588053 -0.12968786
-0.03304106 -0.22567827 0.27463424 -0.2212944 0.16114312 0.10596302 0.09797791 -0.16301097
0.27405918 0.06625724 0.03878644 -0.26570833 0.126571 -0.04523292 -0.13812967 0.25898212
0.06722158 -0.16681913 -0.15260662 -0.014398903 0.16835228 -0.07704635 -0.1720348 -0.103250414
-0.23558062 0.09728954 0.23338193 -0.29306024 0.067138895 0.1460439 0.04521968 -0.11663343
0.13896258 0.14543189 0.101340845 -0.052982002 -0.079840586 0.032255948 -0.053263217 -0.089850694
0.19272813 0.25911874 -0.029848814 -0.067507446 0.0043997467 -0.018002719 0.0692284 0.07491793
-0.27384973 -0.12070986 0.26558632 0.10527104 -0.026977748 -0.19320805 -0.15898602 -0.26102847
-0.107357346 0.10583227 0.1898217 0.13920698 -0.2669157 -0.16694069 -0.050609984 0.28877428
0.041024253 -0.057646304 0.12970582 -0.11916887 -0.20809971 0.21672255 -0.13709775 -0.06652771
-0.30225497 0.19777188 0.22404969 0.10539967 -0.24726366 -0.3047299 -0.24560966 0.22982398
0.13297208 0.25372314 0.14958906 0.080075346 -0.012024605 -0.23846537 -0.26791173 -0.25436902
0.12233751 -0.16061722 -0.060679942 -0.17352137 -0.054942474 -0.2122142 -0.19701225 0.10001457
-0.08960809 0.18613598 -0.09672749 -0.22117884 -0.053198338 -0.14615685 -0.09224486 -0.2870375
00000000: 7f31 673e 19ea 7d3e 82a9 90bd 5fe3 8b3e
00000010: 4907 91bd 009c 743d 6bcf 17be 0eb8 333e
00000020: 9aa2 803e 77ea 68be 0f0e 863e 385f 483d
00000030: 0a83 603e 6841 273d cf6b 0f3e cf96 4dbd
00000040: 4a38 6b3e 7ea0 2a3d 8f58 13be 66ae 323d
00000050: cede 1abe 5ec6 13bd 1a1f fcbd 2ef6 443e
00000060: 56b7 73be d253 14be b566 8cbd 9a87 42be
00000070: ab5a 9f3c 33b8 9cbe 5db0 903e 7e9d 81be
00000080: 7a5b 653e b086 4d3d e680 c8bd 64ca 3e3e
00000090: 6879 403d f074 793e 4002 073d cebd c2bd
000000a0: 30e9 a53d b873 a7bd 52f0 013e 10d4 893e
000000b0: 7a79 323e daf9 06be a63a 323e e0f8 5c3d
000000c0: f8ca 1c3e e82e 3cbe e1d0 98be 6693 eebd
000000d0: 04d1 6cbe e456 7d3e a4db b13d 0fe6 e03d
000000e0: 35ac 923d 00df abbb 9171 583e 56a5 76be
000000f0: 0f4d 0ebb d837 68be cb5d 913d 6ec0 ebbd
00000100: f550 a93d aa65 a0bd 5009 803e ccfe 36be
00000110: ef22 38be c825 38be b4d9 8a3e f0c7 cd3d
00000120: da8b 943e 55cd 7ebe a41e 99be 8e8d 71be
00000130: f0b0 4fbe 0b66 e03d 85c5 c53d e045 803e
00000140: d39c 2dbe 16f9 5fbe 6947 193e d265 07be
00000150: 31fc 2f3e c2e0 c1bd 659c 223e 2b17 78be
00000160: 9096 24be 72c2 b73d 0c8b 823d 9333 a7bd
00000170: c570 323e b1eb 4f3e 012d 62be d02a 27be
00000180: 92d6 7e3e 0304 ebbd 59b0 d9bd 0b5f 95be
00000190: 81cf 30be a840 9a3d a002 23bd 961d 60be
000001a0: 00c0 e73b 58e6 52be 61f8 82be 0a04 2abe
000001b0: 1d1c 87be 6497 44be dbe7 943e 863d 5e3d
000001c0: 8449 be3d ba3d 92be 73e7 51be 901d d2bd
000001d0: 48ca 363d cc4b 89be efb8 22be c5f4 39be
000001e0: a08f b7b6 a0c5 e5bd c028 abbc 7037 51be
000001f0: 42ec 53be b91f 34be f65d d3bd 48b0 73be
00000200: 1270 813e e819 75bd 9ed2 843e 8466 c03d
00000210: 2825 93be ea63 3b3e 8ee6 a9bd e1ff 0fbe
00000220: b550 76be 44d7 a7be 1dd9 6a3d fa23 c2bd
00000230: e357 e63d 26c9 60be c60e 483e 29a3 62be
00000240: fc3f 55bd dcf9 803d 3a64 1f3e 5041 793e
00000250: d4a0 8c3e 15d0 74be 4067 9b3d e5cc 04be
00000260: 1056 07bd 3418 67be dc9c 8c3e 009b 62be
00000270: b402 253e 2403 d93d a4a8 c83d 59ec 26be
00000280: 7c51 8c3e e0b1 873d 88de 1e3d ec0a 88be
00000290: d49b 013e 2846 39bd dd71 0dbe 4e99 843e
000002a0: 78ab 893d a2d2 2abe e944 1cbe 60e9 6bbc
000002b0: 8a64 2c3e 7aca 9dbd e429 30be f474 d3bd
000002c0: 0c3c 71be bd3f c73d acfb 6e3e fe0b 96be
000002d0: 1e80 893d 888c 153e 4538 393d 82dd eebd
000002e0: 354c 0e3e 19ec 143e ca8b cf3d a803 59bd
000002f0: 7683 a3bd d01e 043d 882a 5abd a403 b8bd
00000300: 865a 453e 36ab 843e 8085 f4bc 5841 8abd
00000310: c02b 903b 707a 93bc 9fc7 8d3d 926e 993d
00000320: 0836 8cbe bb36 f7bd eefa 873e 5898 d73d
00000330: 7000 ddbc 55d8 45be 3bcd 22be 86a5 85be
00000340: 2bde dbbd 97be d83d 9f60 423e 468c 0e3e
00000350: 2da9 88be 80f2 2abe 6a4c 4fbd 39da 933e
00000360: 0c09 283d 881e 6cbd 9ad1 043e cf0e f4bd
00000370: 1718 55be 84ec 5d3e 5a63 0cbe ae3f 88bd
00000380: 2ac1 9abe b684 4a3e 486d 653e c8db d73d
00000390: af32 7dbe 8f05 9cbe 1981 7bbe fa56 6b3e
000003a0: d529 083e 00e8 813e e02d 193e 8bfe a33d
000003b0: d902 45bc 4430 74be ba2b 89be a83c 82be
000003c0: 178c fa3d d778 24be 888b 78bd 96af 31be
000003d0: 5c0b 61bd ae4e 59be 94bd 49be 70d4 cc3d
000003e0: 7284 b7bd 6e9a 3e3e 1019 c6bd b57c 62be
000003f0: 80e6 59bd 24aa 15be e0ea bcbd 94f6 92be

shared.0.bias f4 [256]
0.2077384 -0.1625065 -0.14004995 0.23150271 0.11780012 -0.1958646 0.0913122 0.1381859
-0.27257043 0.05632451 0.06447519 -0.011743009 0.26411384 -0.19929174 0.1634543 -0.1601678
-0.26731664 0.20548558 -0.15407306 0.013775293 0.15248342 -0.2600013 -0.25809038 0.10265285
0.2616052 -0.031904697 0.20713486 0.10595128 0.08059426 -0.19223517 0.2750107 0.13810444
0.01906168 0.18211707 -0.2590668 0.06497085 -0.14557041 -0.030617744 0.09878507 0.11434066
0.057774585 -0.2333556 -0.18869561 0.0052645504 -0.052219138 -0.25413993 0.2970388 0.026317442
-0.21657641 0.13223866 0.12819996 -0.15184344 0.13888133 -0.19569421 0.10446802 0.28640717
0.19903696 0.14885283 -0.061342865 0.029715883 0.10347164 0.064351626 -0.06456285 0.0403399
-0.12212147 -0.1710639 -0.27824563 -0.25217947 -0.19493042 0.28821176 0.056648403 -0.27869678
-0.15412325 0.07042685 -0.09024423 -0.090042375 -0.11322199 -0.078248166 0.034108263 0.017854959
0.16720486 0.19295019 0.24912924 -0.018323658 -0.13463077 0.0010288656 -0.19966513 0.119574726
-0.03637746 -0.10494726 -0.278059 0.14530328 0.15532832 0.2646094 -0.11309884 0.07777181
0.011365354 -0.1930846 -0.18848945 0.14979135 -0.1838061 0.21955562 0.10533583 0.09549146
0.19856799 0.14159217 0.117660575 0.14458023 -0.13581732 -0.15988587 -0.05523731 0.16437133
0.20218346 0.2210277 -0.102157 -0.03825718 -0.21810447 0.1837378 -0.2089077 -0.1294711
0.24517246 0.06866848 -0.13282484 -0.21749164 -0.20734152 0.23232205 -0.28778523 0.26054478
0.23748542 0.012892018 -0.026602576 0.234492 0.12858953 0.28508234 0.23973855 -0.20354061
0.1627825 0.14045389 -0.21407677 0.13344242 -0.18555427 -0.19646299 0.0056250095 -0.04167147
-0.08904311 -0.1977334 0.15897779 0.28179508 -0.071692325 -0.20579202 -0.015547186 -0.26836425
-0.2695097 -0.10650863 0.18944103 -0.24552229 -0.048116177 -0.16353579 -0.28387505 -0.07078217
-0.017563343 -0.050696373 0.20249923 0.12077406 0.1877194 0.118098736 0.031633824 0.15681165
-0.19234905 0.15019773 0.14314212 -0.12968323 -0.010348052 -0.23765357 -0.27569985 -0.01725211
0.053987205 -0.0711804 0.08904911 -0.2424079 -0.18789697 0.20393737 -0.29342243 0.04734373
0.22999099 0.22603923 0.08565177 -0.2746469 0.037528984 -0.106028974 -0.088706024 0.23101574
-0.116043925 -0.21708597 -0.24562371 0.1726545 0.0060511706 0.29165506 0.03385271 -0.28098407
0.074596226 0.2758962 0.18700626 0.08355669 -0.22652669 -0.18079662 0.20473051 -0.21343446
0.051040627 -0.038630545 0.10103062 0.017785508 -0.2344881 -0.12633546 0.25339976 0.033974122
0.14015397 -0.15941975 0.23868865 -0.064542696 -0.10162856 0.06116295 -0.108035535 -0.12116219
-0.043144852 -0.022004811 -0.18001537 0.099295184 -0.2922195 0.18318276 0.2796408 0.04877937
-0.070450634 -0.2761545 0.14159048 0.24652402 0.24221897 0.025299927 0.100240946 0.2844334
0.033243768 -0.15570264 -0.2862634 0.13182405 0.11612901 0.25805432 -0.15350103 0.12355886
-0.09975633 -0.08472771 0.174312 -0.2763888 0.22225523 0.14023247 -0.178397 0.14585382
00000000: 60b9 543e 1b68 26be 4169 0fbe 0c0f 6d3e
00000010: 3041 f13d bb90 48be e401 bb3d 9b80 0d3e
00000020: 5a8e 8bbe 88b4 663d 920b 843d c065 40bc
00000030: ee39 873e 2213 4cbe 9060 273e 0703 24be
00000040: badd 88be d06a 523e 54c5 1dbe c4b1 613c
00000050: 9d24 1c3e e41e 85be 6c24 84be a83b d23d
00000060: 1ef1 853e 80ae 02bd 291b 543e fcfc d83d
00000070: 9a0e a53d 4cd9 44be 34ce 8c3e 406b 0d3e
00000080: 3e27 9c3c e67c 3a3e 67a4 84be 700f 853d
00000090: 6910 15be 10d2 fabc d44f ca3d 702b ea3d
000000a0: 0ba5 6c3d c5f4 6ebe 6c39 41be 4082 ac3b
000000b0: bce3 55bd a11e 82be 7815 983e ad97 d73c
000000c0: 35c6 5dbe 9269 073e da46 033e d97c 1bbe
000000d0: e836 0e3e 1064 48be 54f3 d53d f6a3 923e
000000e0: 58d0 4b3e e06c 183e a842 7bbd b96e f33c
000000f0: f0e8 d33d c9ca 833d 8739 84bd 733b 253d
00000100: d21a fabd 602b 2fbe 3676 8ebe ab1d 81be
00000110: d79b 47be 7e90 933e 2808 683d 58b1 8ebe
00000120: 7cd2 1dbe f43b 903d f8d1 b8bd 2368 b8bd
00000130: eee0 e7bd 9340 a0bd 1bb5 0b3d 9044 923c
00000140: c037 2b3e bc94 453e bc1b 7f3e 7f1b 96bc
00000150: a6dc 09be 00db 863a 0475 4cbe 98e3 f43d
00000160: 8800 15bd 97ee d6bd c05d 8ebe 62ca 143e
00000170: 630e 1f3e e27a 873e 5da0 e7bd d446 9f3d
00000180: c035 3a3c f8b7 45be 6103 41be e762 193e
00000190: ab37 3cbe 30d3 603e 50ba d73d 0791 c33d
000001a0: 6855 4b3e 8afd 103e 07f8 f03d d70c 143e
000001b0: b213 0bbe 1fb9 23be 8440 62bd f550 283e
000001c0: 2e09 4f3e 1655 623e b037 d1bd 90b3 1cbd
000001d0: c756 5fbe c325 3c3e e6eb 55be 1294 04be
000001e0: 7d0e 7b3e 0fa2 8c3d 3c03 08be 21b6 5ebe
000001f0: 5651 54be d5e5 6d3e 9658 93be 2066 853e
00000200: 612f 733e 0b39 533c a5ed d9bc ac1e 703e
00000210: f9ac 033e 50f6 913e 067e 753e f36c 50be
00000220: 75b0 263e 25d3 0f3e f136 5bbe 21a5 083e
00000230: f001 3ebe 982d 49be 0052 b83b b4af 2abd
00000240: 3c5c b6bd a07a 4abe 13cb 223e 7247 903e
00000250: 6dd3 92bd 25bb 52be a0b9 7ebc 0a67 89be
00000260: 2dfd 89be 3221 dabd d4fc 413e 326a 7bbe
00000270: 7815 45bd ed75 27be 1258 91be 3ef6 90bd
00000280: 00e1 8fbc 00a7 4fbd f55b 4f3e 6458 f73d
00000290: 8439 403e c0dd f13d 7892 013d 3c93 203e
000002a0: 26f7 44be 6fcd 193e d993 123e aecb 04be
000002b0: e08a 29bc 755b 73be 8828 8dbe 4c54 8dbc
000002c0: b021 5d3d 08c7 91bd 615f b63d c739 78be
000002d0: 1068 40be f5d4 503e 773b 96be 80eb 413d
000002e0: c282 6b3e d476 673e 326a af3d 859e 8cbe
000002f0: feb7 193d b825 d9bd 81ab b5bd 648f 6c3e
00000300: 70a8 edbd c94b 5ebe c884 7bbe 57cc 303e
00000310: e648 c63b d053 953e 24a9 0a3d 25dd 8fbe
00000320: e8c5 983d 4442 8d3e 927e 3f3e c51f ab3d
00000330: 9df6 67be c022 39be e0a4 513e 908e 5abe
00000340: fa0f 513d 103b 1ebd 24e9 ce3d eab2 913c
00000350: a61d 70be 155e 01be 9dbd 813e 7328 0b3d
00000360: 8684 0f3e ee3e 23be cc6a 743e f62e 84bd
00000370: a222 d0bd 0086 7a3d bc41 ddbd e223 f8bd
00000380: a8b8 30bd 6f43 b4bc f355 38be 465b cb3d
00000390: cb9d 95be 4394 3b3e 142d 8f3e e0cc 473d
000003a0: 6c48 90bd 1f64 8dbe 18fd 103e cb70 7c3e
000003b0: 4008 783e cb41 cf3c 204b cd3d 41a1 913e
000003c0: 9e2a 083d 8370 1fbe 1e91 92be e2fc 063e
000003d0: 0cd5 ed3d b21f 843e 602f 1dbe 6d0c fd3d
000003e0: 0c4d ccbd b985 adbd d87e 323e d582 8dbe
000003f0: e096 633e 1a99 0f3e b4ad 36be b45a 153e

shared.2.weight f4 [256, 256]
-0.01572077 0.005624816 -0.016728655 -0.061194576 -0.0064729974 0.030494973 -0.0072716773 -0.0307758
0.0019803494 0.011405453 -0.017438479 -0.048467755 -0.03350895 -0.010189563 0.022508927 0.055579595
0.0011599287 0.022377633 0.035960697 -0.027253233 -0.020738557 0.041456617 0.04474926 0.014809929
-0.048298903 0.03547415 -0.05165594 0.031238899 0.0074071437 0.020188421 -0.060921744 -0.021973453
0.026543535 0.04810539 -0.017893158 0.05573436 -0.013947427 -0.037696652 -0.027065217 0.0038891882
-0.011108331 0.030250244 -0.034588866 -0.01777941 -0.061938316 0.051015206 -0.011760183 -0.049269505
-0.0030158833 -0.00011408329 0.017358012 -0.0068600625 0.039316446 -0.021563984 -0.01870691 -0.014841862
0.011158124 0.05007627 -0.0028758422 0.04808931 0.04909665 -0.03254062 -0.0053700134 -0.029503688
0.025998376 -0.021973066 0.019065619 0.0037340373 -0.04102909 -0.042018384 -0.061045304 -0.034961343
0.017459646 0.003807865 0.047006376 -0.05495715 -0.0018263608 -0.056040615 0.0003658533 0.022771038
-0.05606521 0.05519703 -0.019411936 0.05537726 -0.010490693 0.03545718 0.056817286 -0.022754595
-0.0151929185 0.03278309 -0.053508185 0.0369955 -0.03925708 0.05804771 -0.040960334 -0.025719464
0.04663659 -0.027211674 0.053571954 0.04300122 0.057125717 -0.060580127 0.0007004887 -0.020557098
0.014887728 -0.047190696 0.025628373 -0.0029608607 -0.029543042 -0.056225225 0.03269176 -0.022619076
0.04611727 0.0111259 0.01900877 -0.0094790235 -0.008657746 -0.021231852 -0.054118805 0.03929352
-0.03935881 0.03642735 -0.021080159 0.039154314 0.053563885 -0.038225383 0.051607847 0.0015232787
-0.04774569 0.025513232 0.035389952 0.05509448 -0.059495017 0.056435145 0.0473817 0.061485097
0.034062885 -0.030382067 0.04741323 0.05711981 -0.023898117 -0.010216273 0.048908263 0.05031141
0.041286662 0.047883265 -0.03211865 -0.01078219 -0.024969302 0.03248363 0.015575774 -0.048278317
-0.007850729 -0.050965942 -0.0588198 0.056976743 -0.031438813 0.027895607 -0.013917409 -0.012656204
-4.0367246e-05 0.048745476 -0.008646004 0.051716603 0.036569238 0.042875543 -0.05668377 -0.029224709
-0.05092027 -0.01327429 -0.012945123 0.012700237 0.05599817 0.02805657 -0.043491103 -0.03919646
0.047194093 0.006221503 0.01765655 -0.032689705 -0.0076218247 0.017794058 -0.041014083 0.04079134
0.031146504 -0.036448263 -0.025630057 -0.014693812 0.009726636 -0.022926249 0.059788823 -0.06020058
-0.03532497 -0.03793616 0.016898774 0.008869186 -0.017809756 0.053341128 -0.05395332 0.022028133
-0.034390725 -0.014231786 -0.060187526 -0.04665669 -0.053028077 0.02726712 -0.023469158 0.032693796
-0.033871807 -0.015485287 0.0075654387 0.052370287 -0.0168446 0.036232613 0.017241992 0.03801266
0.039481767 0.025363497 -0.018846706 -0.017541654 0.024331331 0.034065157 -0.003335841 0.031329714
-0.037601195 0.035228632 -0.00766968 -0.04301074 -0.030367754 -0.04773114 0.012607336 -0.037066296
-0.017897718 -0.0039159358 -0.038135044 0.0016048551 -0.007932037 0.019796379 0.045150474 -0.037729323
0.03417164 -0.0013241768 -0.03572218 -0.028344616 0.015908621 0.0130133405 -0.0020187646 -0.031115346
0.03151848 0.009273179 -0.06075819 -0.011045419 -0.01695703 -0.026669346 -0.03466861 -0.050703898
00000000: d8c8 80bc 6050 b83b 880a 89bc 2aa7 7abd
00000010: 701b d4bb 98d0 f93c 4047 eebb 881d fcbc
00000020: c0c8 013b f0dd 3a3c 24db 8ebc 2086 46bd
00000030: ae40 09bd 20f2 26bc a464 b83c 6ea7 633d
00000040: c008 983a 4c51 b73c 864b 133d 2c42 dfbc
00000050: e8e3 a9bc 6ace 293d 004b 373d 58a5 723c
00000060: 12d5 45bd 584d 113d 2e95 53bd b8e8 ff3c
00000070: a0b7 f23b 3062 a53c 1489 79bd ac01 b4bc
00000080: d471 d93c 280a 453d ac94 92bc b649 643d
00000090: c083 64bc ce67 1abd e0b7 ddbc c0e1 7e3b
000000a0: b8ff 35bc 5ccf f73c 0ead 0dbd 20a6 91bc
000000b0: 08b3 7dbd 52f5 503d c8ad 40bc d2ce 49bd
000000c0: 20a6 45bb 0040 efb8 6432 8e3c 60ca e0bb
000000d0: 480a 213d f4a6 b0bc 3c3f 99bc 482b 73bc
000000e0: 90d0 363c c61c 4d3d a078 3cbb 4cf9 443d
000000f0: 9219 493d 5049 05bd f0f6 afbb b8b1 f1bc
00000100: 8cfa d43c dc00 b4bc 802f 9c3c c0b6 743b
00000110: 1e0e 28bd 781b 2cbd a40a 7abd a033 0fbd
00000120: 8807 8f3c 608d 793b c289 403d c01a 61bd
00000130: 8062 efba d88a 65bd 00d0 bf39 548a ba3c
00000140: a2a4 65bd 4816 623d c805 9fbc 44d3 623d
00000150: 28e1 2bbc 8c3b 113d 3eb9 683d d867 babc
00000160: b8eb 78bc 9047 063d 662b 5bbd 9888 173d
00000170: 08cc 20bd 70c3 6d3d 06c6 27bd a0b1 d2bc
00000180: 0206 3f3d 04eb debc 446e 5b3d 0c22 303d
00000190: a8fc 693d de22 78bd 00a1 373a 5c67 a8bc
000001a0: a8eb 733c 084b 41bd 98f2 d13c 000b 42bb
000001b0: 4004 f2bc 6c4c 66bd cce7 053d a44b b9bc
000001c0: 76e5 3c3d 6849 363c 48b8 9b3c e84d 1bbc
000001d0: 38d9 0dbc 6cee adbc aeab 5dbd 3ef2 203d
000001e0: b436 21bd d834 153d 4cb0 acbc 4660 203d
000001f0: ce65 5b3d 3892 1cbd c062 533d c0a8 c73a
00000200: fc90 43bd 2001 d13c 0ef5 103d c0aa 613d
00000210: 0cb1 73bd 8a28 673d 5013 423d ccd7 7b3d
00000220: 8685 0b3d d0e3 f8bc 6034 423d 76f6 693d
00000230: fcc5 c3bc 2862 27bc 0854 483d 5613 4e3d
00000240: 341c 293d 3e21 443d d88e 03bd c8a7 30bc
00000250: 6c8c ccbc 8e0d 053d 8831 7f3c 7cbf 45bd
00000260: 58a0 00bc aac1 50bd 08ed 70bd 7260 693d
00000270: fcc5 00bd 5485 e43c d805 64bc f85b 4fbc
00000280: 0050 29b8 56a9 473d f8a7 0dbc cad4 533d
00000290: a0c9 153d 449e 2f3d 3e2d 68bd a868 efbc
000002a0: c691 50bd 687c 59bc c817 54bc a814 503c
000002b0: 565e 653d e4d6 e53c ba23 32bd 788c 20bd
000002c0: 984e 413d c0dd cb3b 78a4 903c a4e5 05bd
000002d0: 80c0 f9bb d8c4 913c 62fe 27bd d214 273d
000002e0: f426 ff3c c64a 15bd 20f6 d1bc 50be 70bc
000002f0: 785c 1f3c d4cf bbbc 20e5 743d e294 76bd
00000300: eab0 10bd f262 1bbd 4c6f 8a3c 1050 113c
00000310: c4e5 91bc 3a7c 5a3d 28fe 5cbd 5874 b43c
00000320: 4add 0cbd 702c 69bc 3287 76bd 161b 3fbd
00000330: f833 59bd 4c5f df3c 6442 c0bc eee9 053d
00000340: 2abd 0abd 00b6 7dbc 80e7 f73b 3a82 563d
00000350: b0fd 89bc a668 143d 143f 8d3c 2ab3 1b3d
00000360: a2b7 213d 1cc7 cf3c 6864 9abc 84b3 8fbc
00000370: 8052 c73c e887 0b3d 209e 5abb 9653 003d
00000380: b603 1abd e64b 103d f051 fbbb 082c 30bd
00000390: ccc5 f8bc ba81 43bd 008f 4e3c d4d2 17bd
000003a0: 3c9e 92bc 4051 80bb 7e33 1cbd 005a d23a
000003b0: 60f5 01bc 042c a23c b4ef 383d 108a 1abd
000003c0: 90f7 0b3d 0090 adba 6c51 12bd f832 e8bc
000003d0: cc52 823c e835 553c 404d 04bb 9ce5 febc
000003e0: 8619 013d 88ee 173c 94dd 78bd d8f7 34bc
000003f0: 78e9 8abc ac79 dabc ac00 0ebd e4ae 4fbd

shared.2.bias f4 [256]
-0.03673342 -0.04102909 0.042435266 -0.029773287 0.0005795308 0.057342403 0.0544309 0.045766126
-0.042151064 0.0041052094 0.00016369735 0.0011573657 0.060094185 0.035822514 -0.06146229 0.052547805
0.056305707 -0.04812307 -0.05187182 0.050031982 -0.019097405 -0.049610548 0.026123121 0.0034950974
0.03129273 -0.042554993 0.05371892 -0.024007715 -0.037144773 0.021345308 -0.050886244 -0.051623944
-0.011833787 0.006884006 -0.022275714 -0.005603143 -0.058454625 0.039080888 -0.006751263 0.00953459
0.03770989 0.033363663 0.047701977 0.035551332 0.01854295 -0.037608422 0.042636447 -0.012388147
0.026132913 0.05484734 -0.042359427 -0.008395749 -0.043856807 -0.004771538 -0.01572049 -0.043545745
-0.020585798 0.021438673 -0.045528397 -0.011226828 0.045478113 0.052716054 -0.05935792 0.040466774
0.009150825 0.018479407 0.03896939 0.049928233 -0.028982744 0.04717568 -0.0083550215 0.011474849
0.02392401 -0.06250938 -0.029544942 -0.06499365 0.011151187 0.0352895 -0.02432999 0.016704805
-0.009222476 -0.018894792 -0.042577 0.023036405 -0.0048522037 0.025305826 0.06010223 -0.048465334
-0.0055913166 -0.017486576 0.038951002 0.057467926 0.051096335 -0.002159756 0.011236902 -0.022701927
-0.06665821 -0.061169975 0.022655316 -0.04344068 -0.036171548 0.018288001 -0.05297896 0.039489023
0.04641188 -0.0039108694 0.016367078 0.047768332 0.023573503 -0.058456305 0.015973028 -0.064153895
-0.040664192 -0.06215111 -0.033752978 -0.0057526766 0.0040092915 0.0047733793 0.0027465 -0.05255676
0.010622587 -0.01583539 0.03910494 0.045365874 -0.003980458 0.0054856148 -0.03585752 0.026459761
0.053534638 0.016052812 0.019566724 -0.0047393222 -0.04123216 -0.012665548 -0.04116244 0.048566252
-0.03768783 -0.047233805 0.017049678 -0.023204941 -0.009954838 0.05980683 0.031601295 0.046735045
-0.012090991 -0.019694194 -0.045708816 0.013808265 0.041070037 -0.03885335 -0.026017621 0.049518585
-0.025970493 0.029332288 0.045049597 0.036513086 -0.03621352 -0.0076285545 0.044128984 0.05729735
0.03747324 -0.037492663 0.037769623 -0.01765748 0.057143044 -0.03869745 0.05982358 0.053457834
-0.0041375025 -0.031821623 -0.052601043 -0.0067278026 -0.032914862 -0.006771325 -0.053917557 0.01898425
0.042988464 0.008856199 0.014484025 0.04629927 0.024848053 -0.0375821 0.017543558 -0.013842027
-0.014889494 -0.022620156 0.029003188 -0.05791662 -0.05658867 0.022243261 -0.055825222 0.020832263
-0.022949763 0.0023021922 -0.028504478 0.03559675 -0.018010288 -0.019849725 0.019419614 -0.003843941
0.046988502 0.049430262 0.00094455207 -0.02346867 0.020211594 0.053728625 -0.004444329 0.018639125
-0.047033805 0.032196715 -0.014800139 -0.05942745 -0.011650406 0.024376752 -0.018273015 -0.027904447
-0.00934957 0.03828522 -0.040038235 -0.053276937 -0.032598868 -0.056892708 0.05156293 0.010901809
0.0103194285 0.018271433 0.013959765 -0.009580261 0.026061565 -0.06394492 -0.00077275187 -0.056819975
-0.012732709 -0.06240497 0.005695753 0.059202597 0.054723687 0.037594523 0.032120995 -0.055727974
0.049473986 0.03568879 -0.01151122 0.016790979 -0.010748841 0.024230026 0.012986679 0.015644616
0.02800402 -0.05727628 0.022398824 -0.032598328 -0.011290714 -0.06043876 -0.04909789 0.034826715
00000000: c875 16bd 1e0e 28bd 9ad0 2d3d 1ce7 f3bc
00000010: a7eb 173a dedf 6a3d eff2 5e3d 4375 3b3d
00000020: 98a6 2cbd fe84 863b 2ca6 2b39 c0b2 973a
00000030: 5225 763d a1ba 123d e2bf 7bbd 5e3c 573d
00000040: d0a0 663d b21c 45bd 8c77 54bd 56ee 4c3d
00000050: 2972 9cbc 6e34 4bbd 2800 d63c 010e 653b
00000060: ce2c 003d 254e 2ebd 5f08 5c3d d4ab c4bc
00000070: 1e25 18bd 5bdc ae3c 186e 50bd a173 53bd
00000080: 80e2 41bc 3a93 e13b 8f7b b6bc 929a b7bb
00000090: 1e6e 6fbd 4813 203d b339 ddbb f836 1c3c
000000a0: b075 1a3d 56a8 083d 2663 433d 469e 113d
000000b0: 62e7 973c 4a0b 1abd 8ea3 2e3d a8f7 4abc
000000c0: b114 d63c 9ba7 603d 1481 2dbd 538e 09bc
000000d0: 32a3 33bd 905a 9cbb 42c8 80bc 065d 32bd
000000e0: 8ca3 a8bc 28a0 af3c fc7b 3abd bbf0 37bc
000000f0: 4247 3a3d caec 573d 4a21 73bd 7dc0 253d
00000100: 58ed 153c 2062 973c 5e9e 1f3d 8c81 4c3d
00000110: 386d edbc 493b 413d 80e3 08bc 0101 3c3c
00000120: 49fc c33c eb04 80bd 3c08 f2bc 641b 85bd
00000130: 78b3 363c b98b 103d b04f c7bc 84d8 883c
00000140: de19 17bc 40c9 9abc 3865 2ebd d8b6 bc3c
00000150: 3cff 9ebb 2a4e cf3c c22d 763d 9683 46bd
00000160: 5d37 b7bb 0240 8fbc 168b 1f3d 7d63 6b3d
00000170: 644a 513d b18a 0dbb fc1a 383c 64f9 b9bc
00000180: 1984 88bd 5e8d 7abd a497 b93c dbee 31bd
00000190: 9e28 14bd b8d0 953c 7700 59bd 3ebf 213d
000001a0: 621a 3e3d c026 80bb 4014 863c baa8 433d
000001b0: 381d c13c e16f 6fbd ded9 823c 1e63 83bd
000001c0: 7f8f 26bd 2a92 7ebd 9040 0abd f380 bcbb
000001d0: 6060 833b 026a 9c3b a0fe 333b c245 57bd
000001e0: 5c0a 2e3c 38b9 81bc 802c 203d 91d1 393d
000001f0: 806e 82bb acc0 b33b 56df 12bd 24c2 d83c
00000200: 2347 5b3d 3081 833c 654a a03c 514c 9bbb
00000210: 0ee3 28bd 2983 4fbc f299 28bd 68ed 463d
00000220: 8e5e 1abd 3c78 41bd c4ab 8b3c 4a18 bebc
00000230: 9e19 23bc 02f8 743d 5c70 013d 3f6d 3f3d
00000240: 4b19 46bc b855 a1bc 2b39 3bbd 103c 623c
00000250: 0e39 283d b124 1fbd e822 d5bc 00d4 4a3d
00000260: 12c0 d4bc 444a f03c ed85 383d bf8e 153d
00000270: a154 14bd f4f8 f9bb 98c0 343d a0b0 6a3d
00000280: 8a7d 193d e891 19bd 52b4 1a3d 6ba6 90bc
00000290: d30e 6a3d 3881 1ebd 9209 753d 9af6 5a3d
000002a0: e393 87bb 6457 02bd 3174 57bd e674 dcbb
000002b0: bcd1 06bd fee1 ddbb a8d8 5cbd dc84 9b3c
000002c0: ac14 303d 9719 113c 674e 6d3c 4ea4 3d3d
000002d0: 258e cb3c b0ef 19bd 82b7 8f3c abc9 62bc
000002e0: 10f3 73bc e84d b9bc 1898 ed3c fa39 6dbd
000002f0: 85c9 67bd 8037 b63c fda8 64bd 6ca8 aa3c
00000300: 2401 bcbc 60e0 163b 3982 e9bc e6cd 113d
00000310: 508a 93bc e49b a2bc e215 9f3c a1ea 7bbb
00000320: 0477 403d 6377 4a3d d19b 773a 5e41 c0bc
00000330: c992 a53c 8c12 5c3d bca1 91bb 14b1 983c
00000340: 85a6 40bd b4e0 033d 487c 72bc 336a 73bd
00000350: 58e1 3ebc c1b1 c73c 4ab1 95bc de97 e4bc
00000360: f02e 19bc f6d0 1c3d 22ff 23bd eb38 5abd
00000370: 6486 05bd 5408 69bd a733 533d 809d 323c
00000380: d212 293c f9ad 953c 80b7 643c 87f6 1cbc
00000390: 107f d53c 8ef5 82bd 8092 4aba 10bc 68bd
000003a0: da9c 50bc 5b9c 7fbd 70a3 ba3b 6c7e 723d
000003b0: f225 603d b7fc 193d 4e91 033d 0443 64bd
000003c0: 3ca5 4a3d 692e 123d 8e99 3cbc 3c8d 893c
000003d0: e81b 30bc 0c7e c63c 14c6 543c 2329 803c
000003e0: b068 e53c 889a 6abd bd7d b73c d385 05bd
000003f0: b0fc 38bc a28e 77bd de1a 49bd 75a6 0e3d

actor_heads.0.weight f4 [3, 256]
0.00495933 0.005857371 0.00729014 -0.029264525 -0.026545897 0.045421727 0.06791466 0.026056765
-0.0070951656 0.06133209 -0.00906708 0.04233014 0.0439559 -0.030040838 -0.018054131 -0.04139387
0.034340113 0.015812136 0.02971755 0.005438 0.009217359 0.048769735 -0.030353464 0.052787855
-0.028713861 0.0669152 -0.013734366 -0.008063286 -0.044753775 0.011198828 -0.0012521669 -0.04556377
-0.03960766 0.018577423 -0.011670014 0.02435809 0.022375226 -0.009687701 -0.026431479 -0.020170994
0.041044764 0.013409883 -0.009514083 -0.0030757785 0.05877246 0.02417817 0.06263135 -0.05623515
0.009143772 -0.023321087 0.039257392 0.026178824 0.057629757 0.04814031 0.033113718 -0.0075973347
0.05582846 0.0020568979 -0.022365965 0.040622078 0.042354926 0.06215299 0.050189763 -0.021913724
0.058523364 -0.05320121 0.05841916 -0.055936858 0.007522783 0.028631493 0.031697433 0.0708029
-0.016035538 0.044317793 0.060492758 0.0029255408 -0.0355359 0.013147696 -0.011888839 0.062047623
0.049089603 -0.057432465 -0.027220216 0.04174486 0.019023908 0.037169885 0.06536204 -0.009535559
0.020550596 0.014193683 0.036134966 -0.016125033 0.030631803 0.0679448 0.011184827 -0.022967808
-0.029300822 0.039237384 0.047869094 0.011126144 -0.05651457 0.03481456 0.01954299 -0.0009775013
0.025950396 -0.02258598 0.06630817 -0.0479447 -0.012391053 0.00671232 -0.05425646 0.056107767
0.040313136 0.0399803 -0.021689557 0.02233867 0.024680518 0.043814857 -0.058505088 0.044578623
-0.05749615 -0.04378029 -0.029593043 0.045701932 0.039050564 -0.044312917 0.027267523 0.043017574
-0.042947635 0.004787177 0.06303648 0.06714822 0.04782573 -0.045382094 0.05383935 0.0014099077
0.065023474 -0.013782375 -0.013769277 0.041744113 0.00415533 -0.04925005 -0.003245242 0.01933717
0.0018043851 -0.04446978 -0.027081395 -0.007015243 -0.010098686 0.06505413 -0.040613703 0.031205654
-0.037894312 -0.016158298 -0.026708072 0.0071650166 -0.049328845 0.041363187 -0.015945062 0.033874176
0.012491722 -0.03771718 0.057674892 -0.053055353 -0.03152479 -0.032136716 0.05063089 -0.02911269
0.04416587 0.06606942 0.05021576 0.026610449 0.034887724 0.048454612 -0.035874434 0.04565125
-0.059096172 -0.024429997 0.0052185697 -0.01864514 -0.0068765525 0.040156405 0.011568011 0.023609372
0.0057592914 -0.022335164 0.05916503 0.03259866 -0.021573292 -0.04330842 -0.0059554977 -0.037208363
-0.038879454 -0.04957126 0.06112879 -0.029050305 -0.000278607 -0.048211202 0.063253365 -0.028409718
-0.008112185 -0.05873455 0.037044987 0.03524836 0.020928087 0.046296433 -0.062060334 0.02049943
0.024591671 -0.037855655 0.042339154 -0.045062166 0.060519233 0.01871159 0.05678466 -0.023880217
0.061443985 -0.036551468 -0.011703327 -0.037372455 0.046435475 -0.02462393 0.064806 0.0037074909
0.048616596 0.022201594 -0.021314085 0.054460634 0.047984384 0.0072217523 -0.014871709 0.04697069
-0.025769072 0.030229127 -0.0038786605 0.028067894 -0.031976275 -0.036216747 0.055648476 -0.054079928
0.04136867 -0.010945443 0.020958733 -0.059903353 0.008193446 0.029915884 -0.008020896 0.007578048
-0.030010425 0.028182719 0.04091465 0.016684337 0.007550016 -0.040311523 0.03760624 -0.029719856
00000000: e081 a23b 30ef bf3b 20e2 ee3b 28bc efbc
00000010: c876 d9bc 220c 3a3d d716 8b3d ff74 d53c
00000020: 907e e8bb 5c37 7b3d 178e 14bc 5e62 2d3d
00000030: 1a0b 343d 3418 f6bc 42e6 93bc 9e8c 29bd
00000040: 38a8 0c3d 7488 813c 3872 f33c 4031 b23b
00000050: 6804 173c c6c2 473d d4a7 f8bc 1438 583d
00000060: 5539 ebbc d60a 893d 1b06 61bc df1b 04bc
00000070: bc4f 37bd 4a7b 373c c01f a4ba 13a1 3abd
00000080: a43b 22bd ae2f 983c 9633 3fbc 9e8a c73c
00000090: 404c b73c 2ab9 1ebc d486 d8bc a43d a5bc
000000a0: 8e1e 283d 20b5 5b3c f5e0 1bbc 0093 49bb
000000b0: 64bb 703d 4c11 c63c dd44 803d d456 66bd
000000c0: c2cf 153c dd0b bfbc 5ccc 203d f974 d63c
000000d0: 2e0d 6c3d c62e 453d 40a2 073d 10f3 f8bb
000000e0: 62ac 643d 05cd 063b d438 b7bc 5663 263d
000000f0: 5c7c 2d3d 2294 7e3d c893 4d3d 6984 b3bc
00000100: 32b6 6f3d 83e9 59bd ee48 6f3d 0c1e 65bd
00000110: ad81 f63b 988c ea3c 2bd5 013d 1c01 913d
00000120: f65c 83bc 9386 353d 41c7 773d 6eba 3f3b
00000130: 188e 11bd 6f69 573c 68c9 42bc a625 7e3d
00000140: 2e12 493d 4e3e 6bbd eefc debc a9fc 2a3d
00000150: 07d8 9b3c 733f 183d 89dc 853d 093b 1cbc
00000160: b959 a83c 9f8c 683c 4202 143d a518 84bc
00000170: 8cef fa3c a526 8b3d 9140 373c fc26 bcbc
00000180: 4708 f0bc 61b7 203d 6212 443d 6e4a 363c
00000190: d27b 67bd b699 0e3d 9f18 a03c 801f 80ba
000001a0: ed95 d43c 3c06 b9bc 94cc 873d a961 44bd
000001b0: d803 4bbc 05f3 db3b 063c 5ebd 42d1 653d
000001c0: 631f 253d 62c2 233d 4cae b1bc 96ff b63c
000001d0: cc2e ca3c 3577 333d 08a3 6fbd 1398 363d
000001e0: 1581 6bbd f652 33bd 1c6d f2bc f331 3b3d
000001f0: 7cf3 1f3d 7681 35bd 2460 df3c 3233 303d
00000200: dce9 2fbd c0dd 9c3b 4519 813d 0285 893d
00000210: eae4 433d 93e2 39bd a686 5c3d a7cc b83a
00000220: 072b 853d 78cf 61bc 8998 61bc e0fb 2a3d
00000230: 6f29 883b 6cba 49bd 20ae 54bb fc68 9e3c
00000240: 1e81 ec3a f225 36bd cdd9 ddbc 20e0 e5bb
00000250: f674 25bc 1a3b 853d 8e5a 26bd 00a3 ff3c
00000260: 1137 1bbd 685e 84bc e3ca dabc 84c8 ea3b
00000270: 0b0d 4abd 726c 293d 389f 82bc a6bf 0a3d
00000280: 14aa 4c3c 547d 1abd 823c 6c3d 9250 59bd
00000290: 2320 01bd caa1 03bd 5662 4f3d bc7d eebc
000002a0: 45e7 343d 674f 873d 0aaf 4d3d 28fe d93c
000002b0: 6ee6 0e3d 5878 463d 12f1 12bd cefc 3a3d
000002c0: d40e 72bd 6b21 c8bc 8900 ab3b b1bd 98bc
000002d0: b454 e1bb 0b7b 243d c187 3d3c 7168 c13c
000002e0: 70b8 bc3b 3cf8 b6bc 0857 723d 2c86 053d
000002f0: 79ba b0bc 2b64 31bd 5626 c3bb cc67 18bd
00000300: 1040 1fbd 3c0b 4bbd 2f62 7a3d e8fa edbc
00000310: 0012 92b9 1c79 45bd fb8a 813d 7fbb e8bc
00000320: f8e8 04bc a493 70bd 7cbc 173d 9660 103d
00000330: 6171 ab3c 54a1 3d3d fa32 7ebd 6cee a73c
00000340: 7974 c93c 880e 1bbd d26b 2d3d 1b93 38bd
00000350: 04e3 773d 0c49 993c 0897 683d 72a0 c3bc
00000360: b0ac 7b3d feb6 15bd 50bf 3fbc dc13 19bd
00000370: 2033 3e3d 20b8 c9bc 02b9 843d 60f9 723b
00000380: 3222 473d 1ee0 b53c e09a aebc 1d12 5f3d
00000390: 468b 443d 73a4 ec3b 78a8 73bc 5764 403d
000003a0: a919 d3bc 13a3 f73c 2031 7ebb a4ee e53c
000003b0: 8ef9 02bd 0358 14bd a8ef 633d ea82 5dbd
000003c0: 3272 293d 8454 33bc a6b1 ab3c 385d 75bd
000003d0: ce3d 063c 2812 f53c 146a 03bc 4651 f83b
000003e0: 6cd8 f5bc 72df e63c 1f96 273d 97ad 883c
000003f0: 2066 f73b b21d 25bd 0009 1a3d 0e77 f3bc

actor_heads.0.bias f4 [3]
-0.029060634 0.06094285 -0.019724209
00000000: 9110 eebc 369f 793d aa94 a1bc

actor_heads.1.weight f4 [3, 256]
-0.044373147 -0.0071187317 -0.042128757 -0.03834504 -0.013134231 -0.032292746 -0.056941293 -0.026405187
0.006664224 0.04235005 0.06079594 0.009528525 -0.039340556 0.019420201 -0.054035485 0.006393889
-0.016578207 0.0013632998 0.03008613 0.007897884 0.02154012 -0.03312818 0.04769919 -0.0024612446
0.033015843 -0.051164776 0.05492845 0.03519827 0.013186492 0.037089493 0.012926243 -0.017265307
-0.054540493 0.0018772503 -0.016656566 0.052420612 -0.00615146 -0.041898586 -0.0049617644 -0.0056914613
0.056579486 0.031435043 -0.006468167 -0.053618006 -0.05741525 0.05543428 0.019004237 -0.021951556
-0.017692178 0.059798833 -0.00945481 0.062091455 0.022978023 -0.00183402 0.011388734 -0.017560653
-0.0058678463 0.019389963 -0.042905793 -0.019028926 -0.036613174 -0.036985256 0.05501347 0.061857015
0.051916555 0.0373333 0.014271468 0.012233719 0.005532527 0.080045275 0.04740902 0.000966901
-0.049251072 0.023395412 0.0274569 -0.005213033 0.04444468 0.029883143 -0.040168397 0.06048554
-0.045476187 0.004532188 -0.039354406 0.033316597 -0.021801865 0.015570577 -0.0068695094 -0.03061892
0.04633753 -0.037909918 0.049983792 -0.041942466 -0.057799228 -0.055019423 0.018349145 -0.0030987412
-0.024345795 0.009019183 -0.04716085 -0.0377604 0.01066494 -0.039030664 -0.041806433 -0.0053229555
-0.024468226 -0.013289288 0.026000725 0.041744247 0.014713496 -0.034096576 0.012461534 0.03344419
-0.026676562 0.03631366 0.020999163 -0.05763314 0.012128681 0.010140443 -0.03926658 -0.021451484
0.027138107 0.021645097 0.053829454 -0.022779958 0.060157597 0.02902958 0.026027128 0.00096157193
-0.02498797 -0.05394288 0.028308038 0.041142676 0.016748935 0.024895068 0.06144253 -0.051013336
-0.040817074 -0.007434055 0.035342857 0.054326147 0.060976263 0.010123753 0.031154275 0.05690474
0.037964933 -0.009998895 -0.021348815 -0.016506866 0.057942886 -0.06315788 0.012412385 0.01005476
-0.012873745 -0.0397363 -0.049188245 -0.0039856066 -0.0459573 0.02338166 -0.04658079 -0.015228838
-0.0083225155 0.025399357 0.045850694 0.055360742 0.004742378 -0.062098965 -0.016980432 0.009001732
0.025890239 0.05759973 -0.06382122 -0.019320168 0.04023777 0.034607455 -0.022992961 0.017762065
0.040455103 -0.00031030664 -0.004929657 0.0109037375 -0.027098514 -0.048279528 0.030595187 0.017855117
-0.043003745 0.010371365 -0.020506747 0.05508118 -0.031323005 0.05472213 0.025543854 0.007244006
0.01724533 0.009332009 0.034107313 -0.028568052 -0.017257899 -0.02980686 0.013061339 -0.021693354
0.03319396 -0.020679679 0.05960523 0.022770114 -0.06021572 0.00975322 0.020351324 -0.04053022
0.0034560403 0.021886371 -0.0591951 -0.056375045 -0.0031722412 0.023683177 -0.033095893 -0.03618646
-0.031751916 0.013763517 -0.022534087 -0.02553641 0.005397126 -0.007320605 -0.009916025 0.039695315
-0.044879198 -0.0072890464 -0.0067843124 0.026720032 -0.035230532 0.009695828 -0.05825127 0.05105014
0.017523255 -0.01359021 -0.05395014 0.04627227 0.042771667 0.042532925 -0.047647644 -0.0004865229
-0.03808919 -0.040121097 -0.052078646 0.03969776 -0.0123111 0.032120325 -0.011365159 -0.008697622
-0.00058638304 -0.048742443 -0.055224143 0.01955043 -0.0019514263 -0.0008511465 -0.0003126574 0.004739121
00000000: 9ec0 35bd 4044 e9bb 348f 2cbd b00f 1dbd
00000010: f530 57bc 6645 04bd 463b 69bd b14f d8bc
00000020: 905f da3b 3f77 2d3d 2a05 793d 881d 1c3c
00000030: 9023 21bd 1d17 9f3c 5054 5dbd d483 d13b
00000040: 05cf 87bc c0b0 b23a 3077 f63c 2066 013c
00000050: e874 b03c 6ab1 07bd 3a60 433d d54c 21bb
00000060: 9f3b 073d 2892 51bd a8fc 603d 102c 103d
00000070: 280c 583c 27eb 173d 98c8 533c f96f 8dbc
00000080: da65 5fbd 110e f63a 5a73 88bc ffb6 563d
00000090: 3092 c9bb da9d 2bbd 4c96 a2bb 707f babb
000000a0: e4bf 673d 08c2 003d ebf2 d3bb 8e9e 5bbd
000000b0: 412c 6bbd 0e0f 633d c6ae 9b3c c0d3 b3bc
000000c0: 30ef 90bc 9fef 743d 59e8 1abc 9c53 7e3d
000000d0: 683c bc3c 8063 f0ba d097 3a3c 5cdb 8fbc
000000e0: 1047 c0bb b3d7 9e3c fcbd 2fbd 8de2 9bbc
000000f0: b2f7 15bd da7d 17bd ce55 613d c85d 7d3d
00000100: 74a6 543d cdea 183d e0d2 693c f06f 483c
00000110: 334a b53b c7ee a33d f62f 423d a177 7d3a
00000120: 7ebb 49bd bca7 bf3c 4bed e03c 17d2 aabb
00000130: a00b 363d 7ecd f43c 9e87 24bd b0bf 773d
00000140: 3d45 3abd c082 943b 1632 21bd fc76 083d
00000150: d399 b2bc bc1b 7f3c 9f19 e1bb 88d4 fabc
00000160: 6ccc 3d3d 6e47 1bbd cebb 4c3d ddcb 2bbd
00000170: e2be 6cbd 0c5c 61bd f250 963c 4014 4bbb
00000180: d570 c7bc 32c5 133c bc2b 41bd a6aa 1abd
00000190: 00bc 2e3c 9ede 1fbd 393d 2bbd 306c aebb
000001a0: 9771 c8bc 50bb 59bc 79ff d43c 04fc 2a3d
000001b0: e010 713c daa8 0bbd 762b 4c3c c6fc 083d
000001c0: ce88 dabc a2bd 143d 7006 ac3c ba10 6cbd
000001d0: 60b7 463c 1a24 263c fed5 20bd 06bb afbc
000001e0: bc50 de3c 0f51 b13c 467c 5c3d 099d babc
000001f0: d067 763d 71cf ed3c d836 d53c 0012 7c3a
00000200: 92b3 ccbc 36f3 5cbd 42e6 e73c 3985 283d
00000210: 1035 893c bef0 cb3c 2aab 7b3d 5cf3 50bd
00000220: ce2f 27bd 6099 f3bb acc3 103d 1885 5e3d
00000230: 3fc2 793d 19de 253c 4037 ff3c f214 693d
00000240: 1e81 1b3d 68d2 23bc b6e3 aebc 6839 87bc
00000250: 8555 6d3d eb58 81bd 515d 4b3c b8bc 243c
00000260: 66ec 52bc 88c2 22bd 9d79 49bd b199 82bb
00000270: b93d 3cbd e58a bf3c 80cb 3ebd 6082 79bc
00000280: 295b 08bc 5012 d03c f0cd 3b3d f2c1 623d
00000290: f365 9b3b 7c5b 7ebd 8c1a 8bbc 007c 133c
000002a0: c417 d43c b2ed 6b3d b3b4 82bd 5445 9ebc
000002b0: 5cd0 243d 8cc0 0d3d bc5b bcbc c081 913c
000002c0: 40b4 253d a7b0 a2b9 f688 a1bb 97a5 323c
000002d0: b4fd ddbc c1c0 45bd c2a2 fa3c e544 923c
000002e0: b224 30bd a8ec 293c c4fd a7bc ce9c 613d
000002f0: 8d4c 00bd 5024 603d 5841 d13c 205f ed3b
00000300: 1446 8d3c 48e5 183c 1cb4 0b3d 8c07 eabc
00000310: 7060 8dbc 842d f4bc 3aff 553c 43b6 b1bc
00000320: 64f6 073d 6e68 a9bc 9d24 743d 6488 ba3c
00000330: c2a4 76bd f8cb 1f3c d2b7 a63c 0403 26bd
00000340: bc7e 623b 0c4b b33c 9076 72bd 85e9 66bd
00000350: 60e5 4fbb 3903 c23c 8f8f 07bd 4138 14bd
00000360: 4c0e 02bd 6080 613c 6899 b8bc bc31 d1bc
00000370: 60da b03b b0e1 efbb d376 22bc 8e97 223d
00000380: 40d3 37bd f4d8 eebb f04e debb f8e3 da3c
00000390: e44d 10bd 40db 1e3c e298 6ebd f419 513d
000003a0: ee8c 8f3c 79a9 5ebc d2fa 5cbd fe87 3d3d
000003b0: 5831 2f3d 0137 2e3d 2d2a 43bd 0014 ffb9
000003c0: 6903 1cbd 0556 24bd 6b50 55bd 1e9a 223d
000003d0: 7fb4 49bc 9a90 033d ef34 3abc 7980 0ebc
000003e0: 80b7 19ba 28a6 47bd b632 62bd 3928 a03c
000003f0: 00c7 ffba 7a1f 5fba 2aec a3b9 a14a 9b3b

actor_heads.1.bias f4 [3]
-0.032031156 0.061594646 0.023319023
00000000: 1a33 03bd ab4a 7c3d 8907 bf3c

actor_heads.2.weight f4 [3, 256]
-0.0037164167 0.011109389 -0.055740952 0.036751546 0.039221283 0.036477238 0.0010104561 -0.031071197
0.008077867 0.01729498 -0.050273765 0.0238254 0.059179343 0.060182452 0.02177312 0.054378502
-0.032552946 -0.0017993078 -0.03506878 -0.02790095 -0.0151263 -0.02270326 0.050759718 -0.008468233
0.036406633 0.00017270936 0.024499038 -0.02078682 -0.007826917 -0.03277874 -0.057203963 -0.04227831
0.05279866 0.004578699 -0.011947652 0.0050898334 0.0033705235 0.0034365375 0.04041263 -0.0032030642
0.060495377 -0.0007805079 0.033828262 -0.010685056 0.013036865 -0.001357466 0.059781082 0.06247116
-0.035030972 0.0037679572 -0.050336123 -0.015465785 -0.061919607 -0.0024487972 0.008682612 0.04278615
0.030836716 -0.04944695 0.027394965 -0.051127095 0.041735478 0.038702764 0.018870242 0.039782617
0.057722427 0.012108795 -0.0018078163 0.025284313 -0.050611608 -0.031264164 0.005603012 0.022840725
-0.059759088 -0.009999616 -0.05966549 0.038263652 -0.036972843 -0.059805024 -0.010740668 0.019231617
-0.0017862499 0.008841619 0.0016247458 0.040904514 -0.025476359 0.014907475 0.049415063 0.032484718
0.04067908 -0.012148984 -0.024287 -0.057269182 0.01211042 -0.0061151395 -0.039817262 -0.0077679753
-0.0544712 0.0023755103 -0.04596193 -0.0571183 -0.016972594 -0.003616929 0.02578155 0.044446282
0.0046843 0.05034975 -0.027563594 0.035961237 0.058160827 -0.049305763 -0.029662257 0.038298074
-0.027384663 0.04550173 -0.058774948 -0.039973374 0.004644878 0.0074050454 0.046222456 -0.045149665
0.007079907 -0.02006321 0.044882417 -0.03921469 0.048488155 0.0075486 0.0033604503 -0.05061552
-0.025414707 0.037670888 -0.047718007 0.01069137 -0.0039497465 -0.03016806 -0.0494401 -0.027246298
0.049020186 0.018724173 0.04934301 0.05026429 0.022539437 0.030739293 0.058926076 -0.008386215
-0.057691455 -0.03225636 0.010209996 0.038126074 -0.0043839156 -0.03177723 -0.049929816 -0.05639402
0.033020277 0.021858394 -0.0022425859 0.04793939 -0.029649023 0.033065222 -0.036276974 0.044969447
-0.021441765 -0.049350582 -0.0238688 -0.052057456 -0.005548917 0.0008014962 -0.020697445 -0.038869455
0.009826218 0.034593955 -0.0374635 -0.009105502 0.023957193 0.04447761 -0.029464535 0.04635589
-0.031821378 -0.022855127 -0.013590325 -0.027827777 -0.013043459 0.007523485 -0.050974246 -0.0331224
0.014237307 0.032718413 0.00453414 0.019151494 0.03831304 0.007895496 -0.007892273 0.030648164
-0.009015821 0.013099395 -0.0056127175 0.016780064 -0.013203822 -0.03284555 -0.055641036 0.014068813
0.03434232 0.034931764 -0.024612881 -0.012392092 -0.037199236 0.036573835 -0.026434025 -0.029930912
-0.013836741 -0.045128502 0.013265878 0.012532365 0.017079137 0.04898738 -0.057013616 -0.008987301
0.038588814 0.015627049 0.031242162 0.061607547 -0.047169305 -0.013219811 0.05058214 0.012689501
0.021852175 0.019170415 0.01718112 0.012482395 -0.04285229 0.025614824 0.03648811 -0.010128266
-0.007244034 0.060407013 -0.043029867 -0.0047966167 0.030109137 -0.012183255 0.012792505 -0.03975465
-0.015438684 -0.020105561 0.028157819 0.028578907 -0.0326469 -0.0593573 0.048195418 0.027262766
0.043758802 -0.049283158 -0.056967136 0.027101157 -0.02607365 -0.047187533 0.037068717 0.0042694723
00000000: 208f 73bb 2804 363c a050 64bd ca88 163d
00000010: 7fa6 203d 2869 153d 4871 843a 0689 febc
00000020: 0859 043c 34ae 8d3c ddeb 4dbd 7c2d c33c
00000030: 0a66 723d e081 763d 8b5d b23c febb 5e3d
00000040: 3d56 05bd c0d6 ebba 48a4 0fbd 8890 e4bc
00000050: 4dd4 77bc 30fc b9bc 6ce9 4f3d 58be 0abc
00000060: 1f1f 153d 5119 3539 35b2 c83c 1f49 aabc
00000070: 783c 00bc 0043 06bd b44e 6abd 052c 2dbd
00000080: 6843 583d e908 963b 16c0 43bc 9ec8 a63b
00000090: 00e4 5c3b 8837 613b b787 253d 80ea 51bb
000000a0: 00ca 773d 009b 4cba 818f 0a3d 6010 2fbc
000000b0: 9398 553c 00ed b1ba 02dd 743d c2e1 7f3d
000000c0: a37c 0fbd d5ef 763b 402d 4ebd 3464 7dbc
000000d0: 6a9f 7dbd 007c 20bb 8441 0e3c 8840 2f3d
000000e0: 489d fc3c e388 4abd 686b e03c a56a 51bd
000000f0: d2f2 2a3d ca86 1e3d c495 9a3c 19f3 223d
00000100: 5a6e 6c3d f863 463c 40f4 ecba 0c21 cf3c
00000110: 1e4e 4fbd da0e 00bd 7999 b73b 791c bb3c
00000120: f2c5 74bd 6ed5 23bc cd63 74bd 59ba 1c3d
00000130: d670 17bd 1df6 74bd a0f9 2fbc a08b 9d3c
00000140: 9a20 eaba 70dc 103c 6cf5 d43a 7e8b 273d
00000150: ccb3 d0bc 7b3e 743c 7367 4a3d b20e 053d
00000160: 1b9f 263d 880c 47bc 88f5 c6bc 1793 6abd
00000170: c86a 463c 8261 c8bb 6d17 23bd 808a febb
00000180: 311d 5fbd 73ae 1b3b 9442 3cbd e1f4 69bd
00000190: 1c0a 8bbc 000a 6dbb d433 d33c 4e0d 363d
000001a0: c27e 993b 8a3b 4e3d 0ccd e1bc 174c 133d
000001b0: 0c3a 6e3d d7f4 49bd 43fe f2bc 71de 1c3d
000001c0: cd55 e0bc 0660 3a3d 00be 70bd 1fbb 23bd
000001d0: 1034 983b 06a6 f23b c253 3d3d dbee 38bd
000001e0: 91fe e73b 9a5b a4bc a0d6 373d 959f 20bd
000001f0: 849b 463d 3f5a f73b 003b 5c3b 3852 4fbd
00000200: 8132 d0bc ca4c 1a3d f573 43bd db2a 2f3c
00000210: e06c 81bb 0223 f7bc b481 4abd a133 dfbc
00000220: 64c9 483d 7063 993c e51b 4a3d eee1 4d3d
00000230: a0a4 b83c f8d0 fb3c 785c 713d 5666 09bc
00000240: e04d 6cbd 3f1f 04bd d447 273c 162a 1c3d
00000250: f3a6 8fbb d728 02bd 3583 4cbd 6afd 66bd
00000260: 4540 073d 6010 b33c 59f8 12bb 185c 443d
00000270: 82e2 f2bc 666f 073d 2a97 14bd e231 383d
00000280: a4a6 afbc d623 4abd 8088 c3bc 333a 55bd
00000290: b1d3 b5bb 801b 523a b08d a9bc 9435 1fbd
000002a0: 25fe 203c 64b2 0d3d 5473 19bd 3e2f 15bc
000002b0: e041 c43c 282e 363d 9c5f f1bc acdf 3d3d
000002c0: 2257 02bd ad3a bbbc f4a9 5ebc 14f7 e3bc
000002d0: 3bb4 55bc 9187 f63b 5fca 50bd 5bab 07bd
000002e0: 9843 693c be03 063d 2093 943b 98e3 9c3c
000002f0: 22ee 1c3d 1c5c 013c 984e 01bc dc11 fb3c
00000300: 18b7 13bc d89e 563c e3ea b7bb 5876 893c
00000310: d854 58bc 0e89 06bd dbe7 63bd e180 663c
00000320: 88aa 0c3d 9c14 0f3d f4a0 c9bc 3308 4bbc
00000330: 3a5e 18bd 72ce 153d 2b8c d8bc ac31 f5bc
00000340: 80b3 62bc aad8 38bd 2059 593c 8c54 4d3c
00000350: 8ce9 8b3c fea6 483d 1c87 69bd 793f 13bc
00000360: 4e0f 1e3d 4c04 803c 90ef ff3c 3258 7c3d
00000370: 9a34 41bd e897 58bc 382f 4f3d a0e7 4f3c
00000380: 5503 b33c 460b 9d3c 6cbf 8c3c f682 4c3c
00000390: e285 2fbd 2ed6 d13c 8e74 153d 07f1 25bc
000003a0: 5d5f edbb 586d 773d 1640 30bd f02c 9dbb
000003b0: 70a7 f63c 469c 47bc a897 513c c6d5 22bd
000003c0: 89f2 7cbc 6bb4 a4bc 3aab e63c 501e ea3c
000003d0: c1b8 05bd a420 73bd 8f68 453d 2a56 df3c
000003e0: 6e3c 333d 23dd 49bd 5f56 69bd 3f03 de3c
000003f0: 6898 d5bc b747 41bd 5ed5 173d eee6 8b3b

actor_heads.2.bias f4 [3]
0.017725375 0.034809202 0.017410582
00000000: ce34 913c 1894 0e3d a3a0 8e3c
