results/ppo/models/ppo_ckpt_300.pt (torch, 303145 bytes, 19 tensors)

shared.0.weight f4 [256, 11]
00000000: 5aa4 643e e00c 7b3e 82a9 90bd 7485 8a3e
00000010: a6ea d3bd 400b 733d 405c 15be 3acd 343e
00000020: 1bd3 6f3e b516 5fbe dd66 853e db17 3e3d
00000030: cadb 5d3e 6841 273d 68ed 0c3e 354d b0bd
00000040: 9922 6b3e b82a 373d 88c7 11be fb1c cb3c
00000050: 7b7e 0ebe ec8a 19bd c023 02be 0660 3e3e
00000060: 56b7 73be c3a2 1cbe 43ba 33bd fa43 4dbe
00000070: 8eea cd3b 1bd2 a2be 6a2b 983e f22f 88be
00000080: cbbe 653e b086 4d3d e680 c8bd 64ca 3e3e
00000090: 6879 403d f074 793e 4002 073d cebd c2bd
000000a0: 30e9 a53d b873 a7bd 52f0 013e 10d4 893e
000000b0: 7a79 323e daf9 06be a63a 323e e0f8 5c3d
000000c0: f8ca 1c3e e82e 3cbe e1d0 98be 6693 eebd
000000d0: 04d1 6cbe e456 7d3e a4db b13d 56c5 d63d
000000e0: 1b93 823d 00df abbb f972 513e cac1 8cbe
000000f0: d712 b2bb 490b 67be 15ae 8f3d f2b6 19be
00000100: 6576 c93d 52bc a6bd 5009 803e ccfe 36be
00000110: ef22 38be c825 38be b4d9 8a3e f0c7 cd3d
00000120: da8b 943e 55cd 7ebe a41e 99be 8e8d 71be
00000130: f0b0 4fbe 1e7f d03d 03e3 b93d e045 803e
00000140: 3ec2 33be d9a3 82be 199a 153e 2105 07be
00000150: a184 2e3e 1733 fdbd d435 2f3e 777c 79be
00000160: f24b 26be 6bbd b13d 0c8b 823d dffa acbd
00000170: 80a1 0e3e ddbc 4e3e 1d4e 60be 16b4 26be
00000180: c615 6a3e 48ec dfbd 0daa dcbd 0b5f 95be
00000190: 81cf 30be a840 9a3d a002 23bd 961d 60be
000001a0: 00c0 e73b 58e6 52be 61f8 82be 0a04 2abe
000001b0: 1d1c 87be 6497 44be 197c 903e 8bf3 513d
000001c0: 8449 be3d 7e10 94be b2f6 69be 86e0 d4bd
000001d0: 9f5f 393d c85b 89be f050 2dbe 3d72 2fbe
000001e0: af22 9739 a0c5 e5bd c028 abbc 7037 51be
000001f0: 42ec 53be b91f 34be f65d d3bd 48b0 73be
00000200: 1270 813e e819 75bd 9ed2 843e 8466 c03d
00000210: b27f 96be 53bb 323e 8ee6 a9bd aaba 19be
00000220: 64c2 51be cf0f aebe f6dc 293d a460 dfbd
00000230: 7d79 043e a78f 74be 984b 473e 29a3 62be
00000240: fc3f 55bd dcf9 803d 3a64 1f3e 5041 793e
00000250: d4a0 8c3e 15d0 74be 4067 9b3d e5cc 04be
00000260: 1056 07bd 3418 67be dc9c 8c3e 009b 62be
00000270: b402 253e 2403 d93d a4a8 c83d 59ec 26be
00000280: 7c51 8c3e e0b1 873d 88de 1e3d ec0a 88be
00000290: d49b 013e 2846 39bd dd71 0dbe 4e99 843e
000002a0: 78ab 893d a2d2 2abe e944 1cbe 60e9 6bbc
000002b0: 8a64 2c3e 7aca 9dbd e429 30be f474 d3bd
000002c0: 8b7b 74be a808 be3d acfb 6e3e 1c91 98be
000002d0: a091 023e 1085 0d3e 89c0 083d dd09 02be
000002e0: b7cf 323e df03 f03d 2f50 ca3d a803 59bd
000002f0: 7683 a3bd d01e 043d 882a 5abd a403 b8bd
00000300: 865a 453e 36ab 843e 8085 f4bc 5841 8abd
00000310: c02b 903b 707a 93bc 9be1 843d 2f36 8f3d
00000320: 0836 8cbe 0103 02be d8db 983e cd88 c53d
00000330: fc4b 20bd deaa 50be 0e42 0cbe a181 8cbe
00000340: 9c67 dabd 27cb d63d 87c5 403e 468c 0e3e
00000350: 34da 89be cbe8 06be b910 61bd 78fb 8f3e
00000360: 4f6c 0f3d dbd5 17bd 6277 f23d 2ed9 f1bd
00000370: fd8d 59be 82c4 593e 5a63 0cbe 9bfe 92bd
00000380: bff1 a6be 34ce 463e 0c12 643e 4fa7 d23d
00000390: 95c0 83be 8508 98be 0f7e 7cbe 1071 6c3e
000003a0: 3cb1 023e 00e8 813e 10cb 133e b27c e33d
000003b0: b627 99bc 2369 7fbe 00a9 8dbe ce13 6fbe
000003c0: 2c38 cf3d 0487 22be 888b 78bd 96af 31be
000003d0: 5c0b 61bd ae4e 59be 94bd 49be 70d4 cc3d
000003e0: 7284 b7bd 6e9a 3e3e 1019 c6bd b57c 62be
000003f0: 80e6 59bd 24aa 15be e0ea bcbd 94f6 92be
0.2232832 0.2451663 -0.07063581 0.27054942 -0.1034749 0.0593369 -0.14585972 0.17656413
0.23420374 -0.21786006 0.2605504 0.04640947 0.21665874 0.04083386 0.13762438 -0.08608476
0.22962417 0.044718474 -0.14236271 0.024794092 -0.13915436 -0.037486 -0.1270895 0.18591318
-0.23800406 -0.15296464 -0.043878805 -0.20045462 0.0062840646 -0.31800923 0.29720622 -0.2659908
0.22436063 0.050177276 -0.097902104 0.18631893 0.046990782 0.24361014 0.03296113 -0.095088586
0.081011176 -0.081763685 0.12689331 0.26919603 0.17429152 -0.13181248 0.17405185 0.053948283
0.15311801 -0.18377268 -0.29846862 -0.11649208 -0.23126608 0.24740177 0.08684471 0.104868576
0.063757144 -0.0052450895 0.20454015 -0.274916 -0.005434375 -0.22562899 0.070156254 -0.15011194
0.09837035 -0.08141388 0.25007105 -0.17870635 -0.17982076 -0.17983162 0.2711922 0.10047901
0.29012948 -0.24883015 -0.2990619 -0.23589155 -0.2028234 0.10180496 0.09076502 0.2505331
-0.17554566 -0.2551563 0.14609565 -0.1318555 0.17042781 -0.1236326 0.17110378 -0.24363886
-0.16239908 0.08678707 0.06374177 -0.08446287 0.13928795 0.20189233 -0.21904798 -0.16279635
0.22859868 -0.10933739 -0.10774622 -0.29174075 -0.17266656 0.075318635 -0.039797425 -0.21886286
0.0070724487 -0.20595682 -0.25580123 -0.16603103 -0.26388636 -0.19198376 0.2821968 0.05125765
0.09291366 -0.28918833 -0.22848013 -0.10394387 0.045257207 -0.26827836 -0.16925406 -0.17133422
0.00028826806 -0.112193346 -0.020893455 -0.20431304 -0.20695594 -0.17590226 -0.10320656 -0.23797715
0.25280815 -0.05983916 0.25941938 0.09394553 -0.293943 0.17454271 -0.08295928 -0.15012613
-0.2048431 -0.33996436 0.04147049 -0.109071046 0.12936969 -0.23882924 0.1946243 -0.22132553
-0.052062973 0.06297657 0.15565577 0.24341321 0.27466452 -0.23907502 0.07588053 -0.12968786
-0.03304106 -0.22567827 0.27463424 -0.2212944 0.16114312 0.10596302 0.09797791 -0.16301097
0.27405918 0.06625724 0.03878644 -0.26570833 0.126571 -0.04523292 -0.13812967 0.25898212
0.06722158 -0.16681913 -0.15260662 -0.014398903 0.16835228 -0.07704635 -0.1720348 -0.103250414
-0.23875253 0.09278995 0.23338193 -0.2979821 0.12750864 0.1382029 0.03338674 -0.12699075
0.1746205 0.11719488 0.09878575 -0.052982002 -0.079840586 0.032255948 -0.053263217 -0.089850694
0.19272813 0.25911874 -0.029848814 -0.067507446 0.0043997467 -0.018002719 0.06488343 0.069927566
-0.27384973 -0.12696458 0.29855227 0.09645233 -0.039134964 -0.2037768 -0.13697073 -0.2744265
-0.10664293 0.10487967 0.1882535 0.13920698 -0.26924288 -0.13174741 -0.05494759 0.28121543
0.0350154 -0.037069183 0.11839177 -0.11809002 -0.2124557 0.21266368 -0.13709775 -0.071774684
-0.32606313 0.19414598 0.2227251 0.10285818 -0.25732866 -0.29694 -0.24657463 0.23090005
0.12762922 0.25372314 0.14432931 0.11107768 -0.018695693 -0.2494245 -0.27668 -0.23347399
0.10118136 -0.15871817 -0.060679942 -0.17352137 -0.054942474 -0.2122142 -0.19701225 0.10001457
-0.08960809 0.18613598 -0.09672749 -0.22117884 -0.053198338 -0.14615685 -0.09224486 -0.2870375

shared.0.bias f4 [256]
00000000: a4fd 513e 66e6 28be c7b6 17be 0c0f 6d3e
00000010: 3041 f13d 5f8e 4fbe e401 bb3d e45b 073e
00000020: 0700 8dbe 88b4 663d 6c82 793d c065 40bc
00000030: 855d 823e 2213 4cbe 9060 273e 0703 24be
00000040: 4662 8bbe d06a 523e f72b 24be 1192 3b3c
00000050: c6c5 163e fccf 87be 6c24 84be a83b d23d
00000060: 0ced 7a3e 80ae 02bd 8325 523e fcfc d83d
00000070: eac9 9f3d 4cd9 44be 1ba4 8a3e 406b 0d3e
00000080: 714f 1fba 17e2 273e 67a4 84be 700f 853d
00000090: d41b 08be 10d2 fabc d44f ca3d 70b3 de3d
000000a0: 43cd 3f3d c5f4 6ebe 6c39 41be 4082 ac3b
000000b0: bce3 55bd fc88 88be 7815 983e c4d0 803c
000000c0: 4fc1 61be 9269 073e a1cb fb3d 72e7 1bbe
000000d0: a32d 063e 8e8b 4ebe 54f3 d53d f6a3 923e
000000e0: 58d0 4b3e e06c 183e a842 7bbd 085d 583c
000000f0: 051e c93d 2607 6d3d ec39 98bd a79f 153d
00000100: d21a fabd 25b8 33be 3676 8ebe 84be 87be
00000110: 2642 4dbe 7e90 933e c99e 4c3d 6bc2 90be
00000120: 7cd2 1dbe f43b 903d f8d1 b8bd bdb3 c5bd
00000130: eee0 e7bd 02fe a4bd 7a9d ff3c 9044 923c
00000140: aa53 243e bc94 453e 67a0 7b3e 7188 d3bc
00000150: a6dc 09be 00db 863a 0475 4cbe 5c71 ee3d
00000160: 8800 15bd 55ff eabd 3d58 91be 62ca 143e
00000170: c333 153e a861 833e 1980 ecbd 14a0 913d
00000180: c035 3a3c acf5 4abe 6103 41be 1b54 133e
00000190: 868a 40be 30d3 603e 50ba d73d 10bb b43d
000001a0: 6855 4b3e c24f fe3d 5888 033e cd6f 0d3e
000001b0: d4c7 0ebe 1fb9 23be 8440 62bd ec5e 243e
000001c0: 809e 463e 2880 603e 4800 f1bd 90b3 1cbd
000001d0: c5e8 6ebe e055 363e 7047 59be 075c 09be
000001e0: cc0a 7a3e 9c8d 6c3d af51 0abe d5eb 68be
000001f0: 5651 54be 6b7a 673e 7783 9bbe 2066 853e
00000200: 4a88 693e ecd3 d43b 9191 01bd ac1e 703e
00000210: 1ae3 013e 50f6 913e ae8c 733e e2b0 54be
00000220: 43f9 1b3e ee9d 053e f136 5bbe bd3f f03d
00000230: 7eaa 50be b2f2 5dbe 0052 b83b 0622 33bd
00000240: e9e0 bfbd a07a 4abe 334b 1d3e 20c4 8d3e
00000250: e3dd 94bd bb46 54be a0b9 7ebc 79a3 8abe
00000260: 0ae1 92be 24e1 e3bd d4fc 413e de5c 81be
00000270: 7815 45bd 103b 2abe 232e 94be f786 93bd
00000280: 00e1 8fbc 00a7 4fbd da75 533e 6458 f73d
00000290: 8439 403e c0dd f13d 7892 013d 3944 1e3e
000002a0: 26f7 44be ab6d 133e 12fb 0b3e 6436 07be
000002b0: e08a 29bc 4c18 79be 02a7 94be 2fab 2bbd
000002c0: b021 5d3d e423 9abd 9899 a43d c0ce 7dbe
000002d0: 2359 4abe 1737 453e 773b 96be 80eb 413d
000002e0: c282 6b3e d476 673e 4182 853d 859e 8cbe
000002f0: 965a 073d b825 d9bd 81ab b5bd 648f 6c3e
00000300: 6a88 03be 23be 61be d385 7dbe 3f66 2a3e
00000310: ac56 3c3b b6a1 923e 6783 773c 25dd 8fbe
00000320: e8c5 983d 4442 8d3e 927e 3f3e cacc 9a3d
00000330: 9df6 67be c022 39be e0a4 513e 5983 5dbe
00000340: 41ab 153d 103b 1ebd 24e9 ce3d 9121 5d3c
00000350: 6b19 72be c9ba 08be 7c58 7b3e a4a0 ed3c
00000360: 281f 003e 549a 28be cc6a 743e f62e 84bd
00000370: a222 d0bd 0086 7a3d bc41 ddbd e223 f8bd
00000380: a8b8 30bd 4705 ddbc 30b0 3bbe a280 c73d
00000390: cb9d 95be f6e0 383e 142d 8f3e e0cc 473d
000003a0: 6c48 90bd 1f64 8dbe 18fd 103e a9e0 763e
000003b0: 28a4 723e d76b 7d3c 204b cd3d 98df 903e
000003c0: 9e2a 083d 8a39 23be 1e91 92be e2fc 063e
000003d0: 1989 e83d b190 803e 602f 1dbe 56be e53d
000003e0: 0c4d ccbd 28de d6bd 2819 2e3e d582 8dbe
000003f0: e096 633e 1a99 0f3e c9d9 3abe cd90 113e
0.20506912 -0.1649414 -0.14815818 0.23150271 0.11780012 -0.20269154 0.0913122 0.13218647
-0.27539083 0.05632451 0.060915396 -0.011743009 0.25461975 -0.19929174 0.1634543 -0.1601678
-0.27223414 0.20548558 -0.16032396 0.011448399 0.14723882 -0.26525867 -0.25809038 0.10265285
0.24504489 -0.031904697 0.20522122 0.10595128 0.07802184 -0.19223517 0.27078328 0.13810444
-0.00060772063 0.1639484 -0.2590668 0.06497085 -0.13291866 -0.030617744 0.09878507 0.10874069
0.046826612 -0.2333556 -0.18869561 0.0052645504 -0.052219138 -0.2666701 0.2970388 0.015724547
-0.22046398 0.13223866 0.122946985 -0.15225008 0.13103347 -0.20170423 0.10446802 0.28640717
0.19903696 0.14885283 -0.061342865 0.013205774 0.09820179 0.057868145 -0.07432923 0.03652921
-0.12212147 -0.17550714 -0.27824563 -0.2651254 -0.20044765 0.28821176 0.049956117 -0.2827333
-0.15412325 0.07042685 -0.09024423 -0.09653423 -0.11322199 -0.08056261 0.03120302 0.017854959
0.1604754 0.19295019 0.24572907 -0.025821896 -0.13463077 0.0010288656 -0.19966513 0.11642715
-0.03637746 -0.11474482 -0.28387633 0.14530328 0.14570527 0.25660443 -0.1154787 0.071106106
0.011365354 -0.19820279 -0.18848945 0.14387552 -0.18802842 0.21955562 0.10533583 0.08824742
0.19856799 0.12417556 0.1284498 0.1381218 -0.13943416 -0.15988587 -0.05523731 0.16051835
0.193964 0.21923888 -0.11767632 -0.03825718 -0.23330982 0.17806196 -0.21218657 -0.13414012
0.24418181 0.057752237 -0.13507722 -0.22746213 -0.20734152 0.22605292 -0.30373737 0.26054478
0.22805896 0.0064949896 -0.031632964 0.234492 0.12684289 0.28508234 0.23784134 -0.207706
0.15231805 0.13048527 -0.21407677 0.11730907 -0.20377538 -0.21674612 0.0056250095 -0.04373362
-0.0936907 -0.1977334 0.15360717 0.27688694 -0.07268884 -0.20730107 -0.015547186 -0.27077845
-0.28687316 -0.111269265 0.18944103 -0.25266165 -0.048116177 -0.16624093 -0.2894145 -0.07203477
-0.017563343 -0.050696373 0.20650426 0.12077406 0.1877194 0.118098736 0.031633824 0.15455712
-0.19234905 0.14397304 0.13669994 -0.13204342 -0.010348052 -0.24325675 -0.29033667 -0.0419113
0.053987205 -0.07526377 0.08037108 -0.247859 -0.19760565 0.19259296 -0.29342243 0.04734373
0.22999099 0.22603923 0.065189846 -0.2746469 0.033045374 -0.106028974 -0.088706024 0.23101574
-0.12845007 -0.22045188 -0.24758081 0.16640566 0.0028738184 0.28639 0.015107012 -0.28098407
0.074596226 0.2758962 0.18700626 0.07558592 -0.22652669 -0.18079662 0.20473051 -0.21632136
0.036540274 -0.038630545 0.10103062 0.013496772 -0.23642509 -0.13352503 0.24545473 0.029007263
0.12511885 -0.16465122 0.23868865 -0.064542696 -0.10162856 0.06116295 -0.108035535 -0.12116219
-0.043144852 -0.026980055 -0.18328929 0.09741332 -0.2922195 0.18054566 0.2796408 0.04877937
-0.070450634 -0.2761545 0.14159048 0.24109139 0.23695433 0.015467606 0.100240946 0.28295588
0.033243768 -0.15939918 -0.2862634 0.13182405 0.11354274 0.2511039 -0.15350103 0.11217944
-0.09975633 -0.10491592 0.17001784 -0.2763888 0.22225523 0.14023247 -0.18247141 0.14215393

shared.2.weight f4 [256, 256]
00000000: d8c8 80bc 6050 b83b 880a 89bc 2aa7 7abd
00000010: 701b d4bb 98d0 f93c 4047 eebb 881d fcbc
00000020: c0c8 013b f0dd 3a3c 24db 8ebc 2086 46bd
00000030: ae40 09bd 20f2 26bc a464 b83c 6ea7 633d
00000040: c008 983a 4c51 b73c 864b 133d 2c42 dfbc
00000050: e8e3 a9bc 6ace 293d 004b 373d 58a5 723c
00000060: 12d5 45bd 584d 113d 2e95 53bd b8e8 ff3c
00000070: a0b7 f23b 3062 a53c 1489 79bd ac01 b4bc
00000080: d471 d93c 280a 453d ac94 92bc b649 643d
00000090: c083 64bc ce67 1abd e0b7 ddbc c0e1 7e3b
000000a0: b8ff 35bc 5ccf f73c 0ead 0dbd 20a6 91bc
000000b0: 08b3 7dbd 52f5 503d c8ad 40bc d2ce 49bd
000000c0: 20a6 45bb 0040 efb8 6432 8e3c 60ca e0bb
000000d0: 480a 213d f4a6 b0bc 3c3f 99bc 482b 73bc
000000e0: 90d0 363c c61c 4d3d a078 3cbb 4cf9 443d
000000f0: 9219 493d 5049 05bd f0f6 afbb b8b1 f1bc
00000100: 8cfa d43c dc00 b4bc 802f 9c3c c0b6 743b
00000110: 1e0e 28bd 781b 2cbd a40a 7abd a033 0fbd
00000120: 8807 8f3c 608d 793b c289 403d c01a 61bd
00000130: 8062 efba d88a 65bd 00d0 bf39 548a ba3c
00000140: a2a4 65bd 4816 623d c805 9fbc 44d3 623d
00000150: 28e1 2bbc 8c3b 113d 3eb9 683d d867 babc
00000160: b8eb 78bc 9047 063d 662b 5bbd 9888 173d
00000170: 08cc 20bd 70c3 6d3d 06c6 27bd a0b1 d2bc
00000180: 0206 3f3d 04eb debc 446e 5b3d 0c22 303d
00000190: a8fc 693d de22 78bd 00a1 373a 5c67 a8bc
000001a0: a8eb 733c 084b 41bd 98f2 d13c 000b 42bb
000001b0: 4004 f2bc 6c4c 66bd cce7 053d a44b b9bc
000001c0: 76e5 3c3d 6849 363c 48b8 9b3c e84d 1bbc
000001d0: 38d9 0dbc 6cee adbc aeab 5dbd 3ef2 203d
000001e0: b436 21bd d834 153d 4cb0 acbc 4660 203d
000001f0: ce65 5b3d 3892 1cbd c062 533d c0a8 c73a
00000200: fc90 43bd 2001 d13c 0ef5 103d c0aa 613d
00000210: 0cb1 73bd 8a28 673d 5013 423d ccd7 7b3d
00000220: 8685 0b3d d0e3 f8bc 6034 423d 76f6 693d
00000230: fcc5 c3bc 2862 27bc 0854 483d 5613 4e3d
00000240: 341c 293d 3e21 443d d88e 03bd c8a7 30bc
00000250: 6c8c ccbc 8e0d 053d 8831 7f3c 7cbf 45bd
00000260: 58a0 00bc aac1 50bd 08ed 70bd 7260 693d
00000270: fcc5 00bd 5485 e43c d805 64bc f85b 4fbc
00000280: 0050 29b8 56a9 473d f8a7 0dbc cad4 533d
00000290: a0c9 153d 449e 2f3d 3e2d 68bd a868 efbc
000002a0: c691 50bd 687c 59bc c817 54bc a814 503c
000002b0: 565e 653d e4d6 e53c ba23 32bd 788c 20bd
000002c0: 984e 413d c0dd cb3b 78a4 903c a4e5 05bd
000002d0: 80c0 f9bb d8c4 913c 62fe 27bd d214 273d
000002e0: f426 ff3c c64a 15bd 20f6 d1bc 50be 70bc
000002f0: 785c 1f3c d4cf bbbc 20e5 743d e294 76bd
00000300: eab0 10bd f262 1bbd 4c6f 8a3c 1050 113c
00000310: c4e5 91bc 3a7c 5a3d 28fe 5cbd 5874 b43c
00000320: 4add 0cbd 702c 69bc 3287 76bd 161b 3fbd
00000330: f833 59bd 4c5f df3c 6442 c0bc eee9 053d
00000340: 2abd 0abd 00b6 7dbc 80e7 f73b 3a82 563d
00000350: b0fd 89bc a668 143d 143f 8d3c 2ab3 1b3d
00000360: a2b7 213d 1cc7 cf3c 6864 9abc 84b3 8fbc
00000370: 8052 c73c e887 0b3d 209e 5abb 9653 003d
00000380: b603 1abd e64b 103d f051 fbbb 082c 30bd
00000390: ccc5 f8bc ba81 43bd 008f 4e3c d4d2 17bd
000003a0: 3c9e 92bc 4051 80bb 7e33 1cbd 005a d23a
000003b0: 60f5 01bc 042c a23c b4ef 383d 108a 1abd
000003c0: 90f7 0b3d 0090 adba 6c51 12bd f832 e8bc
000003d0: cc52 823c e835 553c 404d 04bb 9ce5 febc
000003e0: 8619 013d 88ee 173c 94dd 78bd d8f7 34bc
000003f0: 78e9 8abc ac79 dabc ac00 0ebd e4ae 4fbd
-0.01572077 0.005624816 -0.016728655 -0.061194576 -0.0064729974 0.030494973 -0.0072716773 -0.0307758
0.0019803494 0.011405453 -0.017438479 -0.048467755 -0.03350895 -0.010189563 0.022508927 0.055579595
0.0011599287 0.022377633 0.035960697 -0.027253233 -0.020738557 0.041456617 0.04474926 0.014809929
-0.048298903 0.03547415 -0.05165594 0.031238899 0.0074071437 0.020188421 -0.060921744 -0.021973453
0.026543535 0.04810539 -0.017893158 0.05573436 -0.013947427 -0.037696652 -0.027065217 0.0038891882
-0.011108331 0.030250244 -0.034588866 -0.01777941 -0.061938316 0.051015206 -0.011760183 -0.049269505
-0.0030158833 -0.00011408329 0.017358012 -0.0068600625 0.039316446 -0.021563984 -0.01870691 -0.014841862
0.011158124 0.05007627 -0.0028758422 0.04808931 0.04909665 -0.03254062 -0.0053700134 -0.029503688
0.025998376 -0.021973066 0.019065619 0.0037340373 -0.04102909 -0.042018384 -0.061045304 -0.034961343
0.017459646 0.003807865 0.047006376 -0.05495715 -0.0018263608 -0.056040615 0.0003658533 0.022771038
-0.05606521 0.05519703 -0.019411936 0.05537726 -0.010490693 0.03545718 0.056817286 -0.022754595
-0.0151929185 0.03278309 -0.053508185 0.0369955 -0.03925708 0.05804771 -0.040960334 -0.025719464
0.04663659 -0.027211674 0.053571954 0.04300122 0.057125717 -0.060580127 0.0007004887 -0.020557098
0.014887728 -0.047190696 0.025628373 -0.0029608607 -0.029543042 -0.056225225 0.03269176 -0.022619076
0.04611727 0.0111259 0.01900877 -0.0094790235 -0.008657746 -0.021231852 -0.054118805 0.03929352
-0.03935881 0.03642735 -0.021080159 0.039154314 0.053563885 -0.038225383 0.051607847 0.0015232787
-0.04774569 0.025513232 0.035389952 0.05509448 -0.059495017 0.056435145 0.0473817 0.061485097
0.034062885 -0.030382067 0.04741323 0.05711981 -0.023898117 -0.010216273 0.048908263 0.05031141
0.041286662 0.047883265 -0.03211865 -0.01078219 -0.024969302 0.03248363 0.015575774 -0.048278317
-0.007850729 -0.050965942 -0.0588198 0.056976743 -0.031438813 0.027895607 -0.013917409 -0.012656204
-4.0367246e-05 0.048745476 -0.008646004 0.051716603 0.036569238 0.042875543 -0.05668377 -0.029224709
-0.05092027 -0.01327429 -0.012945123 0.012700237 0.05599817 0.02805657 -0.043491103 -0.03919646
0.047194093 0.006221503 0.01765655 -0.032689705 -0.0076218247 0.017794058 -0.041014083 0.04079134
0.031146504 -0.036448263 -0.025630057 -0.014693812 0.009726636 -0.022926249 0.059788823 -0.06020058
-0.03532497 -0.03793616 0.016898774 0.008869186 -0.017809756 0.053341128 -0.05395332 0.022028133
-0.034390725 -0.014231786 -0.060187526 -0.04665669 -0.053028077 0.02726712 -0.023469158 0.032693796
-0.033871807 -0.015485287 0.0075654387 0.052370287 -0.0168446 0.036232613 0.017241992 0.03801266
0.039481767 0.025363497 -0.018846706 -0.017541654 0.024331331 0.034065157 -0.003335841 0.031329714
-0.037601195 0.035228632 -0.00766968 -0.04301074 -0.030367754 -0.04773114 0.012607336 -0.037066296
-0.017897718 -0.0039159358 -0.038135044 0.0016048551 -0.007932037 0.019796379 0.045150474 -0.037729323
0.03417164 -0.0013241768 -0.03572218 -0.028344616 0.015908621 0.0130133405 -0.0020187646 -0.031115346
0.03151848 0.009273179 -0.06075819 -0.011045419 -0.01695703 -0.026669346 -0.03466861 -0.050703898

shared.2.bias f4 [256]
00000000: c875 16bd 1e0e 28bd 9ad0 2d3d 1ce7 f3bc
00000010: a7eb 173a dedf 6a3d b0bc 5b3d 4e85 363d
00000020: 98a6 2cbd fe84 863b 5d26 5fbb c0b2 973a
00000030: 5225 763d 6c8d 0f3d e2bf 7bbd 5e3c 573d
00000040: 9b72 663d b21c 45bd 8c77 54bd e1d0 293d
00000050: fcea a5bc 6e34 4bbd 2800 d63c 3c4c 1b3b
00000060: ce2c 003d 2c0c 32bd 8de0 553d adc0 ccbc
00000070: 1e25 18bd 5bdc ae3c 186e 50bd a173 53bd
00000080: 80e2 41bc 6a74 c03b a5f1 bcbc 929a b7bb
00000090: 1e6e 6fbd 4813 203d a6fb 0fbc f836 1c3c
000000a0: b075 1a3d 56a8 083d 2663 433d 469e 113d
000000b0: d8ac 913c 4a0b 1abd 8ea3 2e3d a8f7 4abc
000000c0: 3cad d53c 9ba7 603d 1481 2dbd 538e 09bc
000000d0: 32a3 33bd 905a 9cbb d971 97bc 065d 32bd
000000e0: 8ca3 a8bc 28a0 af3c fc7b 3abd bbf0 37bc
000000f0: 4247 3a3d caec 573d 4a21 73bd 7dc0 253d
00000100: 58ed 153c 2062 973c 5e9e 1f3d 8c81 4c3d
00000110: 0bf8 02bd cbf8 323d 80e3 08bc 3db2 2c3c
00000120: 9f5e bd3c 32c0 82bd 4c0e f4bc 75f2 84bd
00000130: 78b3 363c 99cf 0b3d b04f c7bc 84d8 883c
00000140: de19 17bc 40c9 9abc b34c 33bd 1c96 b53c
00000150: 2a08 d2bb 6465 cc3c 4855 723d 6b59 4cbd
00000160: 5d37 b7bb b3b4 94bc 168b 1f3d 42f0 663d
00000170: 644a 513d 098c 4bbb fc1a 383c 64f9 b9bc
00000180: 1984 88bd 6cfa 7dbd a497 b93c 316a 36bd
00000190: 9e28 14bd b8d0 953c 7700 59bd 3ebf 213d
000001a0: 621a 3e3d c026 80bb 3037 863c ea8b 353d
000001b0: 381d c13c 4ee6 75bd ded9 823c 4264 83bd
000001c0: ff27 2ebd 2a92 7ebd 9040 0abd f380 bcbb
000001d0: 6060 833b b43d 723b a0fe 333b 11c0 5fbd
000001e0: 5c0a 2e3c 8176 8dbc 802c 203d 91d1 393d
000001f0: 806e 82bb ab33 9a3b 56df 12bd 24c2 d83c
00000200: c90c 553d 3081 833c 654a a03c 799d afbb
00000210: 0ee3 28bd fb85 64bc f299 28bd 68ed 463d
00000220: b136 1abd 3c78 41bd 1290 8a3c 3ece bdbc
00000230: 9e19 23bc 02f8 743d 5c70 013d 3f6d 3f3d
00000240: dfa8 53bc fdd2 9fbc 2b39 3bbd 103c 623c
00000250: 19bc 283d 4960 26bd e822 d5bc 00d4 4a3d
00000260: df10 d4bc 444a f03c fa13 393d be7e 153d
00000270: a154 14bd f4f8 f9bb 98c0 343d a0b0 6a3d
00000280: f61c 163d e891 19bd 52b4 1a3d 9154 96bc
00000290: 3954 693d 3881 1ebd 9209 753d 9af6 5a3d
000002a0: 6cb7 a8bb b52d 03bd 42ce 61bd 98ab f6bb
000002b0: bcd1 06bd fee1 ddbb a8d8 5cbd dc84 9b3c
000002c0: ac14 303d 805a 0d3c 674e 6d3c 2202 5d3d
000002d0: 6f14 c33c c1e3 1abd 4c85 883c 541d 6fbc
000002e0: 10f3 73bc e84d b9bc 1898 ed3c fa39 6dbd
000002f0: c135 6fbd 8037 b63c 3b10 65bd 6ca8 aa3c
00000300: 2401 bcbc 60e0 163b 68a3 eabc e6cd 113d
00000310: 508a 93bc e49b a2bc e215 9f3c 22d1 bbbb
00000320: 0477 403d 346d 433d d19b 773a 5e41 c0bc
00000330: 57df a53c 8c12 5c3d acd6 8cbb 14b1 983c
00000340: 85a6 40bd b4e0 033d 487c 72bc ffd3 72bd
00000350: 58e1 3ebc c1b1 c73c 49ad 97bc f554 e5bc
00000360: f02e 19bc f6d0 1c3d 22ff 23bd eb38 5abd
00000370: 6486 05bd 5408 69bd a733 533d 809d 323c
00000380: d212 293c a2f4 953c 80b7 643c 87f6 1cbc
00000390: a75d aa3c 9408 83bd 8092 4aba a7da 6fbd
000003a0: 2875 6abc 5b9c 7fbd 70a3 ba3b 6c7e 723d
000003b0: a7e5 723d 60fb 153d 1d66 033d 0443 64bd
000003c0: 14d0 463d 692e 123d 61a0 42bc 3c8d 893c
000003d0: f8b9 3dbc 0c7e c63c 2e0e 423c 9bbf 803c
000003e0: b068 e53c 7c6b 6bbd a778 b63c d385 05bd
000003f0: b0fc 38bc a28e 77bd 6b94 4cbd 75a6 0e3d
-0.03673342 -0.04102909 0.042435266 -0.029773287 0.0005795308 0.057342403 0.053646743 0.044560723
-0.042151064 0.0041052094 -0.0034049966 0.0011573657 0.060094185 0.03504698 -0.06146229 0.052547805
0.05626164 -0.04812307 -0.05187182 0.041458968 -0.02025365 -0.049610548 0.026123121 0.0023696562
0.03129273 -0.04346864 0.0522161 -0.024994219 -0.037144773 0.021345308 -0.050886244 -0.051623944
-0.011833787 0.0058732526 -0.023064444 -0.005603143 -0.058454625 0.039080888 -0.008788025 0.00953459
0.03770989 0.033363663 0.047701977 0.035551332 0.017782614 -0.037608422 0.042636447 -0.012388147
0.026083581 0.05484734 -0.042359427 -0.008395749 -0.043856807 -0.004771538 -0.018486904 -0.043545745
-0.020585798 0.021438673 -0.045528397 -0.011226828 0.045478113 0.052716054 -0.05935792 0.040466774
0.009150825 0.018479407 0.03896939 0.049928233 -0.031974833 0.0436943 -0.0083550215 0.010540542
0.023116408 -0.063843146 -0.029791974 -0.064915575 0.011151187 0.034133527 -0.02432999 0.016704805
-0.009222476 -0.018894792 -0.043774318 0.022166304 -0.0064096646 0.02495069 0.05916336 -0.049889963
-0.0055913166 -0.01815257 0.038951002 0.05638147 0.051096335 -0.003105881 0.011236902 -0.022701927
-0.06665821 -0.0620064 0.022655316 -0.044534866 -0.036171548 0.018288001 -0.05297896 0.039489023
0.04641188 -0.0039108694 0.016383737 0.044322886 0.023573503 -0.06003409 0.015973028 -0.06415607
-0.042518612 -0.06215111 -0.033752978 -0.0057526766 0.0040092915 0.0036963047 0.0027465 -0.05462653
0.010622587 -0.017268421 0.03910494 0.045365874 -0.003980458 0.0047058663 -0.03585752 0.026459761
0.052014146 0.016052812 0.019566724 -0.0053593484 -0.04123216 -0.013947959 -0.04116244 0.048566252
-0.037649814 -0.047233805 0.016914401 -0.023169633 -0.009954838 0.05980683 0.031601295 0.046735045
-0.01291868 -0.019509787 -0.045708816 0.013808265 0.04119501 -0.04061917 -0.026017621 0.049518585
-0.025886951 0.029332288 0.045185067 0.036497824 -0.03621352 -0.0076285545 0.044128984 0.05729735
0.036648713 -0.037492663 0.037769623 -0.018350871 0.056965087 -0.03869745 0.05982358 0.053457834
-0.0051488187 -0.03202601 -0.055128343 -0.00752778 -0.032914862 -0.006771325 -0.053917557 0.01898425
0.042988464 0.008627534 0.014484025 0.053957112 0.023813454 -0.03781486 0.016665123 -0.014594395
-0.014889494 -0.022620156 0.029003188 -0.05791662 -0.058400873 0.022243261 -0.05592368 0.020832263
-0.022949763 0.0023021922 -0.028642371 0.03559675 -0.018010288 -0.019849725 0.019419614 -0.0057317177
0.046988502 0.047711566 0.00094455207 -0.02346867 0.020248098 0.053728625 -0.004298052 0.018639125
-0.047033805 0.032196715 -0.014800139 -0.059284206 -0.011650406 0.024376752 -0.018515246 -0.027994612
-0.00934957 0.03828522 -0.040038235 -0.053276937 -0.032598868 -0.056892708 0.05156293 0.010901809
0.0103194285 0.018305127 0.013959765 -0.009580261 0.02079661 -0.063981205 -0.00077275187 -0.058558132
-0.014310159 -0.06240497 0.005695753 0.059202597 0.059301045 0.036616683 0.032079805 -0.055727974
0.048538283 0.03568879 -0.011879058 0.016790979 -0.011579983 0.024230026 0.011844201 0.015716365
0.02800402 -0.057475552 0.022274328 -0.032598328 -0.011290714 -0.06043876 -0.04994623 0.034826715

actor_heads.0.weight f4 [3, 256]
00000000: e081 a23b 30ef bf3b 20e2 ee3b 28bc efbc
00000010: c876 d9bc 220c 3a3d a6e4 983d 0a81 fb3c
00000020: 907e e8bb 5c37 7b3d 2af3 f3b8 5e62 2d3d
00000030: 1a0b 343d f39b c1bc 42e6 93bc 9e8c 29bd
00000040: 8450 2a3d 7488 813c 3872 f33c 4031 b23b
00000050: 270f 7a3c c6c2 473d d4a7 f8bc fcd4 743d
00000060: 5539 ebbc d39a 973d 75fd d4bb e63f 89ba
00000070: bc4f 37bd 4a7b 373c c01f a4ba 13a1 3abd
00000080: a43b 22bd bca9 d93c 3ae0 b6bb 9e8a c73c
00000090: 404c b73c 2ab9 1ebc ffc3 d6bc a43d a5bc
000000a0: 8e1e 283d 20b5 5b3c f5e0 1bbc 0093 49bb
000000b0: 27b6 853d 4c11 c63c dd44 803d d456 66bd
000000c0: 644c 723c dd0b bfbc 5ccc 203d f974 d63c
000000d0: 2e0d 6c3d c62e 453d 7ba1 063d 10f3 f8bb
000000e0: 62ac 643d 05cd 063b d438 b7bc 5663 263d
000000f0: 5c7c 2d3d 2294 7e3d c893 4d3d 6984 b3bc
00000100: 32b6 6f3d 83e9 59bd ee48 6f3d 0c1e 65bd
00000110: dbf5 d93b 20ea 203d 2bd5 013d 032f a13d
00000120: 0ebc 2abc be1e 393d 9ec6 893d b3b4 183c
00000130: 188e 11bd 625d a83c 68c9 42bc a625 7e3d
00000140: 2e12 493d 4e3e 6bbd 288b a6bc 689e 453d
00000150: dd78 d43c d807 343d 6722 943d 266d 18bb
00000160: b959 a83c bf68 8f3c 4202 143d c6ed fabb
00000170: 8cef fa3c 5534 983d 9140 373c fc26 bcbc
00000180: 4708 f0bc df14 3c3d 6212 443d 43f5 8a3c
00000190: d27b 67bd b699 0e3d 9f18 a03c 801f 80ba
000001a0: ed95 d43c 3c06 b9bc 0bc4 953d 9d00 25bd
000001b0: d803 4bbc 98f1 653c 063c 5ebd fcf2 7f3d
000001c0: 6dc6 403d 62c2 233d 4cae b1bc 96ff b63c
000001d0: cc2e ca3c cd82 4c3d 08a3 6fbd 0459 533d
000001e0: 1581 6bbd 285a 33bd 1c6d f2bc f331 3b3d
000001f0: 7cf3 1f3d fa37 1bbd 2460 df3c 3233 303d
00000200: c83e 15bd c0dd 9c3b 4519 813d 3418 973d
00000210: eae4 433d 66f1 26bd a686 5c3d a7cc b83a
00000220: fc11 943d 78cf 61bc 88e4 5ebc 3296 463d
00000230: 6f29 883b 6cba 49bd 20ae 54bb fc68 9e3c
00000240: 0bc7 1d3c b861 27bd cdd9 ddbc 20e0 e5bb
00000250: 9560 40bb f83a 913d 8e5a 26bd 00a3 ff3c
00000260: 889b fabc 685e 84bc c5ba 9fbc 3165 5b3c
00000270: 0b0d 4abd 726c 293d 389f 82bc a6bf 0a3d
00000280: 47e3 9e3c 547d 1abd 823c 6c3d db85 40bd
00000290: 6b14 c5bc caa1 03bd 5662 4f3d bc7d eebc
000002a0: 41e5 543d 30df 963d 4720 603d fc43 073d
000002b0: 6ee6 0e3d 5878 463d 12f1 12bd cefc 3a3d
000002c0: d40e 72bd 94b0 8dbc 8900 ab3b b593 abbc
000002d0: 920e 9fba 0b7b 243d 9a31 953c 542b f93c
000002e0: 70b8 bc3b 3cf8 b6bc 0857 723d 2c86 053d
000002f0: cb06 72bc 2b64 31bd ef6d 8f3a cc67 18bd
00000300: 1040 1fbd 3c0b 4bbd ffbb 8b3d e8fa edbc
00000310: 0012 92b9 1c79 45bd fb8a 813d 9e42 d8bc
00000320: f8e8 04bc f714 5bbd 7cbc 173d 9660 103d
00000330: a779 e73c 54a1 3d3d 653f 6bbd 6cee a73c
00000340: 7974 c93c 880e 1bbd d26b 2d3d 2b69 1dbd
00000350: 04e3 773d 0c49 993c 7bd1 833d 7f5d 8fbc
00000360: b0ac 7b3d feb6 15bd 50bf 3fbc dc13 19bd
00000370: 2033 3e3d 20b8 c9bc 02b9 843d 60f9 723b
00000380: 3222 473d d89b ee3c e09a aebc 1d12 5f3d
00000390: 468b 443d d98f 763c 78a8 73bc cb19 593d
000003a0: e858 c4bc 13a3 f73c 2031 7ebb a4ee e53c
000003b0: 6772 77bd 2ddb f4bc 6ce7 633d ea82 5dbd
000003c0: 2a99 443d 8454 33bc cccb dd3c 385d 75bd
000003d0: efca 7b3c 2812 f53c 992e 80ba 1cbd 623c
000003e0: 6cd8 f5bc 7931 0f3d d503 483d 97ad 883c
000003f0: 2066 f73b b21d 25bd 95be 323d 0e77 f3bc
0.00495933 0.005857371 0.00729014 -0.029264525 -0.026545897 0.045421727 0.07465486 0.030701179
-0.0070951656 0.06133209 -0.00011632436 0.04233014 0.0439559 -0.023633933 -0.018054131 -0.04139387
0.041580692 0.015812136 0.02971755 0.005438 0.015262402 0.048769735 -0.030353464 0.05977343
-0.028713861 0.07402577 -0.006499941 -0.0010471314 -0.044753775 0.011198828 -0.0012521669 -0.04556377
-0.03960766 0.026570193 -0.005580929 0.02435809 0.022375226 -0.009687701 -0.026216505 -0.020170994
0.041044764 0.013409883 -0.009514083 -0.0030757785 0.065288834 0.02417817 0.06263135 -0.05623515
0.014788721 -0.023321087 0.039257392 0.026178824 0.057629757 0.04814031 0.032868844 -0.0075973347
0.05582846 0.0020568979 -0.022365965 0.040622078 0.042354926 0.06215299 0.050189763 -0.021913724
0.058523364 -0.05320121 0.05841916 -0.055936858 0.0066516227 0.03928578 0.031697433 0.07870295
-0.010420812 0.045195334 0.06727336 0.009320426 -0.0355359 0.02055234 -0.011888839 0.062047623
0.049089603 -0.057432465 -0.020330027 0.04824677 0.025936538 0.043952793 0.07233124 -0.0023258417
0.020550596 0.017506002 0.036134966 -0.0076577393 0.030631803 0.074318565 0.011184827 -0.022967808
-0.029300822 0.04591834 0.047869094 0.016962653 -0.05651457 0.03481456 0.01954299 -0.0009775013
0.025950396 -0.02258598 0.07312783 -0.040283788 -0.012391053 0.014034651 -0.05425646 0.062487587
0.047064234 0.0399803 -0.021689557 0.02233867 0.024680518 0.04992943 -0.058505088 0.051598564
-0.05749615 -0.04378715 -0.029593043 0.045701932 0.039050564 -0.03789518 0.027267523 0.043017574
-0.036436826 0.004787177 0.06303648 0.07377663 0.04782573 -0.04075756 0.05383935 0.0014099077
0.07229993 -0.013782375 -0.013604291 0.04848308 0.00415533 -0.04925005 -0.003245242 0.01933717
0.009629975 -0.040864676 -0.027081395 -0.007015243 -0.0029354442 0.070913255 -0.040613703 0.031205654
-0.030591741 -0.016158298 -0.019498238 0.013390825 -0.049328845 0.041363187 -0.015945062 0.033874176
0.019395484 -0.03771718 0.057674892 -0.047002655 -0.024057588 -0.032136716 0.05063089 -0.02911269
0.051976446 0.073667884 0.054718282 0.03302382 0.034887724 0.048454612 -0.035874434 0.04565125
-0.059096172 -0.017296113 0.0052185697 -0.020944456 -0.001213508 0.040156405 0.018212128 0.030416168
0.0057592914 -0.022335164 0.05916503 0.03259866 -0.014772127 -0.04330842 0.0010942797 -0.037208363
-0.038879454 -0.04957126 0.06822967 -0.029050305 -0.000278607 -0.048211202 0.063253365 -0.026398953
-0.008112185 -0.05348679 0.037044987 0.03524836 0.02825625 0.046296433 -0.057433505 0.02049943
0.024591671 -0.037855655 0.042339154 -0.038430374 0.060519233 0.01871159 0.064364396 -0.017500637
0.061443985 -0.036551468 -0.011703327 -0.037372455 0.046435475 -0.02462393 0.064806 0.0037074909
0.048616596 0.029127046 -0.021314085 0.054460634 0.047984384 0.015048944 -0.014871709 0.053003114
-0.023968175 0.030229127 -0.0038786605 0.028067894 -0.060411837 -0.029889667 0.055640623 -0.054079928
0.04799763 -0.010945443 0.027074717 -0.059903353 0.015368207 0.029915884 -0.0009779512 0.0138390325
-0.030010425 0.03495929 0.04883178 0.016684337 0.007550016 -0.040311523 0.043638784 -0.029719856

actor_heads.0.bias f4 [3]
00000000: e999 b4bc 6475 783d 6868 d7bc
-0.022046046 0.060658827 -0.026294902

actor_heads.1.weight f4 [3, 256]
00000000: 9ec0 35bd 4044 e9bb 348f 2cbd b00f 1dbd
00000010: f530 57bc 6645 04bd 2252 6abd e22d d9bc
00000020: 905f da3b 3f77 2d3d 937c 733d 881d 1c3c
00000030: 9023 21bd ea97 9d3c 5054 5dbd d483 d13b
00000040: 092e 8bbc c0b0 b23a 3077 f63c 2066 013c
00000050: 28d6 af3c 6ab1 07bd 3a60 433d 67e7 38bb
00000060: 9f3b 073d 1ca6 53bd 4331 5f3d 5c89 0e3d
00000070: 280c 583c 27eb 173d 98c8 533c f96f 8dbc
00000080: da65 5fbd 0e63 5b3a 5c2e 89bc ffb6 563d
00000090: 3092 c9bb da9d 2bbd a4c9 a2bb 707f babb
000000a0: e4bf 673d 08c2 003d ebf2 d3bb 8e9e 5bbd
000000b0: ca21 6cbd 0e0f 633d c6ae 9b3c c0d3 b3bc
000000c0: 20b8 8fbc 9fef 743d 59e8 1abc 9c53 7e3d
000000d0: 683c bc3c 8063 f0ba fe57 3a3c 5cdb 8fbc
000000e0: 1047 c0bb b3d7 9e3c fcbd 2fbd 8de2 9bbc
000000f0: b2f7 15bd da7d 17bd ce55 613d c85d 7d3d
00000100: 74a6 543d cdea 183d e0d2 693c f06f 483c
00000110: fb55 b43b 2920 a23d f62f 423d 4cfc 11b9
00000120: 756f 48bd f78e be3c e9ff de3c b20a afbb
00000130: a00b 363d 8e09 ef3c 9e87 24bd b0bf 773d
00000140: 3d45 3abd c082 943b 897f 23bd adab 073d
00000150: bead b5bc c4ed 7a3c fe71 f0bb f8f3 febc
00000160: 6ccc 3d3d 2998 1bbd cebb 4c3d 0706 31bd
00000170: e2be 6cbd 5f88 62bd f250 963c 4014 4bbb
00000180: d570 c7bc 7389 0e3c bc2b 41bd 6d53 21bd
00000190: 00bc 2e3c 9ede 1fbd 393d 2bbd 306c aebb
000001a0: 9771 c8bc 50bb 59bc ebdf d23c a296 273d
000001b0: e010 713c 39ae 0dbd 762b 4c3c 1c8c 083d
000001c0: 7b92 debc a2bd 143d 7006 ac3c ba10 6cbd
000001d0: 60b7 463c 3498 243c fed5 20bd fafa b2bc
000001e0: bc50 de3c 19c5 af3c 467c 5c3d 099d babc
000001f0: d067 763d 0485 ec3c d836 d53c 0012 7c3a
00000200: b460 cebc 36f3 5cbd 42e6 e73c 75b2 273d
00000210: 1035 893c 265f c63c 2aab 7b3d 5cf3 50bd
00000220: 8fe7 28bd 6099 f3bb 0cc2 103d af96 5d3d
00000230: 3fc2 793d 19de 253c 4037 ff3c f214 693d
00000240: d1b5 173d 288b 1dbc b6e3 aebc 6839 87bc
00000250: f7d9 6b3d 5fa0 81bd 515d 4b3c b8bc 243c
00000260: 793b 5abc 88c2 22bd cc4d 4bbd 4a34 79bb
00000270: b93d 3cbd e58a bf3c 80cb 3ebd 6082 79bc
00000280: 3ded 0dbc 5012 d03c f0cd 3b3d c6e5 613d
00000290: 84f5 8a3b 7c5b 7ebd 8c1a 8bbc 007c 133c
000002a0: 256f ce3c 3688 683d 56c8 82bd fe67 9fbc
000002b0: 5cd0 243d 8cc0 0d3d bc5b bcbc c081 913c
000002c0: 40b4 253d 7a23 28ba f688 a1bb 0649 d8ba
000002d0: 96fe ddbc 2ec0 45bd f04b f83c 2f36 903c
000002e0: b224 30bd a8ec 293c c4fd a7bc ce9c 613d
000002f0: e0cd 01bd 5024 603d 4b97 ce3c 205f ed3b
00000300: 1446 8d3c 48e5 183c b833 0a3d 8c07 eabc
00000310: 7060 8dbc 842d f4bc 3aff 553c db31 b3bc
00000320: 64f6 073d a7d5 a5bc 9d24 743d 6488 ba3c
00000330: cb78 7abd f8cb 1f3c c24f a93c 0403 26bd
00000340: bc7e 623b 0c4b b33c 9076 72bd 5cd0 67bd
00000350: 60e5 4fbb 3903 c23c 80a9 09bd 01e3 14bd
00000360: 4c0e 02bd 6080 613c 6899 b8bc bc31 d1bc
00000370: 60da b03b b0e1 efbb d376 22bc 8e97 223d
00000380: 40d3 37bd 0dc0 f7bb f04e debb f8e3 da3c
00000390: e44d 10bd 5ee8 133c e298 6ebd 9ff8 4f3d
000003a0: 0c82 8c3c 79a9 5ebc d2fa 5cbd fe87 3d3d
000003b0: 4d76 2b3d fd41 2d3d 2d2a 43bd 0014 ffb9
000003c0: 0d7f 1dbd 0556 24bd 2240 55bd 1e9a 223d
000003d0: 81d0 51bc 9a90 033d 8b87 40bc 7965 0fbc
000003e0: 80b7 19ba 0ccd 48bd bf69 65bd 3928 a03c
000003f0: 00c7 ffba 7a1f 5fba 7be6 97b9 a14a 9b3b
-0.044373147 -0.0071187317 -0.042128757 -0.03834504 -0.013134231 -0.032292746 -0.057207234 -0.026511136
0.006664224 0.04235005 0.059444975 0.009528525 -0.039340556 0.019237477 -0.054035485 0.006393889
-0.016989725 0.0013632998 0.03008613 0.007897884 0.021464422 -0.03312818 0.04769919 -0.0028214098
0.033015843 -0.051672086 0.05449034 0.034798965 0.013186492 0.037089493 0.012926243 -0.017265307
-0.054540493 0.00083689473 -0.016745739 0.052420612 -0.00615146 -0.041898586 -0.004967885 -0.0056914613
0.056579486 0.031435043 -0.006468167 -0.053618006 -0.05764941 0.05543428 0.019004237 -0.021951556
-0.017543852 0.059798833 -0.00945481 0.062091455 0.022978023 -0.00183402 0.011373518 -0.017560653
-0.0058678463 0.019389963 -0.042905793 -0.019028926 -0.036613174 -0.036985256 0.05501347 0.061857015
0.051916555 0.0373333 0.014271468 0.012233719 0.0055034137 0.0791629 0.04740902 -0.00013922265
-0.04893442 0.02326153 0.027221637 -0.005341851 0.04444468 0.02917936 -0.040168397 0.06048554
-0.045476187 0.004532188 -0.03991655 0.033122707 -0.022177573 0.015315477 -0.0073378077 -0.031122193
0.04633753 -0.037986908 0.049983792 -0.04321864 -0.057799228 -0.055305835 0.018349145 -0.0030987412
-0.024345795 0.008699763 -0.04716085 -0.0393862 0.01066494 -0.039030664 -0.041806433 -0.0053229555
-0.024468226 -0.013289288 0.025741538 0.04091514 0.014713496 -0.03458998 0.012461534 0.033336744
-0.027169457 0.03631366 0.020999163 -0.05763314 0.012128681 0.010046054 -0.03926658 -0.02184819
0.027138107 0.021456288 0.053829454 -0.022779958 0.060157597 0.02887202 0.026027128 0.00096157193
-0.025192596 -0.05394288 0.028308038 0.040941674 0.016748935 0.024215292 0.06144253 -0.051013336
-0.041236456 -0.007434055 0.035341308 0.05409878 0.060976263 0.010123753 0.031154275 0.05690474
0.037038628 -0.009615697 -0.021348815 -0.016506866 0.057580914 -0.063294165 0.012412385 0.01005476
-0.013319843 -0.0397363 -0.04963474 -0.0038025551 -0.0459573 0.02338166 -0.04658079 -0.015228838
-0.008662519 0.025399357 0.045850694 0.05515077 0.0042406935 -0.062098965 -0.016980432 0.009001732
0.025199482 0.056770526 -0.06385867 -0.019458767 0.04023777 0.034607455 -0.022992961 0.017762065
0.040455103 -0.0006413978 -0.004929657 -0.0016501255 -0.027098935 -0.04827898 0.030309647 0.017603962
-0.043003745 0.010371365 -0.020506747 0.05508118 -0.03169048 0.05472213 0.025218626 0.007244006
0.01724533 0.009332009 0.03374073 -0.028568052 -0.017257899 -0.02980686 0.013061339 -0.021874359
0.03319396 -0.020243479 0.05960523 0.022770114 -0.061150353 0.00975322 0.020667914 -0.04053022
0.0034560403 0.021886371 -0.0591951 -0.05659519 -0.0031722412 0.023683177 -0.033608913 -0.0363493
-0.031751916 0.013763517 -0.022534087 -0.02553641 0.005397126 -0.007320605 -0.009916025 0.039695315
-0.044879198 -0.007560736 -0.0067843124 0.026720032 -0.035230532 0.009027569 -0.05825127 0.050774213
0.017151855 -0.01359021 -0.05395014 0.04627227 0.041860867 0.04229926 -0.047647644 -0.0004865229
-0.038451243 -0.040121097 -0.052063115 0.03969776 -0.012806059 0.032120325 -0.011751066 -0.00875222
-0.00058638304 -0.049023673 -0.05600905 0.01955043 -0.0019514263 -0.0008511465 -0.00028972686 0.004739121

actor_heads.1.bias f4 [3]
00000000: 77b1 04bd 530c 7e3d 2e8b bb3c
-0.032395806 0.062023472 0.022893514

actor_heads.2.weight f4 [3, 256]
00000000: 208f 73bb 2804 363c a050 64bd ca88 163d
00000010: 7fa6 203d 2869 153d 3699 7c3a f28f febc
00000020: 0859 043c 34ae 8d3c d2cc 4dbd 7c2d c33c
00000030: 0a66 723d 944c 763d 8b5d b23c febb 5e3d
00000040: b786 05bd c0d6 ebba 48a4 0fbd 8890 e4bc
00000050: 79ad 78bc 30fc b9bc 6ce9 4f3d e886 0bbc
00000060: 1f1f 153d 86a7 0a39 63bf c83c 0749 aabc
00000070: 783c 00bc 0043 06bd b44e 6abd 052c 2dbd
00000080: 6843 583d 031e 963b 02c2 44bc 9ec8 a63b
00000090: 00e4 5c3b 8837 613b ac87 253d 80ea 51bb
000000a0: 00ca 773d 009b 4cba 818f 0a3d 6010 2fbc
000000b0: 2aa2 543c 00ed b1ba 02dd 743d c2e1 7f3d
000000c0: 35d3 0fbd d5ef 763b 402d 4ebd 3464 7dbc
000000d0: 6a9f 7dbd 007c 20bb 3d45 0e3c 8840 2f3d
000000e0: 489d fc3c e388 4abd 686b e03c a56a 51bd
000000f0: d2f2 2a3d ca86 1e3d c495 9a3c 19f3 223d
00000100: 5a6e 6c3d f863 463c 40f4 ecba 0c21 cf3c
00000110: 184d 4fbd d51c 00bd 7999 b73b 372b bb3c
00000120: 6402 75bd d6dd 23bc 969b 74bd 297f 1c3d
00000130: d670 17bd 5a1c 75bd a0f9 2fbc a08b 9d3c
00000140: 9a20 eaba 70dc 103c 84d5 d43a 7258 273d
00000150: afee d0bc c769 733c 7646 4a3d f6ea 043d
00000160: 1b9f 263d b74c 47bc 88f5 c6bc f489 6abd
00000170: c86a 463c f3f2 c8bb 6d17 23bd 808a febb
00000180: 311d 5fbd 8d0f 193b 9442 3cbd 84c4 69bd
00000190: 1c0a 8bbc 000a 6dbb d433 d33c 4e0d 363d
000001a0: c27e 993b 8a3b 4e3d c651 e2bc 2138 133d
000001b0: 0c3a 6e3d 7817 4abd 43fe f2bc 58a0 1c3d
000001c0: 3d56 e0bc 0660 3a3d 00be 70bd 1fbb 23bd
000001d0: 1034 983b b16e f13b c253 3d3d a81f 39bd
000001e0: 91fe e73b 1a3b a4bc a0d6 373d 959f 20bd
000001f0: 849b 463d d085 f53b 003b 5c3b 3852 4fbd
00000200: 1d96 d0bc ca4c 1a3d f573 43bd 3243 2e3c
00000210: e06c 81bb a60d f7bc b481 4abd a133 dfbc
00000220: 4c9d 483d 7063 993c e51b 4a3d e5a4 4d3d
00000230: a0a4 b83c f8d0 fb3c 785c 713d 5666 09bc
00000240: a662 6cbd 08a8 04bd d447 273c 162a 1c3d
00000250: 6042 91bb f86f 02bd 3583 4cbd 6afd 66bd
00000260: a011 073d 6010 b33c b822 16bb a429 443d
00000270: 82e2 f2bc 666f 073d 2a97 14bd e231 383d
00000280: b609 b0bc d623 4abd 8088 c3bc ff82 55bd
00000290: 4b95 b6bb 801b 523a b08d a9bc 9435 1fbd
000002a0: b3c3 203c f0cc 0d3d d272 19bd fb1c 16bc
000002b0: e041 c43c 282e 363d 9c5f f1bc acdf 3d3d
000002c0: 2257 02bd c28b bbbc f4a9 5ebc dbf7 eebc
000002d0: 75b9 55bc c587 f63b 2001 51bd 7cd7 07bd
000002e0: 9843 693c be03 063d 2093 943b 98e3 9c3c
000002f0: f5bb 1c3d 1c5c 013c d621 02bc dc11 fb3c
00000300: 18b7 13bc d89e 563c f38d b9bb 5876 893c
00000310: d854 58bc 0e89 06bd dbe7 63bd 837e 663c
00000320: 88aa 0c3d 3fe5 0e3d f4a0 c9bc 3308 4bbc
00000330: f18b 18bd 72ce 153d e16e d9bc ac31 f5bc
00000340: 80b3 62bc aad8 38bd 2059 593c 595e 4c3c
00000350: 8ce9 8b3c fea6 483d b6b5 69bd 307a 14bc
00000360: 4e0f 1e3d 4c04 803c 90ef ff3c 3258 7c3d
00000370: 9a34 41bd e897 58bc 382f 4f3d a0e7 4f3c
00000380: 5503 b33c 15a3 9c3c 6cbf 8c3c f682 4c3c
00000390: e285 2fbd f8dc d13c 8e74 153d c1f0 25bc
000003a0: c162 edbb 586d 773d 1640 30bd f02c 9dbb
000003b0: 5d5e b83c 6e58 48bc a897 513c c6d5 22bd
000003c0: 15ac 7dbc 6bb4 a4bc 7a46 e63c 501e ea3c
000003d0: 19ea 05bd a420 73bd 873e 453d 64b4 de3c
000003e0: 6e3c 333d 991a 4abd dd7d 69bd 3f03 de3c
000003f0: 6898 d5bc b747 41bd b5c3 173d eee6 8b3b
-0.0037164167 0.011109389 -0.055740952 0.036751546 0.039221283 0.036477238 0.00096358673 -0.031074498
0.008077867 0.01729498 -0.05024416 0.0238254 0.059179343 0.060131624 0.02177312 0.054378502
-0.032599177 -0.0017993078 -0.03506878 -0.02790095 -0.015178078 -0.02270326 0.050759718 -0.008516051
0.036406633 0.00013223113 0.024505323 -0.020786775 -0.007826917 -0.03277874 -0.057203963 -0.04227831
0.05279866 0.0045812144 -0.012009146 0.0050898334 0.0033705235 0.0034365375 0.04041259 -0.0032030642
0.060495377 -0.0007805079 0.033828262 -0.010685056 0.012978116 -0.001357466 0.059781082 0.06247116
-0.035113532 0.0037679572 -0.050336123 -0.015465785 -0.061919607 -0.0024487972 0.0086835 0.04278615
0.030836716 -0.04944695 0.027394965 -0.051127095 0.041735478 0.038702764 0.018870242 0.039782617
0.057722427 0.012108795 -0.0018078163 0.025284313 -0.05061063 -0.031277496 0.005603012 0.022847755
-0.059816733 -0.01000162 -0.05971869 0.038207207 -0.036972843 -0.05984149 -0.010740668 0.019231617
-0.0017862499 0.008841619 0.0016237949 0.040855832 -0.025504438 0.014856762 0.049383603 0.03245064
0.04067908 -0.012164286 -0.024287 -0.05726047 0.01211042 -0.0061324774 -0.039817262 -0.0077679753
-0.0544712 0.0023355216 -0.04596193 -0.057072178 -0.016972594 -0.003616929 0.02578155 0.044446282
0.0046843 0.05034975 -0.027626883 0.0359422 0.058160827 -0.049338788 -0.029662257 0.038238853
-0.027384872 0.04550173 -0.058774948 -0.039973374 0.004644878 0.007367932 0.046222456 -0.045196205
0.007079907 -0.020047713 0.044882417 -0.03921469 0.048488155 0.0074927583 0.0033604503 -0.05061552
-0.025462205 0.037670888 -0.047718007 0.010636138 -0.0039497465 -0.030157875 -0.0494401 -0.027246298
0.048978135 0.018724173 0.04934301 0.050206084 0.022539437 0.030739293 0.058926076 -0.008386215
-0.057711266 -0.03238681 0.010209996 0.038126074 -0.0044329613 -0.031845063 -0.049929816 -0.05639402
0.032975793 0.021858394 -0.0022908878 0.047891274 -0.029649023 0.033065222 -0.036276974 0.044969447
-0.021489006 -0.049350582 -0.0238688 -0.05212688 -0.0055719963 0.0008014962 -0.020697445 -0.038869455
0.009812283 0.03461927 -0.037463017 -0.009162183 0.023957193 0.04447761 -0.029464535 0.04635589
-0.031821378 -0.02289379 -0.013590325 -0.029170921 -0.013044705 0.007523509 -0.051026464 -0.033164486
0.014237307 0.032718413 0.00453414 0.019151494 0.038265187 0.007895496 -0.007942637 0.030648164
-0.009015821 0.013099395 -0.0056626736 0.016780064 -0.013203822 -0.03284555 -0.055641036 0.014068249
0.03434232 0.034886595 -0.024612881 -0.012392092 -0.037242834 0.036573835 -0.026542129 -0.029930912
-0.013836741 -0.045128502 0.013265878 0.012473666 0.017079137 0.04898738 -0.05705806 -0.009062335
0.038588814 0.015627049 0.031242162 0.061607547 -0.047169305 -0.013219811 0.05058214 0.012689501
0.021852175 0.019120732 0.01718112 0.012482395 -0.04285229 0.025618061 0.03648811 -0.010128201
-0.0072444384 0.060407013 -0.043029867 -0.0047966167 0.022505933 -0.0122281145 0.012792505 -0.03975465
-0.015482922 -0.020105561 0.028109778 0.028578907 -0.032693956 -0.0593573 0.048155334 0.027185626
0.043758802 -0.04934177 -0.0570048 0.027101157 -0.02607365 -0.047187533 0.037051875 0.0042694723

actor_heads.2.bias f4 [3]
00000000: 70c2 903c ab3a 0c3d 8751 8f3c
0.01767084 0.034235638 0.01749493
