results/ppo/models/ppo_ckpt_250.pt (torch, 303145 bytes, 19 tensors)

shared.0.weight f4 [256, 11]
0.22323248 0.246051 -0.07063581 0.27117574 -0.0941322 0.060235187 -0.14595626 0.17682694
0.24225788 -0.21748936 0.2616944 0.04577705 0.21734428 0.04083386 0.137994 -0.0760657
0.23028465 0.044301614 -0.14241065 0.033798885 -0.1386091 -0.036091194 -0.1251431 0.18792078
-0.23800406 -0.15045707 -0.050635 -0.19830841 0.009419309 -0.31521133 0.28978363 -0.26594177
0.22361343 0.050177276 -0.097902104 0.18631893 0.046990782 0.24361014 0.03296113 -0.095088586
0.081011176 -0.081763685 0.12689331 0.26919603 0.17429152 -0.13181248 0.17405185 0.053948283
0.15311801 -0.18377268 -0.29846862 -0.11649208 -0.23126608 0.24740177 0.08684471 0.105480164
0.065681115 -0.0052450895 0.20605983 -0.26239082 -0.0034737636 -0.22521152 0.07106026 -0.13232413
0.100485295 -0.07802267 0.25007105 -0.17870635 -0.17982076 -0.17983162 0.2711922 0.10047901
0.29012948 -0.24883015 -0.2990619 -0.23589155 -0.2028234 0.102250025 0.09220603 0.2505331
-0.17449184 -0.24233213 0.14765626 -0.1318605 0.17088115 -0.1065611 0.17329249 -0.24190599
-0.16315131 0.08763171 0.06374177 -0.08399545 0.15283437 0.20282367 -0.21958308 -0.16291668
0.24081145 -0.10739481 -0.10667026 -0.29174075 -0.17266656 0.075318635 -0.039797425 -0.21886286
0.0070724487 -0.20595682 -0.25580123 -0.16603103 -0.26388636 -0.19198376 0.28501248 0.052428465
0.09291366 -0.28778455 -0.22653879 -0.102375194 0.04653843 -0.26694566 -0.16619474 -0.17043002
0.00023548194 -0.112193346 -0.020893455 -0.20431304 -0.20695594 -0.17590226 -0.10320656 -0.23797715
0.25280815 -0.05983916 0.25941938 0.09394553 -0.29185346 0.17694154 -0.08295928 -0.14748378
-0.21578386 -0.337764 0.045031518 -0.10592959 0.11990058 -0.23931044 0.19375665 -0.22132553
-0.052062973 0.06297657 0.15565577 0.24341321 0.27466452 -0.23907502 0.07588053 -0.12968786
-0.03304106 -0.22567827 0.27463424 -0.2212944 0.16114312 0.10596302 0.09797791 -0.16301097
0.27405918 0.06625724 0.03878644 -0.26570833 0.126571 -0.04523292 -0.13812967 0.25898212
0.06722158 -0.16681913 -0.15260662 -0.014398903 0.16835228 -0.07704635 -0.1720348 -0.103250414
-0.23881602 0.094267726 0.23338193 -0.2965461 0.11613727 0.139249 0.035615016 -0.125058
0.16188185 0.1172055 0.09904431 -0.052982002 -0.079840586 0.032255948 -0.053263217 -0.089850694
0.19272813 0.25911874 -0.029848814 -0.067507446 0.0043997467 -0.018002719 0.06708815 0.07136929
-0.27384973 -0.12502834 0.28734344 0.09801104 -0.03621411 -0.20131652 -0.14879854 -0.2750661
-0.1077486 0.106703155 0.18893579 0.13920698 -0.26806003 -0.14345725 -0.054135237 0.2832926
0.036685426 -0.047950123 0.11774742 -0.11928424 -0.21247055 0.21402119 -0.13709775 -0.07042295
-0.31855583 0.19561496 0.22332865 0.10378609 -0.2523848 -0.29624772 -0.24586684 0.23455045
0.12967175 0.25372314 0.1470099 0.09843407 -0.016395707 -0.24558996 -0.27333876 -0.24588314
0.10008255 -0.16139811 -0.060679942 -0.17352137 -0.054942474 -0.2122142 -0.19701225 0.10001457
-0.08960809 0.18613598 -0.09672749 -0.22117884 -0.053198338 -0.14615685 -0.09224486 -0.2870375
00000000: 0e97 643e cbf4 7b3e 82a9 90bd 8cd7 8a3e
00000010: 62c8 c0bd 2cb9 763d 8f75 15be 1f12 353e
00000020: 7312 783e 88b5 5ebe cffc 853e b780 3b3d
00000030: 808f 5e3e 6841 273d 4d4e 0d3e 55c8 9bbd
00000040: bdcf 6b3e 9c75 353d 19d4 11be b370 0a3d
00000050: 8bef 0dbe 5cd4 13bd 8325 00be 4e6e 403e
00000060: 56b7 73be 6b11 1abe a566 4fbd 5c11 4bbe
00000070: 7253 1a3c 6163 a1be 855e 943e 8529 88be
00000080: ebfa 643e b086 4d3d e680 c8bd 64ca 3e3e
00000090: 6879 403d f074 793e 4002 073d cebd c2bd
000000a0: 30e9 a53d b873 a7bd 52f0 013e 10d4 893e
000000b0: 7a79 323e daf9 06be a63a 323e e0f8 5c3d
000000c0: f8ca 1c3e e82e 3cbe e1d0 98be 6693 eebd
000000d0: 04d1 6cbe e456 7d3e a4db b13d fc05 d83d
000000e0: d283 863d 00df abbb 5901 533e 1758 86be
000000f0: 15a8 63bb d99d 66be 0b88 913d fa7f 07be
00000100: 3ccb cd3d 59ca 9fbd 5009 803e ccfe 36be
00000110: ef22 38be c825 38be b4d9 8a3e f0c7 cd3d
00000120: da8b 943e 55cd 7ebe a41e 99be 8e8d 71be
00000130: f0b0 4fbe 7668 d13d 84d6 bc3d e045 803e
00000140: fdad 32be ea25 78be 3433 173e 7006 07be
00000150: 78fb 2e3e b53c dabd 9673 313e 34b6 77be
00000160: 2311 27be 4178 b33d 0c8b 823d ce05 acbd
00000170: 9d80 1c3e 02b1 4f3e 63da 60be a1d3 26be
00000180: 4797 763e cff1 dbbd f075 dabd 0b5f 95be
00000190: 81cf 30be a840 9a3d a002 23bd 961d 60be
000001a0: 00c0 e73b 58e6 52be 61f8 82be 0a04 2abe
000001b0: 1d1c 87be 6497 44be 28ed 913e 3bbf 563d
000001c0: 8449 be3d 7f58 93be c9f9 67be 16aa d1bd
000001d0: 159f 3e3d 1aad 88be f42e 2abe 3585 2ebe
000001e0: b4eb 7639 a0c5 e5bd c028 abbc 7037 51be
000001f0: 42ec 53be b91f 34be f65d d3bd 48b0 73be
00000200: 1270 813e e819 75bd 9ed2 843e 8466 c03d
00000210: d16d 95be 2a30 353e 8ee6 a9bd fd05 17be
00000220: 72f6 5cbe 67ef acbe f872 383d 9df1 d8bd
00000230: 6f8e f53d cc0d 75be 2568 463e 29a3 62be
00000240: fc3f 55bd dcf9 803d 3a64 1f3e 5041 793e
00000250: d4a0 8c3e 15d0 74be 4067 9b3d e5cc 04be
00000260: 1056 07bd 3418 67be dc9c 8c3e 009b 62be
00000270: b402 253e 2403 d93d a4a8 c83d 59ec 26be
00000280: 7c51 8c3e e0b1 873d 88de 1e3d ec0a 88be
00000290: d49b 013e 2846 39bd dd71 0dbe 4e99 843e
000002a0: 78ab 893d a2d2 2abe e944 1cbe 60e9 6bbc
000002b0: 8a64 2c3e 7aca 9dbd e429 30be f474 d3bd
000002c0: 308c 74be 700f c13d acfb 6e3e e4d4 97be
000002d0: 61d9 ed3d 4a97 0e3e 0de1 113d 340f 00be
000002e0: 5bc4 253e 7009 f03d bed7 ca3d a803 59bd
000002f0: 7683 a3bd d01e 043d 882a 5abd a403 b8bd
00000300: 865a 453e 36ab 843e 8085 f4bc 5841 8abd
00000310: c02b 903b 707a 93bc 8365 893d 102a 923d
00000320: 0836 8cbe 6e07 00be ae1e 933e 03ba c83d
00000330: 3f55 14bd eb25 4ebe a55e 18be 77d5 8cbe
00000340: 4cab dcbd 2f87 da3d 6278 413e 468c 0e3e
00000350: 2a3f 89be 75e6 12be e9bc 5dbd ba0b 913e
00000360: 7543 163d 5967 44bd 8f25 f13d 4c4b f4bd
00000370: e191 59be 5f28 5b3e 5a63 0cbe e839 90bd
00000380: c019 a3be 4a4f 483e 44b0 643e cd8d d43d
00000390: 9538 81be c8ad 97be 84c4 7bbe fe2d 703e
000003a0: acc8 043e 00e8 813e c389 163e cd97 c93d
000003b0: 4a50 86bc ef7b 7bbe 0ff3 8bbe cac8 7bbe
000003c0: 14f8 cc3d 8c45 25be 888b 78bd 96af 31be
000003d0: 5c0b 61bd ae4e 59be 94bd 49be 70d4 cc3d
000003e0: 7284 b7bd 6e9a 3e3e 1019 c6bd b57c 62be
000003f0: 80e6 59bd 24aa 15be e0ea bcbd 94f6 92be

shared.0.bias f4 [256]
0.20569536 -0.16457196 -0.14565241 0.23150271 0.11780012 -0.20117274 0.0913122 0.13323988
-0.27492362 0.05632451 0.06231836 -0.011743009 0.25726035 -0.19929174 0.1634543 -0.1601678
-0.27079841 0.20548558 -0.15838873 0.012631006 0.14859001 -0.26257917 -0.25809038 0.10265285
0.25073993 -0.031904697 0.20556268 0.10595128 0.07823376 -0.19223517 0.27265587 0.13810444
0.0036671914 0.17244154 -0.2590668 0.06497085 -0.13380371 -0.030617744 0.09878507 0.11099904
0.05083875 -0.2333556 -0.18869561 0.0052645504 -0.052219138 -0.2623173 0.2970388 0.018309755
-0.21878996 0.13223866 0.12488185 -0.15466258 0.13267747 -0.19915207 0.10446802 0.28640717
0.19903696 0.14885283 -0.061342865 0.019857775 0.09991644 0.059334982 -0.073409066 0.03842241
-0.12212147 -0.1735481 -0.27824563 -0.26205727 -0.1980721 0.28821176 0.052458704 -0.28111172
-0.15412325 0.07042685 -0.09024423 -0.09421812 -0.11322199 -0.08079642 0.03247517 0.017854959
0.16130158 0.19295019 0.24731913 -0.023947898 -0.13463077 0.0010288656 -0.19966513 0.11775599
-0.03637746 -0.11310334 -0.28125128 0.14530328 0.14507858 0.25863883 -0.11527053 0.07360937
0.011365354 -0.19647953 -0.18848945 0.14623056 -0.18643565 0.21955562 0.10533583 0.09056212
0.19856799 0.13156377 0.12804751 0.14025117 -0.13860922 -0.15988587 -0.05523731 0.16219264
0.19702294 0.22022445 -0.112644315 -0.03825718 -0.22758295 0.18027776 -0.21179533 -0.13279974
0.24397337 0.061286688 -0.13481177 -0.2232362 -0.20734152 0.22815973 -0.29732272 0.26054478
0.22780555 0.008376248 -0.029614102 0.234492 0.12692243 0.28508234 0.23783752 -0.2061597
0.15566683 0.13200112 -0.21407677 0.12223484 -0.19560684 -0.21040992 0.0056250095 -0.04373125
-0.091921024 -0.1977334 0.15517882 0.2789883 -0.07274204 -0.20638463 -0.015547186 -0.27087185
-0.28099063 -0.11457255 0.18944103 -0.25145712 -0.048116177 -0.16567549 -0.2878973 -0.072123624
-0.017563343 -0.050696373 0.20685993 0.12077406 0.1877194 0.118098736 0.031633824 0.15496096
-0.19234905 0.14707142 0.13932459 -0.1308335 -0.010348052 -0.24122159 -0.285649 -0.035926957
0.053987205 -0.074835055 0.083627455 -0.24612747 -0.19399323 0.19486606 -0.29342243 0.04734373
0.22999099 0.22603923 0.06901492 -0.2746469 0.034887794 -0.106028974 -0.088706024 0.23101574
-0.12621164 -0.21869916 -0.24680282 0.16764972 0.0034214384 0.28786063 0.017520135 -0.28098407
0.074596226 0.2758962 0.18700626 0.07740371 -0.22652669 -0.18079662 0.20473051 -0.2156682
0.040337514 -0.038630545 0.10103062 0.015335379 -0.23661347 -0.13051939 0.24843709 0.031067276
0.12983835 -0.16379233 0.23868865 -0.064542696 -0.10162856 0.06116295 -0.108035535 -0.12116219
-0.043144852 -0.025385283 -0.18284556 0.09778132 -0.2922195 0.18167709 0.2796408 0.04877937
-0.070450634 -0.2761545 0.14159048 0.24315792 0.23903048 0.018429127 0.100240946 0.28272286
0.033243768 -0.15825026 -0.2862634 0.13182405 0.11473036 0.25318745 -0.15350103 0.116596304
-0.09975633 -0.098304205 0.17217682 -0.2763888 0.22225523 0.14023247 -0.18073644 0.14287004
00000000: cea1 523e 8d85 28be e825 15be 0c0f 6d3e
00000010: 3041 f13d 3a00 4ebe e401 bb3d 0970 083e
00000020: cac2 8cbe 88b4 663d 8941 7f3d c065 40bc
00000030: a1b7 833e 2213 4cbe 9060 273e 0703 24be
00000040: 17a6 8abe d06a 523e a830 22be 47f2 4e3c
00000050: fb27 183e c770 86be 6c24 84be a83b d23d
00000060: fc60 803e 80ae 02bd 067f 523e fcfc d83d
00000070: 0639 a03d 4cd9 44be 8d99 8b3e 406b 0d3e
00000080: 4355 703b 8494 303e 67a4 84be 700f 853d
00000090: d703 09be 10d2 fabc d44f ca3d 7753 e33d
000000a0: 4b3c 503d c5f4 6ebe 6c39 41be 4082 ac3b
000000b0: bce3 55bd 744e 86be 7815 983e 57fe 953c
000000c0: 7a0a 60be 9269 073e 0ec2 ff3d de5f 1ebe
000000d0: 9adc 073e 85ee 4bbe 54f3 d53d f6a3 923e
000000e0: 58d0 4b3e e06c 183e a842 7bbd c6ac a23c
000000f0: fea0 cc3d 3d09 733d 7e57 96bd d160 1d3d
00000100: d21a fabd 98b6 31be 3676 8ebe 5f2c 86be
00000110: 6ad3 4abe 7e90 933e f0de 563d e0ed 8fbe
00000120: 7cd2 1dbe f43b 903d f8d1 b8bd 6ef5 c0bd
00000130: eee0 e7bd 9878 a5bd af04 053d 9044 923c
00000140: 3e2c 253e bc94 453e 3a41 7d3e 622e c4bc
00000150: a6dc 09be 00db 863a 0475 4cbe 0d2a f13d
00000160: 8800 15bd b9a2 e7bd 2b00 90be 62ca 143e
00000170: 7b8f 143e 4f6c 843e f512 ecbd 82c0 963d
00000180: c035 3a3c ee31 49be 6103 41be 77bd 153e
00000190: fde8 3ebe 30d3 603e 50ba d73d a278 b93d
000001a0: 6855 4b3e a7b8 063e e31e 033e 019e 0f3e
000001b0: 93ef 0dbe 1fb9 23be 8440 62bd d415 263e
000001c0: 62c0 493e 8582 613e 10b2 e6bd 90b3 1cbd
000001d0: 810b 69be bc9a 383e e0e0 58be a8fc 07be
000001e0: 28d4 793e c007 7b3d 190c 0abe 0898 64be
000001f0: 5651 54be b4a2 693e af3a 98be 2066 853e
00000200: dc45 693e 883c 093c 4699 f2bc ac1e 703e
00000210: f4f7 013e 50f6 913e ae8b 733e 871b 53be
00000220: 2067 1f3e 4d2b 073e f136 5bbe 4356 fa3d
00000230: 294d 48be b375 57be 0052 b83b 8a1f 33bd
00000240: 1741 bcbd a07a 4abe 32e7 1e3e 8ed7 8e3e
00000250: c7f9 94bd 7e56 53be a0b9 7ebc b7af 8abe
00000260: 01de 8fbe 03a5 eabd d4fc 413e fdbe 80be
00000270: 7815 45bd d6a6 29be 4667 93be 8db5 93bd
00000280: 00e1 8fbc 00a7 4fbd 17d3 533e 6458 f73d
00000290: 8439 403e c0dd f13d 7892 013d 16ae 1e3e
000002a0: 26f7 44be e499 163e 1bab 0e3e 38f9 05be
000002b0: e08a 29bc cb02 77be 9640 92be 2528 13bd
000002c0: b021 5d3d 1f43 99bd df44 ab3d d708 7cbe
000002d0: 29a6 46be f88a 473e 773b 96be 80eb 413d
000002e0: c282 6b3e d476 673e b257 8d3d 859e 8cbe
000002f0: 81e6 0e3d b825 d9bd 81ab b5bd 648f 6c3e
00000300: a03d 01be acf2 5fbe e1b9 7cbe 5eac 2b3e
00000310: 363a 603b 7862 933e 6386 8f3c 25dd 8fbe
00000320: e8c5 983d 4442 8d3e 927e 3f3e d685 9e3d
00000330: 9df6 67be c022 39be e0a4 513e 20d8 5cbe
00000340: f338 253d 103b 1ebd 24e9 ce3d 3e41 7b3c
00000350: cd4a 72be e0a6 05be 4b66 7e3e cd80 fe3c
00000360: 58f4 043e 2db9 27be cc6a 743e f62e 84bd
00000370: a222 d0bd 0086 7a3d bc41 ddbd e223 f8bd
00000380: a8b8 30bd ccf4 cfbc de3b 3bbe 9341 c83d
00000390: cb9d 95be 8f09 3a3e 142d 8f3e e0cc 473d
000003a0: 6c48 90bd 1f64 8dbe 18fd 103e 64fe 783e
000003b0: 68c4 743e aef8 963c 204b cd3d 0dc1 903e
000003c0: 9e2a 083d 5b0c 22be 1e91 92be e2fc 063e
000003d0: c0f7 ea3d c9a1 813e 602f 1dbe 0bca ee3d
000003e0: 0c4d ccbd b753 c9bd 1f4f 303e d582 8dbe
000003f0: e096 633e 1a99 0f3e f912 39be 864c 123e

shared.2.weight f4 [256, 256]
-0.01572077 0.005624816 -0.016728655 -0.061194576 -0.0064729974 0.030494973 -0.0072716773 -0.0307758
0.0019803494 0.011405453 -0.017438479 -0.048467755 -0.03350895 -0.010189563 0.022508927 0.055579595
0.0011599287 0.022377633 0.035960697 -0.027253233 -0.020738557 0.041456617 0.04474926 0.014809929
-0.048298903 0.03547415 -0.05165594 0.031238899 0.0074071437 0.020188421 -0.060921744 -0.021973453
0.026543535 0.04810539 -0.017893158 0.05573436 -0.013947427 -0.037696652 -0.027065217 0.0038891882
-0.011108331 0.030250244 -0.034588866 -0.01777941 -0.061938316 0.051015206 -0.011760183 -0.049269505
-0.0030158833 -0.00011408329 0.017358012 -0.0068600625 0.039316446 -0.021563984 -0.01870691 -0.014841862
0.011158124 0.05007627 -0.0028758422 0.04808931 0.04909665 -0.03254062 -0.0053700134 -0.029503688
0.025998376 -0.021973066 0.019065619 0.0037340373 -0.04102909 -0.042018384 -0.061045304 -0.034961343
0.017459646 0.003807865 0.047006376 -0.05495715 -0.0018263608 -0.056040615 0.0003658533 0.022771038
-0.05606521 0.05519703 -0.019411936 0.05537726 -0.010490693 0.03545718 0.056817286 -0.022754595
-0.0151929185 0.03278309 -0.053508185 0.0369955 -0.03925708 0.05804771 -0.040960334 -0.025719464
0.04663659 -0.027211674 0.053571954 0.04300122 0.057125717 -0.060580127 0.0007004887 -0.020557098
0.014887728 -0.047190696 0.025628373 -0.0029608607 -0.029543042 -0.056225225 0.03269176 -0.022619076
0.04611727 0.0111259 0.01900877 -0.0094790235 -0.008657746 -0.021231852 -0.054118805 0.03929352
-0.03935881 0.03642735 -0.021080159 0.039154314 0.053563885 -0.038225383 0.051607847 0.0015232787
-0.04774569 0.025513232 0.035389952 0.05509448 -0.059495017 0.056435145 0.0473817 0.061485097
0.034062885 -0.030382067 0.04741323 0.05711981 -0.023898117 -0.010216273 0.048908263 0.05031141
0.041286662 0.047883265 -0.03211865 -0.01078219 -0.024969302 0.03248363 0.015575774 -0.048278317
-0.007850729 -0.050965942 -0.0588198 0.056976743 -0.031438813 0.027895607 -0.013917409 -0.012656204
-4.0367246e-05 0.048745476 -0.008646004 0.051716603 0.036569238 0.042875543 -0.05668377 -0.029224709
-0.05092027 -0.01327429 -0.012945123 0.012700237 0.05599817 0.02805657 -0.043491103 -0.03919646
0.047194093 0.006221503 0.01765655 -0.032689705 -0.0076218247 0.017794058 -0.041014083 0.04079134
0.031146504 -0.036448263 -0.025630057 -0.014693812 0.009726636 -0.022926249 0.059788823 -0.06020058
-0.03532497 -0.03793616 0.016898774 0.008869186 -0.017809756 0.053341128 -0.05395332 0.022028133
-0.034390725 -0.014231786 -0.060187526 -0.04665669 -0.053028077 0.02726712 -0.023469158 0.032693796
-0.033871807 -0.015485287 0.0075654387 0.052370287 -0.0168446 0.036232613 0.017241992 0.03801266
0.039481767 0.025363497 -0.018846706 -0.017541654 0.024331331 0.034065157 -0.003335841 0.031329714
-0.037601195 0.035228632 -0.00766968 -0.04301074 -0.030367754 -0.04773114 0.012607336 -0.037066296
-0.017897718 -0.0039159358 -0.038135044 0.0016048551 -0.007932037 0.019796379 0.045150474 -0.037729323
0.03417164 -0.0013241768 -0.03572218 -0.028344616 0.015908621 0.0130133405 -0.0020187646 -0.031115346
0.03151848 0.009273179 -0.06075819 -0.011045419 -0.01695703 -0.026669346 -0.03466861 -0.050703898
00000000: d8c8 80bc 6050 b83b 880a 89bc 2aa7 7abd
00000010: 701b d4bb 98d0 f93c 4047 eebb 881d fcbc
00000020: c0c8 013b f0dd 3a3c 24db 8ebc 2086 46bd
00000030: ae40 09bd 20f2 26bc a464 b83c 6ea7 633d
00000040: c008 983a 4c51 b73c 864b 133d 2c42 dfbc
00000050: e8e3 a9bc 6ace 293d 004b 373d 58a5 723c
00000060: 12d5 45bd 584d 113d 2e95 53bd b8e8 ff3c
00000070: a0b7 f23b 3062 a53c 1489 79bd ac01 b4bc
00000080: d471 d93c 280a 453d ac94 92bc b649 643d
00000090: c083 64bc ce67 1abd e0b7 ddbc c0e1 7e3b
000000a0: b8ff 35bc 5ccf f73c 0ead 0dbd 20a6 91bc
000000b0: 08b3 7dbd 52f5 503d c8ad 40bc d2ce 49bd
000000c0: 20a6 45bb 0040 efb8 6432 8e3c 60ca e0bb
000000d0: 480a 213d f4a6 b0bc 3c3f 99bc 482b 73bc
000000e0: 90d0 363c c61c 4d3d a078 3cbb 4cf9 443d
000000f0: 9219 493d 5049 05bd f0f6 afbb b8b1 f1bc
00000100: 8cfa d43c dc00 b4bc 802f 9c3c c0b6 743b
00000110: 1e0e 28bd 781b 2cbd a40a 7abd a033 0fbd
00000120: 8807 8f3c 608d 793b c289 403d c01a 61bd
00000130: 8062 efba d88a 65bd 00d0 bf39 548a ba3c
00000140: a2a4 65bd 4816 623d c805 9fbc 44d3 623d
00000150: 28e1 2bbc 8c3b 113d 3eb9 683d d867 babc
00000160: b8eb 78bc 9047 063d 662b 5bbd 9888 173d
00000170: 08cc 20bd 70c3 6d3d 06c6 27bd a0b1 d2bc
00000180: 0206 3f3d 04eb debc 446e 5b3d 0c22 303d
00000190: a8fc 693d de22 78bd 00a1 373a 5c67 a8bc
000001a0: a8eb 733c 084b 41bd 98f2 d13c 000b 42bb
000001b0: 4004 f2bc 6c4c 66bd cce7 053d a44b b9bc
000001c0: 76e5 3c3d 6849 363c 48b8 9b3c e84d 1bbc
000001d0: 38d9 0dbc 6cee adbc aeab 5dbd 3ef2 203d
000001e0: b436 21bd d834 153d 4cb0 acbc 4660 203d
000001f0: ce65 5b3d 3892 1cbd c062 533d c0a8 c73a
00000200: fc90 43bd 2001 d13c 0ef5 103d c0aa 613d
00000210: 0cb1 73bd 8a28 673d 5013 423d ccd7 7b3d
00000220: 8685 0b3d d0e3 f8bc 6034 423d 76f6 693d
00000230: fcc5 c3bc 2862 27bc 0854 483d 5613 4e3d
00000240: 341c 293d 3e21 443d d88e 03bd c8a7 30bc
00000250: 6c8c ccbc 8e0d 053d 8831 7f3c 7cbf 45bd
00000260: 58a0 00bc aac1 50bd 08ed 70bd 7260 693d
00000270: fcc5 00bd 5485 e43c d805 64bc f85b 4fbc
00000280: 0050 29b8 56a9 473d f8a7 0dbc cad4 533d
00000290: a0c9 153d 449e 2f3d 3e2d 68bd a868 efbc
000002a0: c691 50bd 687c 59bc c817 54bc a814 503c
000002b0: 565e 653d e4d6 e53c ba23 32bd 788c 20bd
000002c0: 984e 413d c0dd cb3b 78a4 903c a4e5 05bd
000002d0: 80c0 f9bb d8c4 913c 62fe 27bd d214 273d
000002e0: f426 ff3c c64a 15bd 20f6 d1bc 50be 70bc
000002f0: 785c 1f3c d4cf bbbc 20e5 743d e294 76bd
00000300: eab0 10bd f262 1bbd 4c6f 8a3c 1050 113c
00000310: c4e5 91bc 3a7c 5a3d 28fe 5cbd 5874 b43c
00000320: 4add 0cbd 702c 69bc 3287 76bd 161b 3fbd
00000330: f833 59bd 4c5f df3c 6442 c0bc eee9 053d
00000340: 2abd 0abd 00b6 7dbc 80e7 f73b 3a82 563d
00000350: b0fd 89bc a668 143d 143f 8d3c 2ab3 1b3d
00000360: a2b7 213d 1cc7 cf3c 6864 9abc 84b3 8fbc
00000370: 8052 c73c e887 0b3d 209e 5abb 9653 003d
00000380: b603 1abd e64b 103d f051 fbbb 082c 30bd
00000390: ccc5 f8bc ba81 43bd 008f 4e3c d4d2 17bd
000003a0: 3c9e 92bc 4051 80bb 7e33 1cbd 005a d23a
000003b0: 60f5 01bc 042c a23c b4ef 383d 108a 1abd
000003c0: 90f7 0b3d 0090 adba 6c51 12bd f832 e8bc
000003d0: cc52 823c e835 553c 404d 04bb 9ce5 febc
000003e0: 8619 013d 88ee 173c 94dd 78bd d8f7 34bc
000003f0: 78e9 8abc ac79 dabc ac00 0ebd e4ae 4fbd

shared.2.bias f4 [256]
-0.03673342 -0.04102909 0.042435266 -0.029773287 0.0005795308 0.057342403 0.05438966 0.044560723
-0.042151064 0.0041052094 -0.0006275341 0.0011573657 0.060094185 0.03581701 -0.06146229 0.052547805
0.055776488 -0.04812307 -0.05187182 0.041521188 -0.019582443 -0.049610548 0.026123121 0.0033896205
0.03129273 -0.042718157 0.05239311 -0.024994142 -0.037144773 0.021345308 -0.050886244 -0.051623944
-0.011833787 0.0066911844 -0.022347087 -0.005603143 -0.058454625 0.039080888 -0.008788025 0.00953459
0.03770989 0.033363663 0.047701977 0.035551332 0.018598309 -0.037608422 0.042636447 -0.012388147
0.02564693 0.05484734 -0.042359427 -0.008395749 -0.043856807 -0.004771538 -0.018486904 -0.043545745
-0.020585798 0.021438673 -0.045528397 -0.011226828 0.045478113 0.052716054 -0.05935792 0.040466774
0.009150825 0.018479407 0.03896939 0.049928233 -0.031974833 0.0436943 -0.0083550215 0.011269667
0.023683645 -0.063843146 -0.0302939 -0.06550275 0.011151187 0.034986503 -0.02432999 0.016704805
-0.009222476 -0.018894792 -0.042801198 0.022903861 -0.005665044 0.02451471 0.059928052 -0.048991393
-0.0055913166 -0.017572643 0.038951002 0.057156995 0.051096335 -0.0022941756 0.011236902 -0.022701927
-0.06665821 -0.061280824 0.022655316 -0.043902427 -0.036171548 0.018288001 -0.05297896 0.039489023
0.04641188 -0.0039108694 0.015938431 0.046013642 0.023573503 -0.05913145 0.015973028 -0.06455109
-0.04211112 -0.06215111 -0.033752978 -0.0057526766 0.0040092915 0.0045802193 0.0027465 -0.053161267
0.010622587 -0.01583539 0.03910494 0.045365874 -0.003980458 0.005473979 -0.03585752 0.026459761
0.052881774 0.016052812 0.019566724 -0.0056825583 -0.04123216 -0.012786789 -0.04116244 0.048566252
-0.038187996 -0.047233805 0.016914401 -0.023675315 -0.009954838 0.05980683 0.031601295 0.046735045
-0.012130356 -0.020257182 -0.045708816 0.013808265 0.040712737 -0.039872702 -0.026017621 0.049518585
-0.02643167 0.029332288 0.044676747 0.036204 -0.03621352 -0.0076285545 0.044128984 0.05729735
0.037431937 -0.037492663 0.037769623 -0.017554771 0.056451563 -0.03869745 0.05982358 0.053457834
-0.0043402975 -0.032502234 -0.055128343 -0.0067749764 -0.032914862 -0.006771325 -0.053917557 0.01898425
0.042988464 0.008224905 0.014484025 0.0548684 0.023813454 -0.037737112 0.017448332 -0.014852998
-0.014889494 -0.022620156 0.029003188 -0.05791662 -0.05731754 0.022243261 -0.056394313 0.020832263
-0.022949763 0.0023021922 -0.028838562 0.03559675 -0.018010288 -0.019849725 0.019419614 -0.0057317177
0.046988502 0.049038477 0.00094455207 -0.02346867 0.019931378 0.053728625 -0.004680496 0.018639125
-0.047033805 0.032196715 -0.014800139 -0.0598088 -0.011650406 0.024376752 -0.018814594 -0.028378448
-0.00934957 0.03828522 -0.040038235 -0.053276937 -0.032598868 -0.056892708 0.05156293 0.010901809
0.0103194285 0.017827822 0.013959765 -0.009580261 0.02079661 -0.06431879 -0.00077275187 -0.058558132
-0.014310159 -0.06240497 0.005695753 0.059202597 0.054723687 0.037378076 0.032079805 -0.055727974
0.049351506 0.03568879 -0.0122466395 0.016790979 -0.010742208 0.024230026 0.01272134 0.015240854
0.02800402 -0.05792917 0.02183588 -0.032598328 -0.011290714 -0.06043876 -0.049547456 0.034826715
00000000: c875 16bd 1e0e 28bd 9ad0 2d3d 1ce7 f3bc
00000010: a7eb 173a dedf 6a3d b1c7 5e3d 4e85 363d
00000020: 98a6 2cbd fe84 863b 1a81 24ba c0b2 973a
00000030: 5225 763d dbb4 123d e2bf 7bbd 5e3c 573d
00000040: e375 643d b21c 45bd 8c77 54bd 1f12 2a3d
00000050: 5c6b a0bc 6e34 4bbd 2800 d63c 6524 5e3b
00000060: ce2c 003d 3cf9 2ebd 289a 563d 84c0 ccbc
00000070: 1e25 18bd 5bdc ae3c 186e 50bd a173 53bd
00000080: 80e2 41bc b941 db3b 3d11 b7bc 929a b7bb
00000090: 1e6e 6fbd 4813 203d a6fb 0fbc f836 1c3c
000000a0: b075 1a3d 56a8 083d 2663 433d 469e 113d
000000b0: 7b5b 983c 4a0b 1abd 8ea3 2e3d a8f7 4abc
000000c0: 8319 d23c 9ba7 603d 1481 2dbd 538e 09bc
000000d0: 32a3 33bd 905a 9cbb d971 97bc 065d 32bd
000000e0: 8ca3 a8bc 28a0 af3c fc7b 3abd bbf0 37bc
000000f0: 4247 3a3d caec 573d 4a21 73bd 7dc0 253d
00000100: 58ed 153c 2062 973c 5e9e 1f3d 8c81 4c3d
00000110: 0bf8 02bd cbf8 323d 80e3 08bc 69a4 383c
00000120: 3404 c23c 32c0 82bd ea2a f8bc 4e26 86bd
00000130: 78b3 363c 024e 0f3d b04f c7bc 84d8 883c
00000140: de19 17bc 40c9 9abc 4f50 2fbd e1a0 bb3c
00000150: d5a1 b9bb 13d3 c83c 1e77 753d 33ab 48bd
00000160: 5d37 b7bb 81f4 8fbc 168b 1f3d 741d 6a3d
00000170: 644a 513d e159 16bb fc1a 383c 64f9 b9bc
00000180: 1984 88bd 9a01 7bbd a497 b93c 08d3 33bd
00000190: 9e28 14bd b8d0 953c 7700 59bd 3ebf 213d
000001a0: 621a 3e3d c026 80bb 5091 823c cd78 3c3d
000001b0: 381d c13c d233 72bd ded9 823c 5d33 84bd
000001c0: b67c 2cbd 2a92 7ebd 9040 0abd f380 bcbb
000001d0: 6060 833b aa15 963b a0fe 333b a1bf 59bd
000001e0: 5c0a 2e3c 38b9 81bc 802c 203d 91d1 393d
000001f0: 806e 82bb 105f b33b 56df 12bd 24c2 d83c
00000200: 8f9a 583d 3081 833c 654a a03c c134 babb
00000210: 0ee3 28bd ae7f 51bc f299 28bd 68ed 463d
00000220: 046b 1cbd 3c78 41bd 1290 8a3c bcf2 c1bc
00000230: 9e19 23bc 02f8 743d 5c70 013d 3f6d 3f3d
00000240: 67be 46bc 64f2 a5bc 2b39 3bbd 103c 623c
00000250: 66c2 263d 8f51 23bd e822 d5bc 00d4 4a3d
00000260: 3b87 d8bc 444a f03c f7fe 363d a54a 143d
00000270: a154 14bd f4f8 f9bb 98c0 343d a0b0 6a3d
00000280: 3b52 193d e891 19bd 52b4 1a3d 06cf 8fbc
00000290: c139 673d 3881 1ebd 9209 753d 9af6 5a3d
000002a0: 0e39 8ebb 1021 05bd 42ce 61bd 9f00 debb
000002b0: bcd1 06bd fee1 ddbb a8d8 5cbd dc84 9b3c
000002c0: ac14 303d c0c1 063c 674e 6d3c b0bd 603d
000002d0: 6f14 c33c 3b92 1abd ceef 8e3c fd59 73bc
000002e0: 10f3 73bc e84d b9bc 1898 ed3c fa39 6dbd
000002f0: ccc5 6abd 8037 b63c b9fd 66bd 6ca8 aa3c
00000300: 2401 bcbc 60e0 163b d93e ecbc e6cd 113d
00000310: 508a 93bc e49b a2bc e215 9f3c 22d1 bbbb
00000320: 0477 403d 92dc 483d d19b 773a 5e41 c0bc
00000330: 2147 a33c 8c12 5c3d d95e 99bb 14b1 983c
00000340: 85a6 40bd b4e0 033d 487c 72bc 13fa 74bd
00000350: 58e1 3ebc c1b1 c73c 1021 9abc eb79 e8bc
00000360: f02e 19bc f6d0 1c3d 22ff 23bd eb38 5abd
00000370: 6486 05bd 5408 69bd a733 533d 809d 323c
00000380: d212 293c a70b 923c 80b7 643c 87f6 1cbc
00000390: a75d aa3c 92b9 83bd 8092 4aba a7da 6fbd
000003a0: 2875 6abc 5b9c 7fbd 70a3 ba3b 6c7e 723d
000003b0: f225 603d c119 193d 1d66 033d 0443 64bd
000003c0: ce24 4a3d 692e 123d 21a6 48bc 3c8d 893c
000003d0: 1600 30bc 0c7e c63c 2b6d 503c c6b4 793c
000003e0: b068 e53c 2347 6dbd 29e1 b23c d385 05bd
000003f0: b0fc 38bc a28e 77bd 46f2 4abd 75a6 0e3d

actor_heads.0.weight f4 [3, 256]
0.00495933 0.005857371 0.00729014 -0.029264525 -0.026545897 0.045421727 0.07472809 0.030701179
-0.0070951656 0.06133209 -9.505568e-05 0.04233014 0.0439559 -0.02356779 -0.018054131 -0.04139387
0.041658793 0.015812136 0.02971755 0.005438 0.015308312 0.048769735 -0.030353464 0.059848946
-0.028713861 0.07410387 -0.006484841 -0.0010471314 -0.044753775 0.011198828 -0.0012521669 -0.04556377
-0.03960766 0.0266525 -0.0055141626 0.02435809 0.022375226 -0.009687701 -0.026216505 -0.020170994
0.041044764 0.013409883 -0.009514083 -0.0030757785 0.06536324 0.02417817 0.06263135 -0.05623515
0.014843537 -0.023321087 0.039257392 0.026178824 0.057629757 0.04814031 0.032868844 -0.0075973347
0.05582846 0.0020568979 -0.022365965 0.040622078 0.042354926 0.06215299 0.050189763 -0.021913724
0.058523364 -0.05320121 0.05841916 -0.055936858 0.0066516227 0.03928578 0.031697433 0.07878598
-0.010384329 0.045195334 0.06733229 0.009372621 -0.0355359 0.020626169 -0.011888839 0.062047623
0.049089603 -0.057432465 -0.020330027 0.048314128 0.025992626 0.044016976 0.07239945 -0.0022549648
0.020550596 0.017522752 0.036134966 -0.0075766603 0.030631803 0.07437213 0.011184827 -0.022967808
-0.029300822 0.046000354 0.047869094 0.017055124 -0.05651457 0.03481456 0.01954299 -0.0009775013
0.025950396 -0.02258598 0.07319772 -0.040234752 -0.012391053 0.014106872 -0.05425646 0.06254611
0.047065865 0.0399803 -0.021689557 0.02233867 0.024680518 0.04997499 -0.058505088 0.051657718
-0.05749615 -0.04378029 -0.029593043 0.045701932 0.039050564 -0.037823193 0.027267523 0.043017574
-0.036380768 0.004787177 0.06303648 0.07384046 0.04782573 -0.040753633 0.05383935 0.0014099077
0.07237503 -0.013782375 -0.013604291 0.04855398 0.00415533 -0.04925005 -0.003245242 0.01933717
0.00971657 -0.040824443 -0.027081395 -0.007015243 -0.0028607459 0.0709597 -0.040613703 0.031205654
-0.030520767 -0.016158298 -0.01943217 0.01342153 -0.049328845 0.041363187 -0.015945062 0.033874176
0.019472858 -0.03771718 0.057674892 -0.046927605 -0.024009302 -0.032136716 0.05063089 -0.02911269
0.052059676 0.073714584 0.054718282 0.033096265 0.034887724 0.048454612 -0.035874434 0.04565125
-0.059096172 -0.017227938 0.0052185697 -0.01864514 -0.001213508 0.040156405 0.018281098 0.03047656
0.0057592914 -0.022335164 0.05916503 0.03259866 -0.014704611 -0.04330842 0.0011678091 -0.037208363
-0.038879454 -0.04957126 0.06830249 -0.029050305 -0.000278607 -0.048211202 0.063253365 -0.026398953
-0.008112185 -0.053465705 0.037044987 0.03524836 0.028299471 0.046296433 -0.05739975 0.02049943
0.024591671 -0.037855655 0.042339154 -0.038358673 0.060519233 0.01871159 0.064424485 -0.017437328
0.061443985 -0.036551468 -0.011703327 -0.037372455 0.046435475 -0.02462393 0.064806 0.0037074909
0.048616596 0.029195605 -0.021314085 0.054460634 0.047984384 0.015075476 -0.014871709 0.053003114
-0.023968175 0.030229127 -0.0038786605 0.028067894 -0.031976275 -0.029832313 0.055640623 -0.054079928
0.04806261 -0.010945443 0.027117157 -0.059903353 0.015448922 0.029915884 -0.00090425083 0.013896637
-0.030010425 0.035030548 0.048889235 0.016684337 0.007550016 -0.040311523 0.043638784 -0.029719856
00000000: e081 a23b 30ef bf3b 20e2 ee3b 28bc efbc
00000010: c876 d9bc 220c 3a3d 0a0b 993d 0a81 fb3c
00000020: 907e e8bb 5c37 7b3d a158 c7b8 5e62 2d3d
00000030: 1a0b 343d 3d11 c1bc 42e6 93bc 9e8c 29bd
00000040: 69a2 2a3d 7488 813c 3872 f33c 4031 b23b
00000050: b7cf 7a3c c6c2 473d d4a7 f8bc 2b24 753d
00000060: 5539 ebbc c5c3 973d ca7e d4bb e63f 89ba
00000070: bc4f 37bd 4a7b 373c c01f a4ba 13a1 3abd
00000080: a43b 22bd 5856 da3c 26b0 b4bb 9e8a c73c
00000090: 404c b73c 2ab9 1ebc ffc3 d6bc a43d a5bc
000000a0: 8e1e 283d 20b5 5b3c f5e0 1bbc 0093 49bb
000000b0: 2add 853d 4c11 c63c dd44 803d d456 66bd
000000c0: 4e32 733c dd0b bfbc 5ccc 203d f974 d63c
000000d0: 2e0d 6c3d c62e 453d 7ba1 063d 10f3 f8bb
000000e0: 62ac 643d 05cd 063b d438 b7bc 5663 263d
000000f0: 5c7c 2d3d 2294 7e3d c893 4d3d 6984 b3bc
00000100: 32b6 6f3d 83e9 59bd ee48 6f3d 0c1e 65bd
00000110: dbf5 d93b 20ea 203d 2bd5 013d 8b5a a13d
00000120: 0823 2abc be1e 393d 83e5 893d 9f8f 193c
00000130: 188e 11bd 36f8 a83c 68c9 42bc a625 7e3d
00000140: 2e12 493d 4e3e 6bbd 288b a6bc 09e5 453d
00000150: 7dee d43c 254b 343d 2a46 943d 08c8 13bb
00000160: b959 a83c e08b 8f3c 4202 143d a245 f8bb
00000170: 8cef fa3c 6a50 983d 9140 373c fc26 bcbc
00000180: 4708 f0bc de6a 3c3d 6212 443d 30b7 8b3c
00000190: d27b 67bd b699 0e3d 9f18 a03c 801f 80ba
000001a0: ed95 d43c 3c06 b9bc b0e8 953d 32cd 24bd
000001b0: d803 4bbc 8220 673c 063c 5ebd 2d18 803d
000001c0: 23c8 403d 62c2 233d 4cae b1bc 96ff b63c
000001d0: cc2e ca3c 93b2 4c3d 08a3 6fbd 0b97 533d
000001e0: 1581 6bbd f652 33bd 1c6d f2bc f331 3b3d
000001f0: 7cf3 1f3d 7eec 1abd 2460 df3c 3233 303d
00000200: 0004 15bd c0dd 9c3b 4519 813d ab39 973d
00000210: eae4 433d 48ed 26bd a686 5c3d a7cc b83a
00000220: 5c39 943d 78cf 61bc 88e4 5ebc 8ae0 463d
00000230: 6f29 883b 6cba 49bd 20ae 54bb fc68 9e3c
00000240: 4032 1f3c 8837 27bd cdd9 ddbc 20e0 e5bb
00000250: 5a7b 3bbb 5253 913d 8e5a 26bd 00a3 ff3c
00000260: b006 fabc 685e 84bc 3730 9fbc fae5 5b3c
00000270: 0b0d 4abd 726c 293d 389f 82bc a6bf 0a3d
00000280: 8b85 9f3c 547d 1abd 823c 6c3d 2937 40bd
00000290: 28af c4bc caa1 03bd 5662 4f3d bc7d eebc
000002a0: 873c 553d acf7 963d 4720 603d f38f 073d
000002b0: 6ee6 0e3d 5878 463d 12f1 12bd cefc 3a3d
000002c0: d40e 72bd 9b21 8dbc 8900 ab3b b1bd 98bc
000002d0: 920e 9fba 0b7b 243d 3ec2 953c fba9 f93c
000002e0: 70b8 bc3b 3cf8 b6bc 0857 723d 2c86 053d
000002f0: 9ceb 70bc 2b64 31bd 2c11 993a cc67 18bd
00000300: 1040 1fbd 3c0b 4bbd 2de2 8b3d e8fa edbc
00000310: 0012 92b9 1c79 45bd fb8a 813d 9e42 d8bc
00000320: f8e8 04bc dbfe 5abd 7cbc 173d 9660 103d
00000330: 4bd4 e73c 54a1 3d3d 001c 6bbd 6cee a73c
00000340: 7974 c93c 880e 1bbd d26b 2d3d fc1d 1dbd
00000350: 04e3 773d 0c49 993c fcf0 833d bad8 8ebc
00000360: b0ac 7b3d feb6 15bd 50bf 3fbc dc13 19bd
00000370: 2033 3e3d 20b8 c9bc 02b9 843d 60f9 723b
00000380: 3222 473d 9f2b ef3c e09a aebc 1d12 5f3d
00000390: 468b 443d 21ff 763c 78a8 73bc cb19 593d
000003a0: e858 c4bc 13a3 f73c 2031 7ebb a4ee e53c
000003b0: 8ef9 02bd e562 f4bc 6ce7 633d ea82 5dbd
000003c0: 4ddd 443d 8454 33bc cd24 de3c 385d 75bd
000003d0: 7a1d 7d3c 2812 f53c 3f0b 6dba b8ae 633c
000003e0: 6cd8 f5bc 317c 0f3d 1440 483d 97ad 883c
000003f0: 2066 f73b b21d 25bd 95be 323d 0e77 f3bc

actor_heads.0.bias f4 [3]
-0.021960534 0.060409278 -0.026295178
00000000: 94e6 b3bc b86f 773d fc68 d7bc

actor_heads.1.weight f4 [3, 256]
-0.044373147 -0.0071187317 -0.042128757 -0.03834504 -0.013134231 -0.032292746 -0.05700906 -0.026511136
0.006664224 0.04235005 0.06034968 0.009528525 -0.039340556 0.019371334 -0.054035485 0.006393889
-0.016694007 0.0013632998 0.03008613 0.007897884 0.02148851 -0.03312818 0.04769919 -0.0025532665
0.033015843 -0.051301625 0.05466704 0.034798965 0.013186492 0.037089493 0.012926243 -0.017265307
-0.054540493 0.0015803749 -0.016670603 0.052420612 -0.00615146 -0.041898586 -0.004967885 -0.0056914613
0.056579486 0.031435043 -0.006468167 -0.053618006 -0.0574681 0.05543428 0.019004237 -0.021951556
-0.017673416 0.059798833 -0.00945481 0.062091455 0.022978023 -0.00183402 0.011373518 -0.017560653
-0.0058678463 0.019389963 -0.042905793 -0.019028926 -0.036613174 -0.036985256 0.05501347 0.061857015
0.051916555 0.0373333 0.014271468 0.012233719 0.0055034137 0.0791629 0.04740902 0.0006373524
-0.049128152 0.02326153 0.027356885 -0.005277462 0.04444468 0.029677317 -0.040168397 0.06048554
-0.045476187 0.004532188 -0.039708093 0.03326008 -0.021939041 0.015475405 -0.0070048375 -0.030769829
0.04633753 -0.037931245 0.049983792 -0.042315688 -0.057799228 -0.05509586 0.018349145 -0.0030987412
-0.024345795 0.008955318 -0.04716085 -0.038319092 0.01066494 -0.039030664 -0.041806433 -0.0053229555
-0.024468226 -0.013289288 0.025912408 0.04143738 0.014713496 -0.034244914 0.012461534 0.033387933
-0.027089458 0.03631366 0.020999163 -0.05763314 0.012128681 0.010108596 -0.03926658 -0.021577647
0.027138107 0.021645097 0.053829454 -0.022779958 0.060157597 0.029000377 0.026027128 0.00096157193
-0.025068585 -0.05394288 0.028308038 0.041070744 0.016748935 0.024577286 0.06144253 -0.051013336
-0.040944345 -0.007434055 0.035341308 0.054255128 0.060976263 0.010123753 0.031154275 0.05690474
0.037715934 -0.009946367 -0.021348815 -0.016506866 0.0578366 -0.06324562 0.012412385 0.01005476
-0.0130143 -0.0397363 -0.049335163 -0.00397862 -0.0459573 0.02338166 -0.04658079 -0.015228838
-0.008406434 0.025399357 0.045850694 0.055344194 0.004530499 -0.062098965 -0.016980432 0.009001732
0.025697934 0.057279706 -0.06385867 -0.01934508 0.04023777 0.034607455 -0.022992961 0.017762065
0.040455103 -0.00042169928 -0.004929657 0.00732726 -0.027098935 -0.04827893 0.03051477 0.017767098
-0.043003745 0.010371365 -0.020506747 0.05508118 -0.031431817 0.05472213 0.025443302 0.007244006
0.01724533 0.009332009 0.034002118 -0.028568052 -0.017257899 -0.02980686 0.013061339 -0.021874359
0.03319396 -0.020656545 0.05960523 0.022770114 -0.060594477 0.00975322 0.020417035 -0.04053022
0.0034560403 0.021886371 -0.0591951 -0.056439493 -0.0031722412 0.023683177 -0.03327372 -0.036241513
-0.031751916 0.013763517 -0.022534087 -0.02553641 0.005397126 -0.007320605 -0.009916025 0.039695315
-0.044879198 -0.0073814364 -0.0067843124 0.026720032 -0.035230532 0.009392674 -0.05825127 0.050774213
0.017151855 -0.01359021 -0.05395014 0.04627227 0.042771667 0.042461276 -0.047647644 -0.0004865229
-0.03818874 -0.040121097 -0.052126132 0.03969776 -0.012433099 0.032120325 -0.011472979 -0.008732986
-0.00058638304 -0.048828192 -0.05551749 0.01955043 -0.0019514263 -0.0008511465 -0.00033109682 0.004739121
00000000: 9ec0 35bd 4044 e9bb 348f 2cbd b00f 1dbd
00000010: f530 57bc 6645 04bd 5582 69bd e22d d9bc
00000020: 905f da3b 3f77 2d3d 3a31 773d 881d 1c3c
00000030: 9023 21bd a2b0 9e3c 5054 5dbd d483 d13b
00000040: dfc1 88bc c0b0 b23a 3077 f63c 2066 013c
00000050: ac08 b03c 6ab1 07bd 3a60 433d b454 27bb
00000060: 9f3b 073d a721 52bd 8cea 5f3d 5c89 0e3d
00000070: 280c 583c 27eb 173d 98c8 533c f96f 8dbc
00000080: da65 5fbd 9524 cf3a ca90 88bc ffb6 563d
00000090: 3092 c9bb da9d 2bbd a4c9 a2bb 707f babb
000000a0: e4bf 673d 08c2 003d ebf2 d3bb 8e9e 5bbd
000000b0: ac63 6bbd 0e0f 633d c6ae 9b3c c0d3 b3bc
000000c0: d7c7 90bc 9fef 743d 59e8 1abc 9c53 7e3d
000000d0: 683c bc3c 8063 f0ba fe57 3a3c 5cdb 8fbc
000000e0: 1047 c0bb b3d7 9e3c fcbd 2fbd 8de2 9bbc
000000f0: b2f7 15bd da7d 17bd ce55 613d c85d 7d3d
00000100: 74a6 543d cdea 183d e0d2 693c f06f 483c
00000110: fb55 b43b 2920 a23d f62f 423d ff13 273a
00000120: 9a3a 49bd f78e be3c 8c1b e03c 8fee acbb
00000130: a00b 363d d81d f33c 9e87 24bd b0bf 773d
00000140: 3d45 3abd c082 943b f4a4 22bd b93b 083d
00000150: 81b9 b3bc 8e8c 7d3c d688 e5bb 0211 fcbc
00000160: 6ccc 3d3d cb5d 1bbd cebb 4c3d 3753 2dbd
00000170: e2be 6cbd 32ac 61bd f250 963c 4014 4bbb
00000180: d570 c7bc 53b9 123c bc2b 41bd 7bf4 1cbd
00000190: 00bc 2e3c 9ede 1fbd 393d 2bbd 306c aebb
000001a0: 9771 c8bc 50bb 59bc 4246 d43c 3eba 293d
000001b0: e010 713c 6544 0cbd 762b 4c3c c9c1 083d
000001c0: b6ea ddbc a2bd 143d 7006 ac3c ba10 6cbd
000001d0: 60b7 463c 869e 253c fed5 20bd 9bc3 b0bc
000001e0: bc50 de3c 0f51 b13c 467c 5c3d 099d babc
000001f0: d067 763d 3392 ed3c d836 d53c 0012 7c3a
00000200: a25c cdbc 36f3 5cbd 42e6 e73c cc39 283d
00000210: 1035 893c 4e56 c93c 2aab 7b3d 5cf3 50bd
00000220: 42b5 27bd 6099 f3bb 0cc2 103d a03a 5e3d
00000230: 3fc2 793d 19de 253c 4037 ff3c f214 693d
00000240: 067c 1a3d 16f6 22bc b6e3 aebc 6839 87bc
00000250: 12e6 6c3d eb86 81bd 515d 4b3c b8bc 243c
00000260: ee39 55bc 88c2 22bd ab13 4abd 155f 82bb
00000270: b93d 3cbd e58a bf3c 80cb 3ebd 6082 79bc
00000280: 24bb 09bc 5012 d03c f0cd 3b3d 98b0 623d
00000290: 9574 943b 7c5b 7ebd 8c1a 8bbc 007c 133c
000002a0: 7984 d23c 209e 6a3d 56c8 82bd 9379 9ebc
000002b0: 5cd0 243d 8cc0 0d3d bc5b bcbc c081 913c
000002c0: 40b4 253d 8517 ddb9 f688 a1bb 8319 f03b
000002d0: 96fe ddbc 21c0 45bd 1cfa f93c 4e8c 913c
000002e0: b224 30bd a8ec 293c c4fd a7bc ce9c 613d
000002f0: a6be 00bd 5024 603d 796e d03c 205f ed3b
00000300: 1446 8d3c 48e5 183c ce45 0b3d 8c07 eabc
00000310: 7060 8dbc 842d f4bc 3aff 553c db31 b3bc
00000320: 64f6 073d ea37 a9bc 9d24 743d 6488 ba3c
00000330: ea31 78bd f8cb 1f3c a041 a73c 0403 26bd
00000340: bc7e 623b 0c4b b33c 9076 72bd 192d 67bd
00000350: 60e5 4fbb 3903 c23c 064a 08bd fb71 14bd
00000360: 4c0e 02bd 6080 613c 6899 b8bc bc31 d1bc
00000370: 60da b03b b0e1 efbb d376 22bc 8e97 223d
00000380: 40d3 37bd fadf f1bb f04e debb f8e3 da3c
00000390: e44d 10bd bbe3 193c e298 6ebd 9ff8 4f3d
000003a0: 0c82 8c3c 79a9 5ebc d2fa 5cbd fe87 3d3d
000003b0: 5831 2f3d e0eb 2d3d 2d2a 43bd 0014 ffb9
000003c0: cc6b 1cbd 0556 24bd 3682 55bd 1e9a 223d
000003d0: 32b4 4bbc 9a90 033d 29f9 3bbc cc14 0fbc
000003e0: 80b7 19ba 1200 48bd 4f66 63bd 3928 a03c
000003f0: 00c7 ffba 7a1f 5fba 1097 adb9 a14a 9b3b

actor_heads.1.bias f4 [3]
-0.03211996 0.06168092 0.023335565
00000000: 3890 03bd 22a5 7c3d 3a2a bf3c

actor_heads.2.weight f4 [3, 256]
-0.0037164167 0.011109389 -0.055740952 0.036751546 0.039221283 0.036477238 0.0009818095 -0.031074498
0.008077867 0.01729498 -0.050278883 0.0238254 0.059179343 0.06015368 0.02177312 0.054378502
-0.03258201 -0.0017993078 -0.03506878 -0.02790095 -0.015153852 -0.02270326 0.050759718 -0.008497281
0.036406633 0.00014647964 0.024495367 -0.020786775 -0.007826917 -0.03277874 -0.057203963 -0.04227831
0.05279866 0.004567516 -0.011980687 0.0050898334 0.0033705235 0.0034365375 0.04041259 -0.0032030642
0.060495377 -0.0007805079 0.033828262 -0.010685056 0.013003879 -0.001357466 0.059781082 0.06247116
-0.035073146 0.0037679572 -0.050336123 -0.015465785 -0.061919607 -0.0024487972 0.0086835 0.04278615
0.030836716 -0.04944695 0.027394965 -0.051127095 0.041735478 0.038702764 0.018870242 0.039782617
0.057722427 0.012108795 -0.0018078163 0.025284313 -0.05061063 -0.031277496 0.005603012 0.022833439
-0.059792727 -0.01000162 -0.05969592 0.038233392 -0.036972843 -0.059830047 -0.010740668 0.019231617
-0.0017862499 0.008841619 0.001623516 0.040876824 -0.025496861 0.014878485 0.04939368 0.03246154
0.04067908 -0.0121609075 -0.024287 -0.05727797 0.01211042 -0.006132032 -0.039817262 -0.0077679753
-0.0544712 0.0023497534 -0.04596193 -0.05711123 -0.016972594 -0.003616929 0.02578155 0.044446282
0.0046843 0.05034975 -0.027599076 0.03594317 0.058160827 -0.04933012 -0.029662257 0.038265735
-0.027385535 0.04550173 -0.058774948 -0.039973374 0.004644878 0.0073819603 0.046222456 -0.04517987
0.007079907 -0.02006321 0.044882417 -0.03921469 0.048488155 0.0075172144 0.0033604503 -0.05061552
-0.025441816 0.037670888 -0.047718007 0.010660193 -0.0039497465 -0.030163683 -0.0494401 -0.027246298
0.048993293 0.018724173 0.04934301 0.050231196 0.022539437 0.030739293 0.058926076 -0.008386215
-0.057711374 -0.032333754 0.010209996 0.038126074 -0.0044135232 -0.031814255 -0.049929816 -0.05639402
0.032992546 0.021858394 -0.002272565 0.047913697 -0.029649023 0.033065222 -0.036276974 0.044969447
-0.021470858 -0.049350582 -0.0238688 -0.052095566 -0.005565872 0.0008014962 -0.020697445 -0.038869455
0.009809206 0.03459437 -0.037463017 -0.009137923 0.023957193 0.04447761 -0.029464535 0.04635589
-0.031821378 -0.022880325 -0.013590325 -0.029879324 -0.013044705 0.007523513 -0.051004566 -0.033149246
0.014237307 0.032718413 0.00453414 0.019151494 0.03828472 0.007895496 -0.007922198 0.030648164
-0.009015821 0.013099395 -0.005642929 0.016780064 -0.013203822 -0.03284555 -0.055641036 0.014068249
0.03434232 0.03490705 -0.024612881 -0.012392092 -0.03722896 0.036573835 -0.026483065 -0.029930912
-0.013836741 -0.045128502 0.013265878 0.012499363 0.017079137 0.04898738 -0.05704526 -0.009027468
0.038588814 0.015627049 0.031242162 0.061607547 -0.047169305 -0.013219811 0.05058214 0.012689501
0.021852175 0.019141404 0.01718112 0.012482395 -0.04285229 0.025609775 0.03648811 -0.010128201
-0.0072444384 0.060407013 -0.043029867 -0.0047966167 0.030109137 -0.012209127 0.012792505 -0.03975465
-0.015466174 -0.020105561 0.02813069 0.028578907 -0.032676604 -0.0593573 0.048169654 0.027223753
0.043758802 -0.04931667 -0.056992836 0.027101157 -0.02607365 -0.047187533 0.03704812 0.0042694723
00000000: 208f 73bb 2804 363c a050 64bd ca88 163d
00000010: 7fa6 203d 2869 153d 0fb0 803a f28f febc
00000020: 0859 043c 34ae 8d3c 3bf1 4dbd 7c2d c33c
00000030: 0a66 723d b563 763d 8b5d b23c febb 5e3d
00000040: b774 05bd c0d6 ebba 48a4 0fbd 8890 e4bc
00000050: dd47 78bc 30fc b9bc 6ce9 4f3d 2e38 0bbc
00000060: 1f1f 153d 5498 1939 82aa c83c 0749 aabc
00000070: 783c 00bc 0043 06bd b44e 6abd 052c 2dbd
00000080: 6843 583d 1aab 953b a54a 44bc 9ec8 a63b
00000090: 00e4 5c3b 8837 613b ac87 253d 80ea 51bb
000000a0: 00ca 773d 009b 4cba 818f 0a3d 6010 2fbc
000000b0: 390e 553c 00ed b1ba 02dd 743d c2e1 7f3d
000000c0: dca8 0fbd d5ef 763b 402d 4ebd 3464 7dbc
000000d0: 6a9f 7dbd 007c 20bb 3d45 0e3c 8840 2f3d
000000e0: 489d fc3c e388 4abd 686b e03c a56a 51bd
000000f0: d2f2 2a3d ca86 1e3d c495 9a3c 19f3 223d
00000100: 5a6e 6c3d f863 463c 40f4 ecba 0c21 cf3c
00000110: 184d 4fbd d51c 00bd 7999 b73b 310d bb3c
00000120: 38e9 74bd d6dd 23bc b683 74bd 9e9a 1c3d
00000130: d670 17bd 5a10 75bd a0f9 2fbc a08b 9d3c
00000140: 9a20 eaba 70dc 103c 28cc d43a 756e 273d
00000150: cbde d0bc e4c4 733c 0751 4a3d 64f6 043d
00000160: 1b9f 263d 8b3e 47bc 88f5 c6bc 4e9c 6abd
00000170: c86a 463c 36ef c8bb 6d17 23bd 808a febb
00000180: 311d 5fbd 52fe 193b 9442 3cbd 77ed 69bd
00000190: 1c0a 8bbc 000a 6dbb d433 d33c 4e0d 363d
000001a0: c27e 993b 8a3b 4e3d 7517 e2bc 2539 133d
000001b0: 0c3a 6e3d 610e 4abd 43fe f2bc 88bc 1c3d
000001c0: a157 e0bc 0660 3a3d 00be 70bd 1fbb 23bd
000001d0: 1034 983b 5fe4 f13b c253 3d3d 870e 39bd
000001e0: 91fe e73b 9a5b a4bc a0d6 373d 959f 20bd
000001f0: 849b 463d f752 f63b 003b 5c3b 3852 4fbd
00000200: 5b6b d0bc ca4c 1a3d f573 43bd 17a8 2e3c
00000210: e06c 81bb d419 f7bc b481 4abd a133 dfbc
00000220: 31ad 483d 7063 993c e51b 4a3d 3abf 4d3d
00000230: a0a4 b83c f8d0 fb3c 785c 713d 5666 09bc
00000240: c362 6cbd 6670 04bd d447 273c 162a 1c3d
00000250: 519f 90bb aa4f 02bd 3583 4cbd 6afd 66bd
00000260: 3123 073d 6010 b33c 50ef 14bb 2741 443d
00000270: 82e2 f2bc 666f 073d 2a97 14bd e231 383d
00000280: a7e3 afbc d623 4abd 8088 c3bc 2962 55bd
00000290: eb61 b6bb 801b 523a b08d a9bc 9435 1fbd
000002a0: cbb6 203c d3b2 0d3d d272 19bd 3ab7 15bc
000002b0: e041 c43c 282e 363d 9c5f f1bc acdf 3d3d
000002c0: 2257 02bd 856f bbbc f4a9 5ebc 7cc5 f4bc
000002d0: 75b9 55bc cd87 f63b 2aea 50bd 81c7 07bd
000002e0: 9843 693c be03 063d 2093 943b 98e3 9c3c
000002f0: 70d0 1c3d 1c5c 013c 1bcc 01bc dc11 fb3c
00000300: 18b7 13bc d89e 563c 52e8 b8bb 5876 893c
00000310: d854 58bc 0e89 06bd dbe7 63bd 837e 663c
00000320: 88aa 0c3d b2fa 0e3d f4a0 c9bc 3308 4bbc
00000330: 657d 18bd 72ce 153d 03f3 d8bc ac31 f5bc
00000340: 80b3 62bc aad8 38bd 2059 593c 21ca 4c3c
00000350: 8ce9 8b3c fea6 483d 4aa8 69bd f2e7 13bc
00000360: 4e0f 1e3d 4c04 803c 90ef ff3c 3258 7c3d
00000370: 9a34 41bd e897 58bc 382f 4f3d a0e7 4f3c
00000380: 5503 b33c 6fce 9c3c 6cbf 8c3c f682 4c3c
00000390: e285 2fbd 97cb d13c 8e74 153d c1f0 25bc
000003a0: c162 edbb 586d 773d 1640 30bd f02c 9dbb
000003b0: 70a7 f63c ca08 48bc a897 513c c6d5 22bd
000003c0: d665 7dbc 6bb4 a4bc 5572 e63c 501e ea3c
000003d0: e7d7 05bd a420 73bd 8b4d 453d 5904 df3c
000003e0: 6e3c 333d 4700 4abd 5271 69bd 3f03 de3c
000003f0: 6898 d5bc b747 41bd c5bf 173d eee6 8b3b

actor_heads.2.bias f4 [3]
0.017693155 0.034480836 0.017460058
00000000: 3cf1 903c c73b 0d3d 6508 8f3c
