results/ppo/models/ppo_best.pt (torch, 303041 bytes, 19 tensors)

shared.0.weight f4 [256, 11]
0	0x3e504ba9	0.20341362
1	0x3e6f592f	0.23373865
2	0xbd90a982	-0.07063581
3	0x3e827163	0.25477132
4	0xbdb37acb	-0.08763655
5	0x3d2c3df0	0.042051256
6	0xbe2d0f02	-0.16900256
7	0x3e23c50c	0.15993136
8	0x3e8587df	0.26080224
9	0xbe47ef7a	-0.19524947
10	0x3e830b5c	0.25594604
11	0x3cfd78bc	0.03094136
12	0x3e538bb1	0.20658757
13	0x3d274168	0.04083386
14	0x3e010190	0.12598252
15	0xbe04bdf1	-0.12963082
16	0x3e654780	0.22390556
17	0x3d620649	0.055181775
18	0xbe11a14e	-0.14221689
19	0xbc940823	-0.018070286
20	0xbdfa810b	-0.12231644
21	0xbc865a6f	-0.016400544
22	0xbde93733	-0.113874815
23	0x3e29c807	0.1658021
24	0xbe73b756	-0.23800406
25	0xbe2cd53a	-0.16878214
26	0x3bb0fa81	0.005400956
27	0xbe652199	-0.22376098
28	0xbd1e35fe	-0.03862571
29	0xbeb23568	-0.3480637
30	0x3eb64f79	0.35607508
31	0xbe99430a	-0.2993396
32	0x3e3b5f8d	0.18298168
33	0x3d4d86b0	0.050177276
34	0xbdc880e6	-0.097902104
35	0x3e3eca64	0.18631893
36	0x3d407968	0.046990782
37	0x3e7974f0	0.24361014
38	0x3d070240	0.03296113
39	0xbdc2bdce	-0.095088586
40	0x3da5e930	0.081011176
41	0xbda773b8	-0.081763685
42	0x3e01f052	0.12689331
43	0x3e89d410	0.26919603
44	0x3e32797a	0.17429152
45	0xbe06f9da	-0.13181248
46	0x3e323aa6	0.17405185
47	0x3d5cf8e0	0.053948283
48	0x3e1ccaf8	0.15311801
49	0xbe3c2ee8	-0.18377268
50	0xbe98d0e1	-0.29846862
51	0xbdee9366	-0.11649208
52	0xbe6cd104	-0.23126608
53	0x3e7d56e4	0.24740177
54	0x3db1dba4	0.08684471
55	0x3da1bc31	0.07897223
56	0x3d58d745	0.052939672
57	0xbbabdf00	-0.0052450895
58	0x3e42a0df	0.1900668
59	0xbea62bf4	-0.3245541
60	0xbc4414bc	-0.011967834
61	0xbe58b90b	-0.21164338
62	0x3d90b6de	0.07066129
63	0xbe5489fb	-0.2075576
64	0x3dfec37f	0.12439632
65	0xbd29ffd1	-0.04150373
66	0x3e800950	0.25007105
67	0xbe36fecc	-0.17870635
68	0xbe3822ef	-0.17982076
69	0xbe3825c8	-0.17983162
70	0x3e8ad9b4	0.2711922
71	0x3dcdc7f0	0.10047901
72	0x3e948bda	0.29012948
73	0xbe7ecd55	-0.24883015
74	0xbe991ea4	-0.2990619
75	0xbe718d8e	-0.23589155
76	0xbe4fb0f0	-0.2028234
77	0x3d9cdb58	0.07659024
78	0x3da646fd	0.08119009
79	0x3e8045e0	0.2505331
80	0xbe3f6cb3	-0.18693809
81	0xbe9e9218	-0.30970836
82	0x3e124d2d	0.14287253
83	0xbde8f8b7	-0.113755636
84	0x3e32bfcb	0.17455976
85	0xbe3a1793	-0.18173055
86	0x3e41d602	0.18929294
87	0xbe5567b4	-0.20840341
88	0xbe164386	-0.14674196
89	0x3d9bb18d	0.076022245
90	0x3d828b0c	0.06374177
91	0xbdb6b555	-0.08921305
92	0x3dcc488a	0.09974773
93	0x3e4f9991	0.20273425
94	0xbe522ee8	-0.20525706
95	0xbe211342	-0.15730003
96	0x3e4b5b64	0.19859082
97	0xbe04ab24	-0.1295591
98	0xbde866ac	-0.11347708
99	0xbe955f0b	-0.29174075
100	0xbe30cf81	-0.17266656
101	0x3d9a40a8	0.075318635
102	0xbd2302a0	-0.039797425
103	0xbe601d96	-0.21886286
104	0x3be7c000	0.0070724487
105	0xbe52e658	-0.20595682
106	0xbe82f861	-0.25580123
107	0xbe2a040a	-0.16603103
108	0xbe871c1d	-0.26388636
109	0xbe449764	-0.19198376
110	0x3e283d7b	0.16429703
111	0x3d3f6644	0.046728387
112	0x3dbe4984	0.09291366
113	0xbe97efcd	-0.2967514
114	0xbe7024fe	-0.23451611
115	0xbddcfb6f	-0.10790145
116	0x3ce0792b	0.027401527
117	0xbe8e3130	-0.27771902
118	0xbdf777d2	-0.12083401
119	0xbe1bcc19	-0.15214576
120	0x3adcee50	0.0016855691
121	0xbde5c5a0	-0.112193346
122	0xbcab28c0	-0.020893455
123	0xbe513770	-0.20431304
124	0xbe53ec42	-0.20695594
125	0xbe341fb9	-0.17590226
126	0xbdd35df6	-0.10320656
127	0xbe73b048	-0.23797715
128	0x3e817012	0.25280815
129	0xbd7519e8	-0.05983916
130	0x3e84d29e	0.25941938
131	0x3dc06684	0.09394553
132	0xbe8946ed	-0.26811925
133	0x3e22a0bf	0.15881632
134	0xbda9e68e	-0.08295928
135	0xbe236432	-0.1595619
136	0xbe231661	-0.15926506
137	0xbeb66910	-0.3562703
138	0x3be41b82	0.006961287
139	0xbe0729a8	-0.13199484
140	0x3e35a011	0.17736842
141	0xbe8dd602	-0.27702338
142	0x3e130c8c	0.14360255
143	0xbe62a329	-0.22132553
144	0xbd553ffc	-0.052062973
145	0x3d80f9dc	0.06297657
146	0x3e1f643a	0.15565577
147	0x3e794150	0.24341321
148	0x3e8ca0d4	0.27466452
149	0xbe74d015	-0.23907502
150	0x3d9b6740	0.07588053
151	0xbe04cce5	-0.12968786
152	0xbd075610	-0.03304106
153	0xbe671834	-0.22567827
154	0x3e8c9cdc	0.27463424
155	0xbe629b00	-0.2212944
156	0x3e2502b4	0.16114312
157	0x3dd90324	0.10596302
158	0x3dc8a8a4	0.09797791
159	0xbe26ec59	-0.16301097
160	0x3e8c517c	0.27405918
161	0x3d87b1e0	0.06625724
162	0x3d1ede88	0.03878644
163	0xbe880aec	-0.26570833
164	0x3e019bd4	0.126571
165	0xbd394628	-0.04523292
166	0xbe0d71dd	-0.13812967
167	0x3e84994e	0.25898212
168	0x3d89ab78	0.06722158
169	0xbe2ad2a2	-0.16681913
170	0xbe1c44e9	-0.15260662
171	0xbc6be960	-0.014398903
172	0x3e2c648a	0.16835228
173	0xbd9dca7a	-0.07704635
174	0xbe3029e4	-0.1720348
175	0xbdd374f4	-0.103250414
176	0xbe3c9379	-0.18415631
177	0x3da2068c	0.07911405
178	0x3e6efbac	0.23338193
179	0xbe96ea9a	-0.29475862
180	0x3dc4b728	0.09605247
181	0x3e132b09	0.14371885
182	0x3d4202c3	0.047365915
183	0xbdf79fdf	-0.1209104
184	0x3df44a9f	0.11928295
185	0x3d249849	0.040184293
186	0x3d604270	0.05475086
187	0xbd5903a8	-0.052982002
188	0xbda38376	-0.079840586
189	0x3d041ed0	0.032255948
190	0xbd5a2a88	-0.053263217
191	0xbdb803a4	-0.089850694
192	0x3e455a86	0.19272813
193	0x3e84ab36	0.25911874
194	0xbcf48580	-0.029848814
195	0xbd8a4158	-0.067507446
196	0x3b902bc0	0.0043997467
197	0xbc937a70	-0.018002719
198	0x3d7d3551	0.061818425
199	0x3d758e6d	0.05995028
200	0xbe8c3608	-0.27384973
201	0xbe0a485c	-0.13504165
202	0x3eb3647e	0.35037607
203	0x3da5a026	0.080871865
204	0xbd9d44f7	-0.076791696
205	0xbe682a1f	-0.22672318
206	0xbdac6347	-0.08417373
207	0xbe96b6c2	-0.29436308
208	0xbe1094bf	-0.14119242
209	0x3ddcab3b	0.10774847
210	0x3e3d1bc1	0.18467619
211	0x3e0e8c46	0.13920698
212	0xbe8b206f	-0.27173182
213	0xbdab2e81	-0.08358479
214	0xbd838331	-0.06421507
215	0x3e8068ee	0.25080055
216	0x3c9825d6	0.01857273
217	0x3cb22b3d	0.021749133
218	0x3dd3c792	0.103407994
219	0xbe163769	-0.14669575
220	0xbe5a29eb	-0.21305053
221	0x3e412c5d	0.1886458
222	0xbe0c635a	-0.13709775
223	0xbdc49dce	-0.09600411
224	0xbeb676e4	-0.3563758
225	0x3e335936	0.175145
226	0x3e632ce1	0.22185089
227	0x3db8752f	0.09006726
228	0xbe946382	-0.28982168
229	0xbe96e1fa	-0.2946928
230	0xbe76dac0	-0.24106884
231	0x3e64a93d	0.22330184
232	0x3df3bda1	0.11901403
233	0x3e81e800	0.25372314
234	0x3e0a1f80	0.13488579
235	0x3e2431a5	0.16034563
236	0xbd119e48	-0.03555134
237	0xbe93f881	-0.2890053
238	0xbe9a2521	-0.30106452
239	0xbe32d638	-0.1746453
240	0x3dbf28e9	0.09333975
241	0xbe41172e	-0.18856499
242	0xbd788b88	-0.060679942
243	0xbe31af96	-0.17352137
244	0xbd610b5c	-0.054942474
245	0xbe594eae	-0.2122142
246	0xbe49bd94	-0.19701225
247	0x3dccd470	0.10001457
248	0xbdb78472	-0.08960809
249	0x3e3e9a6e	0.18613598
250	0xbdc61910	-0.09672749
251	0xbe627cb5	-0.22117884
252	0xbd59e680	-0.053198338
253	0xbe15aa24	-0.14615685
254	0xbdbceae0	-0.09224486
255	0xbe92f694	-0.2870375

shared.0.bias f4 [256]
0	0x3e41d85c	0.18930191
1	0xbe34d0fa	-0.17657843
2	0xbe27e691	-0.16396548
3	0x3e6d0f0c	0.23150271
4	0x3df14130	0.11780012
5	0xbe5e5f12	-0.21715954
6	0x3dbb01e4	0.0913122
7	0x3df764af	0.12079751
8	0xbe8f6e3c	-0.2801379
9	0x3d66b488	0.05632451
10	0x3d5a8c8f	0.053356703
11	0xbc4065c0	-0.011743009
12	0x3e7b1346	0.24519071
13	0xbe4c1322	-0.19929174
14	0x3e276090	0.1634543
15	0xbe240307	-0.1601678
16	0xbe89bc3c	-0.26901424
17	0x3e526ad0	0.20548558
18	0xbe2c70ad	-0.16839857
19	0x3c12cc8e	0.008959902
20	0x3dfbf815	0.12303177
21	0xbe8ca56e	-0.27469963
22	0xbe84246c	-0.25809038
23	0x3dd23ba8	0.10265285
24	0x3e61a133	0.22034149
25	0xbd02ae80	-0.031904697
26	0x3e4a68b7	0.19766508
27	0x3dd8fcfc	0.10595128
28	0x3d8d8bcc	0.0691143
29	0xbe44d94c	-0.19223517
30	0x3e8b6a1d	0.27229396
31	0x3e0d6b40	0.13810444
32	0xbd515b67	-0.05111256
33	0x3df9077d	0.121596314
34	0xbe84a467	-0.2590668
35	0x3d850f70	0.06497085
36	0xbe072806	-0.13198861
37	0xbcfad210	-0.030617744
38	0x3dca4fd4	0.09878507
39	0x3dd0c882	0.10194494
40	0x3cf6ca51	0.030125769
41	0xbe6ef4c5	-0.2333556
42	0xbe41396c	-0.18869561
43	0x3bac8240	0.0052645504
44	0xbd55e3bc	-0.052219138
45	0xbe91fe52	-0.28514344
46	0x3e981578	0.2970388
47	0xbc5043e2	-0.012711497
48	0xbe6a4380	-0.22877312
49	0x3e076992	0.13223866
50	0x3dce8b53	0.10085168
51	0xbe27f7b2	-0.16403082
52	0x3dfb2177	0.12262242
53	0xbe553e98	-0.20824659
54	0x3dd5f354	0.10446802
55	0x3e92a3f6	0.28640717
56	0x3e4bd058	0.19903696
57	0x3e186ce0	0.14885283
58	0xbd7b42a8	-0.061342865
59	0xbd2c7fcb	-0.04211406
60	0x3db9d89c	0.09074518
61	0x3cd85187	0.026406063
62	0xbdb30ba7	-0.08742457
63	0x3cd52d77	0.026022656
64	0xbdfa1ad2	-0.12212147
65	0xbe490915	-0.19632371
66	0xbe8e7636	-0.27824563
67	0xbe8d61ce	-0.27613682
68	0xbe636517	-0.22206531
69	0x3e93907e	0.28821176
70	0x3cd65fe8	0.026168779
71	0xbe912773	-0.2835041
72	0xbe1dd27c	-0.15412325
73	0x3d903bf4	0.07042685
74	0xbdb8d1f8	-0.09024423
75	0xbde7f6e3	-0.11326387
76	0xbde7e0ee	-0.11322199
77	0xbdb00e09	-0.08596427
78	0x3cdadf82	0.026717905
79	0x3c924490	0.017854959
80	0x3e17d7d1	0.14828421
81	0x3e4594bc	0.19295019
82	0x3e743a35	0.23850329
83	0xbd594286	-0.053041957
84	0xbe09dca6	-0.13463077
85	0x3a86db00	0.0010288656
86	0xbe4c7504	-0.19966513
87	0x3dea358f	0.11435997
88	0xbd150088	-0.03637746
89	0xbe17beaa	-0.14818826
90	0xbe959506	-0.29215258
91	0x3e14ca62	0.14530328
92	0x3e1db305	0.15400322
93	0x3e79cf7a	0.24395552
94	0xbdf9b5ef	-0.12192904
95	0x3d823582	0.06357862
96	0x3c3a35c0	0.011365354
97	0xbe65fef9	-0.22460546
98	0xbe410361	-0.18848945
99	0x3e16ec9c	0.14738697
100	0xbe47a84a	-0.19497791
101	0x3e60d330	0.21955562
102	0x3dd7ba50	0.10533583
103	0x3d99e3f7	0.07514184
104	0x3e4b5568	0.19856799
105	0x3d9ba455	0.07599703
106	0x3e03dcc6	0.12877187
107	0x3e023690	0.12716126
108	0xbe1c31f7	-0.15253435
109	0xbe23b91f	-0.15988587
110	0xbd624084	-0.05523731
111	0x3e193a95	0.14963754
112	0x3e26f7aa	0.16305414
113	0x3e5f9db3	0.21837501
114	0xbe444d28	-0.19170058
115	0xbd1cb390	-0.03825718
116	0xbe866bbc	-0.2625407
117	0x3e2ed7a0	0.17074442
118	0xbe609887	-0.21933185
119	0xbe189168	-0.14899218
120	0x3e77cd48	0.24199402
121	0x3d0d0639	0.034429763
122	0xbe112a0b	-0.14176194
123	0xbe7b256e	-0.24525997
124	0xbe545156	-0.20734152
125	0x3e576af1	0.21036889
126	0xbe9a1458	-0.30093646
127	0x3e856620	0.26054478
128	0x3e625c14	0.22105438
129	0xbab5d467	-0.0013872505
130	0xbd2cbe99	-0.042173956
131	0x3e701eac	0.234492
132	0x3de8becc	0.113645166
133	0x3e91f650	0.28508234
134	0x3e6dd9da	0.23227635
135	0xbe60713f	-0.219182
136	0x3e0bbd8e	0.13646528
137	0x3dedfce8	0.11620504
138	0xbe5b36f1	-0.21407677
139	0x3db1084e	0.08644162
140	0xbe80247a	-0.2502783
141	0xbe7bc5a2	-0.2458711
142	0x3bb85200	0.0056250095
143	0xbd39458f	-0.045232352
144	0xbdccbb70	-0.09996688
145	0xbe4a7aa0	-0.1977334
146	0x3e11fe1a	0.14257088
147	0x3e8be269	0.27321175
148	0xbda293b8	-0.07938331
149	0xbe5aae72	-0.21355608
150	0xbc7eb9a0	-0.015547186
151	0xbe8dcd33	-0.27695617
152	0xbea783f9	-0.32717875
153	0xbdffa0fe	-0.12481879
154	0x3e41fcd4	0.18944103
155	0xbe96a8e3	-0.29425725
156	0xbd451578	-0.048116177
157	0xbe353a05	-0.17697914
158	0xbea1a739	-0.31572893
159	0xbd9d6a07	-0.07686239
160	0xbc8fe100	-0.017563343
161	0xbd4fa700	-0.050696373
162	0x3e62e7d0	0.22158742
163	0x3df75864	0.12077406
164	0x3e403984	0.1877194
165	0x3df1ddc0	0.118098736
166	0x3d019278	0.031633824
167	0x3e16940e	0.14704916
168	0xbe44f726	-0.19234905
169	0x3dfe8dfe	0.124294266
170	0x3defa274	0.11700907
171	0xbe0bef0f	-0.13665412
172	0xbc298ae0	-0.010348052
173	0xbe82ebdb	-0.25570568
174	0xbe94a865	-0.29034725
175	0xbdad53c9	-0.084632464
176	0x3d5d21b0	0.053987205
177	0xbdaa544c	-0.083168596
178	0x3d428c54	0.04749711
179	0xbe8c7764	-0.27434838
180	0xbe5c2e58	-0.21502054
181	0x3e2e9df4	0.17052442
182	0xbe963b77	-0.29342243
183	0x3d41eb80	0.04734373
184	0x3e6b82c2	0.22999099
185	0x3e6776d4	0.22603923
186	0x3d0b4d33	0.03400917
187	0xbe8c9e85	-0.2746469
188	0x3ca8c8d0	0.020603567
189	0xbdd925b8	-0.106028974
190	0xbdb5ab81	-0.088706024
191	0x3e6c8f64	0.23101574
192	0xbe10749a	-0.1410698
193	0xbe69f3a2	-0.22846845
194	0xbe782247	-0.24231826
195	0x3e0a1af6	0.13486847
196	0xbc9f2683	-0.019427544
197	0x3e8b7064	0.27234185
198	0x3aed17e5	0.0018088786
199	0xbe8fdd25	-0.28098407
200	0x3d98c5e8	0.074596226
201	0x3e8d4244	0.2758962
202	0x3e3f7e92	0.18700626
203	0x3d6add33	0.05733986
204	0xbe67f69d	-0.22652669
205	0xbe3922c0	-0.18079662
206	0x3e51a4e0	0.20473051
207	0xbe4bf601	-0.19918062
208	0x3b1fe1c3	0.002439604
209	0xbd1e3b10	-0.038630545
210	0x3dcee924	0.10103062
211	0xbb5403cf	-0.0032350903
212	0xbe73365a	-0.23751202
213	0xbe250cd7	-0.1611818
214	0x3e6ff277	0.23432337
215	0x3c89c5b3	0.016817903
216	0x3e051725	0.1299711
217	0xbe2aa988	-0.16666234
218	0x3e746acc	0.23868865
219	0xbd842ef6	-0.064542696
220	0xbdd022a2	-0.10162856
221	0x3d7a8600	0.06116295
222	0xbddd41bc	-0.108035535
223	0xbdf823e2	-0.12116219
224	0xbd30b8a8	-0.043144852
225	0xbd0179bb	-0.03161023
226	0xbe43340f	-0.19062828
227	0x3db60195	0.088870205
228	0xbe959dcb	-0.2922195
229	0x3e2db6d0	0.16964269
230	0x3e8f2d14	0.2796408
231	0x3d47cce0	0.04877937
232	0xbd90486c	-0.070450634
233	0xbe8d641f	-0.2761545
234	0x3e10fd18	0.14159048
235	0x3e6a45d3	0.22878198
236	0x3e6a2858	0.22866952
237	0xbd08946a	-0.033344664
238	0x3dcd4b20	0.100240946
239	0x3e8ef849	0.27923802
240	0x3d082a9e	0.033243768
241	0xbe1e2cdb	-0.15446799
242	0xbe92911e	-0.2862634
243	0x3e06fce2	0.13182405
244	0x3de2940b	0.11063393
245	0x3e70700a	0.2348024
246	0xbe1d2f60	-0.15350103
247	0x3d94f7be	0.072738156
248	0xbdcc4d0c	-0.09975633
249	0xbdfa4923	-0.12220981
250	0x3e255520	0.16145754
251	0xbe8d82d5	-0.2763888
252	0x3e6396e0	0.22225523
253	0x3e0f991a	0.14023247
254	0xbe48ad3d	-0.19597335
255	0x3e0072e8	0.12543833

shared.2.weight f4 [256, 256]
0	0xbc80c8d8	-0.01572077
1	0x3bb85060	0.005624816
2	0xbc890a88	-0.016728655
3	0xbd7aa72a	-0.061194576
4	0xbbd41b70	-0.0064729974
5	0x3cf9d098	0.030494973
6	0xbbee4740	-0.0072716773
7	0xbcfc1d88	-0.0307758
8	0x3b01c8c0	0.0019803494
9	0x3c3addf0	0.011405453
10	0xbc8edb24	-0.017438479
11	0xbd468620	-0.048467755
12	0xbd0940ae	-0.03350895
13	0xbc26f220	-0.010189563
14	0x3cb864a4	0.022508927
15	0x3d63a76e	0.055579595
16	0x3a9808c0	0.0011599287
17	0x3cb7514c	0.022377633
18	0x3d134b86	0.035960697
19	0xbcdf422c	-0.027253233
20	0xbca9e3e8	-0.020738557
21	0x3d29ce6a	0.041456617
22	0x3d374b00	0.04474926
23	0x3c72a558	0.014809929
24	0xbd45d512	-0.048298903
25	0x3d114d58	0.03547415
26	0xbd53952e	-0.05165594
27	0x3cffe8b8	0.031238899
28	0x3bf2b7a0	0.0074071437
29	0x3ca56230	0.020188421
30	0xbd798914	-0.060921744
31	0xbcb401ac	-0.021973453
32	0x3cd971d4	0.026543535
33	0x3d450a28	0.04810539
34	0xbc9294ac	-0.017893158
35	0x3d6449b6	0.05573436
36	0xbc6483c0	-0.013947427
37	0xbd1a67ce	-0.037696652
38	0xbcddb7e0	-0.027065217
39	0x3b7ee1c0	0.0038891882
40	0xbc35ffb8	-0.011108331
41	0x3cf7cf5c	0.030250244
42	0xbd0dad0e	-0.034588866
43	0xbc91a620	-0.01777941
44	0xbd7db308	-0.061938316
45	0x3d50f552	0.051015206
46	0xbc40adc8	-0.011760183
47	0xbd49ced2	-0.049269505
48	0xbb45a620	-0.0030158833
49	0xb8ef4000	-0.00011408329
50	0x3c8e3264	0.017358012
51	0xbbe0ca60	-0.0068600625
52	0x3d210a48	0.039316446
53	0xbcb0a6f4	-0.021563984
54	0xbc993f3c	-0.01870691
55	0xbc732b48	-0.014841862
56	0x3c36d090	0.011158124
57	0x3d4d1cc6	0.05007627
58	0xbb3c78a0	-0.0028758422
59	0x3d44f94c	0.04808931
60	0x3d491992	0.04909665
61	0xbd054950	-0.03254062
62	0xbbaff6f0	-0.0053700134
63	0xbcf1b1b8	-0.029503688
64	0x3cd4fa8c	0.025998376
65	0xbcb400dc	-0.021973066
66	0x3c9c2f80	0.019065619
67	0x3b74b6c0	0.0037340373
68	0xbd280e1e	-0.04102909
69	0xbd2c1b78	-0.042018384
70	0xbd7a0aa4	-0.061045304
71	0xbd0f33a0	-0.034961343
72	0x3c8f0788	0.017459646
73	0x3b798d60	0.003807865
74	0x3d4089c2	0.047006376
75	0xbd611ac0	-0.05495715
76	0xbaef6280	-0.0018263608
77	0xbd658ad8	-0.056040615
78	0x39bfd000	0.0003658533
79	0x3cba8a54	0.022771038
80	0xbd65a4a2	-0.05606521
81	0x3d621648	0.05519703
82	0xbc9f05c8	-0.019411936
83	0x3d62d344	0.05537726
84	0xbc2be128	-0.010490693
85	0x3d113b8c	0.03545718
86	0x3d68b93e	0.056817286
87	0xbcba67d8	-0.022754595
88	0xbc78ebb8	-0.0151929185
89	0x3d064790	0.03278309
90	0xbd5b2b66	-0.053508185
91	0x3d178898	0.0369955
92	0xbd20cc08	-0.03925708
93	0x3d6dc370	0.05804771
94	0xbd27c606	-0.040960334
95	0xbcd2b1a0	-0.025719464
96	0x3d3f0602	0.04663659
97	0xbcdeeb04	-0.027211674
98	0x3d5b6e44	0.053571954
99	0x3d30220c	0.04300122
100	0x3d69fca8	0.057125717
101	0xbd7822de	-0.060580127
102	0x3a37a100	0.0007004887
103	0xbca8675c	-0.020557098
104	0x3c73eba8	0.014887728
105	0xbd414b08	-0.047190696
106	0x3cd1f298	0.025628373
107	0xbb420b00	-0.0029608607
108	0xbcf20440	-0.029543042
109	0xbd664c6c	-0.056225225
110	0x3d05e7cc	0.03269176
111	0xbcb94ba4	-0.022619076
112	0x3d3ce576	0.04611727
113	0x3c364968	0.0111259
114	0x3c9bb848	0.01900877
115	0xbc1b4de8	-0.0094790235
116	0xbc0dd938	-0.008657746
117	0xbcadee6c	-0.021231852
118	0xbd5dabae	-0.054118805
119	0x3d20f23e	0.03929352
120	0xbd2136b4	-0.03935881
121	0x3d1534d8	0.03642735
122	0xbcacb04c	-0.021080159
123	0x3d206046	0.039154314
124	0x3d5b65ce	0.053563885
125	0xbd1c9238	-0.038225383
126	0x3d5362c0	0.051607847
127	0x3ac7a8c0	0.0015232787
128	0xbd4390fc	-0.04774569
129	0x3cd10120	0.025513232
130	0x3d10f50e	0.035389952
131	0x3d61aac0	0.05509448
132	0xbd73b10c	-0.059495017
133	0x3d67288a	0.056435145
134	0x3d421350	0.0473817
135	0x3d7bd7cc	0.061485097
136	0x3d0b8586	0.034062885
137	0xbcf8e3d0	-0.030382067
138	0x3d423460	0.04741323
139	0x3d69f676	0.05711981
140	0xbcc3c5fc	-0.023898117
141	0xbc276228	-0.010216273
142	0x3d485408	0.048908263
143	0x3d4e1356	0.05031141
144	0x3d291c34	0.041286662
145	0x3d44213e	0.047883265
146	0xbd038ed8	-0.03211865
147	0xbc30a7c8	-0.01078219
148	0xbccc8c6c	-0.024969302
149	0x3d050d8e	0.03248363
150	0x3c7f3188	0.015575774
151	0xbd45bf7c	-0.048278317
152	0xbc00a058	-0.007850729
153	0xbd50c1aa	-0.050965942
154	0xbd70ed08	-0.0588198
155	0x3d696072	0.056976743
156	0xbd00c5fc	-0.031438813
157	0x3ce48554	0.027895607
158	0xbc6405d8	-0.013917409
159	0xbc4f5bf8	-0.012656204
160	0xb8295000	-4.0367246e-05
161	0x3d47a956	0.048745476
162	0xbc0da7f8	-0.008646004
163	0x3d53d4ca	0.051716603
164	0x3d15c9a0	0.036569238
165	0x3d2f9e44	0.042875543
166	0xbd682d3e	-0.05668377
167	0xbcef68a8	-0.029224709
168	0xbd5091c6	-0.05092027
169	0xbc597c68	-0.01327429
170	0xbc5417c8	-0.012945123
171	0x3c5014a8	0.012700237
172	0x3d655e56	0.05599817
173	0x3ce5d6e4	0.02805657
174	0xbd3223ba	-0.043491103
175	0xbd208c78	-0.03919646
176	0x3d414e98	0.047194093
177	0x3bcbddc0	0.006221503
178	0x3c90a478	0.01765655
179	0xbd05e5a4	-0.032689705
180	0xbbf9c080	-0.0076218247
181	0x3c91c4d8	0.017794058
182	0xbd27fe62	-0.041014083
183	0x3d2714d2	0.04079134
184	0x3cff26f4	0.031146504
185	0xbd154ac6	-0.036448263
186	0xbcd1f620	-0.025630057
187	0xbc70be50	-0.014693812
188	0x3c1f5c78	0.009726636
189	0xbcbbcfd4	-0.022926249
190	0x3d74e520	0.059788823
191	0xbd7694e2	-0.06020058
192	0xbd10b0ea	-0.03532497
193	0xbd1b62f2	-0.03793616
194	0x3c8a6f4c	0.016898774
195	0x3c115010	0.008869186
196	0xbc91e5c4	-0.017809756
197	0x3d5a7c3a	0.053341128
198	0xbd5cfe28	-0.05395332
199	0x3cb47458	0.022028133
200	0xbd0cdd4a	-0.034390725
201	0xbc692c70	-0.014231786
202	0xbd768732	-0.060187526
203	0xbd3f1b16	-0.04665669
204	0xbd5933f8	-0.053028077
205	0x3cdf5f4c	0.02726712
206	0xbcc04264	-0.023469158
207	0x3d05e9ee	0.032693796
208	0xbd0abd2a	-0.033871807
209	0xbc7db600	-0.015485287
210	0x3bf7e780	0.0075654387
211	0x3d56823a	0.052370287
212	0xbc89fdb0	-0.0168446
213	0x3d1468a6	0.036232613
214	0x3c8d3f14	0.017241992
215	0x3d1bb32a	0.03801266
216	0x3d21b7a2	0.039481767
217	0x3ccfc71c	0.025363497
218	0xbc9a6468	-0.018846706
219	0xbc8fb384	-0.017541654
220	0x3cc75280	0.024331331
221	0x3d0b87e8	0.034065157
222	0xbb5a9e20	-0.003335841
223	0x3d005396	0.031329714
224	0xbd1a03b6	-0.037601195
225	0x3d104be6	0.035228632
226	0xbbfb51f0	-0.00766968
227	0xbd302c08	-0.04301074
228	0xbcf8c5cc	-0.030367754
229	0xbd4381ba	-0.04773114
230	0x3c4e8f00	0.012607336
231	0xbd17d2d4	-0.037066296
232	0xbc929e3c	-0.017897718
233	0xbb805140	-0.0039159358
234	0xbd1c337e	-0.038135044
235	0x3ad25a00	0.0016048551
236	0xbc01f560	-0.007932037
237	0x3ca22c04	0.019796379
238	0x3d38efb4	0.045150474
239	0xbd1a8a10	-0.037729323
240	0x3d0bf790	0.03417164
241	0xbaad9000	-0.0013241768
242	0xbd12516c	-0.03572218
243	0xbce832f8	-0.028344616
244	0x3c8252cc	0.015908621
245	0x3c5535e8	0.0130133405
246	0xbb044d40	-0.0020187646
247	0xbcfee59c	-0.031115346
248	0x3d011986	0.03151848
249	0x3c17ee88	0.009273179
250	0xbd78dd94	-0.06075819
251	0xbc34f7d8	-0.011045419
252	0xbc8ae978	-0.01695703
253	0xbcda79ac	-0.026669346
254	0xbd0e00ac	-0.03466861
255	0xbd4faee4	-0.050703898

shared.2.bias f4 [256]
0	0xbd1675c8	-0.03673342
1	0xbd280e1e	-0.04102909
2	0x3d2dd09a	0.042435266
3	0xbcf3e71c	-0.029773287
4	0x3a17eba7	0.0005795308
5	0x3d6adfde	0.057342403
6	0x3d5f03a7	0.054446843
7	0x3d365015	0.044509966
8	0xbd2ca698	-0.042151064
9	0x3c42976c	0.011876922
10	0xbb917ed1	-0.0044401665
11	0x3a97b2c0	0.0011573657
12	0x3d762552	0.060094185
13	0x3d13726b	0.03599779
14	0xbd81447c	-0.063118905
15	0x3d573c5e	0.052547805
16	0x3d586729	0.052832756
17	0xbd451cb2	-0.04812307
18	0xbd7b775a	-0.06139312
19	0x3d29d0e1	0.041458968
20	0xbcb7f500	-0.022455692
21	0xbd4b346e	-0.049610548
22	0x3cd60028	0.026123121
23	0x3aee2541	0.0018169062
24	0x3d002cce	0.03129273
25	0xbd31d7a4	-0.04341854
26	0x3d502973	0.05082078
27	0xbcccc0ad	-0.024994219
28	0xbd18251e	-0.037144773
29	0x3caedc5b	0.021345308
30	0xbd506e18	-0.050886244
31	0xbd5373a1	-0.051623944
32	0xbc41e280	-0.011833787
33	0x3b825dc5	0.0039784634
34	0xbcb7a7e6	-0.022418927
35	0xbbcf2e29	-0.0063226414
36	0xbd6f6e1e	-0.058454625
37	0x3d201348	0.039080888
38	0xbbf3d0c8	-0.00744066
39	0x3c1c36f8	0.00953459
40	0x3d1a75b0	0.03770989
41	0x3d08a856	0.033363663
42	0x3d436326	0.047701977
43	0x3d119e46	0.035551332
44	0x3c9d4734	0.019198991
45	0xbd1a0b4a	-0.037608422
46	0x3d2ea38e	0.042636447
47	0xbc4af7a8	-0.012388147
48	0x3cd977ff	0.026546476
49	0x3d60a79b	0.05484734
50	0xbd2d8114	-0.042359427
51	0xbc098e53	-0.008395749
52	0xbd33a332	-0.043856807
53	0xbb9c5a90	-0.004771538
54	0xbc9771d9	-0.018486904
55	0xbd325d06	-0.043545745
56	0xbca8a38c	-0.020585798
57	0x3cafa028	0.021438673
58	0xbd3a7bfc	-0.045528397
59	0xbc37f0bb	-0.011226828
60	0x3d3a4742	0.045478113
61	0x3d57ecca	0.052716054
62	0xbd73214a	-0.05935792
63	0x3d25c07d	0.040466774
64	0x3c15ed58	0.009150825
65	0x3c976220	0.018479407
66	0x3d1f9e5e	0.03896939
67	0x3d4c818c	0.049928233
68	0xbd02f80b	-0.031974833
69	0x3d32f8cb	0.0436943
70	0xbc08e380	-0.0083550215
71	0x3bef9563	0.0073115095
72	0x3cb5b521	0.022181096
73	0xbd82c032	-0.063843146
74	0xbd015ce0	-0.031582713
75	0xbd868c2f	-0.06569707
76	0x3c36b378	0.011151187
77	0x3d089ee9	0.033354674
78	0xbcc74fb0	-0.02432999
79	0x3c88d884	0.016704805
80	0xbc1719de	-0.009222476
81	0xbc9ac940	-0.018894792
82	0xbd334cb3	-0.043774318
83	0x3cbc5212	0.022988353
84	0xbc14c71f	-0.009080677
85	0x3cbab2b6	0.022790294
86	0x3d6fd51a	0.05855284
87	0xbd4f8792	-0.0506664
88	0xbbb7375d	-0.0055913166
89	0xbc98258f	-0.018572597
90	0x3d1f8b16	0.038951002
91	0x3d5a5711	0.05330569
92	0x3d514a64	0.051096335
93	0xbb973959	-0.0046149907
94	0x3c381afc	0.011236902
95	0xbcb9f964	-0.022701927
96	0xbd888419	-0.06665821
97	0xbd7ddc87	-0.06197789
98	0x3cb997a4	0.022655316
99	0xbd3c00d5	-0.04589923
100	0xbd14289e	-0.036171548
101	0x3c95d0b8	0.018288001
102	0xbd590077	-0.05297896
103	0x3d21bf3e	0.039489023
104	0x3d37c9a2	0.044870026
105	0xbb8026c0	-0.0039108694
106	0x3c668e7e	0.014072059
107	0x3d232ea4	0.0398394
108	0x3cc11d38	0.023573503
109	0xbd844ab1	-0.06459559
110	0x3c822cc4	0.015890487
111	0xbd87f1c3	-0.06637909
112	0xbd2ecba5	-0.04267468
113	0xbd7e922a	-0.06215111
114	0xbd0a4090	-0.033752978
115	0xbbbc80f3	-0.0057526766
116	0x3b836060	0.0040092915
117	0x3b544f81	0.003239602
118	0x3b33fea0	0.0027465
119	0xbd76a75b	-0.060218196
120	0x3c2e0a5c	0.010622587
121	0xbc963075	-0.018333653
122	0x3d202c80	0.03910494
123	0x3d39d191	0.045365874
124	0xbb826e80	-0.003980458
125	0x3babd1c5	0.0052435123
126	0xbd12df56	-0.03585752
127	0x3cd8c224	0.026459761
128	0x3d50920c	0.05092053
129	0x3c838130	0.016052812
130	0x3ca04a65	0.019566724
131	0xbc0e0a1b	-0.0086694015
132	0xbd28e30e	-0.04123216
133	0xbc6adb84	-0.014334563
134	0xbd2899f2	-0.04116244
135	0x3d46ed68	0.048566252
136	0xbd265572	-0.04060883
137	0xbd41783c	-0.047233805
138	0x3c8a9012	0.016914401
139	0xbcd0176f	-0.025401799
140	0xbc3d8b30	-0.011568829
141	0x3d74f802	0.05980683
142	0x3d01705c	0.031601295
143	0x3d3f6d3f	0.046735045
144	0xbc421d5e	-0.011847822
145	0xbca8cb34	-0.020604707
146	0xbd3b392b	-0.045708816
147	0x3c623c10	0.013808265
148	0x3d1dcc10	0.038524687
149	0xbd276572	-0.04086823
150	0xbcd7df77	-0.026351674
151	0x3d4ad400	0.049518585
152	0xbced560e	-0.028971698
153	0x3cf04a44	0.029332288
154	0x3d2d8c91	0.042370383
155	0x3d134a28	0.035959393
156	0xbd1454a1	-0.03621352
157	0xbbf9f8f4	-0.0076285545
158	0x3d34c098	0.044128984
159	0x3d6ab0a0	0.05729735
160	0x3d1af281	0.037828926
161	0xbd1991e8	-0.037492663
162	0x3d1ab452	0.037769623
163	0xbc91c3e0	-0.017793596
164	0x3d63925f	0.055559512
165	0xbd1e8138	-0.03869745
166	0x3d750992	0.05982358
167	0x3d5af69a	0.053457834
168	0xbbff3466	-0.007788229
169	0xbd097770	-0.03356117
170	0xbd61ce42	-0.055128343
171	0xbbf72fdf	-0.0075435485
172	0xbd06d1bc	-0.032914862
173	0xbbdde1fe	-0.006771325
174	0xbd5cd8a8	-0.053917557
175	0x3c9b84dc	0.01898425
176	0x3d3014ac	0.042988464
177	0x3b811611	0.003939398
178	0x3c6d4e67	0.014484025
179	0x3d60559d	0.054769147
180	0x3cc3146f	0.023813454
181	0xbd1dcba2	-0.038524278
182	0x3c9001e9	0.017579036
183	0xbca17ac4	-0.01971186
184	0xbc73f310	-0.014889494
185	0xbcb94de8	-0.022620156
186	0x3ced9818	0.029003188
187	0xbd6d39fa	-0.05791662
188	0xbd7e7234	-0.06212063
189	0x3cb63780	0.022243261
190	0xbd72b1ee	-0.05925172
191	0x3caaa86c	0.020832263
192	0xbcbc0124	-0.022949763
193	0x3b16e060	0.0023021922
194	0xbcfac5f6	-0.030611973
195	0x3d11cde6	0.03559675
196	0xbc938a50	-0.018010288
197	0xbca29be4	-0.019849725
198	0x3c9f15e2	0.019419614
199	0xbbbcd6dc	-0.005762918
200	0x3d407704	0.046988502
201	0x3d42b78f	0.047538336
202	0x3a779bd1	0.00094455207
203	0xbcc0415e	-0.02346867
204	0x3ca1cb50	0.019750267
205	0x3d5c128c	0.053728625
206	0xbbab7d79	-0.0052334634
207	0x3c98b114	0.018639125
208	0xbd40a685	-0.047033805
209	0x3d03e0b4	0.032196715
210	0xbc727c48	-0.014800139
211	0xbd7f034a	-0.062258996
212	0xbc3ee158	-0.011650406
213	0x3cc7b1c1	0.024376752
214	0xbcace4c3	-0.021105176
215	0xbcecbf4c	-0.028899811
216	0xbc6dbdf4	-0.01451062
217	0x3d1cd0f6	0.03828522
218	0xbd23ff22	-0.040038235
219	0xbd5a38eb	-0.053276937
220	0xbd08478f	-0.03327137
221	0xbd690854	-0.056892708
222	0x3d527e06	0.051389717
223	0x3b0307b4	0.0019993605
224	0x3c2912d2	0.0103194285
225	0x3c7b90b2	0.015354322
226	0x3c64b780	0.013959765
227	0xbc330096	-0.010925433
228	0x3caa5da7	0.02079661
229	0xbd8438a2	-0.06456114
230	0xbc0383ef	-0.008027061
231	0xbd6fdaa7	-0.058558132
232	0xbc6a7528	-0.014310159
233	0xbd83a439	-0.06427807
234	0x3bbaa370	0.005695753
235	0x3d727e6c	0.059202597
236	0x3d6b7a4e	0.057489686
237	0x3d0fc7a2	0.035102494
238	0x3d03661d	0.032079805
239	0xbd644304	-0.055727974
240	0x3d415099	0.047196005
241	0x3d28246a	0.041050352
242	0xbc5dbb31	-0.013533399
243	0x3c898d3c	0.016790979
244	0xbc2e349a	-0.010632658
245	0x3cc67e0c	0.024230026
246	0x3c34487f	0.011003613
247	0x3c555c31	0.013022468
248	0x3ce568b0	0.02800402
249	0xbd76ea14	-0.060281828
250	0x3c8ef3fb	0.017450323
251	0xbd0585d3	-0.032598328
252	0xbc38fcb0	-0.011290714
253	0xbd778ea2	-0.06043876
254	0xbd4c946b	-0.04994623
255	0x3d0ea675	0.034826715

actor_heads.0.weight f4 [3, 256]
0	0x3ba281e0	0.00495933
1	0x3bbfef30	0.005857371
2	0x3beee220	0.00729014
3	0xbcefbc28	-0.029264525
4	0xbcd976c8	-0.026545897
5	0x3d3a0c22	0.045421727
6	0x3dbd8c93	0.09255328
7	0x3cfb8106	0.030701172
8	0xbbe87e90	-0.0070951656
9	0x3d976464	0.07392195
10	0xb8f3a215	-0.00011617333
11	0x3d2d625e	0.04233014
12	0x3d340b1a	0.0439559
13	0xbbc141f5	-0.0058977553
14	0xbc93e642	-0.018054131
15	0xbd298c9e	-0.04139387
16	0x3d748953	0.059701275
17	0x3c818874	0.015812136
18	0x3cd2bc67	0.025724603
19	0x3bb23140	0.005438
20	0x3cbce6aa	0.023059208
21	0x3d47c2c6	0.048769735
22	0xbcf8a7d4	-0.030353464
23	0x3d9fd220	0.0780375
24	0xbceb3955	-0.028713861
25	0x3dbdafe2	0.092620626
26	0xbbd57698	-0.0065143816
27	0xba893fe6	-0.0010471314
28	0xbd374fbc	-0.044753775
29	0x3c377b4a	0.011198828
30	0xbaa41fc0	-0.0012521669
31	0xbd3aa113	-0.04556377
32	0xbd223ba4	-0.03960766
33	0x3d1adfe7	0.037811186
34	0x3c43fecf	0.011962607
35	0x3cc788b3	0.024357175
36	0x3cb74c40	0.022375226
37	0xbc1eb92a	-0.009687701
38	0xbcd6e1d7	-0.026230736
39	0xbca53da4	-0.020170994
40	0x3d281e8e	0.041044764
41	0x3c5bb520	0.013409883
42	0xbc1be0f5	-0.009514083
43	0xbb499300	-0.0030757785
44	0x3da9f779	0.08299155
45	0x3cc6114c	0.02417817
46	0x3d8044dd	0.06263135
47	0xbd6656d4	-0.05623515
48	0x3d004acc	0.03132133
49	0xbcbf0bdd	-0.023321087
50	0x3d20cc5c	0.039257392
51	0x3cd674f9	0.026178824
52	0x3d6c0d2e	0.057629757
53	0x3d452ec6	0.04814031
54	0x3d06a17b	0.032868844
55	0xbbf8f310	-0.0075973347
56	0x3d64ac62	0.05582846
57	0x3b06cd05	0.0020568979
58	0xbcb738d4	-0.022365965
59	0x3d266356	0.040622078
60	0x3d2d7c5c	0.042354926
61	0x3d7e9422	0.06215299
62	0x3d4d93c8	0.050189763
63	0xbcb38469	-0.021913724
64	0x3d6fb632	0.058523364
65	0xbd59e983	-0.05320121
66	0x3d6f48ee	0.05841916
67	0xbd651e0c	-0.055936858
68	0x3bd9f5db	0.0066516227
69	0x3d20ea20	0.03928578
70	0x3d01d52b	0.031697433
71	0x3dcbdddb	0.09954425
72	0xbb62b025	-0.0034589854
73	0x3d391ebe	0.045195334
74	0x3dae88c6	0.08522181
75	0x3cdd9b14	0.027051486
76	0xbd118e18	-0.0355359
77	0x3d21ccc4	0.03950192
78	0xbc42c968	-0.011888839
79	0x3d7e25a6	0.062047623
80	0x3d49122e	0.049089603
81	0xbd6b3e4e	-0.057432465
82	0xbca68b28	-0.020330027
83	0x3d8721e1	0.06598259
84	0x3d0f08d0	0.034920514
85	0x3d7d71d6	0.06187614
86	0x3dba6a55	0.091023125
87	0x3c859b48	0.016309395
88	0x3ca859b9	0.020550596
89	0x3c8f729b	0.017510703
90	0x3d140242	0.036134966
91	0x3b8733ac	0.004126033
92	0x3cfaef8c	0.030631803
93	0x3dab7443	0.083717845
94	0x3c374091	0.011184827
95	0xbcbc26fc	-0.022967808
96	0xbcf00847	-0.029300822
97	0x3d826fa3	0.06368949
98	0x3d441262	0.047869094
99	0x3c8d05b5	0.017214635
100	0xbd677bd2	-0.05651457
101	0x3d0e99b6	0.03481456
102	0x3ca0189f	0.01954299
103	0xba801f80	-0.0009775013
104	0x3cd495ed	0.025950396
105	0xbcb9063c	-0.02258598
106	0x3dba6005	0.091003455
107	0xbd040d31	-0.032239143
108	0xbc4b03d8	-0.012391053
109	0x3d054e61	0.03254545
110	0xbd5e3c0c	-0.054256484
111	0x3d905c6e	0.070488796
112	0x3d40c66d	0.047064234
113	0x3d23c262	0.0399803
114	0xbcb1ae4c	-0.021689557
115	0x3cb6ff96	0.02233867
116	0x3cca2ecc	0.024680518
117	0x3d6b0575	0.05737825
118	0xbd6fa308	-0.058505088
119	0x3d770155	0.060304005
120	0xbd6b8115	-0.05749615
121	0xbd335a28	-0.04378715
122	0xbcf26d1c	-0.029593043
123	0x3d3b31f3	0.045701932
124	0x3d1ff37c	0.039050564
125	0xbca6762b	-0.020320019
126	0x3cdf6024	0.027267523
127	0x3d303332	0.043017574
128	0xbc98c5a5	-0.018648932
129	0x3b9cddc0	0.004787177
130	0x3d811945	0.06303648
131	0x3dbb8766	0.091566846
132	0x3d43e4ea	0.04782573
133	0xbd26f166	-0.04075756
134	0x3d5c86a6	0.05383935
135	0x3ab8cca7	0.0014099077
136	0x3db98144	0.090578586
137	0xbc61cf78	-0.013782375
138	0xbc5ee488	-0.013604291
139	0x3d877808	0.06614691
140	0x3b88296f	0.00415533
141	0xbd49ba6c	-0.04925005
142	0xbb54ae20	-0.003245242
143	0x3c9e68fc	0.01933717
144	0x3ced5f5f	0.02897614
145	0xbd0def69	-0.034652147
146	0xbcddd9cd	-0.027081395
147	0xbbe5e020	-0.007015243
148	0x3c78ddc6	0.015189594
149	0x3db49a1d	0.08818457
150	0xbd265a8e	-0.040613703
151	0x3cffa300	0.031205654
152	0xbc4931d8	-0.01227995
153	0xbc845e68	-0.016158298
154	0xba7d1ead	-0.0009655755
155	0x3c5f952f	0.013646408
156	0xbd4a0d0b	-0.049328845
157	0x3d296c72	0.041363187
158	0xbc829f38	-0.015945062
159	0x3d0abfa6	0.033874176
160	0x3d196835	0.037452895
161	0xbd1a7d54	-0.03771718
162	0x3d6c3c82	0.057674892
163	0xbcf091aa	-0.029366333
164	0xbc70e378	-0.01470267
165	0xbd03a1ca	-0.032136716
166	0x3d4f6256	0.05063089
167	0xbcee7dbc	-0.02911269
168	0x3d7df7c2	0.06200386
169	0x3d96c8cb	0.07362517
170	0x3d602047	0.054718282
171	0x3d4eda6c	0.050501272
172	0x3d0ee66e	0.034887724
173	0x3d467858	0.048454612
174	0xbd12f112	-0.035874434
175	0x3d3afcce	0.04565125
176	0xbd720ed4	-0.059096172
177	0x3a4c80b7	0.00078011624
178	0x3bab0089	0.0052185697
179	0x389371b5	7.030686e-05
180	0xba9f0e92	-0.001213508
181	0x3d247ac9	0.04015616
182	0x3d14705e	0.036239974
183	0x3d203a9f	0.039118405
184	0x3bbcb870	0.0057592914
185	0xbcb6f83c	-0.022335164
186	0x3d725708	0.05916503
187	0x3d05862c	0.03259866
188	0x3b5f54e2	0.0034077694
189	0xbd31642b	-0.04330842
190	0x3c9cc898	0.01913862
191	0xbd1867cc	-0.037208363
192	0xbd1f4010	-0.038879454
193	0xbd4b0b3c	-0.04957126
194	0x3db0f53c	0.08640525
195	0xbcedfae8	-0.029050305
196	0xb9921200	-0.000278607
197	0xbd45791c	-0.048211202
198	0x3d818afb	0.063253365
199	0xbcd8429e	-0.026398953
200	0xbc04e8f8	-0.008112185
201	0xbd59b80f	-0.053154048
202	0x3d17bc7c	0.037044987
203	0x3d106096	0.03524836
204	0x3d17a80e	0.037025504
205	0x3d3da154	0.046296433
206	0xbd51a6e6	-0.051184557
207	0x3ca7ee6c	0.02049943
208	0x3cc97479	0.024591671
209	0xbd1b0e88	-0.037855655
210	0x3d2d6bd2	0.042339154
211	0xbca98964	-0.020695396
212	0x3d77e304	0.060519233
213	0x3c99490c	0.01871159
214	0x3d963544	0.07334378
215	0x39437584	0.00018640427
216	0x3d6e4342	0.05816961
217	0xbd15b6fe	-0.036551468
218	0xbc3fbf50	-0.011703327
219	0xbd1913dc	-0.037372455
220	0x3d3e3678	0.046438664
221	0xbcc9b820	-0.02462393
222	0x3d84b902	0.064806
223	0x3b72f960	0.0037074909
224	0x3d472232	0.048616596
225	0x3d40db4f	0.04708415
226	0xbcae9ae0	-0.021314085
227	0x3d5f0dc4	0.054456487
228	0x3d448b46	0.047984384
229	0x3c760575	0.0150159495
230	0xbc73a878	-0.014871709
231	0x3d5919cb	0.053003114
232	0xbcc458e8	-0.023968175
233	0x3cf7a313	0.030229127
234	0xbb7e3120	-0.0038786605
235	0x3ce5eea4	0.028067894
236	0xbd33ecc6	-0.043926977
237	0xbc3d20eb	-0.011543493
238	0x3d63e76c	0.055640623
239	0xbd5d82ea	-0.054079928
240	0x3d68a9a5	0.05680241
241	0xbc4e5d8e	-0.012595547
242	0x3d0ded40	0.034650087
243	0xbd755d38	-0.059903353
244	0x3d0a2c90	0.033733904
245	0x3cf51228	0.029915884
246	0x3c8db3e8	0.0172977
247	0x3cfff7d3	0.031246101
248	0xbcf5d86c	-0.030010425
249	0x3d580506	0.052739166
250	0x3d7067e4	0.058692828
251	0x3c88ad97	0.016684337
252	0x3bf76620	0.007550016
253	0xbd251db2	-0.040311523
254	0x3d32be95	0.043638784
255	0xbcf3770e	-0.029719856

actor_heads.0.bias f4 [3]
0	0xbb86dfb6	-0.004116024
1	0x3d5f9b76	0.05459162
2	0xbd124b85	-0.035716552

actor_heads.1.weight f4 [3, 256]
0	0xbd35c09e	-0.044373147
1	0xbbe94440	-0.0071187317
2	0xbd2c8f34	-0.042128757
3	0xbd1d0fb0	-0.03834504
4	0xbc5730f5	-0.013134231
5	0xbd044566	-0.032292746
6	0xbd83f56d	-0.06443296
7	0xbcd92dde	-0.026511129
8	0x3bda5f90	0.006664224
9	0x3cea30cd	0.028587723
10	0x3d7379af	0.05944222
11	0x3c1c1d88	0.009528525
12	0xbd212390	-0.039340556
13	0x3c4c8fa9	0.012485423
14	0xbd61f5e3	-0.055166136
15	0x3bd183d4	0.006393889
16	0xbccd2be5	-0.025045345
17	0x3ab2b0c0	0.0013632998
18	0x3cf6898b	0.030094882
19	0x3c016620	0.007897884
20	0x3c90e77b	0.017688503
21	0xbd07b16a	-0.03312818
22	0x3d43603a	0.04769919
23	0xbc2c8dff	-0.010531901
24	0x3d073b9f	0.033015843
25	0xbd74db7b	-0.059779625
26	0x3d5ed955	0.054406483
27	0x3d0e895c	0.034798965
28	0x3c580c28	0.013186492
29	0x3d17eb27	0.037089493
30	0x3c53c898	0.012926243
31	0xbc8d6ff9	-0.017265307
32	0xbd5f65da	-0.054540493
33	0xbbed374c	-0.007239258
34	0xbcbe2930	-0.023213
35	0x3d56b94d	0.05242281
36	0xbbc99230	-0.00615146
37	0xbd2b9dda	-0.041898586
38	0xbb9f953b	-0.0048700846
39	0xbbba7f70	-0.0056914613
40	0x3d67bfe4	0.056579486
41	0x3d00c208	0.031435043
42	0xbbd3f2eb	-0.006468167
43	0xbd5b9e8e	-0.053618006
44	0xbd86b85c	-0.065781325
45	0x3d630f0e	0.05543428
46	0x3c9baec6	0.019004237
47	0xbcb3d3c0	-0.021951556
48	0xbcb59408	-0.022165313
49	0x3d74ef9f	0.059798833
50	0xbc1ae859	-0.00945481
51	0x3d7e539c	0.062091455
52	0x3cbc3c68	0.022978023
53	0xbaf06380	-0.00183402
54	0x3c3a57fe	0.011373518
55	0xbc8fdb5c	-0.017560653
56	0xbbc04710	-0.0058678463
57	0x3c9ed7b3	0.019389963
58	0xbd2fbdfc	-0.042905793
59	0xbc9be28d	-0.019028926
60	0xbd15f7b2	-0.036613174
61	0xbd177dda	-0.036985256
62	0x3d6155ce	0.05501347
63	0x3d7d5dc8	0.061857015
64	0x3d54a674	0.051916555
65	0x3d18eacd	0.0373333
66	0x3c69d2e0	0.014271468
67	0x3c486ff0	0.012233719
68	0x3bb455fb	0.0055034137
69	0x3da22029	0.0791629
70	0x3d422ff6	0.04740902
71	0xbc060c95	-0.008181711
72	0xbd54c759	-0.051947925
73	0x3cbe8ef7	0.02326153
74	0x3cb06d7e	0.021536585
75	0xbc192cf3	-0.009349096
76	0x3d360ba0	0.04444468
77	0x3ca8c8ef	0.020603625
78	0xbd24879e	-0.040168397
79	0x3d77bfb0	0.06048554
80	0xbd3a453d	-0.045476187
81	0x3b9482c0	0.004532188
82	0xbd237f89	-0.03991655
83	0x3cd822fd	0.026383871
84	0xbce21451	-0.027597578
85	0x3c0fcea0	0.008777291
86	0xbc7087b0	-0.014680788
87	0xbd1edf45	-0.038787145
88	0x3d3dcc6c	0.04633753
89	0xbd1baba3	-0.038005482
90	0x3d4cbbce	0.049983792
91	0xbd5161d7	-0.051118698
92	0xbd6cbee2	-0.057799228
93	0xbd713b8a	-0.05889467
94	0x3c9650f2	0.018349145
95	0xbb4b1440	-0.0030987412
96	0xbcc770d5	-0.024345795
97	0x3a33314e	0.0006835655
98	0xbd412bbc	-0.04716085
99	0xbd263082	-0.040573604
100	0x3c2ebc00	0.01066494
101	0xbd1fde9e	-0.039030664
102	0xbd2b3d39	-0.041806433
103	0xbbae6c30	-0.0053229555
104	0xbcc87197	-0.024468226
105	0xbc59bb50	-0.013289288
106	0x3c994a83	0.018712288
107	0x3d1012d7	0.035174217
108	0x3c7110e0	0.014713496
109	0xbd2c458d	-0.042058516
110	0x3c4c2bbf	0.012461602
111	0x3ce97e21	0.028502526
112	0xbcde924b	-0.027169367
113	0x3d14bda2	0.03631366
114	0x3cac0670	0.020999163
115	0xbd6c10ba	-0.05763314
116	0x3c46b760	0.012128681
117	0x3bf89d81	0.0075871353
118	0xbd20d5fe	-0.03926658
119	0xbcea5856	-0.028606575
120	0x3cde50bc	0.027138107
121	0x3cafd5d9	0.021464275
122	0x3d5c7c46	0.053829454
123	0xbcba9d09	-0.022779958
124	0x3d7667d0	0.060157597
125	0x3cb01357	0.021493597
126	0x3cd536d8	0.026027128
127	0x3a7c1200	0.00096157193
128	0xbcffbab9	-0.031216966
129	0xbd5cf336	-0.05394288
130	0x3ce7e642	0.028308038
131	0x3d0cf7de	0.034416072
132	0x3c893510	0.016748935
133	0x3cc65f26	0.024215292
134	0x3d7bab2a	0.06144253
135	0xbd50f35c	-0.051013336
136	0xbd48c23f	-0.049013373
137	0xbbf39960	-0.007434055
138	0x3d10c20c	0.035341308
139	0x3d3e5e36	0.046476565
140	0x3d79c23f	0.060976263
141	0x3c25de19	0.010123753
142	0x3cff3740	0.031154275
143	0x3d6914f2	0.05690474
144	0x3ce71475	0.028207997
145	0xbc58944b	-0.01321895
146	0xbcaee3b6	-0.021348815
147	0xbc873968	-0.016506866
148	0x3d4c42e2	0.049868472
149	0xbd8ec7b5	-0.06971685
150	0x3c4b5d51	0.012412385
151	0x3c24bcb8	0.01005476
152	0xbcaaa8ab	-0.02083238
153	0xbd22c288	-0.0397363
154	0xbd696ef3	-0.056990575
155	0xbb82d237	-0.0039923447
156	0xbd3c3db9	-0.0459573
157	0x3cbf8ae5	0.02338166
158	0xbd3ecb80	-0.04658079
159	0xbc798260	-0.015228838
160	0xbc87e131	-0.016586872
161	0x3cd01250	0.025399357
162	0x3d3bcdf0	0.045850694
163	0x3d3f4dd0	0.046705067
164	0x381b4f9c	3.702902e-05
165	0xbd7e5b7c	-0.062098965
166	0xbc8b1a8c	-0.016980432
167	0x3c137c00	0.009001732
168	0x3c8f5253	0.01749531
169	0x3d67abc8	0.056560308
170	0xbd82c856	-0.06385867
171	0xbcd960f6	-0.026535492
172	0x3d24d05c	0.04023777
173	0x3d0dc08c	0.034607455
174	0xbcbc5bbc	-0.022992961
175	0x3c9181c0	0.017762065
176	0x3d25b440	0.040455103
177	0xbbe10e92	-0.006868192
178	0xbba188f6	-0.004929657
179	0xbc9351c5	-0.017983327
180	0xbcddfe96	-0.027098935
181	0xbd45bf18	-0.048277944
182	0x3cba76ab	0.022761663
183	0x3c546db8	0.012965612
184	0xbd3024b2	-0.043003745
185	0x3c29eca8	0.010371365
186	0xbca7fdc4	-0.020506747
187	0x3d619cce	0.05508118
188	0xbd21ce9d	-0.039503682
189	0x3d602450	0.05472213
190	0x3c90d742	0.017680768
191	0x3bed5f20	0.007244006
192	0x3c8d4614	0.01724533
193	0x3c18e548	0.009332009
194	0x3cd55e3a	0.026045907
195	0xbcea078c	-0.028568052
196	0xbc8d6070	-0.017257899
197	0xbcf42d84	-0.02980686
198	0x3c55ff3a	0.013061339
199	0xbcb331db	-0.021874359
200	0x3d07f664	0.03319396
201	0xbcb6ea46	-0.022328507
202	0x3d74249d	0.05960523
203	0x3cba8864	0.022770114
204	0xbd8b499e	-0.06801151
205	0x3c1fcbf8	0.00975322
206	0x3c920c10	0.017828017
207	0xbd260304	-0.04053022
208	0x3b627ebc	0.0034560403
209	0x3cb34b0c	0.021886371
210	0xbd727690	-0.0591951
211	0xbd833b9c	-0.06407854
212	0xbb4fe560	-0.0031722412
213	0x3cc20339	0.023683177
214	0xbd23e7de	-0.040016048
215	0xbd31e8ed	-0.043435026
216	0xbd008d0b	-0.03138451
217	0x3c618060	0.013763517
218	0xbcb89968	-0.022534087
219	0xbcd131bc	-0.02553641
220	0x3bb091e2	0.0053884843
221	0xbbefe1b0	-0.007320605
222	0xbc2276d3	-0.009916025
223	0x3d228dc0	0.039685965
224	0xbd37d340	-0.044879198
225	0xbc664faa	-0.014057079
226	0xbbde4ef0	-0.0067843124
227	0x3cdb0d17	0.02673964
228	0xbd104de4	-0.035230532
229	0x3c11c9e9	0.008898237
230	0xbd6e98e2	-0.05825127
231	0x3d4ff89f	0.050774213
232	0x3c8c820c	0.017151855
233	0xbc5ea979	-0.01359021
234	0xbd5cfad2	-0.05395014
235	0x3d3d87fe	0.04627227
236	0x3c805430	0.015665144
237	0x3d15351d	0.036427606
238	0xbd432a2d	-0.047647644
239	0xb9ff1400	-0.0004865229
240	0xbd3ac96a	-0.04560224
241	0xbd245aec	-0.040125772
242	0xbd5f12e9	-0.054461394
243	0x3d229a1e	0.03969776
244	0xbcaf733e	-0.021417256
245	0x3d03909a	0.032120325
246	0xbc9e80b9	-0.01934849
247	0xbc6edd5d	-0.014579144
248	0xba19b780	-0.00058638304
249	0xbd69197c	-0.05690907
250	0xbd81a5d9	-0.06330461
251	0x3ca02839	0.01955043
252	0xbaffc700	-0.0019514263
253	0xba5f1f7a	-0.0008511465
254	0xb997e67b	-0.00028972686
255	0x3b9b4aa1	0.004739121

actor_heads.1.bias f4 [3]
0	0xbd279b08	-0.040919334
1	0x3d92c845	0.07167105
2	0x3c530d2a	0.0128815565

actor_heads.2.weight f4 [3, 256]
0	0xbb738f20	-0.0037164167
1	0x3c360428	0.011109389
2	0xbd6450a0	-0.055740952
3	0x3d1688ca	0.036751546
4	0x3d20a67f	0.039221283
5	0x3d156928	0.036477238
6	0xbbc4cad1	-0.006005623
7	0xbcfe8ff0	-0.031074494
8	0x3c045908	0.008077867
9	0xbc8f3418	-0.017480895
10	0xbd4dcceb	-0.050244253
11	0x3cc32d7c	0.0238254
12	0x3d72660a	0.059179343
13	0x3d5d80ab	0.054077785
14	0x3c95017f	0.01818919
15	0x3d5ebbfe	0.054378502
16	0xbd25564e	-0.04036551
17	0xbaebd6c0	-0.0017993078
18	0xbd2fa8b4	-0.042885497
19	0xbce49088	-0.02790095
20	0xbc844a08	-0.016148582
21	0xbcb9fc30	-0.02270326
22	0x3d4fe96c	0.050759718
23	0xbc8358d0	-0.01603356
24	0x3d151f1f	0.036406633
25	0xbbd028fb	-0.0063525415
26	0x3cc8cada	0.02451079
27	0xbcaa4907	-0.020786775
28	0xbc003c78	-0.007826917
29	0xbd064300	-0.03277874
30	0xbd6a4eb4	-0.057203963
31	0xbd2d2c05	-0.04227831
32	0x3d584368	0.05279866
33	0x3b8a7e2d	0.004226467
34	0xbc9bb8ec	-0.019009076
35	0x3ba7342b	0.0051026545
36	0x3b5ce400	0.0033705235
37	0x3b613788	0.0034365375
38	0x3d255827	0.04036727
39	0xbb51ea80	-0.0032030642
40	0x3d77ca00	0.060495377
41	0xba4c9b00	-0.0007805079
42	0x3d0a8f81	0.033828262
43	0xbc2f1060	-0.010685056
44	0x3b9872d9	0.004652363
45	0xbab1ed00	-0.001357466
46	0x3d74dd02	0.059781082
47	0x3d7fe1c2	0.06247116
48	0xbd2e8737	-0.04260942
49	0x3b76efd5	0.0037679572
50	0xbd4e2d40	-0.050336123
51	0xbc7d6434	-0.015465785
52	0xbd7d9f6a	-0.061919607
53	0xbb207c00	-0.0024487972
54	0x3c0e453d	0.0086835
55	0x3d2f4088	0.04278615
56	0x3cfc9d48	0.030836716
57	0xbd4a88e3	-0.04944695
58	0x3ce06b68	0.027394965
59	0xbd516aa5	-0.051127095
60	0x3d2af2d2	0.041735478
61	0x3d1e86ca	0.038702764
62	0x3c9a95c4	0.018870242
63	0x3d22f319	0.039782617
64	0x3d6c6e5a	0.057722427
65	0x3c4663f8	0.012108795
66	0xbaecf440	-0.0018078163
67	0x3ccf210c	0.025284313
68	0xbd4f4d18	-0.05061063
69	0xbd001cd5	-0.031277496
70	0x3bb79979	0.005603012
71	0x3c999dbd	0.018751973
72	0xbd75b3a8	-0.059985787
73	0xbc23ddd6	-0.01000162
74	0xbd83ded0	-0.064389825
75	0x3d0bb767	0.034110453
76	0xbd1770d6	-0.036972843
77	0xbd868279	-0.065678544
78	0xbc2ff9a0	-0.010740668
79	0x3c9d8ba0	0.019231617
80	0xbaea209a	-0.0017862499
81	0x3c10dc70	0.008841619
82	0x3ad4d584	0.0016237949
83	0x3d0ed0cc	0.034867093
84	0xbcd5b2e6	-0.026086282
85	0x3c20bf6e	0.009811265
86	0x3d381e7f	0.04495096
87	0x3cde0f8c	0.027107023
88	0x3d269f1b	0.04067908
89	0xbc474c98	-0.0121642575
90	0xbcc6f588	-0.024287
91	0xbd6bc2c9	-0.05755881
92	0x3c466ac8	0.01211042
93	0xbbd103d5	-0.0063786306
94	0xbd23176d	-0.039817262
95	0xbbfe8a80	-0.0077679753
96	0xbd5f1d31	-0.0544712
97	0xbb9873ee	-0.004652492
98	0xbd3c4294	-0.04596193
99	0xbd6a703e	-0.05723595
100	0xbc8b0a1c	-0.016972594
101	0xbb6d0a00	-0.003616929
102	0x3cd333d4	0.02578155
103	0x3d360d4e	0.044446282
104	0x3b997eb7	0.004684295
105	0x3d4e3b8a	0.05034975
106	0xbd0f8f87	-0.035048988
107	0x3d12b2bf	0.035814997
108	0x3d6e3a0c	0.058160827
109	0xbd5e04ae	-0.05420368
110	0xbcf2fe08	-0.029662147
111	0x3d05ce8a	0.032667674
112	0xbce05638	-0.027384862
113	0x3d3a6006	0.04550173
114	0xbd70be00	-0.058774948
115	0xbd23bb1f	-0.039973374
116	0x3b983410	0.004644878
117	0x3b709c24	0.003671416
118	0x3d3d53c2	0.046222456
119	0xbd53dc09	-0.051723514
120	0x3be7fe91	0.007079907
121	0xbca42552	-0.020037327
122	0x3d37d6a0	0.044882417
123	0xbd209f95	-0.03921469
124	0x3d469b84	0.048488155
125	0x3955ab8c	0.00020377169
126	0x3b5c3b00	0.0033604503
127	0xbd4f5238	-0.05061552
128	0xbcf43710	-0.029811412
129	0x3d1a4cca	0.037670888
130	0xbd4373f5	-0.047718007
131	0x3b9ebcd4	0.0048442874
132	0xbb816ce0	-0.0039497465
133	0xbcf70da6	-0.030157875
134	0xbd4a81b4	-0.0494401
135	0xbcdf33a1	-0.027246298
136	0x3d2b3d40	0.04180646
137	0x3c996370	0.018724173
138	0x3d4a1be5	0.04934301
139	0x3d2db870	0.04241222
140	0x3cb8a4cc	0.022539519
141	0x3cfbd0f8	0.030739293
142	0x3d715c78	0.058926076
143	0xbc096656	-0.008386215
144	0xbd84284a	-0.06452997
145	0xbd0bcdee	-0.034131937
146	0x3c2747d4	0.010209996
147	0x3d1c2a16	0.038126074
148	0xbc444522	-0.011979373
149	0xbd209137	-0.039200988
150	0xbd4c8335	-0.049929816
151	0xbd66fd6a	-0.05639402
152	0x3cda8ab1	0.026677461
153	0x3cb31060	0.021858394
154	0xbc093a84	-0.008375768
155	0x3d436997	0.04770812
156	0xbcf2e282	-0.029649023
157	0x3d076f66	0.033065222
158	0xbd14972a	-0.036276974
159	0x3d3831e2	0.044969447
160	0xbcef9cf7	-0.029249651
161	0xbd4a23d6	-0.049350582
162	0xbcc38880	-0.0238688
163	0xbd796aed	-0.060892988
164	0xbbc54618	-0.0060203187
165	0x3a521b80	0.0008014962
166	0xbca98db0	-0.020697445
167	0xbd1f3594	-0.038869455
168	0x3bb123ba	0.0054058703
169	0x3d0dda1d	0.034631837
170	0xbd1972d2	-0.037463017
171	0xbc851b26	-0.016248297
172	0x3cc441e0	0.023957193
173	0x3d362e28	0.04447761
174	0xbcf15f9c	-0.029464535
175	0x3d3ddfac	0.04635589
176	0xbd025722	-0.031821378
177	0xbce6db18	-0.028180644
178	0xbc5ea9f4	-0.013590325
179	0xbd72833f	-0.059207197
180	0xbc55b975	-0.013044705
181	0x3bf68a1b	0.0075237877
182	0xbd6d6763	-0.057959925
183	0xbd0f8c03	-0.035045635
184	0x3c694398	0.014237307
185	0x3d0603be	0.032718413
186	0x3b949320	0.00453414
187	0x3c9ce398	0.019151494
188	0x3d024f82	0.031814106
189	0x3c015c1c	0.007895496
190	0xbc7536fa	-0.014966721
191	0x3cfb11dc	0.030648164
192	0xbc13b718	-0.009015821
193	0x3c569ed8	0.013099395
194	0xbc4fb2ea	-0.012676934
195	0x3c897658	0.016780064
196	0xbc5854d8	-0.013203822
197	0xbd06890e	-0.03284555
198	0xbd63e7db	-0.055641036
199	0x3c667e83	0.014068249
200	0x3d0caa88	0.03434232
201	0x3d0df7d1	0.034660164
202	0xbcc9a0f4	-0.024612881
203	0xbc4b0833	-0.012392092
204	0xbd296b8e	-0.041362338
205	0x3d15ce72	0.036573835
206	0xbcdf7191	-0.027275832
207	0xbcf531ac	-0.029930912
208	0xbc62b380	-0.013836741
209	0xbd38d8aa	-0.045128502
210	0x3c595920	0.013265878
211	0x3b96b51d	0.004599227
212	0x3c8be98c	0.017079137
213	0x3d48a6fe	0.04898738
214	0xbd7bc45d	-0.061466563
215	0xbc8ad763	-0.016948408
216	0x3d5e750c	0.054310843
217	0x3c80044c	0.015627049
218	0x3cffef90	0.031242162
219	0x3d7c5832	0.061607547
220	0xbd413e32	-0.047178455
221	0xbc5897e8	-0.013219811
222	0x3d4f2f38	0.05058214
223	0x3c4fc2e3	0.012680742
224	0x3cb30355	0.021852175
225	0x3c5b4088	0.013382085
226	0x3c8cbf6c	0.01718112
227	0x3c4d06f8	0.0125138685
228	0xbd2f85e2	-0.04285229
229	0x3cd20c13	0.025640523
230	0x3d15748e	0.03648811
231	0xbc25f0c1	-0.010128201
232	0xbbed62c1	-0.0072444384
233	0x3d776d58	0.060407013
234	0xbd304016	-0.043029867
235	0xbb9d2cf0	-0.0047966167
236	0xbc602ed6	-0.013683042
237	0xbc8359a5	-0.016033957
238	0x3c5197a8	0.012792505
239	0xbd22d5c6	-0.03975465
240	0xbca32793	-0.019916331
241	0xbcab1d4d	-0.020887995
242	0x3cdf0697	0.027224822
243	0x3cea1e50	0.028578907
244	0xbd28ad11	-0.041180674
245	0xbd7320a4	-0.0593573
246	0x3d2adc93	0.041714262
247	0x3ca26638	0.019824132
248	0x3d333c6e	0.043758802
249	0xbd6aed08	-0.057354957
250	0xbd7e54b6	-0.062092505
251	0x3cde033f	0.027101157
252	0xbcd59868	-0.02607365
253	0xbd4147b7	-0.047187533
254	0x3d17c3b5	0.037051875
255	0x3b8be6ee	0.0042694723

actor_heads.2.bias f4 [3]
0	0x3c0b621a	0.008507276
1	0x3cc7fd37	0.024412734
2	0x3ce00379	0.027345406
