results/ppo/models/ppo_ckpt_200.pt (torch, 303145 bytes, 19 tensors)

shared.0.weight f4 [256, 11]
0.22839588 0.2471424 -0.07063581 0.27330193 -0.08762461 0.06124262 -0.14586881 0.17775644
0.24490719 -0.22619465 0.26091322 0.05135211 0.21837123 0.04083386 0.14014482 -0.068313695
0.23113799 0.044042937 -0.14167541 0.036972355 -0.1498528 -0.037299056 -0.12743862 0.1898915
-0.23800406 -0.14918229 -0.05574516 -0.19591606 0.012654073 -0.31273413 0.28796324 -0.25528216
0.22476855 0.050177276 -0.097902104 0.18631893 0.046990782 0.24361014 0.03296113 -0.095088586
0.081011176 -0.081763685 0.12689331 0.26919603 0.17429152 -0.13181248 0.17405185 0.053948283
0.15311801 -0.18377268 -0.29846862 -0.11649208 -0.23126608 0.24740177 0.08684471 0.11340617
0.06806776 -0.0052450895 0.20971796 -0.25510082 -0.0014944652 -0.22459388 0.07294769 -0.12728578
0.0849287 -0.08146022 0.25007105 -0.17870635 -0.17982076 -0.17983162 0.2711922 0.10047901
0.29012948 -0.24883015 -0.2990619 -0.23589155 -0.2028234 0.1104648 0.09446756 0.2505331
-0.1708676 -0.23428594 0.14971177 -0.1310913 0.17282088 -0.10200152 0.15965319 -0.24354216
-0.15786713 0.08891896 0.06374177 -0.0816935 0.15975657 0.20411025 -0.21921946 -0.16173263
0.24380028 -0.11471794 -0.107167736 -0.29174075 -0.17266656 0.075318635 -0.039797425 -0.21886286
0.0070724487 -0.20595682 -0.25580123 -0.16603103 -0.26388636 -0.19198376 0.28972155 0.053447805
0.09291366 -0.28574044 -0.22121155 -0.1013065 0.046938896 -0.2659433 -0.16526605 -0.17922692
-0.0005129318 -0.112193346 -0.020893455 -0.20431304 -0.20695594 -0.17590226 -0.10320656 -0.23797715
0.25280815 -0.05983916 0.25941938 0.09394553 -0.295682 0.17941847 -0.08295928 -0.14601707
-0.2218703 -0.3350151 0.04888052 -0.10310029 0.117706776 -0.22359456 0.19616161 -0.22132553
-0.052062973 0.06297657 0.15565577 0.24341321 0.27466452 -0.23907502 0.07588053 -0.12968786
-0.03304106 -0.22567827 0.27463424 -0.2212944 0.16114312 0.10596302 0.09797791 -0.16301097
0.27405918 0.06625724 0.03878644 -0.26570833 0.126571 -0.04523292 -0.13812967 0.25898212
0.06722158 -0.16681913 -0.15260662 -0.014398903 0.16835228 -0.07704635 -0.1720348 -0.103250414
-0.24304011 0.09549708 0.23338193 -0.2964816 0.10771718 0.14067015 0.038086705 -0.12357809
0.15874338 0.13535386 0.10203154 -0.052982002 -0.079840586 0.032255948 -0.053263217 -0.089850694
0.19272813 0.25911874 -0.029848814 -0.067507446 0.0043997467 -0.018002719 0.0638362 0.07294635
-0.27384973 -0.12434715 0.28050777 0.099954136 -0.03320165 -0.19925728 -0.15191431 -0.2635608
-0.10641895 0.10232839 0.18926999 0.13920698 -0.2686033 -0.15066287 -0.0534128 0.28508943
0.037507813 -0.05102446 0.128154 -0.11823922 -0.20767534 0.21539097 -0.13709775 -0.06777647
-0.31233966 0.19727433 0.2240916 0.105317876 -0.25031555 -0.30432212 -0.24629143 0.23013762
0.13159336 0.25372314 0.14784294 0.09104689 -0.013858682 -0.24154195 -0.27065432 -0.24957275
0.1162461 -0.15904053 -0.060679942 -0.17352137 -0.054942474 -0.2122142 -0.19701225 0.10001457
-0.08960809 0.18613598 -0.09672749 -0.22117884 -0.053198338 -0.14615685 -0.09224486 -0.2870375
00000000: 9ce0 693e e612 7d3e 82a9 90bd 3bee 8b3e
00000010: 8874 b3bd 8bd9 7a3d a25e 15be c905 363e
00000020: f3c8 7a3e 929f 67be 6b96 853e 9756 523d
00000030: b59c 5f3e 6841 273d 2082 0f3e 0de8 8bbd
00000040: 70af 6c3e 5e66 343d 5c13 11be 5370 173d
00000050: 0373 19be e5c6 18bd 457f 02be eb72 423e
00000060: 56b7 73be 3ec3 18be 0955 64bd 389e 48be
00000070: 0753 4f3c b01e a0be eb6f 933e 58b4 82be
00000080: ba29 663e b086 4d3d e680 c8bd 64ca 3e3e
00000090: 6879 403d f074 793e 4002 073d cebd c2bd
000000a0: 30e9 a53d b873 a7bd 52f0 013e 10d4 893e
000000b0: 7a79 323e daf9 06be a63a 323e e0f8 5c3d
000000c0: f8ca 1c3e e82e 3cbe e1d0 98be 6693 eebd
000000d0: 04d1 6cbe e456 7d3e a4db b13d 7e41 e83d
000000e0: 1c67 8b3d 00df abbb 4ec0 563e 939c 82be
000000f0: eee1 c3ba f0fb 65be 9965 953d 3457 02be
00000100: 19ef ad3d 9ed4 a6bd 5009 803e ccfe 36be
00000110: ef22 38be c825 38be b4d9 8a3e f0c7 cd3d
00000120: da8b 943e 55cd 7ebe a41e 99be 8e8d 71be
00000130: f0b0 4fbe 5e3b e23d 3578 c13d e045 803e
00000140: ebf7 2ebe a7e8 6fbe 0b4e 193e cc3c 06be
00000150: f5f7 303e 2ce6 d0bd 207c 233e 1e63 79be
00000160: eca7 21be 251b b63d 0c8b 823d ec4e a7bd
00000170: 3a97 233e 4702 513e 117b 60be 3d9d 25be
00000180: c8a6 793e 3df1 eabd c27a dbbd 0b5f 95be
00000190: 81cf 30be a840 9a3d a002 23bd 961d 60be
000001a0: 00c0 e73b 58e6 52be 61f8 82be 0a04 2abe
000001b0: 1d1c 87be 6497 44be 6256 943e 16ec 5a3d
000001c0: 8449 be3d 924c 92be 4885 62be c879 cfbd
000001d0: 0043 403d b829 88be 813b 29be 4387 37be
000001e0: 4576 06ba a0c5 e5bd c028 abbc 7037 51be
000001f0: 42ec 53be b91f 34be f65d d3bd 48b0 73be
00000200: 1270 813e e819 75bd 9ed2 843e 8466 c03d
00000210: a263 97be 7ab9 373e 8ee6 a9bd 8085 15be
00000220: f831 63be 1987 abbe f136 483d 3f26 d3bd
00000230: 4010 f13d f9f5 64be 97de 483e 29a3 62be
00000240: fc3f 55bd dcf9 803d 3a64 1f3e 5041 793e
00000250: d4a0 8c3e 15d0 74be 4067 9b3d e5cc 04be
00000260: 1056 07bd 3418 67be dc9c 8c3e 009b 62be
00000270: b402 253e 2403 d93d a4a8 c83d 59ec 26be
00000280: 7c51 8c3e e0b1 873d 88de 1e3d ec0a 88be
00000290: d49b 013e 2846 39bd dd71 0dbe 4e99 843e
000002a0: 78ab 893d a2d2 2abe e944 1cbe 60e9 6bbc
000002b0: 8a64 2c3e 7aca 9dbd e429 30be f474 d3bd
000002c0: 82df 78be f993 c33d acfb 6e3e 70cc 97be
000002d0: d39a dc3d d60b 103e ce00 1c3d 8216 fdbd
000002e0: a08d 223e 349a 0a3e e9f5 d03d a803 59bd
000002f0: 7683 a3bd d01e 043d 882a 5abd a403 b8bd
00000300: 865a 453e 36ab 843e 8085 f4bc 5841 8abd
00000310: c02b 903b 707a 93bc 8ebc 823d e564 953d
00000320: 0836 8cbe b8a9 febd b79e 8f3e c1b4 cc3d
00000330: 74fe 07bd 1a0a 4cbe 6d8f 1bbe 71f1 86be
00000340: 2ef2 d9bd 8c91 d13d fecf 413e 468c 0e3e
00000350: 5f86 89be 5e47 1abe 61c7 5abd 3ef7 913e
00000360: cba1 193d 06ff 50bd cd3a 033e 6727 f2bd
00000370: d8a8 54be 738f 5c3e 5a63 0cbe 64ce 8abd
00000380: fcea 9fbe 4802 4a3e 4578 653e e6b0 d73d
00000390: 5c29 80be 1cd0 9bbe d233 7cbe 32a9 6b3e
000003a0: 69c0 063e 00e8 813e 2464 173e cb76 ba3d
000003b0: 860f 63bc c656 77be 3493 8abe 0090 7fbe
000003c0: 6f12 ee3d 85db 22be 888b 78bd 96af 31be
000003d0: 5c0b 61bd ae4e 59be 94bd 49be 70d4 cc3d
000003e0: 7284 b7bd 6e9a 3e3e 1019 c6bd b57c 62be
000003f0: 80e6 59bd 24aa 15be e0ea bcbd 94f6 92be

shared.0.bias f4 [256]
0.2078212 -0.16242163 -0.1443783 0.23150271 0.11780012 -0.19751653 0.0913122 0.13686237
-0.27262267 0.05632451 0.06436158 -0.011743009 0.2587262 -0.19929174 0.1634543 -0.1601678
-0.2707343 0.20548558 -0.15770805 0.012087482 0.15123525 -0.26174662 -0.25809038 0.10265285
0.2565395 -0.031904697 0.20756611 0.10595128 0.08041427 -0.19223517 0.2723646 0.13810444
0.010080853 0.17882247 -0.2590668 0.06497085 -0.143618 -0.030617744 0.09878507 0.111550435
0.05313851 -0.2333556 -0.18869561 0.0052645504 -0.052219138 -0.25897384 0.2970388 0.02327697
-0.21856983 0.13223866 0.12561694 -0.1550842 0.13675399 -0.19856122 0.10446802 0.28640717
0.19903696 0.14885283 -0.061342865 0.026296506 0.10069751 0.06269649 -0.069710486 0.038578212
-0.12212147 -0.17340617 -0.27824563 -0.25597274 -0.1972842 0.28821176 0.053297166 -0.28088668
-0.15412325 0.07042685 -0.09024423 -0.09312766 -0.11322199 -0.07875046 0.032207582 0.017854959
0.16465236 0.19295019 0.2474399 -0.019958802 -0.13463077 0.0010288656 -0.19966513 0.11721317
-0.03637746 -0.10937635 -0.2802506 0.14530328 0.14691369 0.26245597 -0.113032915 0.075853266
0.011365354 -0.19586883 -0.18848945 0.14733626 -0.18645768 0.21955562 0.10533583 0.094231345
0.19856799 0.1371254 0.11871337 0.14078379 -0.13605344 -0.15988587 -0.05523731 0.16213079
0.19884904 0.21944988 -0.10784774 -0.03825718 -0.22116277 0.18079205 -0.20934439 -0.1301066
0.24558891 0.064148866 -0.13281226 -0.21924286 -0.20734152 0.2286824 -0.29276037 0.26054478
0.2309648 0.009657892 -0.02929509 0.234492 0.1289197 0.28508234 0.23980208 -0.20611973
0.15771103 0.13620347 -0.21407677 0.129006 -0.18863109 -0.2027926 0.0056250095 -0.04205306
-0.09187461 -0.1977334 0.1583611 0.27945006 -0.07096944 -0.20594652 -0.015547186 -0.26869807
-0.27464572 -0.10782206 0.18944103 -0.24775134 -0.048116177 -0.1640228 -0.2852484 -0.07041544
-0.017563343 -0.050696373 0.20010252 0.12077406 0.1877194 0.118098736 0.031633824 0.1571457
-0.19234905 0.14804085 0.14041631 -0.1314012 -0.010348052 -0.24032994 -0.28129527 -0.027226018
0.053987205 -0.07212723 0.08567643 -0.2430831 -0.19022511 0.19898836 -0.29342243 0.04734373
0.22999099 0.22603923 0.076316684 -0.2746469 0.035148297 -0.106028974 -0.088706024 0.23101574
-0.12141263 -0.21891299 -0.24737644 0.17095439 0.0058389045 0.2907497 0.023512093 -0.28098407
0.074596226 0.2758962 0.18700626 0.080687106 -0.22652669 -0.18079662 0.20473051 -0.21601433
0.044711575 -0.038630545 0.10103062 0.015545607 -0.23470868 -0.12744129 0.24991886 0.031846788
0.13481824 -0.16105928 0.23868865 -0.064542696 -0.10162856 0.06116295 -0.108035535 -0.12116219
-0.043144852 -0.025452282 -0.18040638 0.09991225 -0.2922195 0.18138507 0.2796408 0.04877937
-0.070450634 -0.2761545 0.14159048 0.24371992 0.23938489 0.021529393 0.100240946 0.2845077
0.033243768 -0.15562688 -0.2862634 0.13182405 0.11408645 0.25739563 -0.15350103 0.12107829
-0.09975633 -0.09374197 0.17258766 -0.2763888 0.22225523 0.14023247 -0.18046957 0.14428225
00000000: 15cf 543e db51 26be e8d7 13be 0c0f 6d3e
00000010: 3041 f13d c641 4abe e401 bb3d a625 0c3e
00000020: 3395 8bbe 88b4 663d 01d0 833d c065 40bc
00000030: c377 843e 2213 4cbe 9060 273e 0703 24be
00000040: b09d 8abe d06a 523e 387e 21be 930a 463c
00000050: 6add 1a3e a703 86be 6c24 84be a83b d23d
00000060: 2559 833e 80ae 02bd 368c 543e fcfc d83d
00000070: 3db0 a43d 4cd9 44be 5f73 8b3e 406b 0d3e
00000080: 292a 253c 3d1d 373e 67a4 84be 700f 853d
00000090: 9910 13be 10d2 fabc d44f ca3d 8e74 e43d
000000a0: c4a7 593d c5f4 6ebe 6c39 41be 4082 ac3b
000000b0: bce3 55bd 3898 84be 7815 983e 58af be3c
000000c0: c5d0 5fbe 9269 073e baa1 003e 64ce 1ebe
000000d0: 3d09 0c3e a253 4bbe 54f3 d53d f6a3 923e
000000e0: 58d0 4b3e e06c 183e a842 7bbd c56b d73c
000000f0: 7f3a ce3d 0467 803d 5fc4 8ebd 3004 1e3d
00000100: d21a fabd 6391 31be 3676 8ebe dc0e 83be
00000110: df04 4abe 7e90 933e 214e 5a3d 61d0 8fbe
00000120: 7cd2 1dbe f43b 903d f8d1 b8bd b7b9 bebd
00000130: eee0 e7bd ec47 a1bd 19ec 033d 9044 923c
00000140: a19a 283e bc94 453e e360 7d3e a480 a3bc
00000150: a6dc 09be 00db 863a 0475 4cbe 750d f03d
00000160: 8800 15bd b500 e0bd 027d 8fbe 62ca 143e
00000170: 8b70 163e a160 863e cd7d e7bd f558 9b3d
00000180: c035 3a3c d791 48be 6103 41be 51df 163e
00000190: c3ee 3ebe 30d3 603e 50ba d73d 5dfc c03d
000001a0: 6855 4b3e 9a6a 0c3e ff1f f33d a029 103e
000001b0: 9851 0bbe 1fb9 23be 8440 62bd 9d05 263e
000001c0: 159f 4b3e 78b7 603e 47df dcbd 90b3 1cbd
000001d0: 7e78 62be 8d21 393e 605e 56be aa3a 05be
000001e0: a97b 7b3e 7b60 833d f0ff 07be 3381 60be
000001f0: 5651 54be b82b 6a3e b0e4 95be 2066 853e
00000200: 0982 6c3e 233c 1e3c 42fc efbc ac1e 703e
00000210: 8703 043e 50f6 913e ad8e 753e 0d11 53be
00000220: 007f 213e ec78 0b3e f136 5bbe 261a 043e
00000230: 8228 41be dda8 4fbe 0052 b83b d43f 2cbd
00000240: c128 bcbd a07a 4abe 6a29 223e 1414 8f3e
00000250: 6d58 91bd a5e3 52be a0b9 7ebc cb92 89be
00000260: 5d9e 8cbe d0d1 dcbd d4fc 413e 87b2 7dbe
00000270: 7815 45bd 98f5 27be 140c 92be f835 90bd
00000280: 00e1 8fbc 00a7 4fbd ade7 4c3e 6458 f73d
00000290: 8439 403e c0dd f13d 7892 013d cdea 203e
000002a0: 26f7 44be 0598 173e 4bc9 0f3e 098e 06be
000002b0: e08a 29bc 0d19 76be ef05 90be 1909 dfbc
000002c0: b021 5d3d 71b7 93bd 2077 af3d c7ea 78be
000002d0: 5fca 42be 9bc3 4b3e 773b 96be 80eb 413d
000002e0: c282 6b3e d476 673e ec4b 9c3d 859e 8cbe
000002f0: a9f7 0f3d b825 d9bd 81ab b5bd 648f 6c3e
00000300: 2fa7 f8bd ba2a 60be 4050 7dbe ab0e 2f3e
00000310: 4854 bf3b 25dd 943e 6f9c c03c 25dd 8fbe
00000320: e8c5 983d 4442 8d3e 927e 3f3e 483f a53d
00000330: 9df6 67be c022 39be e0a4 513e dc32 5dbe
00000340: 7c23 373d 103b 1ebd 24e9 ce3d 00b3 7e3c
00000350: 7957 70be f87f 02be bbea 7f3e c771 023d
00000360: cb0d 0a3e b9ec 24be cc6a 743e f62e 84bd
00000370: a222 d0bd 0086 7a3d bc41 ddbd e223 f8bd
00000380: a8b8 30bd 4e81 d0bc 73bc 38be cb9e cc3d
00000390: cb9d 95be 02bd 393e 142d 8f3e e0cc 473d
000003a0: 6c48 90bd 1f64 8dbe 18fd 103e b791 793e
000003b0: 5021 753e 695e b03c 204b cd3d feaa 913e
000003c0: 9e2a 083d a75c 1fbe 1e91 92be e2fc 063e
000003d0: 28a6 e93d 5cc9 833e 602f 1dbe e5f7 f73d
000003e0: 0c4d ccbd cafb bfbd d2ba 303e d582 8dbe
000003f0: e096 633e 1a99 0f3e 04cd 38be babe 133e

shared.2.weight f4 [256, 256]
-0.01572077 0.005624816 -0.016728655 -0.061194576 -0.0064729974 0.030494973 -0.0072716773 -0.0307758
0.0019803494 0.011405453 -0.017438479 -0.048467755 -0.03350895 -0.010189563 0.022508927 0.055579595
0.0011599287 0.022377633 0.035960697 -0.027253233 -0.020738557 0.041456617 0.04474926 0.014809929
-0.048298903 0.03547415 -0.05165594 0.031238899 0.0074071437 0.020188421 -0.060921744 -0.021973453
0.026543535 0.04810539 -0.017893158 0.05573436 -0.013947427 -0.037696652 -0.027065217 0.0038891882
-0.011108331 0.030250244 -0.034588866 -0.01777941 -0.061938316 0.051015206 -0.011760183 -0.049269505
-0.0030158833 -0.00011408329 0.017358012 -0.0068600625 0.039316446 -0.021563984 -0.01870691 -0.014841862
0.011158124 0.05007627 -0.0028758422 0.04808931 0.04909665 -0.03254062 -0.0053700134 -0.029503688
0.025998376 -0.021973066 0.019065619 0.0037340373 -0.04102909 -0.042018384 -0.061045304 -0.034961343
0.017459646 0.003807865 0.047006376 -0.05495715 -0.0018263608 -0.056040615 0.0003658533 0.022771038
-0.05606521 0.05519703 -0.019411936 0.05537726 -0.010490693 0.03545718 0.056817286 -0.022754595
-0.0151929185 0.03278309 -0.053508185 0.0369955 -0.03925708 0.05804771 -0.040960334 -0.025719464
0.04663659 -0.027211674 0.053571954 0.04300122 0.057125717 -0.060580127 0.0007004887 -0.020557098
0.014887728 -0.047190696 0.025628373 -0.0029608607 -0.029543042 -0.056225225 0.03269176 -0.022619076
0.04611727 0.0111259 0.01900877 -0.0094790235 -0.008657746 -0.021231852 -0.054118805 0.03929352
-0.03935881 0.03642735 -0.021080159 0.039154314 0.053563885 -0.038225383 0.051607847 0.0015232787
-0.04774569 0.025513232 0.035389952 0.05509448 -0.059495017 0.056435145 0.0473817 0.061485097
0.034062885 -0.030382067 0.04741323 0.05711981 -0.023898117 -0.010216273 0.048908263 0.05031141
0.041286662 0.047883265 -0.03211865 -0.01078219 -0.024969302 0.03248363 0.015575774 -0.048278317
-0.007850729 -0.050965942 -0.0588198 0.056976743 -0.031438813 0.027895607 -0.013917409 -0.012656204
-4.0367246e-05 0.048745476 -0.008646004 0.051716603 0.036569238 0.042875543 -0.05668377 -0.029224709
-0.05092027 -0.01327429 -0.012945123 0.012700237 0.05599817 0.02805657 -0.043491103 -0.03919646
0.047194093 0.006221503 0.01765655 -0.032689705 -0.0076218247 0.017794058 -0.041014083 0.04079134
0.031146504 -0.036448263 -0.025630057 -0.014693812 0.009726636 -0.022926249 0.059788823 -0.06020058
-0.03532497 -0.03793616 0.016898774 0.008869186 -0.017809756 0.053341128 -0.05395332 0.022028133
-0.034390725 -0.014231786 -0.060187526 -0.04665669 -0.053028077 0.02726712 -0.023469158 0.032693796
-0.033871807 -0.015485287 0.0075654387 0.052370287 -0.0168446 0.036232613 0.017241992 0.03801266
0.039481767 0.025363497 -0.018846706 -0.017541654 0.024331331 0.034065157 -0.003335841 0.031329714
-0.037601195 0.035228632 -0.00766968 -0.04301074 -0.030367754 -0.04773114 0.012607336 -0.037066296
-0.017897718 -0.0039159358 -0.038135044 0.0016048551 -0.007932037 0.019796379 0.045150474 -0.037729323
0.03417164 -0.0013241768 -0.03572218 -0.028344616 0.015908621 0.0130133405 -0.0020187646 -0.031115346
0.03151848 0.009273179 -0.06075819 -0.011045419 -0.01695703 -0.026669346 -0.03466861 -0.050703898
00000000: d8c8 80bc 6050 b83b 880a 89bc 2aa7 7abd
00000010: 701b d4bb 98d0 f93c 4047 eebb 881d fcbc
00000020: c0c8 013b f0dd 3a3c 24db 8ebc 2086 46bd
00000030: ae40 09bd 20f2 26bc a464 b83c 6ea7 633d
00000040: c008 983a 4c51 b73c 864b 133d 2c42 dfbc
00000050: e8e3 a9bc 6ace 293d 004b 373d 58a5 723c
00000060: 12d5 45bd 584d 113d 2e95 53bd b8e8 ff3c
00000070: a0b7 f23b 3062 a53c 1489 79bd ac01 b4bc
00000080: d471 d93c 280a 453d ac94 92bc b649 643d
00000090: c083 64bc ce67 1abd e0b7 ddbc c0e1 7e3b
000000a0: b8ff 35bc 5ccf f73c 0ead 0dbd 20a6 91bc
000000b0: 08b3 7dbd 52f5 503d c8ad 40bc d2ce 49bd
000000c0: 20a6 45bb 0040 efb8 6432 8e3c 60ca e0bb
000000d0: 480a 213d f4a6 b0bc 3c3f 99bc 482b 73bc
000000e0: 90d0 363c c61c 4d3d a078 3cbb 4cf9 443d
000000f0: 9219 493d 5049 05bd f0f6 afbb b8b1 f1bc
00000100: 8cfa d43c dc00 b4bc 802f 9c3c c0b6 743b
00000110: 1e0e 28bd 781b 2cbd a40a 7abd a033 0fbd
00000120: 8807 8f3c 608d 793b c289 403d c01a 61bd
00000130: 8062 efba d88a 65bd 00d0 bf39 548a ba3c
00000140: a2a4 65bd 4816 623d c805 9fbc 44d3 623d
00000150: 28e1 2bbc 8c3b 113d 3eb9 683d d867 babc
00000160: b8eb 78bc 9047 063d 662b 5bbd 9888 173d
00000170: 08cc 20bd 70c3 6d3d 06c6 27bd a0b1 d2bc
00000180: 0206 3f3d 04eb debc 446e 5b3d 0c22 303d
00000190: a8fc 693d de22 78bd 00a1 373a 5c67 a8bc
000001a0: a8eb 733c 084b 41bd 98f2 d13c 000b 42bb
000001b0: 4004 f2bc 6c4c 66bd cce7 053d a44b b9bc
000001c0: 76e5 3c3d 6849 363c 48b8 9b3c e84d 1bbc
000001d0: 38d9 0dbc 6cee adbc aeab 5dbd 3ef2 203d
000001e0: b436 21bd d834 153d 4cb0 acbc 4660 203d
000001f0: ce65 5b3d 3892 1cbd c062 533d c0a8 c73a
00000200: fc90 43bd 2001 d13c 0ef5 103d c0aa 613d
00000210: 0cb1 73bd 8a28 673d 5013 423d ccd7 7b3d
00000220: 8685 0b3d d0e3 f8bc 6034 423d 76f6 693d
00000230: fcc5 c3bc 2862 27bc 0854 483d 5613 4e3d
00000240: 341c 293d 3e21 443d d88e 03bd c8a7 30bc
00000250: 6c8c ccbc 8e0d 053d 8831 7f3c 7cbf 45bd
00000260: 58a0 00bc aac1 50bd 08ed 70bd 7260 693d
00000270: fcc5 00bd 5485 e43c d805 64bc f85b 4fbc
00000280: 0050 29b8 56a9 473d f8a7 0dbc cad4 533d
00000290: a0c9 153d 449e 2f3d 3e2d 68bd a868 efbc
000002a0: c691 50bd 687c 59bc c817 54bc a814 503c
000002b0: 565e 653d e4d6 e53c ba23 32bd 788c 20bd
000002c0: 984e 413d c0dd cb3b 78a4 903c a4e5 05bd
000002d0: 80c0 f9bb d8c4 913c 62fe 27bd d214 273d
000002e0: f426 ff3c c64a 15bd 20f6 d1bc 50be 70bc
000002f0: 785c 1f3c d4cf bbbc 20e5 743d e294 76bd
00000300: eab0 10bd f262 1bbd 4c6f 8a3c 1050 113c
00000310: c4e5 91bc 3a7c 5a3d 28fe 5cbd 5874 b43c
00000320: 4add 0cbd 702c 69bc 3287 76bd 161b 3fbd
00000330: f833 59bd 4c5f df3c 6442 c0bc eee9 053d
00000340: 2abd 0abd 00b6 7dbc 80e7 f73b 3a82 563d
00000350: b0fd 89bc a668 143d 143f 8d3c 2ab3 1b3d
00000360: a2b7 213d 1cc7 cf3c 6864 9abc 84b3 8fbc
00000370: 8052 c73c e887 0b3d 209e 5abb 9653 003d
00000380: b603 1abd e64b 103d f051 fbbb 082c 30bd
00000390: ccc5 f8bc ba81 43bd 008f 4e3c d4d2 17bd
000003a0: 3c9e 92bc 4051 80bb 7e33 1cbd 005a d23a
000003b0: 60f5 01bc 042c a23c b4ef 383d 108a 1abd
000003c0: 90f7 0b3d 0090 adba 6c51 12bd f832 e8bc
000003d0: cc52 823c e835 553c 404d 04bb 9ce5 febc
000003e0: 8619 013d 88ee 173c 94dd 78bd d8f7 34bc
000003f0: 78e9 8abc ac79 dabc ac00 0ebd e4ae 4fbd

shared.2.bias f4 [256]
-0.03673342 -0.04102909 0.042435266 -0.029773287 0.0005795308 0.057342403 0.053188823 0.045993675
-0.042151064 0.0041052094 -0.0011455405 0.0011573657 0.060094185 0.034576096 -0.06146229 0.052547805
0.057260446 -0.04812307 -0.05187182 0.050031982 -0.020400401 -0.049610548 0.026123121 0.0022381935
0.03129273 -0.04380307 0.053794708 -0.023182625 -0.037144773 0.021345308 -0.050886244 -0.051623944
-0.011833787 0.005734757 -0.02349784 -0.005603143 -0.058454625 0.039080888 -0.008682702 0.00953459
0.03770989 0.033363663 0.047701977 0.035551332 0.017339977 -0.037608422 0.042636447 -0.012388147
0.027007915 0.05484734 -0.042359427 -0.008395749 -0.043856807 -0.004771538 -0.018486904 -0.043545745
-0.020585798 0.021438673 -0.045528397 -0.011226828 0.045478113 0.052716054 -0.05935792 0.040466774
0.009150825 0.018479407 0.03896939 0.049928233 -0.031974833 0.0436943 -0.0083550215 0.010301587
0.022897873 -0.06303278 -0.028738061 -0.064039744 0.011151187 0.033988114 -0.02432999 0.016704805
-0.009222476 -0.018894792 -0.043684963 0.021789875 -0.0062027276 0.026141915 0.05886941 -0.049880065
-0.0055913166 -0.018541766 0.038951002 0.056254204 0.051096335 -0.0032829812 0.011236902 -0.022701927
-0.06665821 -0.06238672 0.022655316 -0.04444293 -0.036171548 0.018288001 -0.05297896 0.039489023
0.04641188 -0.0039108694 0.017285472 0.04579681 0.023573503 -0.059887785 0.015973028 -0.063283466
-0.040993016 -0.06215111 -0.033752978 -0.0057526766 0.0040092915 0.0036341827 0.0027465 -0.053749938
0.010622587 -0.01583539 0.03910494 0.045365874 -0.003980458 0.0042446237 -0.03585752 0.026459761
0.052143093 0.016052812 0.019566724 -0.0040408922 -0.04123216 -0.011866702 -0.04116244 0.048566252
-0.036697444 -0.047233805 0.016914401 -0.022222431 -0.009954838 0.05980683 0.031601295 0.046735045
-0.013316195 -0.01904509 -0.045708816 0.013808265 0.04203654 -0.03893248 -0.026017621 0.049518585
-0.025000526 0.029332288 0.046005003 0.037300028 -0.03621352 -0.0076285545 0.044128984 0.05729735
0.036224205 -0.037492663 0.037769623 -0.018830607 0.057978738 -0.03869745 0.05982358 0.053457834
-0.005349893 -0.030951409 -0.055128343 -0.007953867 -0.032914862 -0.006771325 -0.053917557 0.01898425
0.042988464 0.009701886 0.014484025 0.053535946 0.023813454 -0.0375821 0.016293382 -0.013287388
-0.014889494 -0.022620156 0.029003188 -0.05791662 -0.058062628 0.022243261 -0.054918803 0.020832263
-0.022949763 0.0023021922 -0.027700275 0.03559675 -0.018010288 -0.019849725 0.019419614 -0.0057317177
0.046988502 0.04851898 0.00094455207 -0.02346867 0.02102791 0.053728625 -0.0036483114 0.018639125
-0.047033805 0.032196715 -0.014800139 -0.05842065 -0.011650406 0.024376752 -0.017516054 -0.027062694
-0.00934957 0.03828522 -0.040038235 -0.053276937 -0.032598868 -0.056892708 0.05156293 0.010901809
0.0103194285 0.019208042 0.013959765 -0.009580261 0.02079661 -0.06315704 -0.00077275187 -0.057874084
-0.013369222 -0.06240497 0.005695753 0.059202597 0.054723687 0.036322355 0.032079805 -0.055727974
0.048253253 0.03568879 -0.010856571 0.016790979 -0.011989365 0.024230026 0.011639896 0.016555471
0.02800402 -0.056389026 0.023293065 -0.032598328 -0.011290714 -0.06043876 -0.04860634 0.034826715
00000000: c875 16bd 1e0e 28bd 9ad0 2d3d 1ce7 f3bc
00000010: a7eb 173a dedf 6a3d 86dc 593d dd63 3c3d
00000020: 98a6 2cbd fe84 863b f625 96ba c0b2 973a
00000030: 5225 763d aa9f 0d3d e2bf 7bbd 5e3c 573d
00000040: ee89 6a3d b21c 45bd 8c77 54bd 56ee 4c3d
00000050: be1e a7bc 6e34 4bbd 2800 d63c a8ae 123b
00000060: ce2c 003d d96a 33bd d757 5c3d 7de9 bdbc
00000070: 1e25 18bd 5bdc ae3c 186e 50bd a173 53bd
00000080: 80e2 41bc a1ea bb3b 8b7e c0bc 929a b7bb
00000090: 1e6e 6fbd 4813 203d e441 0ebc f836 1c3c
000000a0: b075 1a3d 56a8 083d 2663 433d 469e 113d
000000b0: 910c 8e3c 4a0b 1abd 8ea3 2e3d a8f7 4abc
000000c0: b43f dd3c 9ba7 603d 1481 2dbd 538e 09bc
000000d0: 32a3 33bd 905a 9cbb d971 97bc 065d 32bd
000000e0: 8ca3 a8bc 28a0 af3c fc7b 3abd bbf0 37bc
000000f0: 4247 3a3d caec 573d 4a21 73bd 7dc0 253d
00000100: 58ed 153c 2062 973c 5e9e 1f3d 8c81 4c3d
00000110: 0bf8 02bd cbf8 323d 80e3 08bc fdc7 283c
00000120: 5294 bb3c 5517 81bd 156c ebbc 4527 83bd
00000130: 78b3 363c 1f37 0b3d b04f c7bc 84d8 883c
00000140: de19 17bc 40c9 9abc 01ef 32bd ae80 b23c
00000150: 4040 cbbb 9227 d63c 0d21 713d 0a4f 4cbd
00000160: 5d37 b7bb e7e4 97bc 168b 1f3d cf6a 663d
00000170: 644a 513d 4927 57bb fc1a 383c 64f9 b9bc
00000180: 1984 88bd 3889 7fbd a497 b93c ca09 36bd
00000190: 9e28 14bd b8d0 953c 7700 59bd 3ebf 213d
000001a0: 621a 3e3d c026 80bb 439a 8d3c 7095 3b3d
000001b0: 381d c13c e54c 75bd ded9 823c c39a 81bd
000001c0: 4be8 27bd 2a92 7ebd 9040 0abd f380 bcbb
000001d0: 6060 833b 782b 6e3b a0fe 333b e528 5cbd
000001e0: 5c0a 2e3c 38b9 81bc 802c 203d 91d1 393d
000001f0: 806e 82bb 7c16 8b3b 56df 12bd 24c2 d83c
00000200: ff93 553d 3081 833c 654a a03c 7669 84bb
00000210: 0ee3 28bd 8e6c 42bc f299 28bd 68ed 463d
00000220: 0f50 16bd 3c78 41bd 1290 8a3c d10b b6bc
00000230: 9e19 23bc 02f8 743d 5c70 013d 3f6d 3f3d
00000240: 2c2c 5abc 7304 9cbc 2b39 3bbd 103c 623c
00000250: 822e 2c3d aa77 1fbd e822 d5bc 00d4 4a3d
00000260: e7cd ccbc 444a f03c be6f 3c3d eac7 183d
00000270: a154 14bd f4f8 f9bb 98c0 343d a0b0 6a3d
00000280: d55f 143d e891 19bd 52b4 1a3d a542 9abc
00000290: 1d7b 6d3d 3881 1ebd 9209 753d 9af6 5a3d
000002a0: 284e afbb cf8d fdbc 42ce 61bd f050 02bc
000002b0: bcd1 06bd fee1 ddbb a8d8 5cbd dc84 9b3c
000002c0: ac14 303d a9f4 1e3c 674e 6d3c 8248 5b3d
000002d0: 6f14 c33c b0ef 19bd b379 853c 58b3 59bc
000002e0: 10f3 73bc e84d b9bc 1898 ed3c fa39 6dbd
000002f0: 14d3 6dbd 8037 b63c 8af2 60bd 6ca8 aa3c
00000300: 2401 bcbc 60e0 163b b0eb e2bc e6cd 113d
00000310: 508a 93bc e49b a2bc e215 9f3c 22d1 bbbb
00000320: 0477 403d d7bb 463d d19b 773a 5e41 c0bc
00000330: b942 ac3c 8c12 5c3d 8218 6fbb 14b1 983c
00000340: 85a6 40bd b4e0 033d 487c 72bc 7e4a 6fbd
00000350: 58e1 3ebc c1b1 c73c d47d 8fbc 95b2 ddbc
00000360: f02e 19bc f6d0 1c3d 22ff 23bd eb38 5abd
00000370: 6486 05bd 5408 69bd a733 533d 809d 323c
00000380: d212 293c 2f5a 9d3c 80b7 643c 87f6 1cbc
00000390: a75d aa3c 7a58 81bd 8092 4aba 600d 6dbd
000003a0: 950a 5bbc 5b9c 7fbd 70a3 ba3b 6c7e 723d
000003b0: f225 603d c0c6 143d 1d66 033d 0443 64bd
000003c0: 34a5 453d 692e 123d c2df 31bc 3c8d 893c
000003d0: 0b6f 44bc 0c7e c63c 43b5 3e3c 579f 873c
000003e0: b068 e53c 2ef8 66bd 19d1 be3c d385 05bd
000003f0: b0fc 38bc a28e 77bd 7117 47bd 75a6 0e3d

actor_heads.0.weight f4 [3, 256]
0.00495933 0.005857371 0.00729014 -0.029264525 -0.026545897 0.045421727 0.07472809 0.030701179
-0.0070951656 0.06133209 -9.505568e-05 0.04233014 0.0439559 -0.02356779 -0.018054131 -0.04139387
0.041658793 0.015812136 0.02971755 0.005438 0.015308312 0.048769735 -0.030353464 0.059848946
-0.028713861 0.07410387 -0.006484841 -0.0010471314 -0.044753775 0.011198828 -0.0012521669 -0.04556377
-0.03960766 0.0266525 -0.0055141626 0.02435809 0.022375226 -0.009687701 -0.026216505 -0.020170994
0.041044764 0.013409883 -0.009514083 -0.0030757785 0.06536324 0.02417817 0.06263135 -0.05623515
0.014843537 -0.023321087 0.039257392 0.026178824 0.057629757 0.04814031 0.032868844 -0.0075973347
0.05582846 0.0020568979 -0.022365965 0.040622078 0.042354926 0.06215299 0.050189763 -0.021913724
0.058523364 -0.05320121 0.05841916 -0.055936858 0.0066516227 0.03928578 0.031697433 0.07878598
-0.010384329 0.045195334 0.06733229 0.009372621 -0.0355359 0.020626169 -0.011888839 0.062047623
0.049089603 -0.057432465 -0.020330027 0.048314128 0.025992626 0.044016976 0.07239945 -0.0022549648
0.020550596 0.017522752 0.036134966 -0.0075766603 0.030631803 0.07437213 0.011184827 -0.022967808
-0.029300822 0.046000354 0.047869094 0.017055124 -0.05651457 0.03481456 0.01954299 -0.0009775013
0.025950396 -0.02258598 0.07319772 -0.040234752 -0.012391053 0.014106872 -0.05425646 0.06254611
0.047065865 0.0399803 -0.021689557 0.02233867 0.024680518 0.04997499 -0.058505088 0.051657718
-0.05749615 -0.04378029 -0.029593043 0.045701932 0.039050564 -0.037823193 0.027267523 0.043017574
-0.036380768 0.004787177 0.06303648 0.07384046 0.04782573 -0.040753633 0.05383935 0.0014099077
0.07237503 -0.013782375 -0.013604291 0.04855398 0.00415533 -0.04925005 -0.003245242 0.01933717
0.00971657 -0.040824443 -0.027081395 -0.007015243 -0.0028607459 0.0709597 -0.040613703 0.031205654
-0.030520767 -0.016158298 -0.01943217 0.01342153 -0.049328845 0.041363187 -0.015945062 0.033874176
0.019472858 -0.03771718 0.057674892 -0.046927605 -0.024009302 -0.032136716 0.05063089 -0.02911269
0.052059676 0.073714584 0.054718282 0.033096265 0.034887724 0.048454612 -0.035874434 0.04565125
-0.059096172 -0.017227938 0.0052185697 -0.01864514 -0.001213508 0.040156405 0.018281098 0.03047656
0.0057592914 -0.022335164 0.05916503 0.03259866 -0.014704611 -0.04330842 0.0011678091 -0.037208363
-0.038879454 -0.04957126 0.06830249 -0.029050305 -0.000278607 -0.048211202 0.063253365 -0.026398953
-0.008112185 -0.053465705 0.037044987 0.03524836 0.028299471 0.046296433 -0.05739975 0.02049943
0.024591671 -0.037855655 0.042339154 -0.038358673 0.060519233 0.01871159 0.064424485 -0.017437328
0.061443985 -0.036551468 -0.011703327 -0.037372455 0.046435475 -0.02462393 0.064806 0.0037074909
0.048616596 0.029195605 -0.021314085 0.054460634 0.047984384 0.015075476 -0.014871709 0.053003114
-0.023968175 0.030229127 -0.0038786605 0.028067894 -0.031976275 -0.029832313 0.055640623 -0.054079928
0.04806261 -0.010945443 0.027117157 -0.059903353 0.015448922 0.029915884 -0.00090425083 0.013896637
-0.030010425 0.035030548 0.048889235 0.016684337 0.007550016 -0.040311523 0.043638784 -0.029719856
00000000: e081 a23b 30ef bf3b 20e2 ee3b 28bc efbc
00000010: c876 d9bc 220c 3a3d 0a0b 993d 0a81 fb3c
00000020: 907e e8bb 5c37 7b3d a158 c7b8 5e62 2d3d
00000030: 1a0b 343d 3d11 c1bc 42e6 93bc 9e8c 29bd
00000040: 69a2 2a3d 7488 813c 3872 f33c 4031 b23b
00000050: b7cf 7a3c c6c2 473d d4a7 f8bc 2b24 753d
00000060: 5539 ebbc c5c3 973d ca7e d4bb e63f 89ba
00000070: bc4f 37bd 4a7b 373c c01f a4ba 13a1 3abd
00000080: a43b 22bd 5856 da3c 26b0 b4bb 9e8a c73c
00000090: 404c b73c 2ab9 1ebc ffc3 d6bc a43d a5bc
000000a0: 8e1e 283d 20b5 5b3c f5e0 1bbc 0093 49bb
000000b0: 2add 853d 4c11 c63c dd44 803d d456 66bd
000000c0: 4e32 733c dd0b bfbc 5ccc 203d f974 d63c
000000d0: 2e0d 6c3d c62e 453d 7ba1 063d 10f3 f8bb
000000e0: 62ac 643d 05cd 063b d438 b7bc 5663 263d
000000f0: 5c7c 2d3d 2294 7e3d c893 4d3d 6984 b3bc
00000100: 32b6 6f3d 83e9 59bd ee48 6f3d 0c1e 65bd
00000110: dbf5 d93b 20ea 203d 2bd5 013d 8b5a a13d
00000120: 0823 2abc be1e 393d 83e5 893d 9f8f 193c
00000130: 188e 11bd 36f8 a83c 68c9 42bc a625 7e3d
00000140: 2e12 493d 4e3e 6bbd 288b a6bc 09e5 453d
00000150: 7dee d43c 254b 343d 2a46 943d 08c8 13bb
00000160: b959 a83c e08b 8f3c 4202 143d a245 f8bb
00000170: 8cef fa3c 6a50 983d 9140 373c fc26 bcbc
00000180: 4708 f0bc de6a 3c3d 6212 443d 30b7 8b3c
00000190: d27b 67bd b699 0e3d 9f18 a03c 801f 80ba
000001a0: ed95 d43c 3c06 b9bc b0e8 953d 32cd 24bd
000001b0: d803 4bbc 8220 673c 063c 5ebd 2d18 803d
000001c0: 23c8 403d 62c2 233d 4cae b1bc 96ff b63c
000001d0: cc2e ca3c 93b2 4c3d 08a3 6fbd 0b97 533d
000001e0: 1581 6bbd f652 33bd 1c6d f2bc f331 3b3d
000001f0: 7cf3 1f3d 7eec 1abd 2460 df3c 3233 303d
00000200: 0004 15bd c0dd 9c3b 4519 813d ab39 973d
00000210: eae4 433d 48ed 26bd a686 5c3d a7cc b83a
00000220: 5c39 943d 78cf 61bc 88e4 5ebc 8ae0 463d
00000230: 6f29 883b 6cba 49bd 20ae 54bb fc68 9e3c
00000240: 4032 1f3c 8837 27bd cdd9 ddbc 20e0 e5bb
00000250: 5a7b 3bbb 5253 913d 8e5a 26bd 00a3 ff3c
00000260: b006 fabc 685e 84bc 3730 9fbc fae5 5b3c
00000270: 0b0d 4abd 726c 293d 389f 82bc a6bf 0a3d
00000280: 8b85 9f3c 547d 1abd 823c 6c3d 2937 40bd
00000290: 28af c4bc caa1 03bd 5662 4f3d bc7d eebc
000002a0: 873c 553d acf7 963d 4720 603d f38f 073d
000002b0: 6ee6 0e3d 5878 463d 12f1 12bd cefc 3a3d
000002c0: d40e 72bd 9b21 8dbc 8900 ab3b b1bd 98bc
000002d0: 920e 9fba 0b7b 243d 3ec2 953c fba9 f93c
000002e0: 70b8 bc3b 3cf8 b6bc 0857 723d 2c86 053d
000002f0: 9ceb 70bc 2b64 31bd 2c11 993a cc67 18bd
00000300: 1040 1fbd 3c0b 4bbd 2de2 8b3d e8fa edbc
00000310: 0012 92b9 1c79 45bd fb8a 813d 9e42 d8bc
00000320: f8e8 04bc dbfe 5abd 7cbc 173d 9660 103d
00000330: 4bd4 e73c 54a1 3d3d 001c 6bbd 6cee a73c
00000340: 7974 c93c 880e 1bbd d26b 2d3d fc1d 1dbd
00000350: 04e3 773d 0c49 993c fcf0 833d bad8 8ebc
00000360: b0ac 7b3d feb6 15bd 50bf 3fbc dc13 19bd
00000370: 2033 3e3d 20b8 c9bc 02b9 843d 60f9 723b
00000380: 3222 473d 9f2b ef3c e09a aebc 1d12 5f3d
00000390: 468b 443d 21ff 763c 78a8 73bc cb19 593d
000003a0: e858 c4bc 13a3 f73c 2031 7ebb a4ee e53c
000003b0: 8ef9 02bd e562 f4bc 6ce7 633d ea82 5dbd
000003c0: 4ddd 443d 8454 33bc cd24 de3c 385d 75bd
000003d0: 7a1d 7d3c 2812 f53c 3f0b 6dba b8ae 633c
000003e0: 6cd8 f5bc 317c 0f3d 1440 483d 97ad 883c
000003f0: 2066 f73b b21d 25bd 95be 323d 0e77 f3bc

actor_heads.0.bias f4 [3]
-0.021960534 0.060383365 -0.026295152
00000000: 94e6 b3bc 8c54 773d ee68 d7bc

actor_heads.1.weight f4 [3, 256]
-0.044373147 -0.0071187317 -0.042128757 -0.03834504 -0.013134231 -0.032292746 -0.05720376 -0.026489368
0.006664224 0.04235005 0.060104977 0.009528525 -0.039340556 0.019196335 -0.054035485 0.006393889
-0.01693607 0.0013632998 0.03008613 0.007897884 0.02137629 -0.03312818 0.04769919 -0.0027690695
0.033015843 -0.051533077 0.054590516 0.03483739 0.013186492 0.037089493 0.012926243 -0.017265307
-0.054540493 0.0012933977 -0.0168216 0.052420612 -0.00615146 -0.041898586 -0.004967885 -0.0056914613
0.056579486 0.031435043 -0.006468167 -0.053618006 -0.057702605 0.05543428 0.019004237 -0.021951556
-0.017848983 0.059798833 -0.00945481 0.062091455 0.022978023 -0.00183402 0.011373518 -0.017560653
-0.0058678463 0.019389963 -0.042905793 -0.019028926 -0.036613174 -0.036985256 0.05501347 0.061857015
0.051916555 0.0373333 0.014271468 0.012233719 0.0055034137 0.0791629 0.04740902 0.00038994988
-0.049515255 0.023269797 0.027194824 -0.005390136 0.04444468 0.029381813 -0.040168397 0.06048554
-0.045476187 0.004532188 -0.03974278 0.033088505 -0.02210415 0.015285758 -0.007211529 -0.030998046
0.04633753 -0.03798897 0.049983792 -0.042588625 -0.057799228 -0.05522212 0.018349145 -0.0030987412
-0.024345795 0.008719967 -0.04716085 -0.03845589 0.01066494 -0.039030664 -0.041806433 -0.0053229555
-0.024468226 -0.013289288 0.025710858 0.041112218 0.014713496 -0.034475125 0.012461534 0.033222467
-0.027076006 0.03631366 0.020999163 -0.05763314 0.012128681 0.009963863 -0.03926658 -0.021830697
0.027138107 0.021645097 0.053829454 -0.022779958 0.060157597 0.028796565 0.026027128 0.00096157193
-0.025241882 -0.05394288 0.028308038 0.04088315 0.016748935 0.02449177 0.06144253 -0.051013336
-0.041170277 -0.007434055 0.035341308 0.05403033 0.060976263 0.010123753 0.031154275 0.05690474
0.03738591 -0.010050087 -0.021348815 -0.016506866 0.057620153 -0.0635767 0.012412385 0.01005476
-0.013236797 -0.0397363 -0.04956028 -0.004102576 -0.0459573 0.02338166 -0.04658079 -0.015228838
-0.0086298175 0.025399357 0.045850694 0.055097323 0.0043940004 -0.062098965 -0.016980432 0.009001732
0.025475718 0.057160977 -0.06385867 -0.0195395 0.04023777 0.034607455 -0.022992961 0.017762065
0.040455103 -0.00060183875 -0.004929657 0.0025459083 -0.027098935 -0.048279528 0.030307915 0.0176221
-0.043003745 0.010371365 -0.020506747 0.05508118 -0.031664737 0.05472213 0.025227094 0.007244006
0.01724533 0.009332009 0.033759944 -0.028568052 -0.017257899 -0.02980686 0.013061339 -0.021874359
0.03319396 -0.021861514 0.05960523 0.022770114 -0.060938004 0.00975322 0.020339603 -0.04053022
0.0034560403 0.021886371 -0.0591951 -0.056645807 -0.0031722412 0.023683177 -0.033518594 -0.036454536
-0.031751916 0.013763517 -0.022534087 -0.02553641 0.005397126 -0.007320605 -0.009916025 0.039695315
-0.044879198 -0.0075635184 -0.0067843124 0.026720032 -0.035230532 0.0093183685 -0.05825127 0.050797045
0.017175 -0.01359021 -0.05395014 0.04627227 0.042771667 0.042317573 -0.047647644 -0.0004865229
-0.038425416 -0.040121097 -0.052309096 0.03969776 -0.012698987 0.032120325 -0.011690036 -0.008915109
-0.00058638304 -0.049059678 -0.055731907 0.01955043 -0.0019514263 -0.0008511465 -0.00037337956 0.004739121
00000000: 9ec0 35bd 4044 e9bb 348f 2cbd b00f 1dbd
00000010: f530 57bc 6645 04bd 7d4e 6abd 3b00 d9bc
00000020: 905f da3b 3f77 2d3d a330 763d 881d 1c3c
00000030: 9023 21bd a241 9d3c 5054 5dbd d483 d13b
00000040: 83bd 8abc c0b0 b23a 3077 f63c 2066 013c
00000050: 541d af3c 6ab1 07bd 3a60 433d 4779 35bb
00000060: 9f3b 073d 5914 53bd 4e9a 5f3d a7b1 0e3d
00000070: 280c 583c 27eb 173d 98c8 533c f96f 8dbc
00000080: da65 5fbd 3a87 a93a 74cd 89bc ffb6 563d
00000090: 3092 c9bb da9d 2bbd a4c9 a2bb 707f babb
000000a0: e4bf 673d 08c2 003d ebf2 d3bb 8e9e 5bbd
000000b0: 9159 6cbd 0e0f 633d c6ae 9b3c c0d3 b3bc
000000c0: 0838 92bc 9fef 743d 59e8 1abc 9c53 7e3d
000000d0: 683c bc3c 8063 f0ba fe57 3a3c 5cdb 8fbc
000000e0: 1047 c0bb b3d7 9e3c fcbd 2fbd 8de2 9bbc
000000f0: b2f7 15bd da7d 17bd ce55 613d c85d 7d3d
00000100: 74a6 543d cdea 183d e0d2 693c f06f 483c
00000110: fb55 b43b 2920 a23d f62f 423d 3072 cc39
00000120: 82d0 4abd 4da0 be3c aec7 de3c bd9f b0bb
00000130: a00b 363d 21b2 f03c 9e87 24bd b0bf 773d
00000140: 3d45 3abd c082 943b 53c9 22bd d087 073d
00000150: c313 b5bc 1e71 7a3c b14e ecbb 9def fdbc
00000160: 6ccc 3d3d 529a 1bbd cebb 4c3d 6971 2ebd
00000170: e2be 6cbd 9730 62bd f250 963c 4014 4bbb
00000180: d570 c7bc 31de 0e3c bc2b 41bd ec83 1dbd
00000190: 00bc 2e3c 9ede 1fbd 393d 2bbd 306c aebb
000001a0: 9771 c8bc 50bb 59bc 949f d23c 4965 283d
000001b0: e010 713c ca35 0dbd 762b 4c3c 4814 083d
000001c0: 80ce ddbc a2bd 143d 7006 ac3c ba10 6cbd
000001d0: 60b7 463c 783f 233c fed5 20bd 4ad6 b2bc
000001e0: bc50 de3c 0f51 b13c 467c 5c3d 099d babc
000001f0: d067 763d c6e6 eb3c d836 d53c 0012 7c3a
00000200: 10c8 cebc 36f3 5cbd 42e6 e73c 1775 273d
00000210: 1035 893c f7a2 c83c 2aab 7b3d 5cf3 50bd
00000220: 2aa2 28bd 6099 f3bb 0cc2 103d e84e 5d3d
00000230: 3fc2 793d 19de 253c 4037 ff3c f214 693d
00000240: f821 193d 1fa9 24bc b6e3 aebc 6839 87bc
00000250: 1c03 6c3d 8034 82bd 515d 4b3c b8bc 243c
00000260: 27df 58bc 88c2 22bd b8ff 4abd e76e 86bb
00000270: b93d 3cbd e58a bf3c 80cb 3ebd 6082 79bc
00000280: 1464 0dbc 5012 d03c f0cd 3b3d bbad 613d
00000290: 8cfb 8f3b 7c5b 7ebd 8c1a 8bbc 007c 133c
000002a0: 74b2 d03c a121 6a3d 56c8 82bd 4d11 a0bc
000002b0: 5cd0 243d 8cc0 0d3d bc5b bcbc c081 913c
000002c0: 40b4 253d b7c4 1dba f688 a1bb 41d9 263b
000002d0: 96fe ddbc c1c0 45bd 4e48 f83c 395c 903c
000002e0: b224 30bd a8ec 293c c4fd a7bc ce9c 613d
000002f0: e2b2 01bd 5024 603d 0da9 ce3c 205f ed3b
00000300: 1446 8d3c 48e5 183c de47 0a3d 8c07 eabc
00000310: 7060 8dbc 842d f4bc 3aff 553c db31 b3bc
00000320: 64f6 073d eb16 b3bc 9d24 743d 6488 ba3c
00000330: 219a 79bd f8cb 1f3c 3d9f a63c 0403 26bd
00000340: bc7e 623b 0c4b b33c 9076 72bd 6f05 68bd
00000350: 60e5 4fbb 3903 c23c cb4a 09bd 5a51 15bd
00000360: 4c0e 02bd 6080 613c 6899 b8bc bc31 d1bc
00000370: 60da b03b b0e1 efbb d376 22bc 8e97 223d
00000380: 40d3 37bd 64d7 f7bb f04e debb f8e3 da3c
00000390: e44d 10bd 12ac 183c e298 6ebd 9010 503d
000003a0: 96b2 8c3c 79a9 5ebc d2fa 5cbd fe87 3d3d
000003b0: 5831 2f3d 3155 2d3d 2d2a 43bd 0014 ffb9
000003c0: f863 1dbd 0556 24bd 1042 56bd 1e9a 223d
000003d0: 690f 50bc 9a90 033d 9187 3fbc ad10 12bc
000003e0: 80b7 19ba cdf2 48bd 2447 64bd 3928 a03c
000003f0: 00c7 ffba 7a1f 5fba 28c2 c3b9 a14a 9b3b

actor_heads.1.bias f4 [3]
-0.032362256 0.061937623 0.023233082
00000000: 498e 04bd 4eb2 7d3d 4e53 be3c

actor_heads.2.weight f4 [3, 256]
-0.0037164167 0.011109389 -0.055740952 0.036751546 0.039221283 0.036477238 0.0010108873 -0.031070739
0.008077867 0.01729498 -0.050274096 0.0238254 0.059179343 0.06018291 0.02177312 0.054378502
-0.03255252 -0.0017993078 -0.03506878 -0.02790095 -0.015125798 -0.02270326 0.050759718 -0.008467872
0.036406633 0.00017302943 0.024499232 -0.020786809 -0.007826917 -0.03277874 -0.057203963 -0.04227831
0.05279866 0.004578637 -0.011947109 0.0050898334 0.0033705235 0.0034365375 0.04041259 -0.0032030642
0.060495377 -0.0007805079 0.033828262 -0.010685056 0.013037357 -0.001357466 0.059781082 0.06247116
-0.035030026 0.0037679572 -0.050336123 -0.015465785 -0.061919607 -0.0024487972 0.0086835 0.04278615
0.030836716 -0.04944695 0.027394965 -0.051127095 0.041735478 0.038702764 0.018870242 0.039782617
0.057722427 0.012108795 -0.0018078163 0.025284313 -0.05061063 -0.031277496 0.005603012 0.022840602
-0.05975871 -0.010001095 -0.05966495 0.038264252 -0.036972843 -0.059804738 -0.010740668 0.019231617
-0.0017862499 0.008841619 0.0016244639 0.040904947 -0.025476048 0.014907958 0.0494153 0.032484945
0.04067908 -0.012148951 -0.024287 -0.057269275 0.01211042 -0.0061150007 -0.039817262 -0.0077679753
-0.0544712 0.0023759003 -0.04596193 -0.057118926 -0.016972594 -0.003616929 0.02578155 0.044446282
0.0046843 0.05034975 -0.027562968 0.035961434 0.058160827 -0.049305465 -0.029662257 0.038298737
-0.02738469 0.04550173 -0.058774948 -0.039973374 0.004644878 0.0074053975 0.046222456 -0.04514926
0.007079907 -0.02006321 0.044882417 -0.03921469 0.048488155 0.0075491075 0.0033604503 -0.05061552
-0.025414275 0.037670888 -0.047718007 0.010691892 -0.0039497465 -0.03016833 -0.0494401 -0.027246298
0.049020573 0.018724173 0.04934301 0.050264858 0.022539437 0.030739293 0.058926076 -0.008386215
-0.057691347 -0.032254223 0.010209996 0.038126074 -0.0043834643 -0.03177659 -0.049929816 -0.05639402
0.033020657 0.021858394 -0.0022421454 0.047939997 -0.029649023 0.033065222 -0.036276974 0.044969447
-0.021441363 -0.049350582 -0.0238688 -0.05205691 -0.0055486746 0.0008014962 -0.020697445 -0.038869455
0.009826247 0.03459382 -0.037463017 -0.009104965 0.023957193 0.04447761 -0.029464535 0.04635589
-0.031821378 -0.022854725 -0.013590325 -0.02765483 -0.013044705 0.007523485 -0.050973784 -0.033121947
0.014237307 0.032718413 0.00453414 0.019151494 0.038313463 0.007895496 -0.0078918 0.030648164
-0.009015821 0.013099395 -0.00561229 0.016780064 -0.013203822 -0.03284555 -0.055641036 0.014068249
0.03434232 0.034932066 -0.024612881 -0.012392092 -0.037198797 0.036573835 -0.026432997 -0.029930912
-0.013836741 -0.045128502 0.013265878 0.012532917 0.017079137 0.04898738 -0.05701317 -0.008986597
0.038588814 0.015627049 0.031242162 0.061607547 -0.047169305 -0.013219811 0.05058214 0.012689501
0.021852175 0.019170875 0.01718112 0.012482395 -0.04285229 0.025614962 0.03648811 -0.010128204
-0.007244279 0.060407013 -0.043029867 -0.0047966167 0.030109137 -0.012182865 0.012792505 -0.03975465
-0.015438325 -0.020105561 0.028158417 0.028578907 -0.032646537 -0.0593573 0.048195764 0.027263436
0.043758802 -0.049282614 -0.05696685 0.027101157 -0.02607365 -0.047187533 0.037069142 0.0042694723
00000000: 208f 73bb 2804 363c a050 64bd ca88 163d
00000010: 7fa6 203d 2869 153d c07f 843a 1088 febc
00000020: 0859 043c 34ae 8d3c 36ec 4dbd 7c2d c33c
00000030: 0a66 723d 5b82 763d 8b5d b23c febb 5e3d
00000040: cb55 05bd c0d6 ebba 48a4 0fbd 8890 e4bc
00000050: 32d2 77bc 30fc b9bc 6ce9 4f3d d4bc 0abc
00000060: 1f1f 153d 3c6f 3539 9db2 c83c 1949 aabc
00000070: 783c 00bc 0043 06bd b44e 6abd 052c 2dbd
00000080: 6843 583d 6408 963b cfbd 43bc 9ec8 a63b
00000090: 00e4 5c3b 8837 613b ac87 253d 80ea 51bb
000000a0: 00ca 773d 009b 4cba 818f 0a3d 6010 2fbc
000000b0: a39a 553c 00ed b1ba 02dd 743d c2e1 7f3d
000000c0: a57b 0fbd d5ef 763b 402d 4ebd 3464 7dbc
000000d0: 6a9f 7dbd 007c 20bb 3d45 0e3c 8840 2f3d
000000e0: 489d fc3c e388 4abd 686b e03c a56a 51bd
000000f0: d2f2 2a3d ca86 1e3d c495 9a3c 19f3 223d
00000100: 5a6e 6c3d f863 463c 40f4 ecba 0c21 cf3c
00000110: 184d 4fbd d51c 00bd 7999 b73b 371c bb3c
00000120: 8dc5 74bd a2db 23bc 3c63 74bd faba 1c3d
00000130: d670 17bd d0f5 74bd a0f9 2fbc a08b 9d3c
00000140: 9a20 eaba 70dc 103c f7eb d43a f28b 273d
00000150: 25b3 d0bc 8240 743c b367 4a3d ef0e 053d
00000160: 1b9f 263d 650c 47bc 88f5 c6bc 3093 6abd
00000170: c86a 463c 5860 c8bb 6d17 23bd 808a febb
00000180: 311d 5fbd feb4 1b3b 9442 3cbd 89f5 69bd
00000190: 1c0a 8bbc 000a 6dbb d433 d33c 4e0d 363d
000001a0: c27e 993b 8a3b 4e3d bccb e1bc 4c4c 133d
000001b0: 0c3a 6e3d 87f4 49bd 43fe f2bc 23df 1c3d
000001c0: db55 e0bc 0660 3a3d 00be 70bd 1fbb 23bd
000001d0: 1034 983b faa8 f23b c253 3d3d 6eee 38bd
000001e0: 91fe e73b 9a5b a4bc a0d6 373d 959f 20bd
000001f0: 849b 463d 815e f73b 003b 5c3b 3852 4fbd
00000200: 9931 d0bc ca4c 1a3d f573 43bd 0c2d 2f3c
00000210: e06c 81bb 9323 f7bc b481 4abd a133 dfbc
00000220: ccc9 483d 7063 993c e51b 4a3d 86e2 4d3d
00000230: a0a4 b83c f8d0 fb3c 785c 713d 5666 09bc
00000240: c34d 6cbd 011d 04bd d447 273c 162a 1c3d
00000250: 2aa3 8fbb 2b28 02bd 3583 4cbd 6afd 66bd
00000260: ab40 073d 6010 b33c f5f0 12bb bb5c 443d
00000270: 82e2 f2bc 666f 073d 2a97 14bd e231 383d
00000280: cca5 afbc d623 4abd 8088 c3bc a039 55bd
00000290: a8d1 b5bb 801b 523a b08d a9bc 9435 1fbd
000002a0: 44fe 203c 40b2 0d3d d272 19bd fe2c 15bc
000002b0: e041 c43c 282e 363d 9c5f f1bc acdf 3d3d
000002c0: 2257 02bd d539 bbbc f4a9 5ebc 628c e2bc
000002d0: 75b9 55bc 9187 f63b e3c9 50bd e1aa 07bd
000002e0: 9843 693c be03 063d 2093 943b 98e3 9c3c
000002f0: 94ee 1c3d 1c5c 013c 9c4c 01bc dc11 fb3c
00000300: 18b7 13bc d89e 563c 4de7 b7bb 5876 893c
00000310: d854 58bc 0e89 06bd dbe7 63bd 837e 663c
00000320: 88aa 0c3d ed14 0f3d f4a0 c9bc 3308 4bbc
00000330: c45d 18bd 72ce 153d 038a d8bc ac31 f5bc
00000340: 80b3 62bc aad8 38bd 2059 593c dd56 4d3c
00000350: 8ce9 8b3c fea6 483d a486 69bd 853c 13bc
00000360: 4e0f 1e3d 4c04 803c 90ef ff3c 3258 7c3d
00000370: 9a34 41bd e897 58bc 382f 4f3d a0e7 4f3c
00000380: 5503 b33c 3d0c 9d3c 6cbf 8c3c f682 4c3c
00000390: e285 2fbd 78d6 d13c 8e74 153d c4f0 25bc
000003a0: 6b61 edbb 586d 773d 1640 30bd f02c 9dbb
000003b0: 70a7 f63c a49a 47bc a897 513c c6d5 22bd
000003c0: 07f1 7cbc 6bb4 a4bc 7bac e63c 501e ea3c
000003d0: 60b8 05bd a420 73bd ec68 453d 9257 df3c
000003e0: 6e3c 333d 91dc 49bd 1256 69bd 3f03 de3c
000003f0: 6898 d5bc b747 41bd d0d5 173d eee6 8b3b

actor_heads.2.bias f4 [3]
0.017725853 0.034798685 0.017410664
00000000: cf35 913c 1189 0e3d cfa0 8e3c
