results/bdq/models/bdq_checkpoint_80.pt (torch, 313023 bytes, 25 tensors)

trunk.0.weight f4 [256, 11]
0.23841007 0.24914071 -0.07063581 0.27680558 -0.0706489 0.05702256 -0.10084719 0.17200744
0.25024658 -0.22432348 0.2624906 0.055636458 0.21159644 0.04083386 0.12515089 -0.06831152
0.23453699 0.15389387 -0.14503519 0.020699022 -0.15954345 -0.026825733 -0.12206092 0.18599327
-0.23800406 -0.16148889 -0.0784688 -0.18861212 0.042088006 -0.3233021 0.2830361 -0.26742575
0.22721975 0.050177276 -0.097902104 0.18631893 0.046990782 0.24361014 0.03296113 -0.095088586
0.081011176 -0.081763685 0.12689331 0.26919603 0.17429152 -0.13181248 0.17405185 0.053948283
0.15311801 -0.18377268 -0.29846862 -0.11649208 -0.23126608 0.24740177 0.08684471 0.08839215
0.08421194 -0.0052450895 0.21076891 -0.21552843 0.00067928626 -0.15954302 0.055808205 -0.1435424
0.08335542 -0.059406847 0.25007105 -0.17870635 -0.17982076 -0.17983162 0.2711922 0.10047901
0.29012948 -0.24883015 -0.2990619 -0.23589155 -0.2028234 0.10035113 0.100193575 0.2505331
-0.17087367 -0.22857034 0.13093664 -0.09206812 0.20054564 -0.112835124 0.15661418 -0.22234978
-0.17609616 0.08182549 0.06374177 -0.10083006 0.17500862 0.19899645 -0.23263964 -0.14106186
0.2261705 -0.11218427 -0.095870934 -0.29174075 -0.17266656 0.075318635 -0.039797425 -0.21886286
0.0070724487 -0.20595682 -0.25580123 -0.16603103 -0.26388636 -0.19198376 0.27381667 0.057669863
0.09291366 -0.28890055 -0.18922062 -0.103482306 0.046863083 -0.24383768 -0.13347283 -0.17214748
0.0051122033 -0.112193346 -0.020893455 -0.20431304 -0.20695594 -0.17590226 -0.10320656 -0.23797715
0.25280815 -0.05983916 0.25941938 0.09394553 -0.2253617 0.19170831 -0.08295928 -0.11616542
-0.25246748 -0.2644884 0.05918978 -0.14181733 0.15316103 -0.2675258 0.18949378 -0.19581068
-0.07589637 0.06297657 0.13183042 0.21956828 0.25770062 -0.26173264 0.05324244 -0.14549886
-0.03304106 -0.22567827 0.27463424 -0.2212944 0.16114312 0.10596302 0.09797791 -0.16301097
0.27405918 0.06625724 0.03878644 -0.26570833 0.126571 -0.04523292 -0.13812967 0.25898212
0.06722158 -0.16681913 -0.15260662 -0.014398903 0.16835228 -0.07704635 -0.1720348 -0.103250414
-0.20568666 0.09774242 0.23338193 -0.28765285 0.0508536 0.14602484 0.055726238 -0.120116755
0.1469252 0.14370453 0.101519555 -0.052982002 -0.079840586 0.032255948 -0.053263217 -0.089850694
0.19272813 0.25911874 -0.029848814 -0.067507446 0.0043997467 -0.018002719 0.06063206 0.0796394
-0.27384973 -0.120349966 0.2526093 0.11310038 -0.063742995 -0.17437035 -0.16654663 -0.2779796
-0.09506275 0.077863134 0.18598674 0.13920698 -0.27843338 -0.16324502 -0.042148087 0.2411387
-0.01600585 -0.05198966 0.1294212 -0.12528694 -0.17990123 0.19438957 -0.13709775 -0.090502605
-0.33542144 0.14972988 0.24827541 0.13365822 -0.21067028 -0.28936788 -0.2967054 0.1898223
0.13900316 0.25372314 0.14679796 0.077573456 -0.017659787 -0.3184158 -0.26296887 -0.29238996
0.123868085 -0.15395132 -0.060679942 -0.17352137 -0.054942474 -0.2122142 -0.19701225 0.10001457
-0.08960809 0.18613598 -0.09672749 -0.22117884 -0.053198338 -0.14615685 -0.09224486 -0.2870375
00000000: c521 743e be1e 7f3e 82a9 90bd 76b9 8d3e
00000010: 5fb0 90bd 7d90 693d f988 cebd b822 303e
00000020: 5220 803e 0eb5 65be 2b65 863e 0ee3 633d
00000030: bdac 583e 6841 273d 8e27 003e e9e6 8bbd
00000040: 772a 703e 5b96 1d3e 1b84 14be ff90 a93c
00000050: 5c5f 23be a4c1 dbbc 13fb f9bd 0575 3e3e
00000060: 56b7 73be 585d 25be 40b4 a0bd 8923 41be
00000070: 7964 2c3d da87 a5be 1cea 903e 07ec 88be
00000080: 4bac 683e b086 4d3d e680 c8bd 64ca 3e3e
00000090: 6879 403d f074 793e 4002 073d cebd c2bd
000000a0: 30e9 a53d b873 a7bd 52f0 013e 10d4 893e
000000b0: 7a79 323e daf9 06be a63a 323e e0f8 5c3d
000000c0: f8ca 1c3e e82e 3cbe e1d0 98be 6693 eebd
000000d0: 04d1 6cbe e456 7d3e a4db b13d f206 b53d
000000e0: 4f77 ac3d 00df abbb ced3 573e 7cb3 5cbe
000000f0: 2112 323a 3f5f 23be 2597 643d c7fc 12be
00000100: 3fb6 aa3d 9854 73bd 5009 803e ccfe 36be
00000110: ef22 38be c825 38be b4d9 8a3e f0c7 cd3d
00000120: da8b 943e 55cd 7ebe a41e 99be 8e8d 71be
00000130: f0b0 4fbe e584 cd3d 4a32 cd3d e045 803e
00000140: 82f9 2ebe 580e 6abe 4114 063e 368e bcbd
00000150: d65b 4d3e 1a16 e7bd 785f 203e a9af 63be
00000160: 8d52 34be 1f94 a73d 0c8b 823d fe7f cebd
00000170: 7635 333e bac5 4b3e 1639 6ebe 8572 10be
00000180: 3d99 673e dec0 e5bd fb57 c4bd 0b5f 95be
00000190: 81cf 30be a840 9a3d a002 23bd 961d 60be
000001a0: 00c0 e73b 58e6 52be 61f8 82be 0a04 2abe
000001b0: 1d1c 87be 6497 44be b331 8c3e 3c37 6c3d
000001c0: 8449 be3d c6ea 93be 0dc3 41be 88ee d3bd
000001d0: 81f3 3f3d 96b0 79be 1aad 08be 6e47 30be
000001e0: 4584 a73b a0c5 e5bd c028 abbc 7037 51be
000001f0: 42ec 53be b91f 34be f65d d3bd 48b0 73be
00000200: 1270 813e e819 75bd 9ed2 843e 8466 c03d
00000210: 38c5 66be 2f4f 443e 8ee6 a9bd 23e8 edbd
00000220: 6b43 81be 066b 87be fc70 723d 9038 11be
00000230: 3fd6 1c3e 24f9 88be a80a 423e 9882 48be
00000240: 8e6f 9bbd dcf9 803d 8efe 063e 82d6 603e
00000250: 56f1 833e d201 86be bf14 5a3d a7fd 14be
00000260: 1056 07bd 3418 67be dc9c 8c3e 009b 62be
00000270: b402 253e 2403 d93d a4a8 c83d 59ec 26be
00000280: 7c51 8c3e e0b1 873d 88de 1e3d ec0a 88be
00000290: d49b 013e 2846 39bd dd71 0dbe 4e99 843e
000002a0: 78ab 893d a2d2 2abe e944 1cbe 60e9 6bbc
000002b0: 8a64 2c3e 7aca 9dbd e429 30be f474 d3bd
000002c0: 869f 52be 2e2d c83d acfb 6e3e 3c47 93be
000002d0: dd4b 503d 8987 153e 3241 643d c6ff f5bd
000002e0: 8f73 163e 4827 133e 7ce9 cf3d a803 59bd
000002f0: 7683 a3bd d01e 043d 882a 5abd a403 b8bd
00000300: 865a 453e 36ab 843e 8085 f4bc 5841 8abd
00000310: c02b 903b 707a 93bc 5359 783d fb19 a33d
00000320: 0836 8cbe 0b7a f6bd 0256 813e 2ca1 e73d
00000330: b08b 82bd 248e 32be 338b 2abe 5853 8ebe
00000340: 42b0 c2bd b576 9f3d 4f73 3e3e 468c 0e3e
00000350: d28e 8ebe b429 27be 79a3 2cbd 10ed 763e
00000360: b31e 83bc 1cf3 54bd fe86 043e 384b 00be
00000370: 0738 38be 0f0e 473e 5a63 0cbe 6e59 b9bd
00000380: 5cbc abbe ca52 193e e93b 7e3e b3dd 083e
00000390: f3b9 57be 0728 94be c5e9 97be c760 423e
000003a0: d856 0e3e 00e8 813e 3452 163e d5de 9e3d
000003b0: 42ab 90bc 6507 a3be dba3 86be 23b4 95be
000003c0: 8dae fd3d 6aa5 1dbe 888b 78bd 96af 31be
000003d0: 5c0b 61bd ae4e 59be 94bd 49be 70d4 cc3d
000003e0: 7284 b7bd 6e9a 3e3e 1019 c6bd b57c 62be
000003f0: 80e6 59bd 24aa 15be e0ea bcbd 94f6 92be

trunk.0.bias f4 [256]
0.21132457 -0.17741771 -0.15669312 0.23150271 0.11780012 -0.19651732 0.0913122 0.13683756
-0.29176065 0.05632451 0.06120055 -0.011743009 0.28850085 -0.2231134 0.1634543 -0.1601678
-0.26192358 0.20548558 -0.15372317 0.0022567676 0.12850608 -0.26281488 -0.25809038 0.10265285
0.21302722 -0.031904697 0.1803101 0.10595128 0.06295814 -0.19223517 0.29062587 0.13810444
0.008920668 0.1808917 -0.2590668 0.06497085 -0.14123942 -0.030617744 0.09878507 0.13090853
0.04350938 -0.2333556 -0.18869561 0.0052645504 -0.052219138 -0.24201024 0.2970388 -0.01209193
-0.24857597 0.13223866 0.13597691 -0.16065505 0.13318424 -0.20879376 0.10446802 0.28640717
0.19903696 0.14885283 -0.061342865 0.014371436 0.11936248 0.059890077 -0.06893928 0.027255643
-0.12212147 -0.15567476 -0.27824563 -0.25785118 -0.20607519 0.28821176 0.052817974 -0.27385113
-0.15412325 0.07042685 -0.09024423 -0.10339965 -0.11322199 -0.08533579 -0.00056514284 0.018483482
0.19000663 0.20334587 0.24460931 -0.015818661 -0.13463077 0.0010288656 -0.19966513 0.13382845
-0.03637746 -0.1087514 -0.26789686 0.14530328 0.15923184 0.25754097 -0.12236054 0.08339835
0.011365354 -0.19659635 -0.18848945 0.15046239 -0.15849344 0.21955562 0.10533583 0.09659353
0.19856799 0.13365209 0.13653396 0.14689879 -0.12927563 -0.15988587 -0.05523731 0.12487238
0.20746034 0.22023588 -0.09850362 -0.03825718 -0.21936315 0.16544129 -0.22255109 -0.14340761
0.22331099 0.06909969 -0.13631733 -0.21800071 -0.20734152 0.2150613 -0.27699783 0.26054478
0.22528261 0.00434575 -0.029135305 0.234492 0.12858821 0.28508234 0.22908553 -0.2073341
0.17568876 0.15454139 -0.21407677 0.14533447 -0.18297336 -0.19271271 0.0056250095 -0.04473093
-0.09174326 -0.1977334 0.14663091 0.2925284 -0.06213374 -0.20297332 -0.015547186 -0.26856434
-0.2592004 -0.106310755 0.18944103 -0.24794215 -0.048116177 -0.16992493 -0.2957782 -0.06475748
-0.017563343 -0.050696373 0.21818793 0.10643781 0.1877194 0.118098736 0.031633824 0.1287118
-0.19234905 0.15085158 0.12056891 -0.13671346 -0.004524692 -0.24959716 -0.27256674 0.0005938296
0.053987205 -0.06347833 0.07991307 -0.2551953 -0.2038971 0.19028097 -0.29342243 0.14740294
0.22817883 0.22603923 0.09200301 -0.2746469 0.023074329 -0.106028974 -0.08959456 0.23101574
-0.11530276 -0.2105936 -0.25174677 0.17699656 0.0059552803 0.2871815 0.040011466 -0.28098407
0.074596226 0.2758962 0.18700626 0.0969424 -0.22652669 -0.18079662 0.20473051 -0.21459575
0.05257261 -0.038630545 0.10103062 0.003013785 -0.23891266 -0.12003768 0.24795453 0.03503531
0.14309217 -0.16856554 0.23868865 -0.064542696 -0.10162856 0.06116295 -0.108035535 -0.12116219
-0.043144852 -0.029228864 -0.17105375 0.08605173 -0.2922195 0.15480977 0.2796408 0.04877937
-0.070450634 -0.2761545 0.14159048 0.27116525 0.24230154 0.017444672 0.100240946 0.27332845
0.08999475 -0.15227957 -0.2862634 0.13182405 0.11548098 0.24594195 -0.15350103 0.13498455
-0.09975633 -0.09552346 0.17396504 -0.2763888 0.22225523 0.14023247 -0.1840836 0.14272593
00000000: 7865 583e fdac 35be 2974 20be 0c0f 6d3e
00000010: 3041 f13d d63b 49be e401 bb3d 251f 0c3e
00000020: a761 95be 88b4 663d 6ead 7a3d c065 40bc
00000030: 62b6 933e d777 64be 9060 273e 0703 24be
00000040: d91a 86be d06a 523e 9b69 1dbe 47e6 133b
00000050: 1997 033e ac8f 86be 6c24 84be a83b d23d
00000060: cf23 5a3e 80ae 02bd 36a3 383e fcfc d83d
00000070: 33f0 803d 4cd9 44be eacc 943e 406b 0d3e
00000080: fe27 123c ac3b 393e 67a4 84be 700f 853d
00000090: 11a1 10be 10d2 fabc d44f ca3d e30c 063e
000000a0: e436 323d c5f4 6ebe 6c39 41be 4082 ac3b
000000b0: bce3 55bd 88d1 77be 7815 983e 3b1d 46bc
000000c0: b38a 7ebe 9269 073e 883d 0b3e c282 24be
000000d0: 7361 083e 08ce 55be 54f3 d53d f6a3 923e
000000e0: 58d0 4b3e e06c 183e a842 7bbd 2c76 6b3c
000000f0: 5174 f43d 4c4f 753d 0a30 8dbd 3a47 df3c
00000100: d21a fabd 3469 1fbe 3676 8ebe 1205 84be
00000110: 6005 53be 7e90 933e a957 583d 3736 8cbe
00000120: 7cd2 1dbe f43b 903d f8d1 b8bd 32c3 d3bd
00000130: eee0 e7bd 88c4 aebd 1826 14ba ac6a 973c
00000140: 1991 423e e639 503e dd7a 7a3e 2396 81bc
00000150: a6dc 09be 00db 863a 0475 4cbe 530a 093e
00000160: 8800 15bd 0eb9 debd c729 89be 62ca 143e
00000170: ac0d 233e 69dc 833e 2a98 fabd c1cc aa3d
00000180: c035 3a3c 8e50 49be 6103 41be d012 1a3e
00000190: 1b4c 22be 30d3 603e 50ba d73d d4d2 c53d
000001a0: 6855 4b3e 18dc 083e 8fcf 0b3e a36c 163e
000001b0: d560 04be 1fb9 23be 8440 62bd 17bd ff3d
000001c0: 7c70 543e 8485 613e 44bc c9bd 90b3 1cbd
000001d0: bca0 60be 7169 293e 6fe4 63be 72d9 12be
000001e0: a3ab 643e 2384 8d3d c596 0bbe 943b 5fbe
000001f0: 5651 54be 0839 5c3e a9d2 8dbe 2066 853e
00000200: 7cb0 663e cb66 8e3b 2aad eebc ac1e 703e
00000210: a1ac 033e 50f6 913e 6695 6a3e 644f 54be
00000220: c1e7 333e 1940 1e3e f136 5bbe 8fd2 143e
00000230: 5e5d 3bbe 7b56 45be 0052 b83b c837 37bd
00000240: e4e3 bbbd a07a 4abe 6a26 163e 48c6 953e
00000250: f37f 7ebd 3dd8 4fbe a0b9 7ebc 4481 89be
00000260: eab5 84be 74b9 d9bd d4fc 413e 8ce4 7dbe
00000270: 7815 45bd cd00 2ebe 3d70 97be 929f 84bd
00000280: 00e1 8fbc 00a7 4fbd a86c 5f3e 11fc d93d
00000290: 8439 403e c0dd f13d 7892 013d 07cd 033e
000002a0: 26f7 44be d678 1a3e d5ec f63d 9dfe 0bbe
000002b0: de43 94bb 6696 7fbe de8d 8bbe 3bab 1b3a
000002c0: b021 5d3d ed00 82bd 77a9 a33d f5a8 82be
000002d0: 67ca 50be 04d9 423e 773b 96be ccf0 163e
000002e0: b6a7 693e d476 673e 136c bc3d 859e 8cbe
000002f0: 6006 bd3c b825 d9bd 5a7d b7bd 648f 6c3e
00000300: da23 ecbd d9a5 57be f4e4 80be 963e 353e
00000310: 8324 c33b 7409 933e 10e3 233d 25dd 8fbe
00000320: e8c5 983d 4442 8d3e 927e 3f3e bd89 c63d
00000330: 9df6 67be c022 39be e0a4 513e fdbe 5bbe
00000340: 6156 573d 103b 1ebd 24e9 ce3d ec82 453b
00000350: 85a5 74be 51d6 f5bd cbe7 7d3e 2f81 0f3d
00000360: c186 123e 729c 2cbe cc6a 743e f62e 84bd
00000370: a222 d0bd 0086 7a3d bc41 ddbd e223 f8bd
00000380: a8b8 30bd 5f71 efbc b728 2fbe e43b b03d
00000390: cb9d 95be 7486 1e3e 142d 8f3e e0cc 473d
000003a0: 6c48 90bd 1f64 8dbe 18fd 103e 2cd6 8a3e
000003b0: e51d 783e 21e8 8e3c 204b cd3d b5f1 8b3e
000003c0: 2b4f b83d 2def 1bbe 1e91 92be e2fc 063e
000003d0: 4b81 ec3d 35d8 7b3e 602f 1dbe 6439 0a3e
000003e0: 0c4d ccbd cea1 c3bd e423 323e d582 8dbe
000003f0: e096 633e 1a99 0f3e 6980 3cbe bf26 123e

trunk.2.weight f4 [256, 256]
-0.01572077 0.005624816 -0.016728655 -0.061194576 -0.0064729974 0.030494973 -0.0072716773 -0.0307758
0.0019803494 0.011405453 -0.017438479 -0.048467755 -0.03350895 -0.010189563 0.022508927 0.055579595
0.0011599287 0.022377633 0.035960697 -0.027253233 -0.020738557 0.041456617 0.04474926 0.014809929
-0.048298903 0.03547415 -0.05165594 0.031238899 0.0074071437 0.020188421 -0.060921744 -0.021973453
0.026543535 0.04810539 -0.017893158 0.05573436 -0.013947427 -0.037696652 -0.027065217 0.0038891882
-0.011108331 0.030250244 -0.034588866 -0.01777941 -0.061938316 0.051015206 -0.011760183 -0.049269505
-0.0030158833 -0.00011408329 0.017358012 -0.0068600625 0.039316446 -0.021563984 -0.01870691 -0.014841862
0.011158124 0.05007627 -0.0028758422 0.04808931 0.04909665 -0.03254062 -0.0053700134 -0.029503688
0.025998376 -0.021973066 0.019065619 0.0037340373 -0.04102909 -0.042018384 -0.061045304 -0.034961343
0.017459646 0.003807865 0.047006376 -0.05495715 -0.0018263608 -0.056040615 0.0003658533 0.022771038
-0.05606521 0.05519703 -0.019411936 0.05537726 -0.010490693 0.03545718 0.056817286 -0.022754595
-0.0151929185 0.03278309 -0.053508185 0.0369955 -0.03925708 0.05804771 -0.040960334 -0.025719464
0.04663659 -0.027211674 0.053571954 0.04300122 0.057125717 -0.060580127 0.0007004887 -0.020557098
0.014887728 -0.047190696 0.025628373 -0.0029608607 -0.029543042 -0.056225225 0.03269176 -0.022619076
0.04611727 0.0111259 0.01900877 -0.0094790235 -0.008657746 -0.021231852 -0.054118805 0.03929352
-0.03935881 0.03642735 -0.021080159 0.039154314 0.053563885 -0.038225383 0.051607847 0.0015232787
-0.04774569 0.025513232 0.035389952 0.05509448 -0.059495017 0.056435145 0.0473817 0.061485097
0.034062885 -0.030382067 0.04741323 0.05711981 -0.023898117 -0.010216273 0.048908263 0.05031141
0.041286662 0.047883265 -0.03211865 -0.01078219 -0.024969302 0.03248363 0.015575774 -0.048278317
-0.007850729 -0.050965942 -0.0588198 0.056976743 -0.031438813 0.027895607 -0.013917409 -0.012656204
-4.0367246e-05 0.048745476 -0.008646004 0.051716603 0.036569238 0.042875543 -0.05668377 -0.029224709
-0.05092027 -0.01327429 -0.012945123 0.012700237 0.05599817 0.02805657 -0.043491103 -0.03919646
0.047194093 0.006221503 0.01765655 -0.032689705 -0.0076218247 0.017794058 -0.041014083 0.04079134
0.031146504 -0.036448263 -0.025630057 -0.014693812 0.009726636 -0.022926249 0.059788823 -0.06020058
-0.03532497 -0.03793616 0.016898774 0.008869186 -0.017809756 0.053341128 -0.05395332 0.022028133
-0.034390725 -0.014231786 -0.060187526 -0.04665669 -0.053028077 0.02726712 -0.023469158 0.032693796
-0.033871807 -0.015485287 0.0075654387 0.052370287 -0.0168446 0.036232613 0.017241992 0.03801266
0.039481767 0.025363497 -0.018846706 -0.017541654 0.024331331 0.034065157 -0.003335841 0.031329714
-0.037601195 0.035228632 -0.00766968 -0.04301074 -0.030367754 -0.04773114 0.012607336 -0.037066296
-0.017897718 -0.0039159358 -0.038135044 0.0016048551 -0.007932037 0.019796379 0.045150474 -0.037729323
0.03417164 -0.0013241768 -0.03572218 -0.028344616 0.015908621 0.0130133405 -0.0020187646 -0.031115346
0.03151848 0.009273179 -0.06075819 -0.011045419 -0.01695703 -0.026669346 -0.03466861 -0.050703898
00000000: d8c8 80bc 6050 b83b 880a 89bc 2aa7 7abd
00000010: 701b d4bb 98d0 f93c 4047 eebb 881d fcbc
00000020: c0c8 013b f0dd 3a3c 24db 8ebc 2086 46bd
00000030: ae40 09bd 20f2 26bc a464 b83c 6ea7 633d
00000040: c008 983a 4c51 b73c 864b 133d 2c42 dfbc
00000050: e8e3 a9bc 6ace 293d 004b 373d 58a5 723c
00000060: 12d5 45bd 584d 113d 2e95 53bd b8e8 ff3c
00000070: a0b7 f23b 3062 a53c 1489 79bd ac01 b4bc
00000080: d471 d93c 280a 453d ac94 92bc b649 643d
00000090: c083 64bc ce67 1abd e0b7 ddbc c0e1 7e3b
000000a0: b8ff 35bc 5ccf f73c 0ead 0dbd 20a6 91bc
000000b0: 08b3 7dbd 52f5 503d c8ad 40bc d2ce 49bd
000000c0: 20a6 45bb 0040 efb8 6432 8e3c 60ca e0bb
000000d0: 480a 213d f4a6 b0bc 3c3f 99bc 482b 73bc
000000e0: 90d0 363c c61c 4d3d a078 3cbb 4cf9 443d
000000f0: 9219 493d 5049 05bd f0f6 afbb b8b1 f1bc
00000100: 8cfa d43c dc00 b4bc 802f 9c3c c0b6 743b
00000110: 1e0e 28bd 781b 2cbd a40a 7abd a033 0fbd
00000120: 8807 8f3c 608d 793b c289 403d c01a 61bd
00000130: 8062 efba d88a 65bd 00d0 bf39 548a ba3c
00000140: a2a4 65bd 4816 623d c805 9fbc 44d3 623d
00000150: 28e1 2bbc 8c3b 113d 3eb9 683d d867 babc
00000160: b8eb 78bc 9047 063d 662b 5bbd 9888 173d
00000170: 08cc 20bd 70c3 6d3d 06c6 27bd a0b1 d2bc
00000180: 0206 3f3d 04eb debc 446e 5b3d 0c22 303d
00000190: a8fc 693d de22 78bd 00a1 373a 5c67 a8bc
000001a0: a8eb 733c 084b 41bd 98f2 d13c 000b 42bb
000001b0: 4004 f2bc 6c4c 66bd cce7 053d a44b b9bc
000001c0: 76e5 3c3d 6849 363c 48b8 9b3c e84d 1bbc
000001d0: 38d9 0dbc 6cee adbc aeab 5dbd 3ef2 203d
000001e0: b436 21bd d834 153d 4cb0 acbc 4660 203d
000001f0: ce65 5b3d 3892 1cbd c062 533d c0a8 c73a
00000200: fc90 43bd 2001 d13c 0ef5 103d c0aa 613d
00000210: 0cb1 73bd 8a28 673d 5013 423d ccd7 7b3d
00000220: 8685 0b3d d0e3 f8bc 6034 423d 76f6 693d
00000230: fcc5 c3bc 2862 27bc 0854 483d 5613 4e3d
00000240: 341c 293d 3e21 443d d88e 03bd c8a7 30bc
00000250: 6c8c ccbc 8e0d 053d 8831 7f3c 7cbf 45bd
00000260: 58a0 00bc aac1 50bd 08ed 70bd 7260 693d
00000270: fcc5 00bd 5485 e43c d805 64bc f85b 4fbc
00000280: 0050 29b8 56a9 473d f8a7 0dbc cad4 533d
00000290: a0c9 153d 449e 2f3d 3e2d 68bd a868 efbc
000002a0: c691 50bd 687c 59bc c817 54bc a814 503c
000002b0: 565e 653d e4d6 e53c ba23 32bd 788c 20bd
000002c0: 984e 413d c0dd cb3b 78a4 903c a4e5 05bd
000002d0: 80c0 f9bb d8c4 913c 62fe 27bd d214 273d
000002e0: f426 ff3c c64a 15bd 20f6 d1bc 50be 70bc
000002f0: 785c 1f3c d4cf bbbc 20e5 743d e294 76bd
00000300: eab0 10bd f262 1bbd 4c6f 8a3c 1050 113c
00000310: c4e5 91bc 3a7c 5a3d 28fe 5cbd 5874 b43c
00000320: 4add 0cbd 702c 69bc 3287 76bd 161b 3fbd
00000330: f833 59bd 4c5f df3c 6442 c0bc eee9 053d
00000340: 2abd 0abd 00b6 7dbc 80e7 f73b 3a82 563d
00000350: b0fd 89bc a668 143d 143f 8d3c 2ab3 1b3d
00000360: a2b7 213d 1cc7 cf3c 6864 9abc 84b3 8fbc
00000370: 8052 c73c e887 0b3d 209e 5abb 9653 003d
00000380: b603 1abd e64b 103d f051 fbbb 082c 30bd
00000390: ccc5 f8bc ba81 43bd 008f 4e3c d4d2 17bd
000003a0: 3c9e 92bc 4051 80bb 7e33 1cbd 005a d23a
000003b0: 60f5 01bc 042c a23c b4ef 383d 108a 1abd
000003c0: 90f7 0b3d 0090 adba 6c51 12bd f832 e8bc
000003d0: cc52 823c e835 553c 404d 04bb 9ce5 febc
000003e0: 8619 013d 88ee 173c 94dd 78bd d8f7 34bc
000003f0: 78e9 8abc ac79 dabc ac00 0ebd e4ae 4fbd

trunk.2.bias f4 [256]
-0.03673342 -0.04102909 0.042435266 -0.032366987 -0.010554091 0.057342403 0.06161739 0.056722432
-0.05783392 0.004437774 -0.004138034 0.0011573657 0.060094185 0.02411986 -0.05726322 0.05843631
0.056506384 -0.04812307 -0.05187182 0.034245443 -0.035902303 -0.049610548 0.026123121 -0.004543205
0.037058342 -0.050094835 0.04697162 -0.022713402 -0.037144773 0.026455447 -0.050886244 -0.052698772
-0.011833787 0.005081138 -0.030910404 -0.020470483 -0.058454625 0.040967476 -0.008222271 0.00953459
0.03770989 0.02870688 0.040739387 0.019733237 0.0121895 -0.037608422 0.041932277 -0.012388147
0.023259083 0.0629283 -0.028888084 -0.009077742 -0.043856807 -0.004771538 -0.019762069 -0.043545745
-0.020585798 0.018783854 -0.045528397 -0.011423137 0.045478113 0.052716054 -0.075177334 0.036178827
0.009150825 0.019996263 0.03896939 0.049928233 -0.026187714 0.046382744 -0.00479781 0.0014471668
0.027467748 -0.049989786 -0.038268488 -0.07087821 0.011151187 0.036391962 -0.02432999 0.016704805
-0.010755554 -0.03467734 -0.03975661 0.01977937 -0.0189866 0.014069593 0.043395165 -0.058522306
-0.0058909375 -0.022282584 0.038951002 0.050978668 0.051096335 -0.00218819 0.0032171088 -0.022701927
-0.05999127 -0.0652358 0.022655316 -0.049430266 -0.036171548 0.018288001 -0.05544705 0.039489023
0.041797787 -0.0039108694 0.015472063 0.022309147 0.023573503 -0.05012672 0.018402101 -0.07482895
-0.0389742 -0.06215111 -0.033752978 0.0060885395 0.0040092915 -0.015016255 0.0027465 -0.0551375
0.008510865 -0.015807591 0.0232337 0.044340953 -0.003980458 0.008850824 -0.03585752 0.026459761
0.0627256 0.016052812 0.013913782 -0.020568624 -0.04123216 -0.009895429 -0.04116244 0.048167042
-0.05690576 -0.052895296 0.01216761 -0.042883668 -0.010879841 0.05881596 0.031601295 0.045661353
-0.006091376 -0.022531688 -0.04273668 0.013808265 0.03000756 -0.044213545 -0.020042762 0.04466963
-0.030229831 0.029332288 0.04678065 0.032043308 -0.030712454 -0.014047763 0.044128984 0.05729735
0.054203372 -0.037492663 0.037769623 -0.022501996 0.05986013 -0.03869745 0.05982358 0.053457834
-0.015690263 -0.03981107 -0.06520175 -0.011106706 -0.032914862 -0.0065178866 -0.053917557 0.01898425
0.042988464 0.01660467 0.0103833685 0.043514997 0.017240746 -0.0451007 0.016971085 -0.017060092
-0.014889494 -0.022620156 0.029003188 -0.05791662 -0.051599197 0.015123245 -0.05710478 0.0051912577
-0.022949763 0.0023021922 -0.042029858 0.03559675 -0.0318765 -0.019849725 0.032913055 -0.0031714453
0.046988502 0.046336237 0.0011412634 -0.03250043 0.01505145 0.053728625 -0.005960842 0.018639125
-0.040484183 0.032196715 -0.014800139 -0.095120855 -0.011650406 0.023396503 -0.016399419 -0.025445446
-0.00934957 0.03828522 -0.040038235 -0.057466928 -0.03316548 -0.056892708 0.042721204 0.010901809
0.01519714 0.0021055054 0.016773397 -0.013593478 0.010185403 -0.06534948 -0.00077275187 -0.06981617
-0.028414203 -0.06364816 0.005695753 0.059202597 0.054723687 0.03956731 0.037787914 -0.055727974
0.045209408 0.038068745 -0.022039644 0.016790979 -0.011299445 0.024230026 0.010071079 0.021374676
0.02800402 -0.046553448 0.019906819 -0.02972513 -0.024610633 -0.052612364 -0.049566347 0.03972144
00000000: c875 16bd 1e0e 28bd 9ad0 2d3d 3f93 04bd
00000010: 11eb 2cbc dedf 6a3d 8462 7c3d c855 683d
00000020: 43e3 6cbd bf6a 913b 5898 87bb c0b2 973a
00000030: 5225 763d 0397 c53c d78c 6abd ea5a 6f3d
00000040: 3d73 673d b21c 45bd 8c77 54bd f344 0c3d
00000050: 4b0e 13bd 6e34 4bbd 2800 d63c 2adf 94bb
00000060: 7dca 173d 3e30 4dbd 5065 403d 7511 babc
00000070: 1e25 18bd 18b9 d83c 186e 50bd abda 57bd
00000080: 80e2 41bc ad7f a63b d137 fdbc b7b1 a7bc
00000090: 1e6e 6fbd 83cd 273d b4b6 06bc f836 1c3c
000000a0: b075 1a3d b12a eb3c 58de 263d 99a7 a13c
000000b0: 78b6 473c 4a0b 1abd 2ec1 2b3d a8f7 4abc
000000c0: d589 be3c 8de0 803d b4a6 ecbc cfba 14bc
000000d0: 32a3 33bd 905a 9cbb 10e4 a1bc 065d 32bd
000000e0: 8ca3 a8bc 99e0 993c fc7b 3abd 1c28 3bbc
000000f0: 4247 3a3d caec 573d 93f6 99bd 4030 143d
00000100: 58ed 153c 34cf a33c 5e9e 1f3d 8c81 4c3d
00000110: 9e87 d6bc d5fb 3d3d f336 9dbb dcae bd3a
00000120: 0b04 e13c 17c2 4cbd 6bbf 1cbd 9828 91bd
00000130: 78b3 363c bd0f 153d b04f c7bc 84d8 883c
00000140: 1038 30bc d409 0ebd d4d7 22bd 5808 a23c
00000150: c989 9bbc 2684 663c 21bf 313d 16b5 6fbd
00000160: c408 c1bb f789 b6bc 168b 1f3d 02cf 503d
00000170: 644a 513d bc67 0fbb 21d6 523b 64f9 b9bc
00000180: 68b9 75bd 599a 85bd a497 b93c 6477 4abd
00000190: 9e28 14bd b8d0 953c 721c 63bd 3ebf 213d
000001a0: 2834 2b3d c026 80bb 897e 7d3c acc1 b63c
000001b0: 381d c13c ad51 4dbd 01c0 963c ec3f 99bd
000001c0: 69a3 1fbd 2a92 7ebd 9040 0abd 5f82 c73b
000001d0: 6060 833b bd06 76bc a0fe 333b dcd7 61bd
000001e0: 2871 0b3c ec7e 81bc 9a54 be3c dc9e 353d
000001f0: 806e 82bb 0c03 113c 56df 12bd 24c2 d83c
00000200: 4876 803d 3081 833c a2f6 633c 887f a8bc
00000210: 0ee3 28bd 7020 22bc f299 28bd ce4a 453d
00000220: 0416 69bd bda8 58bd a85a 473c c9a6 2fbd
00000230: 5c41 32bc 01e9 703d 5c70 013d 6607 3b3d
00000240: 2a9a c7bb 6094 b8bc a80c 2fbd 103c 623c
00000250: 6ad2 f53c 4319 35bd b830 a4bc 80f7 363d
00000260: 8da4 f7bc 444a f03c 119d 3f3d d83f 033d
00000270: af98 fbbc 9728 66bc 98c0 343d a0b0 6a3d
00000280: 5b04 5e3d e891 19bd 52b4 1a3d 1b56 b8bc
00000290: e52f 753d 3881 1ebd 9209 753d 9af6 5a3d
000002a0: de88 80bc ef10 23bd 7f88 85bd e7f8 35bc
000002b0: bcd1 06bd ff93 d5bb a8d8 5cbd dc84 9b3c
000002c0: ac14 303d 8406 883c 011f 2a3c c83c 323d
000002d0: 773c 8d3c 83bb 38bd f206 8b3c 9bc1 8bbc
000002e0: 10f3 73bc e84d b9bc 1898 ed3c fa39 6dbd
000002f0: ae59 53bd 7dc7 773c b4e6 69bd 6d1b aa3b
00000300: 2401 bcbc 60e0 163b 8027 2cbd e6cd 113d
00000310: ef90 02bd e49b a2bc d7cf 063d 06d8 4fbb
00000320: 0477 403d 11cb 3d3d 7296 953a 2c1f 05bd
00000330: 5b9a 763c 8c12 5c3d 2b53 c3bb 14b1 983c
00000340: bed2 25bd b4e0 033d 487c 72bc b9ce c2bd
00000350: 58e1 3ebc 06aa bf3c 1358 86bc f872 d0bc
00000360: f02e 19bc f6d0 1c3d 22ff 23bd 7162 6bbd
00000370: 87d8 07bd 5408 69bd 6efc 2e3d 809d 323c
00000380: 6dfd 783c 85fc 093b 5d68 893c 2eb7 5ebc
00000390: ade0 263c f3d5 85bd 8092 4aba c8fb 8ebd
000003a0: e7c4 e8bc f759 82bd 70a3 ba3b 6c7e 723d
000003b0: f225 603d 5511 223d 80c7 1a3d 0443 64bd
000003c0: 802d 393d f9ed 1b3d 7c8c b4bc 3c8d 893c
000003d0: 4f21 39bc 0c7e c63c 2b01 253c f219 af3c
000003e0: b068 e53c d4ae 3ebd a013 a33c 1e82 f3bc
000003f0: 3d9c c9bc 1080 57bd 1506 4bbd f3b2 223d

V_heads.0.weight f4 [1, 256]
0.00495933 0.005857371 0.00729014 -0.026670704 -0.028695958 0.045421727 0.06691862 0.026494365
-0.022771262 0.055572808 -0.020452082 0.04233014 0.0439559 -0.042478736 -0.027498646 -0.05072565
0.028266978 0.015812136 0.02971755 0.021224441 -0.0024505774 0.048769735 -0.030353464 0.039723046
-0.029876422 0.05504932 -0.034416575 -0.019246584 -0.044753775 0.014803298 -0.0012521669 -0.04069447
-0.03960766 0.0072942227 -0.02508492 0.022265319 0.022375226 -0.012347461 -0.03567469 -0.020170994
0.041044764 0.007905598 -0.008697129 -0.018855238 0.05083987 0.02417817 0.057833765 -0.05623515
0.007449155 -0.028259706 0.03883841 0.023894895 0.057629757 0.04814031 0.019796798 -0.0075973347
0.05582846 -0.004447392 -0.022365965 0.045119125 0.042354926 0.06215299 0.03436549 -0.025902044
0.058523364 -0.05368517 0.05841916 -0.055936858 0.016422383 0.016403038 0.027085505 0.04700378
-0.0075921216 0.038670044 0.047451586 -0.011955916 -0.0355359 0.008980031 -0.011888839 0.062047623
0.055708162 -0.04164967 -0.032916393 0.03344461 0.003954265 0.024525845 0.04733093 -0.022583148
0.017205752 0.0038200202 0.036134966 -0.022117158 0.030631803 0.0652013 -0.0010030232 -0.022967808
-0.021723965 0.028550072 0.047869094 0.002937643 -0.05651457 0.03481456 0.019873057 -0.0009775013
0.026988856 -0.02258598 0.058911916 -0.063163966 -0.012391053 0.002849999 -0.059464358 0.028249681
0.043737426 0.0399803 -0.021689557 0.022871327 0.024680518 0.036986064 -0.058505088 0.034888517
-0.061689425 -0.044260364 -0.04541148 0.035711873 0.039050564 -0.046295963 0.027267523 0.043017574
-0.041711524 0.004787177 0.059786968 0.055639733 0.04782573 -0.053085845 0.05383935 -0.002452915
0.053764205 -0.019444477 -0.021855736 0.029110806 -0.00034301594 -0.051580723 -0.003245242 0.01816495
-0.002293636 -0.03871258 -0.033144936 -0.007015243 -0.02442142 0.06067456 -0.030900607 0.026358098
-0.04670784 -0.016158298 -0.03886457 0.0055155624 -0.04523383 0.026711293 -0.015945062 0.033874176
0.00827366 -0.03771718 0.057674892 -0.06313042 -0.032407317 -0.032136716 0.05063089 -0.02911269
0.022145616 0.040846948 0.04984508 0.018804768 0.034887724 0.04839361 -0.035874434 0.04565125
-0.059096172 -0.028610926 0.0009637922 -0.011884378 -0.013395463 0.032805666 0.008091504 0.013384774
0.0057592914 -0.022335164 0.05916503 0.03259866 -0.025672777 -0.054457825 -0.008662792 -0.021536274
-0.038879454 -0.04957126 0.04621306 -0.029050305 0.013956619 -0.048211202 0.05500715 -0.037698448
-0.008112185 -0.048182618 0.03393557 0.019389654 0.013553799 0.046296433 -0.06119893 0.02049943
0.012736866 -0.037855655 0.042339154 -0.051914193 0.060519233 0.022310887 0.055633966 -0.019706942
0.061443985 -0.036551468 -0.011703327 -0.031383056 0.045366567 -0.02462393 0.049682196 0.0037074909
0.049512774 0.004875813 -0.018004535 0.04073138 0.063857034 -0.0043803398 -0.014871709 0.02206414
-0.040453978 0.012996826 -0.0038786605 0.028067894 -0.031976275 -0.04137145 0.04559539 -0.054079928
0.030850146 -0.016795103 0.020210512 -0.059903353 -0.002288696 0.029915884 -0.01435065 0.006429462
-0.030010425 0.026813148 0.031000482 0.0075174384 0.0248578 -0.043524027 0.033280216 -0.04169108
00000000: e081 a23b 30ef bf3b 20e2 ee3b 857c dabc
00000010: c913 ebbc 220c 3a3d a10c 893d b60a d93c
00000020: cc8a babc 50a0 633d 208b a7bc 5e62 2d3d
00000030: 1a0b 343d 2ffe 2dbd d744 e1bc b3c5 4fbd
00000040: 2690 e73c 7488 813c 3872 f33c e1de ad3c
00000050: de99 20bb c6c2 473d d4a7 f8bc a2b4 223d
00000060: 66bf f4bc 657b 613d 65f8 0cbd 03ab 9dbc
00000070: bc4f 37bd 8889 723c c01f a4ba 3faf 26bd
00000080: a43b 22bd 6004 ef3b e47e cdbc c265 b63c
00000090: 404c b73c 014d 4abc a01f 12bd a43d a5bc
000000a0: 8e1e 283d 7b86 013c 677e 0ebc 4d76 9abc
000000b0: 783d 503d 4c11 c63c 19e3 6c3d d456 66bd
000000c0: 0b18 f43b e680 e7bc 0615 1f3d 3abf c33c
000000d0: 2e0d 6c3d c62e 453d e52c a23c 10f3 f8bb
000000e0: 62ac 643d 6ebb 91bb d438 b7bc d5ce 383d
000000f0: 5c7c 2d3d 2294 7e3d d4c2 0c3d 8630 d4bc
00000100: 32b6 6f3d fbe4 5bbd ee48 6f3d 0c1e 65bd
00000110: 3c88 863c aa5f 863c 6ce2 dd3c 0987 403d
00000120: 55c7 f8bb 7b64 1e3d 985c 423d bfe2 43bc
00000130: 188e 11bd fb20 133c 68c9 42bc a625 7e3d
00000140: 3e2e 643d d898 2abd 57d3 06bd 37fd 083d
00000150: c792 813b 6dea c83c 14de 413d 4b00 b9bc
00000160: 14f3 8c3c 4e59 7a3b 4202 143d 0b2f b5bc
00000170: 8cef fa3c 4288 853d e077 83ba fc26 bcbc
00000180: 75f6 b1bc d7e1 e93c 6212 443d 7985 403b
00000190: d27b 67bd b699 0e3d d2cc a23c 801f 80ba
000001a0: bc17 dd3c 3c06 b9bc 9f4d 713d 1c5c 81bd
000001b0: d803 4bbc 0cc7 3a3b e690 73bd e06b e73c
000001c0: 0426 333d 62c2 233d 4cae b1bc a65c bb3c
000001d0: cc2e ca3c b37e 173d 08a3 6fbd 43e7 0e3d
000001e0: 0dae 7cbd 5b4a 35bd 6301 3abd 9d46 123d
000001f0: 7cf3 1f3d d6a0 3dbd 2460 df3c 3233 303d
00000200: b4d9 2abd c0dd 9c3b 2ee3 743d 7de6 633d
00000210: eae4 433d 8b70 59bd a686 5c3d 16c1 20bb
00000220: db37 5c3d 064a 9fbc cd0a b3bc c979 ee3c
00000230: d2d6 b3b9 4f46 53bd 20ae 54bb a9ce 943c
00000240: d450 16bb 1591 1ebd fcc2 07bd 20e0 e5bb
00000250: 6e0f c8bc e385 783d 4523 fdbc f0ec d73c
00000260: b850 3fbd 685e 84bc 7530 1fbd e4bb b43b
00000270: 1c47 39bd a4d1 da3c 389f 82bc a6bf 0a3d
00000280: 3f8e 073c 547d 1abd 823c 6c3d 864a 81bd
00000290: 89bd 04bd caa1 03bd 5662 4f3d bc7d eebc
000002a0: b96a b53c 214f 273d 5b2a 4c3d 750c 9a3c
000002b0: 6ee6 0e3d 6138 463d 12f1 12bd cefc 3a3d
000002c0: d40e 72bd 7661 eabc 00a7 7c3a b2b6 42bc
000002d0: a578 5bbc 3c5f 063d 3a92 043c d04b 5b3c
000002e0: 70b8 bc3b 3cf8 b6bc 0857 723d 2c86 053d
000002f0: b74f d2bc 2b0f 5fbd 62ee 0dbc d76c b0bc
00000300: 1040 1fbd 3c0b 4bbd e849 3d3d e8fa edbc
00000310: 4eaa 643c 1c79 45bd 2d4f 613d b069 1abd
00000320: f8e8 04bc 235b 45bd 0600 0b3d 0dd7 9e3c
00000330: c110 5e3c 54a1 3d3d bbab 7abd 6cee a73c
00000340: 4aae 503c 880e 1bbd d26b 2d3d faa3 54bd
00000350: 04e3 773d 52c5 b63c 71e0 633d 7470 a1bc
00000360: b0ac 7b3d feb6 15bd 50bf 3fbc 858b 00bd
00000370: 4bd2 393d 20b8 c9bc 8f7f 4b3d 60f9 723b
00000380: e8cd 4a3d 49c5 9f3b 3f7e 93bc f3d5 263d
00000390: 7ac7 823d f488 8fbb 78a8 73bc dbbf b43c
000003a0: 12b3 25bd a4f0 543c 2031 7ebb a4ee e53c
000003b0: 8ef9 02bd 1c75 29bd 3bc2 3a3d ea82 5dbd
000003c0: 72b9 fc3c e295 89bc 8490 a53c 385d 75bd
000003d0: f2fd 15bb 2812 f53c fd1e 6bbc 3dae d23b
000003e0: 6cd8 f5bc 3fa7 db3c b9f4 fd3c d854 f63b
000003f0: 96a2 cb3c 4046 32bd d650 083d 44c4 2abd

V_heads.1.weight f4 [1, 256]
0.0014059097 -0.00029668957 -0.05372215 -0.051103726 -0.04589921 -0.055580832 -0.04520889 0.04229413
-0.049114093 0.055865914 -0.051558085 -0.0135169625 -0.008774683 0.04696786 0.027357856 0.009388543
-0.02486584 0.03125099 -0.04749675 0.02913439 0.033892456 0.017839879 0.03396169 -0.018996164
0.04947605 0.0007646875 0.017668368 0.0026539012 0.008197613 -0.038324 0.040205717 -0.05728158
-0.026837334 0.011347911 0.014366451 -0.034401108 -0.02377747 -0.022736926 -0.058235258 -0.05501432
0.018262997 -0.0022298582 -0.016924225 0.01221697 0.020519804 -0.05378872 -0.010482391 0.005366206
-0.012793436 0.05213293 -0.03508822 0.026319195 0.033378072 -0.048302427 -0.05711468 0.03355296
-0.030354768 0.039193053 0.0039743856 -0.0032341399 0.052134022 -0.015171744 -0.010982076 -0.047051907
-0.0035853982 0.054272685 0.056632668 -0.02717273 -0.015004926 0.053552646 0.0522086 -0.021244619
0.007870899 -0.040742237 -0.06057705 -0.0044263476 -0.048586868 0.032278158 0.048867844 -0.025509723
-0.039103262 -0.042584367 0.0011710618 -0.027760018 0.05611522 0.025954349 0.040193044 0.05090961
0.0018687752 -0.03840606 -0.011715636 -0.047595188 -0.034541138 -0.050591294 0.016161647 -0.048215106
0.012229536 0.044941742 -0.008486144 0.05072182 0.010135844 -0.01705677 0.02209365 0.055863693
0.029437393 -0.05321621 -0.01711477 -0.021277508 -0.02909626 0.0018765716 -0.057814457 0.02336222
-0.029549817 0.03030824 0.017055832 0.024469163 -0.048454203 -0.043860037 -0.049905755 0.033923257
0.039378922 0.018845132 0.0073348684 0.022689085 0.022321537 -0.029935503 0.01610288 -0.014077775
0.037088912 0.04709234 0.01743334 -0.019906292 0.046750247 0.051704917 -0.0073157847 0.046166766
-0.04055613 0.026621172 0.0025713644 -0.009772509 -0.020461489 0.057247665 -0.01236669 -0.04649433
-0.018831598 -0.024116842 0.037908256 0.05216924 0.011778657 -0.009120496 0.011990173 -0.009063886
-0.06200075 -0.019598022 0.04506531 0.0033343781 -0.037352316 -0.06586658 0.0013471469 -0.026585273
-0.028653696 -0.016986273 0.048069917 0.036036864 -0.014430016 0.052187137 0.05074343 0.017261893
0.0121696405 -0.038689975 0.048960228 -0.05377775 -0.05106943 -0.054346185 -0.036187857 -0.00018255413
-0.020119362 -0.03577444 0.043339547 0.022265093 0.027488483 -0.0027303 0.012284448 0.028262552
-0.018331729 -0.004762292 -0.0218134 -0.037559904 0.005672824 0.030306831 -0.019528762 0.044129677
0.03335599 -0.021078296 -0.0571111 0.04200869 0.058815904 -0.03112717 -0.006954708 0.008961709
-0.038971238 -0.0051794583 -0.029180547 0.050191756 0.05138815 -0.00886222 0.021260355 -0.012376502
0.031197729 0.03159856 -0.0019647777 0.04453028 -0.03711304 0.015036446 -0.037362333 -0.038268186
0.017436802 0.031702124 0.042523324 -0.025489742 0.0016629883 -0.025544442 0.0264465 0.044949204
0.021666832 -0.03975138 0.057590675 0.008125406 0.032733724 0.0020870666 0.0022641048 0.03797644
0.029683063 0.027767979 -0.010658771 0.061662868 0.052098244 -0.013509853 -0.0238159 -0.04946509
0.049225613 -0.011032151 0.003098677 -0.025963508 0.044110052 -0.008587405 -0.039533235 -0.012495212
0.010513812 -0.022955025 0.02251064 -0.051892035 0.03541475 -0.03061706 0.011787087 -0.015453951
00000000: 8046 b83a 008d 9bb9 c20b 5cbd 2452 51bd
00000010: cf00 3cbd baa8 63bd f52c 39bd 9c3c 2d3d
00000020: dc2b 49bd a8d3 643d 922e 53bd 4076 5dbc
00000030: b0c3 0fbc 5f61 403d 951d e03c 67d2 193c
00000040: 72b3 cbbc 0a01 003d f48b 42bd 3fab ee3c
00000050: d1d2 0a3d f024 923c 6a1b 0b3d d89d 9bbc
00000060: 66a7 4a3d 4f75 483a 41bd 903c 13ed 2d3b
00000070: 484f 063c a0f9 1cbd c0ae 243d 17a0 6abd
00000080: f8d9 dbbc 97ec 393c 4361 6b3c 2de8 0cbd
00000090: f8c8 c2bc ca42 babc 1888 6ebd b256 61bd
000000a0: 489c 953c d022 12bb aca4 8abc b029 483c
000000b0: 2619 a83c 9051 5cbd 56be 2bbc 00d7 af3b
000000c0: 8f9b 51bc 5789 553d aab8 0fbd 5a9b d73c
000000d0: 72b7 083d c4d8 45bd 15f1 69bd d46e 093d
000000e0: 90aa f8bc e588 203d 903b 823b ddf3 53bb
000000f0: 7c8a 553d e892 78bc 2aee 33bc 80b9 40bd
00000100: 00f9 6abb 094d 5e3d a8f7 673d 5899 debc
00000110: 39d7 75bc 055a 5b3d afd8 553d 3209 aebc
00000120: f1f4 003c 55e1 26bd a41f 78bd e50a 91bb
00000130: 0603 47bd 1a36 043d a629 483d c4f9 d0bc
00000140: be2a 20bd f26c 2ebd 507e 993a fa68 e3bc
00000150: 13d9 653d 379e d43c 76a1 243d 9886 503d
00000160: b1f1 f43a ac4f 1dbd f0f2 3fbc 2cf3 42bd
00000170: 027b 0dbd d138 4fbd 6e65 843c 347d 45bd
00000180: 645e 483c d514 383d 7809 0bbc afc1 4f3d
00000190: d010 263c a4ba 8bbc befd b43c 54d1 643d
000001a0: b026 f13c 3ef9 59bd 4634 8cbc 2b4e aebc
000001b0: 485b eebc 4bf7 f53a dace 6cbd 2062 bf3c
000001c0: 7512 f2bc fc48 f83c acb8 8b3c 8e73 c83c
000001d0: ea77 46bd 95a6 33bd fa69 4cbd 1df3 0a3d
000001e0: cb4b 213d 1b61 9a3c 5659 f03b 76de b93c
000001f0: a8db b63c 4d3b f5bc 30ea 833c 78a6 66bc
00000200: 8bea 173d e6e3 403d 5dd0 8e3c 8512 a3bc
00000210: 307d 3f3d 89c8 533d 40b9 efbb 5d19 3d3d
00000220: 2f1e 26bd a514 da3c 5684 283b e01c 20bc
00000230: da9e a7bc 877c 6a3d a89d 4abc d770 3ebd
00000240: b944 9abc af90 c5bc b045 1b3d 6aaf 553d
00000250: 45fb 403c 226e 15bc 6e72 443c b180 14bc
00000260: 80f4 7dbd 088c a0bc 6796 383d 9585 5a3b
00000270: befe 18bd 0fe5 86bd c092 b03a 5cc9 d9bc
00000280: 28bb eabc cc26 8bbc f6e4 443d 649b 133d
00000290: e06b 6cbc 2ec2 553d 58d8 4f3d d068 8d3c
000002a0: 2c63 473c 6179 1ebd 858a 483d 0f46 5cbd
000002b0: 2e2e 51bd 1b9a 5ebd b839 14bd 006c 3fb9
000002c0: 5cd1 a4bc 3888 12bd cf84 313d 4965 b63c
000002d0: 872f e13c d5ee 32bb b644 493c de86 e73c
000002e0: 6c2c 96bc 000d 9cbb 04b2 b2bc 6ad8 19bd
000002f0: 19e3 b93b 0846 f83c c8fa 9fbc 52c1 343d
00000300: 4aa0 083d 64ac acbc 54ed 69bd 4e11 2c3d
00000310: f2e8 703d 68fe febc 52e4 e3bb 22d4 123c
00000320: 4ea0 1fbd 72b8 a9bb 0b0c efbc df95 4d3d
00000330: 617c 523d d832 11bc 322a ae3c d0c6 4abc
00000340: 6192 ff3c 7e6d 013d 80c3 00bb 6265 363d
00000350: d803 18bd 6d5b 763c 3f09 19bd 1abf 1cbd
00000360: a0d7 8e3c 16da 013d f02c 2e3d ddcf d0bc
00000370: a1f8 d93a 9442 d1bc 55a6 d83c a81c 383d
00000380: a47e b13c 58d2 22bd 33e4 6b3d 6c20 053c
00000390: cc13 063d 2bc7 083b 6061 143b 2f8d 1b3d
000003a0: e529 f33c ac79 e33c 20a2 2ebc 3492 7c3d
000003b0: f864 553d 6e58 5dbc 9019 c3bc e89b 4abd
000003c0: cca0 493d 32c0 34bc 2c13 4b3b 6cb1 d4bc
000003d0: beac 343d 30b2 0cbc 9aed 21bd b8b8 4cbc
000003e0: 2042 2c3c 2d0c bcbc 3c68 b83c be8c 54bd
000003f0: 0f0f 113d a1d0 fabc a01e 413c 9232 7dbc

V_heads.2.weight f4 [1, 256]
-0.05736866 -0.016841993 -0.028883375 -0.051972136 0.046963338 -0.040811494 0.0047203936 0.0028255822
0.03419806 -0.0633938 0.04535131 -0.04671953 0.0018951818 -0.057726186 0.026984738 0.012372985
-0.016822938 -0.05189524 0.060453735 0.0063990103 0.021385573 0.03997328 0.02998104 0.028525632
0.049061626 0.049583796 0.0380626 0.033111077 -0.04860244 0.033765625 0.055650234 0.034742054
-0.032835275 -0.029650275 0.051877078 -0.035589863 -0.050397255 0.032318424 -0.03289885 -0.037037574
-0.0015930831 -0.0031331219 0.020558406 0.027785847 0.03234555 0.04575541 0.0056706676 -0.050332673
0.020459617 0.018819485 -0.00630548 0.00722955 -0.0009499565 -0.02323784 0.026725115 -0.040256828
0.020861112 -0.046965342 0.037798844 -0.040403035 -0.03395152 -0.005886607 -0.051889613 0.038869
-0.033064812 -0.02847021 8.4117055e-05 -0.054695785 0.0051722736 0.03921691 0.038640957 -0.024054475
0.05205483 -0.020264287 -0.0013461397 0.034350466 -0.047230914 -0.054763034 0.04231946 0.044534788
-0.028124623 0.03933882 0.053810943 -0.05596452 0.035563547 0.019122811 0.027473653 -0.016218575
0.03316193 0.014394884 -0.029804543 -0.037367538 0.007242605 -0.015166609 0.024336625 0.020512357
-0.031658243 -0.033193212 -0.045255862 0.06266157 -0.010098793 -0.008823529 -0.040868457 0.046280764
-0.020501606 -0.022081695 -0.050235424 0.042436723 0.0013243258 0.01755938 0.010788582 -0.008548701
-0.047277197 0.06081956 -0.029767431 0.030620169 -0.026460432 0.026488282 0.017936282 0.010392746
-0.013931225 0.003606644 -0.042954694 0.042686004 -0.055204593 0.03775996 -0.022506572 0.057729803
-0.052760094 0.024759784 -0.037833825 -0.036936495 -0.03283789 -0.045252528 0.016886152 0.0045969747
0.031227766 -0.032335453 -0.007647452 -0.057113912 0.025631484 0.00224585 -0.029719256 0.014631192
-0.048831 0.056030598 -0.027673481 0.041990146 -0.052571416 -0.05307756 0.0142039675 -0.00083594024
0.032678336 0.01349353 0.053962786 0.022682233 7.20298e-05 0.011975173 -0.058074728 0.016744442
0.0061218315 -0.047508456 0.031784363 -0.021731313 0.005206009 0.00097272545 -0.0063905567 0.009533554
0.046332564 -0.0100164395 0.005856552 -0.03656428 -0.00012191385 0.01841699 0.0395666 0.056773946
0.0105267465 0.011619257 -0.019226918 -0.034500167 0.027928552 0.010078082 -0.025016904 0.030536644
0.016379826 0.030704223 0.0012174994 0.02119413 -0.03212156 -0.04757933 -0.012712017 0.04898595
-0.019285947 0.0417953 0.015651563 -0.04242386 -0.029430484 0.024655856 0.0075913384 0.019041963
-0.01131352 0.043305445 -0.02390573 0.015385488 0.03629813 0.031484276 -0.025450941 0.027220495
0.0065651764 -0.04868807 0.053182505 -0.06134212 0.03663715 -0.024388444 0.05460922 0.061399303
0.052396156 -0.027098924 -0.026497327 0.019634252 -0.0126947705 -0.062067762 -0.02745728 -0.050108142
-0.023646683 0.051814184 0.06138369 0.041487496 0.027857563 -0.05383917 -0.01896654 0.020473747
0.01252261 0.020412289 0.006334707 0.01713638 -0.06188847 -0.0069030155 0.0105155585 0.013796754
0.010583143 -0.015973885 0.039649997 0.019887164 0.018768165 0.04209218 0.0012180804 0.04988776
0.0020348877 -0.054541383 0.034780044 0.055572666 0.019711595 0.06362615 -0.034412965 0.053433105
00000000: 66fb 6abd 38f8 89bc d49c ecbc bce0 54bd
00000010: a15c 403d f429 27bd 88ad 9a3b 672d 393b
00000020: 4413 0c3d 9cd4 81bd 4cc2 393d fa5c 3fbd
00000030: c067 f83a 4b72 6cbd 190f dd3c 0fb8 4a3c
00000040: 42d0 89bc 1a90 54bd 569e 773d caae d13b
00000050: cc30 af3c 06bb 233d cc9a f53c 96ae e93c
00000060: d8f4 483d 6118 4b3d 87e7 1b3d 7b9f 073d
00000070: 5a13 47bd d34d 0a3d 80f1 633d af4d 0e3d
00000080: 487e 06bd 22e5 f2bc 0f7d 543d adc6 11bd
00000090: 5a6d 4ebd 5360 043d f2c0 06bd b6b4 17bd
000000a0: 00cf d0ba 1055 4dbb 1a6a a83c 259f e33c
000000b0: c47c 043d 066a 3b3d 02d1 b93b a229 4ebd
000000c0: ed9a a73c 522b 9a3c 339e cebb dce5 ec3b
000000d0: 8006 79ba 485d bebc a1ee da3c 58e4 24bd
000000e0: ece4 aa3c bb5e 40bd f6d2 1a3d a77d 25bd
000000f0: c010 0bbd 70e4 c0bb 348a 54bd 1a35 1f3d
00000100: f86e 07bd 5c3a e9bc 0068 b038 b008 60bd
00000110: 2d7c a93b e9a1 203d fb45 1e3d e40d c5bc
00000120: 7237 553d 4a01 a6bc f470 b0ba 13b3 0c3d
00000130: 3475 41bd 344f 60bd 2c57 2d3d 1c6a 363d
00000140: 9c65 e6bc be21 213d dd68 5c3d 0d3b 65bd
00000150: 15ab 113d 71a7 9c3c 6d10 e13c d1dc 84bc
00000160: ced4 073d 85d8 6b3c a828 f4bc b40e 19bd
00000170: 6053 ed3b 5e7d 78bc 9a5d c73c 8809 a83c
00000180: 13ac 01bd 9bf5 07bd 365e 39bd b654 803d
00000190: 6875 25bc 9090 10bc af65 27bd e690 3d3d
000001a0: fcf2 a7bc ace4 b4bc a9c3 4dbd 21d2 2d3d
000001b0: 0095 ad3a b0d8 8f3c 98c2 303c da0f 0cbc
000001c0: bca5 41bd ee1d 793d d4da f3bc 26d7 fa3c
000001d0: 8cc3 d8bc f4fd d83c 1cef 923c 5646 2a3c
000001e0: cb3f 64bc 725d 6c3b 43f1 2fbd 85d7 2e3d
000001f0: 361e 62bd 30aa 1a3d b45f b8bc 1676 6c3d
00000200: f81a 58bd 08d5 ca3c a4f7 1abd b94a 17bd
00000210: 0681 06bd b75a 39bd d454 8a3c 38a2 963b
00000220: 5fd1 ff3c 2e72 04bd 7a97 fabb 47f0 69bd
00000230: 1ef9 d13c 1c2f 133b cc75 f3bc abb7 6f3c
00000240: 0403 48bd 5780 653d 7fb3 e2bc dcfd 2b3d
00000250: 2055 57bd db67 59bd c2b7 683c 0023 5bba
00000260: b8d9 053d f813 5d3c 1508 5d3d 17d0 b93c
00000270: b40e 9738 8433 443c c4df 6dbd a42b 893c
00000280: a599 c83b 3a98 42bd 5230 023d de05 b2bc
00000290: 2b97 aa3b 80fe 7e3a e067 d1bb a032 1c3c
000002a0: 37c7 3d3d fe1b 24bc 52e8 bf3b 6dc4 15bd
000002b0: 00ac ffb8 3adf 963c 9610 223d cc8b 683d
000002c0: 6078 2c3c b25e 3e3c c581 9dbc 0c50 0dbd
000002d0: 6bca e43c 8a1e 253c 40f0 ccbc fc27 fa3c
000002e0: fc2e 863c 6c87 fb3c 8094 9f3a 509f ad3c
000002f0: e691 03bd 8be2 42bd 1046 50bc 7ea5 483d
00000300: 90fd 9dbc 8c31 2b3d b537 803c a4c4 2dbd
00000310: 3318 f1bc 14fb c93c c3c0 f83b e4fd 9b3c
00000320: 585c 39bc 0d61 313d f3d5 c3bc 6a13 7c3c
00000330: 59ad 143d a8f5 003d 7e7e d0bc 84fd de3c
00000340: b120 d73b 246d 47bd e6d5 593d e041 7bbd
00000350: d610 163d 46ca c7bc ebad 5f3d d67d 7b3d
00000360: 5a9d 563d 90fe ddbc ec10 d9bc 03d8 a03c
00000370: bafd 4fbc c43a 7ebd 17ee e0bc 323e 4dbd
00000380: b0b6 c1bc 1c3b 543d 776d 7b3d cbee 293d
00000390: 8b35 e43c 7686 5cbd b85f 9bbc 8fb8 a73c
000003a0: a22b 4d3c ac37 a73c 6093 cf3b 9861 8c3c
000003b0: c47e 7dbd b132 e2bb 7349 2c3c c80b 623c
000003c0: eb64 2d3c aadb 82bc 0968 223d 68ea a23c
000003d0: b2bf 993c da68 2c3d ffa7 9f3a 1c57 4c3d
000003e0: c05b 053b c966 5fbd 8575 0e3d 2aa0 633d
000003f0: 367a a13c 6d4e 823d 9cf4 0cbd acdc 5a3d
