results/bdq/models/bdq_checkpoint_220.pt (torch, 313061 bytes, 25 tensors)

trunk.0.weight f4 [256, 11]
000000 07 ff 84 3e 51 d2 6d 3e 82 a9 90 bd 9a 46 52 3e
       0.2597582 0.2322476 -0.07063581 0.20534745
000010 8d 3a e8 bd 36 9d 6a 3e 2f 79 53 3e 0c 96 01 3e
       -0.11339293 0.22911534 0.20651697 0.12654895
000020 6c 35 4d 3e 91 93 a5 bd 3a be 3b 3e ca 74 bf 3d
       0.2003991 -0.08084787 0.18334284 0.093484476
000030 60 0b 42 3e 68 41 27 3d 33 ee 5b 3d da 84 b7 3b
       0.18949652 0.04083386 0.05369396 0.005600554
000040 f0 60 5f 3e 02 ee 73 3e 28 78 08 3d 2f 7c 84 be
       0.21814322 0.23821262 0.033317715 -0.25875995
000050 a3 ac b4 bc 41 4a ad bd 76 94 94 bc 7b 2d 25 3e
       -0.022054976 -0.084614284 -0.018137198 0.1613063
000060 56 b7 73 be 7f 51 1f be d7 c9 f2 ba 01 db 86 be
       -0.23800406 -0.15558432 -0.0018523288 -0.26338962
000070 e7 87 5a bb 1e e6 70 be 38 a1 06 3f ac e4 02 be
       -0.0033345164 -0.23525283 0.5258975 -0.12782544
000080 f6 b6 15 bd b0 86 4d 3d e6 80 c8 bd 64 ca 3e 3e
       -0.03655144 0.050177276 -0.097902104 0.18631893
000090 68 79 40 3d f0 74 79 3e 40 02 07 3d ce bd c2 bd
       0.046990782 0.24361014 0.03296113 -0.095088586
0000a0 30 e9 a5 3d b8 73 a7 bd 52 f0 01 3e 10 d4 89 3e
       0.081011176 -0.081763685 0.12689331 0.26919603
0000b0 7a 79 32 3e da f9 06 be a6 3a 32 3e e0 f8 5c 3d
       0.17429152 -0.13181248 0.17405185 0.053948283
0000c0 f8 ca 1c 3e e8 2e 3c be e1 d0 98 be 66 93 ee bd
       0.15311801 -0.18377268 -0.29846862 -0.11649208
0000d0 04 d1 6c be e4 56 7d 3e a4 db b1 3d 19 81 75 3d
       -0.23126608 0.24740177 0.08684471 0.05993757
0000e0 89 9d 61 3d 00 df ab bb f9 ec 0c 3e 02 72 5c be
       0.055081878 -0.0052450895 0.13762273 -0.21527866
0000f0 7e 4f 00 bd 98 6e 31 be da a6 28 be e1 8c 3e 3d
       -0.03132581 -0.17327344 -0.16469899 0.04652107
000100 0c 96 5d 3e 8f 38 35 be 50 09 80 3e cc fe 36 be
       0.2163927 -0.17697357 0.25007105 -0.17870635
000110 ef 22 38 be c8 25 38 be b4 d9 8a 3e f0 c7 cd 3d
       -0.17982076 -0.17983162 0.2711922 0.10047901
000120 da 8b 94 3e 55 cd 7e be a4 1e 99 be 8e 8d 71 be
       0.29012948 -0.24883015 -0.2990619 -0.23589155
000130 f0 b0 4f be e1 c2 1a 3d 7b b9 b3 3d e0 45 80 3e
       -0.2028234 0.037783507 0.08775612 0.2505331
000140 4e 00 69 be c6 88 25 be ee 57 2e 3e 70 c2 c8 bd
       -0.22754022 -0.16165456 0.1702573 -0.09802711
000150 5e 7a 29 3e b5 5e 03 be 10 8a 74 3e f9 c9 6a be
       0.16550586 -0.12829097 0.23880792 -0.22928609
000160 75 1f 89 be 46 d1 97 3d 0c 8b 82 3d dc 38 15 be
       -0.26781812 0.074129626 0.06374177 -0.14572471
000170 46 31 36 3e 90 27 8d 3e af be 25 be 7e 5d fe bd
       0.17792234 0.27569246 -0.16186021 -0.12420176
000180 6c 22 48 3e 34 2d e4 bd b0 cd 30 bc 0b 5f 95 be
       0.19544381 -0.11141434 -0.010791227 -0.29174075
000190 81 cf 30 be a8 40 9a 3d a0 02 23 bd 96 1d 60 be
       -0.17266656 0.075318635 -0.039797425 -0.21886286
0001a0 00 c0 e7 3b 58 e6 52 be 61 f8 82 be 0a 04 2a be
       0.0070724487 -0.20595682 -0.25580123 -0.16603103
0001b0 1d 1c 87 be 64 97 44 be 5e c2 14 3e 3d 0b 89 3d
       -0.26388636 -0.19198376 0.1452727 0.06691597
0001c0 84 49 be 3d 59 83 9e be cb ac 0a be 7a 55 a0 3c
       0.09291366 -0.30959585 -0.13542478 0.019572008
0001d0 3f 60 ee 3d d5 5f 5b be 24 c0 5b be 50 59 04 be
       0.11639451 -0.21423276 -0.21460015 -0.12924695
0001e0 76 1e 4e 3d a0 c5 e5 bd c0 28 ab bc 70 37 51 be
       0.05032202 -0.112193346 -0.020893455 -0.20431304
0001f0 42 ec 53 be b9 1f 34 be f6 5d d3 bd 48 b0 73 be
       -0.20695594 -0.17590226 -0.10320656 -0.23797715
000200 12 70 81 3e e8 19 75 bd 9e d2 84 3e 84 66 c0 3d
       0.25280815 -0.05983916 0.25941938 0.09394553
000210 4e 79 1f be 41 25 31 3e 8e e6 a9 bd c8 09 ef bd
       -0.15573618 0.17299367 -0.08295928 -0.116717875
000220 1c a0 83 be 5c 29 8a be 6e f3 15 3c 98 bc 8e be
       -0.2570809 -0.2698468 0.009152276 -0.2787826
000230 56 51 a3 3e 69 39 50 be 0e 59 2e 3d 16 29 8b be
       0.31897992 -0.203344 0.042565398 -0.27179784
000240 b6 a7 6f bd dc f9 80 3d f2 ca 17 3e 85 b2 ca 3e
       -0.05850955 0.06297657 0.14823511 0.39589325
000250 72 5f 0b 3d 8b 89 a3 be ea ec 42 3e de fd b4 bd
       0.03402657 -0.31940874 0.19035688 -0.08837484
000260 70 2d d5 bc f2 33 83 be dc 9c 8c 3e 00 9b 62 be
       -0.026022643 -0.2562557 0.27463424 -0.2212944
000270 b4 02 25 3e 24 03 d9 3d a4 a8 c8 3d 59 ec 26 be
       0.16114312 0.10596302 0.09797791 -0.16301097
000280 7c 51 8c 3e e0 b1 87 3d 88 de 1e 3d ec 0a 88 be
       0.27405918 0.06625724 0.03878644 -0.26570833
000290 d4 9b 01 3e 28 46 39 bd dd 71 0d be 4e 99 84 3e
       0.126571 -0.04523292 -0.13812967 0.25898212
0002a0 78 ab 89 3d a2 d2 2a be e9 44 1c be 60 e9 6b bc
       0.06722158 -0.16681913 -0.15260662 -0.014398903
0002b0 8a 64 2c 3e 7a ca 9d bd e4 29 30 be f4 74 d3 bd
       0.16835228 -0.07704635 -0.1720348 -0.103250414
0002c0 68 26 69 be cc 50 a6 3d ac fb 6e 3e 51 60 a9 be
       -0.22768557 0.081208795 0.23338193 -0.33081296
0002d0 87 f7 c3 bd 0e 19 51 3e 58 77 35 3e d4 9e 72 3c
       -0.095686965 0.20419714 0.17721307 0.014808375
0002e0 e8 11 fe 3d 8f f7 65 3d 3d c2 66 3e a8 03 59 bd
       0.12405759 0.056144293 0.22535034 -0.052982002
0002f0 76 83 a3 bd d0 1e 04 3d 88 2a 5a bd a4 03 b8 bd
       -0.079840586 0.032255948 -0.053263217 -0.089850694
000300 86 5a 45 3e 36 ab 84 3e 80 85 f4 bc 58 41 8a bd
       0.19272813 0.25911874 -0.029848814 -0.067507446
000310 c0 2b 90 3b 70 7a 93 bc 8f c7 62 3d 75 d9 84 3d
       0.0043997467 -0.018002719 0.055366095 0.06486789
000320 08 36 8c be f3 9c fb bd 04 e5 97 3e ab 98 64 3e
       -0.27384973 -0.12285795 0.29666913 0.22323863
000330 0e 6e 2d bd a2 a1 d1 be 89 d9 fc bd 84 46 c7 be
       -0.042341284 -0.4094363 -0.12346179 -0.38920987
000340 c1 5e 7d bd 34 24 4a 3d d2 97 32 3e 46 8c 0e 3e
       -0.061857942 0.049350932 0.17440727 0.13920698
000350 50 60 8b be 55 87 ae bd 54 5d 23 3e 7f 15 be 3e
       -0.27221918 -0.08521906 0.1595357 0.37125775
000360 05 45 95 be 5b ad 1a bd 75 55 10 3e 3f 09 6e be
       -0.2915422 -0.03776298 0.140951 -0.23245715
000370 5c 67 ed bd 1d 0f 37 3e 5a 63 0c be 74 10 9c bd
       -0.1159198 0.17876859 -0.13709775 -0.07620326
000380 9e 40 cf be c7 2d 68 3d ab b1 74 3e b7 e4 78 3e
       -0.40478987 0.05668428 0.238959 0.24305998
000390 f4 7e 44 be ef 7b 60 be 95 7f f0 be 04 66 f4 3d
       -0.19189054 -0.21922277 -0.46972337 0.119335204
0003a0 f9 7b fc 3d 00 e8 81 3e 65 ab f9 3d 1d 04 d8 3c
       0.123283334 0.25372314 0.12190894 0.026369149
0003b0 2f 6c cf be 82 59 08 bf 86 53 4d 3d 75 56 fb bd
       -0.40512225 -0.5326158 0.050128482 -0.1227235
0003c0 43 8d 5a 3d 6b 8a 8b bd 88 8b 78 bd 96 af 31 be
       0.053357374 -0.068135105 -0.060679942 -0.17352137
0003d0 5c 0b 61 bd ae 4e 59 be 94 bd 49 be 70 d4 cc 3d
       -0.054942474 -0.2122142 -0.19701225 0.10001457
0003e0 72 84 b7 bd 6e 9a 3e 3e 10 19 c6 bd b5 7c 62 be
       -0.08960809 0.18613598 -0.09672749 -0.22117884
0003f0 80 e6 59 bd 24 aa 15 be e0 ea bc bd 94 f6 92 be
       -0.053198338 -0.14615685 -0.09224486 -0.2870375

trunk.0.bias f4 [256]
000000 76 39 0f 3e 67 d8 7e be 61 68 1a be 0c 0f 6d 3e
       0.13986763 -0.24887238 -0.1507888 0.23150271
000010 30 41 f1 3d 16 11 8a be e4 01 bb 3d ea 30 a4 3d
       0.11780012 -0.2696616 0.0913122 0.08017142
000020 49 5e ac be 88 b4 66 3d 11 ea 25 3d c0 65 40 bc
       -0.33665684 0.05632451 0.040506426 -0.011743009
000030 c3 6d 93 3e 15 b1 53 be 90 60 27 3e 07 03 24 be
       0.2879468 -0.2067302 0.1634543 -0.1601678
000040 ea 33 9c be d0 6a 52 3e 54 fb 1f be aa c6 0a 3c
       -0.30508357 0.20548558 -0.15623218 0.008470217
000050 a2 3b 12 3e bd 4d 93 be 6c 24 84 be a8 3b d2 3d
       0.1428056 -0.28770247 -0.25809038 0.10265285
000060 08 22 44 3e 80 ae 02 bd ea a3 3e 3e fc fc d8 3d
       0.19153607 -0.031904697 0.18617216 0.10595128
000070 bd a5 d6 3c 4c d9 44 be 03 d3 7f 3e 40 6b 0d 3e
       0.026202077 -0.19223517 0.24982838 0.13810444
000080 31 0c 36 bc 80 6a 20 3e 67 a4 84 be 70 0f 85 3d
       -0.011111305 0.15665627 -0.2590668 0.06497085
000090 d9 f1 60 be 10 d2 fa bc d4 4f ca 3d e5 d4 e7 3d
       -0.21967258 -0.030617744 0.09878507 0.11319903
0000a0 1a 36 dd 3b c5 f4 6e be 6c 39 41 be 40 82 ac 3b
       0.006750834 -0.2333556 -0.18869561 0.0052645504
0000b0 bc e3 55 bd 57 c1 88 be 78 15 98 3e a1 c4 82 bd
       -0.052219138 -0.26710007 0.2970388 -0.0638516
0000c0 5d 92 80 be 92 69 07 3e 85 15 ee 3d 7a 1c 19 be
       -0.25111666 0.13223866 0.11625198 -0.14952269
0000d0 99 c4 f5 3d 5e 25 84 be 54 f3 d5 3d f6 a3 92 3e
       0.12000389 -0.2580976 0.10446802 0.28640717
0000e0 58 d0 4b 3e e0 6c 18 3e a8 42 7b bd 7e a3 0e 3d
       0.19903696 0.14885283 -0.061342865 0.034823887
0000f0 2d 27 07 3e a9 a7 89 3d 40 c9 b9 bd a2 a4 2e 3d
       0.13198538 0.06721432 -0.090715885 0.042637475
000100 d2 1a fa bd 58 ec 3c be 36 76 8e be 6d b8 85 be
       -0.12212147 -0.18449533 -0.27824563 -0.26117268
000110 82 eb 39 be 7e 90 93 3e 2c 35 a6 3c 18 af 93 be
       -0.18156245 0.28821176 0.020289026 -0.28844523
000120 7c d2 1d be f4 3b 90 3d f8 d1 b8 bd 7c bf f2 bd
       -0.15412325 0.07042685 -0.09024423 -0.11852929
000130 f6 0b 03 be eb ac f6 bd 7d 1f 8e 3c db 4a 1d 3e
       -0.12797531 -0.120447 0.017349 0.15360586
000140 74 00 53 3e 04 b4 a3 3e 88 d9 74 3e c0 17 a6 bd
       0.20605642 0.3197328 0.23911107 -0.08109999
000150 a6 dc 09 be 00 db 86 3a 04 75 4c be a2 4b 19 3e
       -0.13463077 0.0010288656 -0.19966513 0.14970258
000160 88 00 15 bd ad 6f 1a be ec df aa be 62 ca 14 3e
       -0.03637746 -0.15081663 -0.33373964 0.14530328
000170 40 40 68 3e 19 aa 58 3e 7e ad df bd 25 e6 d6 3d
       0.2268076 0.21158637 -0.10921763 0.10493115
000180 c0 35 3a 3c b2 c0 38 be 7b 93 3c be b0 f3 2b 3e
       0.011365354 -0.18042257 -0.18415634 0.16792178
000190 3d 47 4d be 30 d3 60 3e 50 ba d7 3d 69 e1 bd 3d
       -0.20046706 0.21955562 0.10533583 0.09271509
0001a0 68 55 4b 3e b5 b5 a8 3d 8d 06 d9 3d 6a 97 1c 3e
       0.19856799 0.08237783 0.105969526 0.15292135
0001b0 79 51 e3 bd 1f b9 23 be 84 40 62 bd 92 e0 0c 3e
       -0.11099524 -0.15988587 -0.05523731 0.13757542
0001c0 99 84 45 3e bf 81 5a 3e 23 17 e5 bd 90 b3 1c bd
       0.19288863 0.21338557 -0.111860536 -0.03825718
0001d0 c3 cf 4c be c7 d7 36 3e fb 1a 74 be d6 3c 32 be
       -0.2000113 0.1785575 -0.23838417 -0.1740602
0001e0 31 ef 73 3e 26 88 36 3d 7c d7 1a be 9c 89 32 be
       0.23821713 0.044563435 -0.15121263 -0.17435306
0001f0 56 51 54 be 1a 79 3e 3e 27 43 8f be 20 66 85 3e
       -0.20734152 0.18600884 -0.2798092 0.26054478
000200 86 7c 8d 3e a1 ca dc bc 61 27 83 3b ac 1e 70 3e
       0.27634066 -0.02695209 0.004002497 0.234492
000210 ca a1 a1 3d 50 f6 91 3e 61 e9 71 3e 84 e2 77 be
       0.07892187 0.28508234 0.23624183 -0.24207503
000220 5c 09 45 3e 85 d9 ec 3d f1 36 5b be b8 34 1b 3e
       0.19241852 0.11564926 -0.21407677 0.1515683
000230 1d bd 83 be 5c 77 61 be 00 52 b8 3b 10 e8 89 bd
       -0.2573022 -0.22018188 0.0056250095 -0.067337155
000240 05 35 c1 bd a0 7a 4a be d7 5b 15 3e 99 c7 9e 3e
       -0.09433941 -0.1977334 0.14585815 0.31011656
000250 25 3d b1 bd 4b f8 83 be a0 b9 7e bc 93 c4 85 be
       -0.086542405 -0.2577537 -0.015547186 -0.26126537
000260 12 9a a2 be 11 40 11 be d4 fc 41 3e 27 5e 90 be
       -0.3175817 -0.14184596 0.18944103 -0.28196833
000270 78 15 45 bd 3d 4a 33 be c3 83 ae be 9e d9 a4 bd
       -0.048116177 -0.17508788 -0.340849 -0.0804932
000280 00 e1 8f bc 00 a7 4f bd fa f4 54 3e 11 fc d9 3d
       -0.017563343 -0.050696373 0.20796576 0.10643781
000290 84 39 40 3e c0 dd f1 3d 78 92 01 3d 4e e0 63 3d
       0.1877194 0.118098736 0.031633824 0.055633835
0002a0 26 f7 44 be 98 f6 37 3e 06 65 ce 3d bf 0a 43 be
       -0.19234905 0.17965162 0.100778624 -0.19047068
0002b0 77 0e 87 bd fd 2a 97 be 9d 2e 84 be 57 ee 40 3c
       -0.06594556 -0.29524985 -0.25816813 0.011775575
0002c0 b0 21 5d 3d dc 1e 7d bd 0a c5 ba 3d e5 d0 9f be
       0.053987205 -0.061797008 0.091196135 -0.3121406
0002d0 86 41 85 be b0 7f ec 3d 77 3b 96 be c6 93 2b 3e
       -0.26026553 0.11547792 -0.29342243 0.1675559
0002e0 b6 a7 69 3e 7b 58 57 3e e9 db ed 3d 85 9e 8c be
       0.22817883 0.21029846 0.1161421 -0.2746469
0002f0 3f d3 8c 3c b8 25 d9 bd 5a 7d b7 bd 64 8f 6c 3e
       0.017190574 -0.106028974 -0.08959456 0.23101574
000300 c1 42 d0 bd 4e d3 45 be aa ee b9 be 25 8b 4f 3e
       -0.10168982 -0.19318888 -0.363149 0.20267923
000310 63 70 4d ba 3d ee 9e 3e 37 ae dc bc 25 dd 8f be
       -0.00078368763 0.31041136 -0.02693854 -0.28098407
000320 e8 c5 98 3d 44 42 8d 3e 92 7e 3f 3e ab a8 c9 3d
       0.074596226 0.2758962 0.18700626 0.09846624
000330 9d f6 67 be c0 22 39 be e0 a4 51 3e c4 f9 7e be
       -0.22652669 -0.18079662 0.20473051 -0.24899966
000340 53 35 a9 bc 10 3b 1e bd 24 e9 ce 3d 0e 47 7f bd
       -0.02065531 -0.038630545 0.10103062 -0.062323622
000350 06 00 79 be 1e 75 49 be ce 36 6c 3e bf 9e 8e 3c
       -0.24316415 -0.19673583 0.23067781 0.01740968
000360 3e c5 04 3e 33 2d 83 be cc 6a 74 3e f6 2e 84 bd
       0.12965867 -0.25620422 0.23868865 -0.064542696
000370 a2 22 d0 bd 00 86 7a 3d bc 41 dd bd e2 23 f8 bd
       -0.10162856 0.06116295 -0.108035535 -0.12116219
000380 a8 b8 30 bd 20 21 87 bd d8 15 3c be 91 a6 a9 3d
       -0.043144852 -0.06598115 -0.18367708 0.08283723
000390 cb 9d 95 be 82 b3 da 3d 14 2d 8f 3e e0 cc 47 3d
       -0.2922195 0.1067877 0.2796408 0.04877937
0003a0 6c 48 90 bd 1f 64 8d be 18 fd 10 3e c4 4a 9c 3e
       -0.070450634 -0.2761545 0.14159048 0.30525792
0003b0 76 49 6f 3e d9 85 80 3d 20 4b cd 3d 1f 56 8c 3e
       0.23367867 0.062755294 0.100240946 0.27409455
0003c0 7f 90 14 3e 4f 9f 02 be 1e 91 92 be e2 fc 06 3e
       0.14508246 -0.12756084 -0.2862634 0.13182405
0003d0 32 d3 18 3e a7 40 85 3e 60 2f 1d be 1f 1b 2d 3e
       0.14924315 0.26025888 -0.15350103 0.16904877
0003e0 0c 4d cc bd 2b e2 0b be a1 39 4a 3e d5 82 8d be
       -0.09975633 -0.13660495 0.19748546 -0.2763888
0003f0 e0 96 63 3e a0 b4 fe 3d cb 25 07 be 23 1c 0c 3e
       0.22225523 0.12436795 -0.1319801 0.13682608

trunk.2.weight f4 [256, 256]
000000 d8 c8 80 bc 60 50 b8 3b 88 0a 89 bc 2a a7 7a bd
       -0.01572077 0.005624816 -0.016728655 -0.061194576
000010 70 1b d4 bb 98 d0 f9 3c 40 47 ee bb 88 1d fc bc
       -0.0064729974 0.030494973 -0.0072716773 -0.0307758
000020 c0 c8 01 3b f0 dd 3a 3c 24 db 8e bc 20 86 46 bd
       0.0019803494 0.011405453 -0.017438479 -0.048467755
000030 ae 40 09 bd 20 f2 26 bc a4 64 b8 3c 6e a7 63 3d
       -0.03350895 -0.010189563 0.022508927 0.055579595
000040 c0 08 98 3a 4c 51 b7 3c 86 4b 13 3d 2c 42 df bc
       0.0011599287 0.022377633 0.035960697 -0.027253233
000050 e8 e3 a9 bc 6a ce 29 3d 00 4b 37 3d 58 a5 72 3c
       -0.020738557 0.041456617 0.04474926 0.014809929
000060 12 d5 45 bd 58 4d 11 3d 2e 95 53 bd b8 e8 ff 3c
       -0.048298903 0.03547415 -0.05165594 0.031238899
000070 a0 b7 f2 3b 30 62 a5 3c 14 89 79 bd ac 01 b4 bc
       0.0074071437 0.020188421 -0.060921744 -0.021973453
000080 d4 71 d9 3c 28 0a 45 3d ac 94 92 bc b6 49 64 3d
       0.026543535 0.04810539 -0.017893158 0.05573436
000090 c0 83 64 bc ce 67 1a bd e0 b7 dd bc c0 e1 7e 3b
       -0.013947427 -0.037696652 -0.027065217 0.0038891882
0000a0 b8 ff 35 bc 5c cf f7 3c 0e ad 0d bd 20 a6 91 bc
       -0.011108331 0.030250244 -0.034588866 -0.01777941
0000b0 08 b3 7d bd 52 f5 50 3d c8 ad 40 bc d2 ce 49 bd
       -0.061938316 0.051015206 -0.011760183 -0.049269505
0000c0 20 a6 45 bb 00 40 ef b8 64 32 8e 3c 60 ca e0 bb
       -0.0030158833 -0.00011408329 0.017358012 -0.0068600625
0000d0 48 0a 21 3d f4 a6 b0 bc 3c 3f 99 bc 48 2b 73 bc
       0.039316446 -0.021563984 -0.01870691 -0.014841862
0000e0 90 d0 36 3c c6 1c 4d 3d a0 78 3c bb 4c f9 44 3d
       0.011158124 0.05007627 -0.0028758422 0.04808931
0000f0 92 19 49 3d 50 49 05 bd f0 f6 af bb b8 b1 f1 bc
       0.04909665 -0.03254062 -0.0053700134 -0.029503688
000100 8c fa d4 3c dc 00 b4 bc 80 2f 9c 3c c0 b6 74 3b
       0.025998376 -0.021973066 0.019065619 0.0037340373
000110 1e 0e 28 bd 78 1b 2c bd a4 0a 7a bd a0 33 0f bd
       -0.04102909 -0.042018384 -0.061045304 -0.034961343
000120 88 07 8f 3c 60 8d 79 3b c2 89 40 3d c0 1a 61 bd
       0.017459646 0.003807865 0.047006376 -0.05495715
000130 80 62 ef ba d8 8a 65 bd 00 d0 bf 39 54 8a ba 3c
       -0.0018263608 -0.056040615 0.0003658533 0.022771038
000140 a2 a4 65 bd 48 16 62 3d c8 05 9f bc 44 d3 62 3d
       -0.05606521 0.05519703 -0.019411936 0.05537726
000150 28 e1 2b bc 8c 3b 11 3d 3e b9 68 3d d8 67 ba bc
       -0.010490693 0.03545718 0.056817286 -0.022754595
000160 b8 eb 78 bc 90 47 06 3d 66 2b 5b bd 98 88 17 3d
       -0.0151929185 0.03278309 -0.053508185 0.0369955
000170 08 cc 20 bd 70 c3 6d 3d 06 c6 27 bd a0 b1 d2 bc
       -0.03925708 0.05804771 -0.040960334 -0.025719464
000180 02 06 3f 3d 04 eb de bc 44 6e 5b 3d 0c 22 30 3d
       0.04663659 -0.027211674 0.053571954 0.04300122
000190 a8 fc 69 3d de 22 78 bd 00 a1 37 3a 5c 67 a8 bc
       0.057125717 -0.060580127 0.0007004887 -0.020557098
0001a0 a8 eb 73 3c 08 4b 41 bd 98 f2 d1 3c 00 0b 42 bb
       0.014887728 -0.047190696 0.025628373 -0.0029608607
0001b0 40 04 f2 bc 6c 4c 66 bd cc e7 05 3d a4 4b b9 bc
       -0.029543042 -0.056225225 0.03269176 -0.022619076
0001c0 76 e5 3c 3d 68 49 36 3c 48 b8 9b 3c e8 4d 1b bc
       0.04611727 0.0111259 0.01900877 -0.0094790235
0001d0 38 d9 0d bc 6c ee ad bc ae ab 5d bd 3e f2 20 3d
       -0.008657746 -0.021231852 -0.054118805 0.03929352
0001e0 b4 36 21 bd d8 34 15 3d 4c b0 ac bc 46 60 20 3d
       -0.03935881 0.03642735 -0.021080159 0.039154314
0001f0 ce 65 5b 3d 38 92 1c bd c0 62 53 3d c0 a8 c7 3a
       0.053563885 -0.038225383 0.051607847 0.0015232787
000200 fc 90 43 bd 20 01 d1 3c 0e f5 10 3d c0 aa 61 3d
       -0.04774569 0.025513232 0.035389952 0.05509448
000210 0c b1 73 bd 8a 28 67 3d 50 13 42 3d cc d7 7b 3d
       -0.059495017 0.056435145 0.0473817 0.061485097
000220 86 85 0b 3d d0 e3 f8 bc 60 34 42 3d 76 f6 69 3d
       0.034062885 -0.030382067 0.04741323 0.05711981
000230 fc c5 c3 bc 28 62 27 bc 08 54 48 3d 56 13 4e 3d
       -0.023898117 -0.010216273 0.048908263 0.05031141
000240 34 1c 29 3d 3e 21 44 3d d8 8e 03 bd c8 a7 30 bc
       0.041286662 0.047883265 -0.03211865 -0.01078219
000250 6c 8c cc bc 8e 0d 05 3d 88 31 7f 3c 7c bf 45 bd
       -0.024969302 0.03248363 0.015575774 -0.048278317
000260 58 a0 00 bc aa c1 50 bd 08 ed 70 bd 72 60 69 3d
       -0.007850729 -0.050965942 -0.0588198 0.056976743
000270 fc c5 00 bd 54 85 e4 3c d8 05 64 bc f8 5b 4f bc
       -0.031438813 0.027895607 -0.013917409 -0.012656204
000280 00 50 29 b8 56 a9 47 3d f8 a7 0d bc ca d4 53 3d
       -4.0367246e-05 0.048745476 -0.008646004 0.051716603
000290 a0 c9 15 3d 44 9e 2f 3d 3e 2d 68 bd a8 68 ef bc
       0.036569238 0.042875543 -0.05668377 -0.029224709
0002a0 c6 91 50 bd 68 7c 59 bc c8 17 54 bc a8 14 50 3c
       -0.05092027 -0.01327429 -0.012945123 0.012700237
0002b0 56 5e 65 3d e4 d6 e5 3c ba 23 32 bd 78 8c 20 bd
       0.05599817 0.02805657 -0.043491103 -0.03919646
0002c0 98 4e 41 3d c0 dd cb 3b 78 a4 90 3c a4 e5 05 bd
       0.047194093 0.006221503 0.01765655 -0.032689705
0002d0 80 c0 f9 bb d8 c4 91 3c 62 fe 27 bd d2 14 27 3d
       -0.0076218247 0.017794058 -0.041014083 0.04079134
0002e0 f4 26 ff 3c c6 4a 15 bd 20 f6 d1 bc 50 be 70 bc
       0.031146504 -0.036448263 -0.025630057 -0.014693812
0002f0 78 5c 1f 3c d4 cf bb bc 20 e5 74 3d e2 94 76 bd
       0.009726636 -0.022926249 0.059788823 -0.06020058
000300 ea b0 10 bd f2 62 1b bd 4c 6f 8a 3c 10 50 11 3c
       -0.03532497 -0.03793616 0.016898774 0.008869186
000310 c4 e5 91 bc 3a 7c 5a 3d 28 fe 5c bd 58 74 b4 3c
       -0.017809756 0.053341128 -0.05395332 0.022028133
000320 4a dd 0c bd 70 2c 69 bc 32 87 76 bd 16 1b 3f bd
       -0.034390725 -0.014231786 -0.060187526 -0.04665669
000330 f8 33 59 bd 4c 5f df 3c 64 42 c0 bc ee e9 05 3d
       -0.053028077 0.02726712 -0.023469158 0.032693796
000340 2a bd 0a bd 00 b6 7d bc 80 e7 f7 3b 3a 82 56 3d
       -0.033871807 -0.015485287 0.0075654387 0.052370287
000350 b0 fd 89 bc a6 68 14 3d 14 3f 8d 3c 2a b3 1b 3d
       -0.0168446 0.036232613 0.017241992 0.03801266
000360 a2 b7 21 3d 1c c7 cf 3c 68 64 9a bc 84 b3 8f bc
       0.039481767 0.025363497 -0.018846706 -0.017541654
000370 80 52 c7 3c e8 87 0b 3d 20 9e 5a bb 96 53 00 3d
       0.024331331 0.034065157 -0.003335841 0.031329714
000380 b6 03 1a bd e6 4b 10 3d f0 51 fb bb 08 2c 30 bd
       -0.037601195 0.035228632 -0.00766968 -0.04301074
000390 cc c5 f8 bc ba 81 43 bd 00 8f 4e 3c d4 d2 17 bd
       -0.030367754 -0.04773114 0.012607336 -0.037066296
0003a0 3c 9e 92 bc 40 51 80 bb 7e 33 1c bd 00 5a d2 3a
       -0.017897718 -0.0039159358 -0.038135044 0.0016048551
0003b0 60 f5 01 bc 04 2c a2 3c b4 ef 38 3d 10 8a 1a bd
       -0.007932037 0.019796379 0.045150474 -0.037729323
0003c0 90 f7 0b 3d 00 90 ad ba 6c 51 12 bd f8 32 e8 bc
       0.03417164 -0.0013241768 -0.03572218 -0.028344616
0003d0 cc 52 82 3c e8 35 55 3c 40 4d 04 bb 9c e5 fe bc
       0.015908621 0.0130133405 -0.0020187646 -0.031115346
0003e0 86 19 01 3d 88 ee 17 3c 94 dd 78 bd d8 f7 34 bc
       0.03151848 0.009273179 -0.06075819 -0.011045419
0003f0 78 e9 8a bc ac 79 da bc ac 00 0e bd e4 ae 4f bd
       -0.01695703 -0.026669346 -0.03466861 -0.050703898

trunk.2.bias f4 [256]
000000 c8 75 16 bd 1e 0e 28 bd 9a d0 2d 3d 3f 93 04 bd
       -0.03673342 -0.04102909 0.042435266 -0.032366987
000010 11 eb 2c bc de df 6a 3d 5c 80 a3 3d 11 94 8f 3d
       -0.010554091 0.057342403 0.07983467 0.07010663
000020 43 e3 6c bd 1f 0c ec 3a 7d 3b e6 bb c0 b2 97 3a
       -0.05783392 0.0018008983 -0.0070261345 0.0011573657
000030 52 25 76 3d 04 0c 88 3c c1 0f 75 bd 2b 34 5e 3d
       0.060094185 0.016607292 -0.059829477 0.05424897
000040 a3 5e ae 3d b2 1c 45 bd 8c 77 54 bd f3 44 0c 3d
       0.08514144 -0.04812307 -0.05187182 0.034245443
000050 9a ff 35 bd 6e 34 4b bd 28 00 d6 3c dd d2 d2 bb
       -0.044433214 -0.049610548 0.026123121 -0.0064338283
000060 2d a2 0f 3d 05 ce 69 bd f0 f4 33 3d 75 11 ba bc
       0.035066772 -0.05708124 0.043934762 -0.022713402
000070 1e 25 18 bd 18 b9 d8 3c 18 6e 50 bd ab da 57 bd
       -0.037144773 0.026455447 -0.050886244 -0.052698772
000080 80 e2 41 bc 7c c1 8b 3b e0 04 36 bd d7 07 9a bc
       -0.011833787 0.0042650085 -0.044438243 -0.018802566
000090 1e 6e 6f bd 83 cd 27 3d b4 b6 06 bc f8 36 1c 3c
       -0.058454625 0.040967476 -0.008222271 0.00953459
0000a0 b0 75 1a 3d b1 2a eb 3c 22 6a 16 3d 99 a7 a1 3c
       0.03770989 0.02870688 0.03672231 0.019733237
0000b0 66 b2 fa 3b 4a 0b 1a bd 11 a0 27 3d a8 f7 4a bc
       0.0076506613 -0.037608422 0.040924136 -0.012388147
0000c0 69 08 9f 3c 8d e0 80 3d d2 7d 33 bc 9e a4 43 bc
       0.01941319 0.0629283 -0.010955291 -0.011941103
0000d0 32 a3 33 bd 90 5a 9c bb 73 4a b2 bc 06 5d 32 bd
       -0.043856807 -0.004771538 -0.021764016 -0.043545745
0000e0 5e 41 15 bd 99 e0 99 3c fc 7b 3a bd 1c 28 3b bc
       -0.036439292 0.018783854 -0.045528397 -0.011423137
0000f0 42 47 3a 3d ca ec 57 3d 93 f6 99 bd 46 48 fc 3c
       0.045478113 0.052716054 -0.075177334 0.030796181
000100 58 ed 15 3c 34 cf a3 3c 5e 9e 1f 3d 8c 81 4c 3d
       0.009150825 0.019996263 0.03896939 0.049928233
000110 39 ff dd bc 69 3f 39 3d 33 64 09 bc 12 e3 2d 3b
       -0.027099239 0.04522649 -0.008385706 0.002653305
000120 bb 6e de 3c 0d fd 52 bd 0d 03 2a bd 26 6d 9e bd
       0.02715241 -0.05151086 -0.041506816 -0.07735662
000130 78 b3 36 3c d1 46 f7 3c b0 4f c7 bc 84 d8 88 3c
       0.011151187 0.030185135 -0.02432999 0.016704805
000140 10 38 30 bc d4 09 0e bd 38 ae 24 bd b0 67 75 3c
       -0.010755554 -0.03467734 -0.04020521 0.014978334
000150 c4 8c de bc 41 93 b6 bb 63 a7 1e 3d d6 78 a9 bd
       -0.027166732 -0.0055717533 0.03873385 -0.08275001
000160 c4 08 c1 bb f7 89 b6 bc 16 8b 1f 3d 02 cf 50 3d
       -0.0058909375 -0.022282584 0.038951002 0.050978668
000170 64 4a 51 3d a3 a7 f7 ba e4 d7 4e 3a 64 f9 b9 bc
       0.051096335 -0.0018894564 0.00078904466 -0.022701927
000180 d5 21 7a bd 59 9a 85 bd cf 65 09 3c 64 77 4a bd
       -0.06106742 -0.0652358 0.0083860895 -0.049430266
000190 9e 28 14 bd b8 d0 95 3c 6d 94 65 bd 3e bf 21 3d
       -0.036171548 0.018288001 -0.056049753 0.039489023
0001a0 78 99 1a 3d c0 26 80 bb 89 7e 7d 3c da a6 b4 3c
       0.037744015 -0.0039108694 0.015472063 0.022052217
0001b0 38 1d c1 3c 9d 4d 3d bd 01 c0 96 3c 9e 0d a2 bd
       0.023573503 -0.046216596 0.018402101 -0.079127535
0001c0 8b 24 2b bd 55 87 9c bd 90 40 0a bd 97 ba f0 3c
       -0.041782897 -0.07643 -0.033752978 0.029385848
0001d0 60 60 83 3b bd 06 76 bc a0 fe 33 3b 70 7a 8c bd
       0.0040092915 -0.015016255 0.0027465 -0.068592906
0001e0 28 71 0b 3c ec 7e 81 bc 9a 54 be 3c 98 72 2f 3d
       0.008510865 -0.015807591 0.0232337 0.042833894
0001f0 80 6e 82 bb 7c 76 b5 3c 56 df 12 bd 24 c2 d8 3c
       -0.003980458 0.022151224 -0.03585752 0.026459761
000200 eb 89 89 3d 30 81 83 3c 44 fc 02 3c 15 98 10 bd
       0.06715759 0.016052812 0.007994715 -0.035301287
000210 0e e3 28 bd 70 20 22 bc f2 99 28 bd ce 4a 45 3d
       -0.04123216 -0.009895429 -0.04116244 0.048167042
000220 78 e1 75 bd bd a8 58 bd a8 5a 47 3c 79 cb 77 bd
       -0.060029477 -0.052895296 0.01216761 -0.06049678
000230 1e da 3e bc 01 e9 70 3d 5c 70 01 3d 61 fd 17 3d
       -0.011648683 0.05881596 0.031601295 0.037106875
000240 72 b6 32 bc 07 54 e4 bc 2b 04 3a bd a6 3a 81 b9
       -0.010907756 -0.027872099 -0.04541413 -0.00024648494
000250 36 ab ed 3c c1 1d 3d bd c3 b6 b2 bc 80 f7 36 3d
       0.029012304 -0.046170954 -0.021815663 0.04466963
000260 8d a4 f7 bc 44 4a f0 3c c6 d9 1b 3d d8 3f 03 3d
       -0.030229831 0.029332288 0.03804948 0.032043308
000270 81 20 06 bd c6 78 87 bc 98 c0 34 3d a0 b0 6a 3d
       -0.032745842 -0.016537081 0.044128984 0.05729735
000280 ad ec 91 3d e8 91 19 bd 52 b4 1a 3d 71 9f c0 bc
       0.071252204 -0.037492663 0.037769623 -0.023513528
000290 3e 81 71 3d e2 40 63 bd 92 09 75 3d 9a f6 5a 3d
       0.058961146 -0.0554818 0.05982358 0.053457834
0002a0 3a 77 8e bc de 1d 34 bd 75 7e 8e bd 8d a0 39 bc
       -0.017390836 -0.043973796 -0.069577135 -0.011329782
0002b0 bc d1 06 bd ff 93 d5 bb a8 d8 5c bd dc 84 9b 3c
       -0.032914862 -0.0065178866 -0.053917557 0.01898425
0002c0 ac 14 30 3d 21 12 9e 3c 97 35 1d 3c c8 3c 32 3d
       0.042988464 0.019295754 0.009595296 0.043514997
0002d0 05 c4 7a 3c 83 bb 38 bd 23 03 84 3c af 1b 28 bd
       0.015305524 -0.0451007 0.016114777 -0.041042026
0002e0 10 f3 73 bc 5f a8 1d bd 18 98 ed 3c a1 90 92 bd
       -0.014889494 -0.03849065 0.029003188 -0.07156492
0002f0 97 2a 17 3b 7d c7 77 3c d9 d6 76 bd 6d 1b aa 3b
       0.0023066157 0.015123245 -0.06026349 0.0051912577
000300 24 01 bc bc 60 e0 16 3b 26 9f 52 bd e6 cd 11 3d
       -0.022949763 0.0023021922 -0.051421307 0.03559675
000310 ef 90 02 bd e4 9b a2 bc 0e 18 a9 3c 4a 80 8e bb
       -0.0318765 -0.019849725 0.020641353 -0.0043487893
000320 04 77 40 3d fd 31 40 3d 72 96 95 3a bb d9 0f bd
       0.046988502 0.046922673 0.0011412634 -0.035119753
000330 5b 9a 76 3c 8c 12 5c 3d 23 40 04 bc 14 b1 98 3c
       0.01505145 0.053728625 -0.008071932 0.018639125
000340 c8 ff 29 bd b4 e0 03 3d 48 7c 72 bc b9 ce c2 bd
       -0.041503698 0.032196715 -0.014800139 -0.095120855
000350 58 e1 3e bc 06 aa bf 3c 91 6c b2 bb 6d 0a df bc
       -0.011650406 0.023396503 -0.005445071 -0.027226651
000360 06 aa ce bc f6 d0 1c 3d a3 b6 52 bd 71 62 6b bd
       -0.025227558 0.03828522 -0.051443707 -0.057466928
000370 87 d8 07 bd 54 08 69 bd 6e fc 2e 3d 80 9d 32 3c
       -0.03316548 -0.056892708 0.042721204 0.010901809
000380 6d fd 78 3c ed 1f 92 bc 5d 68 89 3c b4 67 80 bc
       0.01519714 -0.017837489 0.016773397 -0.01567445
000390 ad e0 26 3c f3 d5 85 bd 83 b1 79 bc 5b 1b a0 bd
       0.010185403 -0.06534948 -0.015240076 -0.07817718
0003a0 e7 c4 e8 bc 44 c0 82 bd be 9a 08 bc 6c 7e 72 3d
       -0.028414203 -0.06384328 -0.008337675 0.059202597
0003b0 b6 1f 1f 3d 7d 49 1f 3d 78 66 10 3d 04 43 64 bd
       0.0388486 0.038888443 0.03525397 -0.055727974
0003c0 80 2d 39 3d f9 ed 1b 3d 62 75 f0 bc 97 0d 8e 3b
       0.045209408 0.038068745 -0.029352847 0.004335116
0003d0 cf 4e 64 bc 0c 7e c6 3c 95 41 65 3c bf ce 85 3c
       -0.013934805 0.024230026 0.013992687 0.016333936
0003e0 b0 68 e5 3c 79 53 36 bd a0 13 a3 3c 1e 82 f3 bc
       0.02800402 -0.0445132 0.019906819 -0.02972513
0003f0 3d 9c c9 bc 8d fe 6e bd e0 23 50 bd 41 56 1f 3d
       -0.024610633 -0.058348227 -0.050815463 0.038900618

V_heads.0.weight f4 [1, 256]
000000 e0 81 a2 3b 30 ef bf 3b 20 e2 ee 3b 85 7c da bc
       0.00495933 0.005857371 0.00729014 -0.026670704
000010 c9 13 eb bc 22 0c 3a 3d 98 e4 90 3d d5 99 00 3d
       -0.028695958 0.045421727 0.07074851 0.031396706
000020 cc 8a ba bc 69 a5 63 3d 56 d4 a7 bc 5e 62 2d 3d
       -0.022771262 0.05557767 -0.020486992 0.04233014
000030 1a 0b 34 3d 6d 2b 45 bd c6 54 e1 bc 70 c6 4f bd
       0.0439559 -0.048137117 -0.027506243 -0.050726354
000040 ab 95 16 3d 74 88 81 3c 38 72 f3 3c e1 de ad 3c
       0.03676383 0.015812136 0.02971755 0.021224441
000050 64 bc 87 bb c6 c2 47 3d d4 a7 f8 bc 07 9f 1d 3d
       -0.004142331 0.048769735 -0.030353464 0.03848174
000060 93 d0 f5 bc bc d7 5f 3d 65 e0 15 bd 03 ab 9d bc
       -0.030006683 0.0546491 -0.036590952 -0.019246584
000070 bc 4f 37 bd 88 89 72 3c c0 1f a4 ba 3f af 26 bd
       -0.044753775 0.014803298 -0.0012521669 -0.04069447
000080 a4 3b 22 bd 02 13 ef 3b d2 06 08 bd 32 60 b1 3c
       -0.03960766 0.007295967 -0.03320963 0.021652315
000090 40 4c b7 3c 01 4d 4a bc a0 1f 12 bd a4 3d a5 bc
       0.022375226 -0.012347461 -0.03567469 -0.020170994
0000a0 8e 1e 28 3d 7b 86 01 3c 2c d6 10 bc 4d 76 9a bc
       0.041044764 0.007905598 -0.008840125 -0.018855238
0000b0 91 03 50 3d 4c 11 c6 3c 4f c3 6c 3d d4 56 66 bd
       0.05078465 0.02417817 0.05780345 -0.05623515
0000c0 d5 7f f4 3b e6 80 e7 bc b7 93 67 3d e1 bd ba 3c
       0.007461528 -0.028259706 0.056537356 0.02279562
0000d0 2e 0d 6c 3d c6 2e 45 3d bb 80 a0 3c 10 f3 f8 bb
       0.057629757 0.04814031 0.019592633 -0.0075973347
0000e0 10 d6 23 3d 6e bb 91 bb d4 38 b7 bc d5 ce 38 3d
       0.039999068 -0.004447392 -0.022365965 0.045119125
0000f0 5c 7c 2d 3d 22 94 7e 3d d4 c2 0c 3d 6f ba 06 bd
       0.042354926 0.06215299 0.03436549 -0.03289264
000100 32 b6 6f 3d fb e4 5b bd ee 48 6f 3d 0c 1e 65 bd
       0.058523364 -0.05368517 0.05841916 -0.055936858
000110 87 bf 98 3c c5 e1 85 3c 5d 53 dd 3c 99 e4 38 3d
       0.018646015 0.016343007 0.02701729 0.045139883
000120 0c 76 f9 bb 99 6c 1f 3d 5d ff 40 3d ef 09 56 bc
       -0.0076129492 0.038921926 0.047118533 -0.013063892
000130 18 8e 11 bd 72 15 14 3c 68 c9 42 bc a6 25 7e 3d
       -0.0355359 0.009038316 -0.011888839 0.062047623
000140 3e 2e 64 3d d8 98 2a bd 6f d2 06 bd 28 8f 07 3d
       0.055708162 -0.04164967 -0.03291553 0.03309551
000150 57 b6 7a ba 8b 2b 58 ba 02 36 3f 3d 9c 17 09 bd
       -0.0009563914 -0.00082462345 0.046682365 -0.03346978
000160 14 f3 8c 3c 4e 59 7a 3b 42 02 14 3d 0b 2f b5 bc
       0.017205752 0.0038200202 0.036134966 -0.022117158
000170 8c ef fa 3c 95 67 86 3d 5f e4 18 bb fc 26 bc bc
       0.030631803 0.065627255 -0.002332948 -0.022967808
000180 b9 f6 b0 bc d7 e1 e9 3c 26 3e 7f 3d 79 85 40 3b
       -0.021602022 0.028550072 0.06231513 0.002937643
000190 d2 7b 67 bd b6 99 0e 3d 49 cb a2 3c 80 1f 80 ba
       -0.05651457 0.03481456 0.019872325 -0.0009775013
0001a0 80 4d de 3c 3c 06 b9 bc 9f 4d 71 3d a7 62 81 bd
       0.027136564 -0.02258598 0.058911916 -0.063176446
0001b0 d8 03 4b bc 25 40 aa 3c e6 90 73 bd ee 00 d9 3c
       -0.012391053 0.02078254 -0.059464358 0.026489701
0001c0 1d 46 2e 3d 17 63 d2 3c 4c ae b1 bc 6b b6 c1 3c
       0.042547334 0.025682015 -0.021689557 0.023646554
0001d0 cc 2e ca 3c b3 7e 17 3d 08 a3 6f bd 9a b8 11 3d
       0.024680518 0.036986064 -0.058505088 0.03557644
0001e0 0d ae 7c bd 5b 4a 35 bd 63 01 3a bd 6e 42 10 3d
       -0.061689425 -0.044260364 -0.04541148 0.035219602
0001f0 7c f3 1f 3d 66 b8 38 bd 24 60 df 3c 32 33 30 3d
       0.039050564 -0.04509773 0.027267523 0.043017574
000200 87 99 d4 bc c0 dd 9c 3b 47 78 75 3d 0e 4d 39 3d
       -0.025952114 0.004787177 0.05992916 0.0452395
000210 ea e4 43 3d 8b 70 59 bd a6 86 5c 3d 16 c1 20 bb
       0.04782573 -0.053085845 0.05383935 -0.002452915
000220 0c 38 58 3d 06 4a 9f bc cd 0a b3 bc 7a 27 e6 3c
       0.052787825 -0.019444477 -0.021855736 0.028094996
000230 e2 90 bb b9 4f 46 53 bd 20 ae 54 bb f4 90 a4 3b
       -0.00035775366 -0.051580723 -0.003245242 0.0050221626
000240 1c 9e 5b bb 60 6e 1c bd 0e 13 10 bd 24 31 ea 3b
       -0.0033510989 -0.0381912 -0.035174422 0.0071469713
000250 24 15 c8 bc 1a 90 78 3d aa be fa bc f0 ec d7 3c
       -0.024424143 0.0606843 -0.030608494 0.026358098
000260 b8 50 3f bd 68 5e 84 bc c3 ac 2d bd e4 bb b4 3b
       -0.04670784 -0.016158298 -0.042401087 0.0055155624
000270 07 a5 30 bd 29 20 d9 3c 38 9f 82 bc a6 bf 0a 3d
       -0.043126132 0.026504593 -0.015945062 0.033874176
000280 72 e0 4a 3c 54 7d 1a bd 82 3c 6c 3d 39 4c 81 bd
       0.0123826135 -0.03771718 0.057674892 -0.063133664
000290 1c b3 04 bd 9f 3e c6 bc 56 62 4f 3d bc 7d ee bc
       -0.032397375 -0.024199782 0.05063089 -0.02911269
0002a0 a7 2c b5 3c 7f e2 1a 3d 15 78 47 3d 5e 1b 9a 3c
       0.022116018 0.03781366 0.048698504 0.018811878
0002b0 6e e6 0e 3d 61 38 46 3d 12 f1 12 bd ce fc 3a 3d
       0.034887724 0.04839361 -0.035874434 0.04565125
0002c0 d4 0e 72 bd e4 06 e8 bc 33 eb 81 3a b2 b6 42 bc
       -0.059096172 -0.028323598 0.0009912014 -0.011884378
0002d0 d5 db 65 bc 3c 5f 06 3d 90 01 05 3c a3 29 3b 3c
       -0.014029463 0.032805666 0.008118048 0.011423501
0002e0 70 b8 bc 3b 1d 85 1c bd 08 57 72 3d 46 f8 95 3c
       0.0057592914 -0.038212884 0.05916503 0.018306863
0002f0 71 69 b8 bc 2b 0f 5f bd 2f d0 e3 bb d7 6c b0 bc
       -0.022511216 -0.054457825 -0.0069523077 -0.021536274
000300 10 40 1f bd 3c 0b 4b bd 0e 22 13 3d e8 fa ed bc
       -0.038879454 -0.04957126 0.03592115 -0.029050305
000310 4e aa 64 3c 1c 79 45 bd 6c 54 53 3d fa c7 19 bd
       0.013956619 -0.048211202 0.051594183 -0.037544228
000320 f8 e8 04 bc 06 f9 32 bd 06 00 0b 3d 8e eb 9d 3c
       -0.008112185 -0.04369452 0.03393557 0.01927736
000330 c1 10 5e 3c 54 a1 3d 3d d4 9e 7a bd 6c ee a7 3c
       0.013553799 0.046296433 -0.061186627 0.02049943
000340 2c 8e 50 3c 88 0e 1b bd d2 6b 2d 3d fa a3 54 bd
       0.012729209 -0.037855655 0.042339154 -0.051914193
000350 04 e3 77 3d 52 c5 b6 3c 40 0b 6e 3d ea 60 9f bc
       0.060519233 0.022310887 0.058116198 -0.019455392
000360 db d6 3a 3d fe b6 15 bd df f6 1a 3c 85 8b 00 bd
       0.04561506 -0.036551468 0.009458273 -0.031383056
000370 4b d2 39 3d 20 b8 c9 bc 8f 7f 4b 3d 60 f9 72 3b
       0.045366567 -0.02462393 0.049682196 0.0037074909
000380 e8 cd 4a 3d be 86 f5 ba 3f 7e 93 bc a5 d3 26 3d
       0.049512774 -0.0018732173 -0.018004535 0.040729184
000390 7a c7 82 3d f4 88 8f bb cf 2e a6 b8 59 da 7d 3c
       0.063857034 -0.0043803398 -7.9242156e-05 0.015493953
0003a0 12 b3 25 bd d0 83 54 3c 99 c3 2a 3c a4 ee e5 3c
       -0.040453978 0.01297088 0.010422611 0.028067894
0003b0 c4 42 43 bd ff 69 29 bd d5 f4 3a 3d ea 82 5d bd
       -0.047671095 -0.04136085 0.045643646 -0.054079928
0003c0 72 b9 fc 3c e2 95 89 bc 89 76 a4 3c a5 b8 97 bd
       0.030850146 -0.016795103 0.020076053 -0.07408265
0003d0 da de 15 bb 28 12 f5 3c 0d 20 82 bc be cb d4 3b
       -0.0022868426 0.029915884 -0.015884424 0.0064940145
0003e0 6c d8 f5 bc 8d 34 37 3d b9 f4 fd 3c d8 54 f6 3b
       -0.030010425 0.04472785 0.031000482 0.0075174384
0003f0 96 a2 cb 3c 8b d6 30 bd 82 50 08 3d 08 72 2a bd
       0.0248578 -0.043173354 0.033279903 -0.041612655

V_heads.1.weight f4 [1, 256]
000000 80 46 b8 3a 00 8d 9b b9 c2 0b 5c bd 24 52 51 bd
       0.0014059097 -0.00029668957 -0.05372215 -0.051103726
000010 cf 00 3c bd ba a8 63 bd f5 7c 29 bd 23 51 41 3d
       -0.04589921 -0.055580832 -0.041378934 0.04719652
000020 dc 2b 49 bd c1 d8 64 3d 28 53 53 bd 40 76 5d bc
       -0.049114093 0.055870775 -0.051592976 -0.0135169625
000030 b0 c3 0f bc 21 34 29 3d a6 0d e0 3c 62 cf 19 3c
       -0.008774683 0.04130948 0.027350258 0.009387823
000040 1c 18 86 bc 0a 01 00 3d f4 8b 42 bd 3f ab ee 3c
       -0.016368918 0.03125099 -0.04749675 0.02913439
000050 d4 e4 03 3d f0 24 92 3c 6a 1b 0b 3d 35 c9 a5 bc
       0.03220065 0.017839879 0.03396169 -0.020237545
000060 cf 1e 4a 3d d6 1b bf 39 6e da 7d 3c 13 ed 2d 3b
       0.049345788 0.00036451098 0.015493972 0.0026539012
000070 48 4f 06 3c a0 f9 1c bd c0 ae 24 3d 17 a0 6a bd
       0.008197613 -0.038324 0.040205717 -0.05728158
000080 f8 d9 db bc e6 f3 39 3c b2 86 cc 3b 0d 6b 0f bd
       -0.026837334 0.011349654 0.006241643 -0.0350142
000090 f8 c8 c2 bc ca 42 ba bc 18 88 6e bd b2 56 61 bd
       -0.02377747 -0.022736926 -0.058235258 -0.05501432
0000a0 48 9c 95 3c d0 22 12 bb 82 d0 8b bc b0 29 48 3c
       0.018262997 -0.0022298582 -0.017067198 0.01221697
0000b0 5c a5 a7 3c 90 51 5c bd bc 3d 2c bc 00 d7 af 3b
       0.020464592 -0.05378872 -0.0105127655 0.005366206
0000c0 ad 67 51 bc 57 89 55 3d 13 74 8e bc 01 9a ce 3c
       -0.012781066 0.05213293 -0.017389333 0.02521992
0000d0 72 b7 08 3d c4 d8 45 bd 21 c7 6a bd d4 6e 09 3d
       0.033378072 -0.048302427 -0.05731881 0.03355296
0000e0 9a 2b 3d bd e5 88 20 3d 90 3b 82 3b dd f3 53 bb
       -0.04618416 0.039193053 0.0039743856 -0.0032341399
0000f0 7c 8a 55 3d e8 92 78 bc 2a ee 33 bc af 5b 5d bd
       0.052134022 -0.015171744 -0.010982076 -0.054042514
000100 00 f9 6a bb 09 4d 5e 3d a8 f7 67 3d 58 99 de bc
       -0.0035853982 0.054272685 0.056632668 -0.02717273
000110 94 68 51 bc 17 1b 5b 3d 26 91 55 3d fd 4d bd bc
       -0.012781281 0.05349263 0.052140377 -0.023108477
000120 8f 9d 00 3c 37 d9 25 bd df 7c 79 bd 68 59 b5 bb
       0.007850065 -0.040490355 -0.060910102 -0.0055343397
000130 06 03 47 bd 48 73 04 3d a6 29 48 3d c4 f9 d0 bc
       -0.048586868 0.032336503 0.048867844 -0.025509723
000140 be 2a 20 bd f2 6c 2e bd 4f 9b 99 3a be 44 e6 bc
       -0.039103262 -0.042584367 0.0011719259 -0.02810895
000150 e2 bb 51 3d bf 4e 1e 3a 64 f9 21 3d 38 ef 23 3d
       0.05120457 0.0006038956 0.039544478 0.04002306
000160 b1 f1 f4 3a ac 4f 1d bd f0 f2 3f bc 2c f3 42 bd
       0.0018687752 -0.03840606 -0.011715636 -0.047595188
000170 02 7b 0d bd 2f 7a 4d bd c6 00 73 3c 34 7d 45 bd
       -0.034541138 -0.05016535 0.014831727 -0.048215106
000180 09 5e 4a 3c d5 14 38 3d 64 4b c3 3b af c1 4f 3d
       0.012351521 0.044941742 0.005959915 0.05072182
000190 d0 10 26 3c a4 ba 8b bc 35 fc b4 3c 54 d1 64 3d
       0.010135844 -0.01705677 0.022092918 0.055863693
0001a0 74 5c f2 3c 3e f9 59 bd 46 34 8c bc ac 68 ae bc
       0.0295851 -0.05321621 -0.01711477 -0.021290146
0001b0 48 5b ee bc b7 46 a2 3c da ce 6c bd 2e f7 b0 3c
       -0.02909626 0.01980911 -0.057814457 0.02160224
0001c0 7b d2 fb bc 52 27 83 3c ac b8 8b 3c 53 cd ce 3c
       -0.030740013 0.01600996 0.017055832 0.02524439
0001d0 ea 77 46 bd 95 a6 33 bd fa 69 4c bd 74 c4 0d 3d
       -0.048454203 -0.043860037 -0.049905755 0.03461118
0001e0 cb 4b 21 3d 1b 61 9a 3c 56 59 f0 3b 20 d6 b5 3c
       0.039378922 0.018845132 0.0073348684 0.02219683
0001f0 a8 db b6 3c 6f 6a eb bc 30 ea 83 3c 78 a6 66 bc
       0.022321537 -0.028737275 0.01610288 -0.014077775
000200 82 77 58 3d e6 e3 40 3d 9a fa 8f 3c 6c 45 f8 bc
       0.052848347 0.04709234 0.01757555 -0.03030654
000210 30 7d 3f 3d 89 c8 53 3d 40 b9 ef bb 5d 19 3d 3d
       0.046750247 0.051704917 -0.0073157847 0.046166766
000220 fe 1d 2a bd a5 14 da 3c 56 84 28 3b 66 c1 30 bc
       -0.04153251 0.026621172 0.0025713644 -0.010788297
000230 a3 bd a7 bc 87 7c 6a 3d a8 9d 4a bc 0d 46 74 bd
       -0.020476168 0.057247665 -0.01236669 -0.059637118
000240 6d ee a2 bc 48 4b c1 bc 9e f5 12 3d cb d8 87 3d
       -0.01988908 -0.023595467 0.03587877 0.06633147
000250 c7 ef 40 3c 7a 45 15 bc b6 3b 49 3c b1 80 14 bc
       0.011775917 -0.009110803 0.012282303 -0.009063886
000260 80 f4 7d bd 08 8c a0 bc 19 1a 2a 3d 95 85 5a 3b
       -0.06200075 -0.019598022 0.041528795 0.0033343781
000270 a9 5c 10 bd 62 51 87 bd c0 92 b0 3a 5c c9 d9 bc
       -0.035244618 -0.066073194 0.0013471469 -0.026585273
000280 34 12 c9 bc cc 26 8b bc f6 e4 44 3d f8 97 13 3d
       -0.024544813 -0.016986273 0.048069917 0.0360336
000290 33 42 6c bc a6 44 76 3d 58 d8 4f 3d d0 68 8d 3c
       -0.01442008 0.060124062 0.05074343 0.017261893
0002a0 06 e7 46 3c 03 e6 2a bd 3f d8 43 3d 9e 3e 5c bd
       0.012140041 -0.041723263 0.04781365 -0.053770654
0002b0 2e 2e 51 bd 1b 9a 5e bd b8 39 14 bd 00 6c 3f b9
       -0.05106943 -0.054346185 -0.036187857 -0.00018255413
0002c0 5c d1 a4 bc d8 5a 11 bd 88 a1 31 3d 49 65 b6 3c
       -0.020119362 -0.035487026 0.04336694 0.022265093
0002d0 e2 fd db 3c d5 ee 32 bb 0c b4 49 3c d3 75 d7 3c
       0.02685446 -0.0027303 0.012310993 0.0263013
0002e0 6c 2c 96 bc 3d 15 a9 bc 04 b2 b2 bc 72 62 54 bd
       -0.018331729 -0.02064001 -0.0218134 -0.051851697
0002f0 83 be 10 3c 08 46 f8 3c 80 f7 91 bc 52 c1 34 3d
       0.008834484 0.030306831 -0.017818213 0.044129677
000300 4a a0 08 3d 64 ac ac bc 9d 0a 8a bd 4e 11 2c 3d
       0.03335599 -0.021078296 -0.067403056 0.04200869
000310 f2 e8 70 3d 68 fe fe bc 54 de 29 bc 0d 5b 15 3c
       0.058815904 -0.03112717 -0.010367949 0.0091159465
000320 4e a0 1f bd aa 43 35 ba 0b 0c ef bc 2f 20 4d 3d
       -0.038971238 -0.0006914685 -0.029180547 0.05007952
000330 61 7c 52 3d d8 32 11 bc 13 44 ae 3c d0 c6 4a bc
       0.05138815 -0.00886222 0.021272695 -0.012376502
000340 51 82 ff 3c 7e 6d 01 3d 80 c3 00 bb 62 65 36 3d
       0.03119007 0.03159856 -0.0019647777 0.04453028
000350 d8 03 18 bd 6d 5b 76 3c 70 de 0e bd 5e b7 1b bd
       -0.03711304 0.015036446 -0.0348801 -0.03801667
000360 e4 be d2 3a 16 da 01 3d 39 6d 82 3d dd cf d0 bc
       0.0016078618 0.031702124 0.06368489 -0.025489742
000370 a1 f8 d9 3a 94 42 d1 bc 55 a6 d8 3c a8 1c 38 3d
       0.0016629883 -0.025544442 0.0264465 0.044949204
000380 a4 7e b1 3c 32 77 3e bd 33 e4 6b 3d ef 16 05 3c
       0.021666832 -0.046500392 0.057590675 0.008123144
000390 cc 13 06 3d 2b c7 08 3b 35 ba 8b 3c f1 a3 00 3d
       0.032733724 0.0020870666 0.017056564 0.031406347
0003a0 e5 29 f3 3c 42 43 e3 3c 14 b7 6e 3b 34 92 7c 3d
       0.029683063 0.027742032 0.003642504 0.061662868
0003b0 c2 1b 15 3d af 2b 5d bc 5a b4 c2 bc e8 9b 4a bd
       0.036403425 -0.0134991845 -0.023767639 -0.04946509
0003c0 cc a0 49 3d 32 c0 34 bc 1d 43 42 3b c6 6c 24 bd
       0.049225613 -0.011032151 0.0029642053 -0.040142797
0003d0 af ae 34 3d 30 b2 0c bc e2 35 28 bd fd a9 4b bc
       0.044111904 -0.008587405 -0.04106701 -0.012430665
0003e0 20 42 2c 3c cc 26 a5 bb 3c 68 b8 3c be 8c 54 bd
       0.010513812 -0.0050400253 0.02251064 -0.051892035
0003f0 0f 0f 11 3d f1 f0 f7 bc 49 1d 41 3c 8f e9 7b bc
       0.03541475 -0.030266257 0.011786767 -0.015375509

V_heads.2.weight f4 [1, 256]
000000 66 fb 6a bd 38 f8 89 bc d4 9c ec bc bc e0 54 bd
       -0.05736866 -0.016841993 -0.028883375 -0.051972136
000010 a1 5c 40 3d f4 29 27 bd 7b 17 0c 3c 83 3a fd 3b
       0.046963338 -0.040811494 0.00855052 0.0077279224
000020 44 13 0c 3d 18 d2 81 bd b6 9d 39 3d fa 5c 3f bd
       0.03419806 -0.063389 0.04531642 -0.04671953
000030 c0 67 f8 3a c5 cf 81 bd 2a ff dc 3c 0a b5 4a 3c
       0.0018951818 -0.06338457 0.02697714 0.012372265
000040 b7 69 08 bc 1a 90 54 bd 56 9e 77 3d ca ae d1 3b
       -0.008325986 -0.05189524 0.060453735 0.0063990103
000050 ed 54 a1 3c 06 bb 23 3d cc 9a f5 3c 39 83 df 3c
       0.019693816 0.03997328 0.02998104 0.027284252
000060 41 6c 48 3d b8 74 49 3d 87 ff 12 3d 7b 9f 07 3d
       0.048931364 0.049183577 0.03588822 0.033111077
000070 5a 13 47 bd d3 4d 0a 3d 80 f1 63 3d af 4d 0e 3d
       -0.04860244 0.033765625 0.055650234 0.034742054
000080 48 7e 06 bd 7d e1 f2 bc a0 35 33 3d 8d 49 14 bd
       -0.032835275 -0.029648537 0.043752313 -0.036202956
000090 5a 6d 4e bd 53 60 04 3d f2 c0 06 bd b6 b4 17 bd
       -0.050397255 0.032318424 -0.03289885 -0.037037574
0000a0 00 cf d0 ba 10 55 4d bb 44 3e a7 3c 25 9f e3 3c
       -0.0015930831 -0.0031331219 0.020415433 0.027785847
0000b0 dd 42 04 3d 06 6a 3b 3d 34 d2 b8 3b a2 29 4e bd
       0.03229033 0.04575541 0.0056402925 -0.050332673
0000c0 dc b4 a7 3c 52 2b 9a 3c c8 ab 3a 3c 4b e0 c8 3b
       0.020471983 0.018819485 0.011393495 0.0061302534
0000d0 80 06 79 ba 48 5d be bc 77 42 d9 3c 58 e4 24 bd
       -0.0009499565 -0.02323784 0.02652095 -0.040256828
0000e0 1e e1 a4 3b bb 5e 40 bd f6 d2 1a 3d a7 7d 25 bd
       0.005031719 -0.046965342 0.037798844 -0.040403035
0000f0 c0 10 0b bd 70 e4 c0 bb 34 8a 54 bd eb 92 02 3d
       -0.03395152 -0.005886607 -0.051889613 0.031878393
000100 f8 6e 07 bd 5c 3a e9 bc 00 68 b0 38 b0 08 60 bd
       -0.033064812 -0.02847021 8.4117055e-05 -0.054695785
000110 89 59 f2 3b fb 62 20 3d 72 fe 1d 3d af 52 d4 bc
       0.0073959273 0.039156895 0.038572736 -0.025918333
000120 a9 21 55 3d 19 f1 a3 bc d7 1a dc ba 6a 29 08 3d
       0.052034054 -0.020012425 -0.0016792667 0.03324262
000130 34 75 41 bd 06 12 60 bd 2c 57 2d 3d 1c 6a 36 3d
       -0.047230914 -0.05470469 0.04231946 0.044534788
000140 9c 65 e6 bc be 21 21 3d c5 69 5c 3d 1c a9 66 bd
       -0.028124623 0.03933882 0.053811807 -0.05631362
000150 c3 1b fb 3c c2 11 cc bb 4c c0 db 3c ab 0b de bc
       0.030652886 -0.006227703 0.026825093 -0.027105173
000160 ce d4 07 3d 85 d8 6b 3c a8 28 f4 bc b4 0e 19 bd
       0.03316193 0.014394884 -0.029804543 -0.037367538
000170 60 53 ed 3b 10 82 71 bc 9a 78 bc 3c 88 09 a8 3c
       0.007242605 -0.014740482 0.023006726 0.020512357
000180 36 2c 01 bd 9b f5 07 bd e5 64 fc bc b6 54 80 3d
       -0.031536303 -0.033193212 -0.030809829 0.06266157
000190 68 75 25 bc 90 90 10 bc 74 66 27 bd e6 90 3d 3d
       -0.010098793 -0.008823529 -0.04086919 0.046280764
0001a0 38 bd a6 bc ac e4 b4 bc a9 c3 4d bd ef c4 2d 3d
       -0.020353898 -0.022081695 -0.050235424 0.04242414
0001b0 00 95 ad 3a 14 60 11 3d 98 c2 30 3c 7f e5 28 bc
       0.0013243258 0.035492018 0.010788582 -0.010308622
0001c0 a3 85 46 bd 1b 8d 3e 3d d4 da f3 bc 8b 98 00 3d
       -0.04846729 0.046521287 -0.029767431 0.031395476
0001d0 8c c3 d8 bc f4 fd d8 3c 1c ef 92 3c f0 8b 35 3c
       -0.026460432 0.026488282 0.017936282 0.011080727
0001e0 cb 3f 64 bc 72 5d 6c 3b 43 f1 2f bd 56 d3 2c 3d
       -0.013931225 0.003606644 -0.042954694 0.042193733
0001f0 36 1e 62 bd a0 92 1f 3d b4 5f b8 bc 16 76 6c 3d
       -0.055204593 0.038958192 -0.022506572 0.057729803
000200 01 8e 17 bd 08 d5 ca 3c 8b 62 1a bd 28 e4 41 bd
       -0.03700066 0.024759784 -0.037691634 -0.047336727
000210 06 81 06 bd b7 5a 39 bd d4 54 8a 3c 38 a2 96 3b
       -0.03283789 -0.045252528 0.016886152 0.0045969747
000220 df d1 f7 3c 2e 72 04 bd 7a 97 fa bb 72 19 6e bd
       0.030251442 -0.032335453 -0.007647452 -0.058129735
000230 55 da d1 3c 1c 2f 13 3b cc 75 f3 bc 9e 16 c3 3a
       0.025616804 0.00224585 -0.029719256 0.001488406
000240 c7 57 4c bd 0c a3 67 3d a5 53 f3 bc 05 00 66 3d
       -0.0498884 0.056551978 -0.02970297 0.056152362
000250 fe 57 57 bd a4 5d 59 bd 0a 81 6d 3c 00 23 5b ba
       -0.05257415 -0.05306782 0.014496097 -0.00083594024
000260 b8 d9 05 3d f8 13 5d 3c c7 8b 4e 3d 17 d0 b9 3c
       0.032678336 0.01349353 0.05042627 0.022682233
000270 ce db 0e 3b a0 d0 40 3c c4 df 6d bd a4 2b 89 3c
       0.0021798494 0.01176849 -0.058074728 0.016744442
000280 2c 9f 27 3c 3a 98 42 bd 52 30 02 3d cd 0c b2 bc
       0.010230821 -0.047508456 0.031784363 -0.02173462
000290 91 ea aa 3b cd f9 11 3c e0 67 d1 bb a0 32 1c 3c
       0.005215951 0.008909655 -0.0063905567 0.009533554
0002a0 3a a8 3d 3d f9 ce 55 bc cd 55 9a 3b fc bc 15 bd
       0.04630301 -0.013049834 0.0047099353 -0.036557183
0002b0 00 ac ff b8 3a df 96 3c 96 10 22 3d cc 8b 68 3d
       -0.00012191385 0.01841699 0.0395666 0.056773946
0002c0 60 78 2c 3c ee 13 43 3c 5a 48 9d bc 0c 50 0d bd
       0.0105267465 0.011906607 -0.019199539 -0.034500167
0002d0 c6 98 df 3c 8a 1e 25 3c 99 b8 cc bc f1 16 ea 3c
       0.027294528 0.010078082 -0.024990367 0.028575392
0002e0 fc 2e 86 3c d3 ea 72 3c 80 94 9f 3a de 2c e2 3b
       0.016379826 0.014826494 0.0012174994 0.0069023212
0002f0 8d 3d ed bc 8b e2 42 bd a8 3f 34 bc 7e a5 48 3d
       -0.028960014 -0.04757933 -0.011001505 0.04898595
000300 90 fd 9d bc 8c 31 2b 3d a4 a0 af 3b a4 c4 2d bd
       -0.019285947 0.0417953 0.005359726 -0.04242386
000310 33 18 f1 bc 14 fb c9 3c d5 e8 88 3b 58 41 9d 3c
       -0.029430484 0.024655856 0.0041781464 0.019196197
000320 58 5c 39 bc 2a c3 43 3d f3 d5 c3 bc 51 3c 7a 3c
       -0.01131352 0.047793545 -0.02390573 0.01527317
000330 59 ad 14 3d a8 f5 00 3d 9d 64 d0 bc 84 fd de 3c
       0.03629813 0.031484276 -0.025438601 0.027220495
000340 67 e0 d6 3b 24 6d 47 bd e6 d5 59 3d e0 41 7b bd
       0.0065575126 -0.04868807 0.053182505 -0.06134212
000350 d6 10 16 3d 46 ca c7 bc ba d8 69 3d 92 85 7c 3d
       0.03663715 -0.024388444 0.057091452 0.06165082
000360 85 c7 15 3d 90 fe dd bc 55 d7 ae bb 03 d8 a0 3c
       0.03656723 -0.027098924 -0.005335728 0.019634252
000370 ba fd 4f bc c4 3a 7e bd 17 ee e0 bc 32 3e 4d bd
       -0.0126947705 -0.062067762 -0.02745728 -0.050108142
000380 b0 b6 c1 bc 42 96 38 3d 77 6d 7b 3d 7d ec 29 3d
       -0.023646683 0.045065172 0.06138369 0.0414853
000390 8b 35 e4 3c 76 86 5c bd ae c6 88 bb 94 cb 63 3c
       0.027857563 -0.05383917 -0.004174075 0.013903517
0003a0 a2 2b 4d 3c 42 01 a7 3c c6 0c a9 3c 98 61 8c 3c
       0.01252261 0.020386342 0.020635974 0.01713638
0003b0 f8 e3 9e bd 16 d9 e1 bb ec 13 2d 3c c8 0b 62 3c
       -0.07758325 -0.0068923337 0.010563832 0.013796754
0003c0 eb 64 2d 3c aa db 82 bc 0c db 21 3d 13 09 bb 3b
       0.010583143 -0.015973885 0.03951554 0.005707869
0003d0 98 c3 99 3c da 68 2c 3d 44 83 a5 b9 c6 9a 4c 3d
       0.018770024 0.04209218 -0.00031569053 0.04995229
0003e0 c0 5b 05 3b c5 05 16 bd 85 75 0e 3d 2a a0 63 3d
       0.0020348877 -0.036626596 0.034780044 0.055572666
0003f0 36 7a a1 3c 3b 06 83 3d f0 f4 0c bd e8 2e 5b 3d
       0.019711595 0.06397673 -0.034413278 0.05351153
