results/bdq/models/bdq_checkpoint_140.pt (torch, 313061 bytes, 25 tensors)

trunk.0.weight f4 [256, 11]
0	0x3e6cfe5a	0.23143902
1	0x3e7bc718	0.24587667
2	0xbd90a982	-0.07063581
3	0x3e891266	0.2677185
4	0xbd947668	-0.07249147
5	0x3db8c05f	0.09021067
6	0x3c83ffcd	0.016113186
7	0x3e24580c	0.16049212
8	0x3e54f49b	0.20796435
9	0xbe3d496b	-0.18485038
10	0x3e627c6e	0.22117779
11	0x3d9f8647	0.07789283
12	0x3e4f6cc5	0.20256336
13	0x3d274168	0.04083386
14	0x3dea4521	0.114389665
15	0xbc5b27a9	-0.013376155
16	0x3e818e37	0.25303814
17	0x3e3076ea	0.17232862
18	0xbdd23423	-0.102638505
19	0xbde658b5	-0.11247388
20	0xbe1a7d31	-0.15086819
21	0xbd569749	-0.05239037
22	0xbd8560ba	-0.0651259
23	0x3e3078fc	0.17233652
24	0xbe73b756	-0.23800406
25	0xbe2801c5	-0.16406925
26	0x3d1ecfd5	0.038772423
27	0xbe455205	-0.19269569
28	0x3d319463	0.043354403
29	0xbe8eff74	-0.2792927
30	0x3e929fa9	0.28637436
31	0xbe5a0a2d	-0.21292944
32	0x3e029fb4	0.12756234
33	0x3d4d86b0	0.050177276
34	0xbdc880e6	-0.097902104
35	0x3e3eca64	0.18631893
36	0x3d407968	0.046990782
37	0x3e7974f0	0.24361014
38	0x3d070240	0.03296113
39	0xbdc2bdce	-0.095088586
40	0x3da5e930	0.081011176
41	0xbda773b8	-0.081763685
42	0x3e01f052	0.12689331
43	0x3e89d410	0.26919603
44	0x3e32797a	0.17429152
45	0xbe06f9da	-0.13181248
46	0x3e323aa6	0.17405185
47	0x3d5cf8e0	0.053948283
48	0x3e1ccaf8	0.15311801
49	0xbe3c2ee8	-0.18377268
50	0xbe98d0e1	-0.29846862
51	0xbdee9366	-0.11649208
52	0xbe6cd104	-0.23126608
53	0x3e7d56e4	0.24740177
54	0x3db1dba4	0.08684471
55	0x3d9762e3	0.07391908
56	0x3d983aee	0.07433115
57	0xbbabdf00	-0.0052450895
58	0x3e4f045c	0.20216507
59	0xbe357495	-0.17720254
60	0x3d2a7633	0.04161663
61	0xbdde86c8	-0.10865551
62	0xbdbb6edd	-0.09152005
63	0xbdd1ae63	-0.1023834
64	0x3df6a88f	0.12043869
65	0xbdf9a71b	-0.12190076
66	0x3e800950	0.25007105
67	0xbe36fecc	-0.17870635
68	0xbe3822ef	-0.17982076
69	0xbe3825c8	-0.17983162
70	0x3e8ad9b4	0.2711922
71	0x3dcdc7f0	0.10047901
72	0x3e948bda	0.29012948
73	0xbe7ecd55	-0.24883015
74	0xbe991ea4	-0.2990619
75	0xbe718d8e	-0.23589155
76	0xbe4fb0f0	-0.2028234
77	0x3d8e920e	0.069614515
78	0x3dc0da92	0.09416689
79	0x3e8045e0	0.2505331
80	0xbe4d5149	-0.20050539
81	0xbe611340	-0.2198
82	0x3e1a7bd7	0.15086304
83	0xbd93ef22	-0.07223345
84	0x3e36efbb	0.17864887
85	0xbe08d964	-0.13364178
86	0x3e3fd6d1	0.1873429
87	0xbe658200	-0.22412872
88	0xbe6f9abb	-0.23398869
89	0x3da21afd	0.07915304
90	0x3d828b0c	0.06374177
91	0xbe06e677	-0.13173853
92	0x3e1972c6	0.14985189
93	0x3e57e480	0.2108326
94	0xbe47cadf	-0.19510983
95	0xbe057640	-0.1303339
96	0x3e585c7d	0.21129031
97	0xbdcf919a	-0.10135193
98	0xbd4bd817	-0.049766626
99	0xbe955f0b	-0.29174075
100	0xbe30cf81	-0.17266656
101	0x3d9a40a8	0.075318635
102	0xbd2302a0	-0.039797425
103	0xbe601d96	-0.21886286
104	0x3be7c000	0.0070724487
105	0xbe52e658	-0.20595682
106	0xbe82f861	-0.25580123
107	0xbe2a040a	-0.16603103
108	0xbe871c1d	-0.26388636
109	0xbe449764	-0.19198376
110	0x3e52ce52	0.20586517
111	0x3d72fc05	0.059322376
112	0x3dbe4984	0.09291366
113	0xbea05f19	-0.31322554
114	0xbe5493b5	-0.20759471
115	0xbdbadb14	-0.09123817
116	0x3d361f27	0.044463303
117	0xbe663e4d	-0.22484703
118	0xbe1ff419	-0.1562046
119	0xbe132140	-0.14368153
120	0x3ce01759	0.027354883
121	0xbde5c5a0	-0.112193346
122	0xbcab28c0	-0.020893455
123	0xbe513770	-0.20431304
124	0xbe53ec42	-0.20695594
125	0xbe341fb9	-0.17590226
126	0xbdd35df6	-0.10320656
127	0xbe73b048	-0.23797715
128	0x3e817012	0.25280815
129	0xbd7519e8	-0.05983916
130	0x3e84d29e	0.25941938
131	0x3dc06684	0.09394553
132	0xbe3b4073	-0.18286304
133	0x3e3dad72	0.18523195
134	0xbda9e68e	-0.08295928
135	0xbdc66f2f	-0.09689175
136	0xbe455d8e	-0.1927397
137	0xbe55d836	-0.20883259
138	0x3d937f1f	0.07201981
139	0xbe63d762	-0.22250131
140	0x3e45b366	0.19306716
141	0xbe88293e	-0.26593965
142	0x3df69bd4	0.120414406
143	0xbe66258d	-0.22475262
144	0xbd80ade5	-0.06283168
145	0x3d80f9dc	0.06297657
146	0x3e143697	0.1447395
147	0x3e926019	0.28588942
148	0x3e8f6fdc	0.2801503
149	0xbe670dd5	-0.2256387
150	0x3d84672b	0.0646499
151	0xbe132033	-0.14367752
152	0xbd06734b	-0.032824796
153	0xbe671834	-0.22567827
154	0x3e8c9cdc	0.27463424
155	0xbe629b00	-0.2212944
156	0x3e2502b4	0.16114312
157	0x3dd90324	0.10596302
158	0x3dc8a8a4	0.09797791
159	0xbe26ec59	-0.16301097
160	0x3e8c517c	0.27405918
161	0x3d87b1e0	0.06625724
162	0x3d1ede88	0.03878644
163	0xbe880aec	-0.26570833
164	0x3e019bd4	0.126571
165	0xbd394628	-0.04523292
166	0xbe0d71dd	-0.13812967
167	0x3e84994e	0.25898212
168	0x3d89ab78	0.06722158
169	0xbe2ad2a2	-0.16681913
170	0xbe1c44e9	-0.15260662
171	0xbc6be960	-0.014398903
172	0x3e2c648a	0.16835228
173	0xbd9dca7a	-0.07704635
174	0xbe3029e4	-0.1720348
175	0xbdd374f4	-0.103250414
176	0xbe3d416a	-0.18481985
177	0x3db0ae5d	0.08627007
178	0x3e6efbac	0.23338193
179	0xbea2189f	-0.3165941
180	0xbc18f555	-0.009335835
181	0x3e073ac8	0.13206017
182	0x3d9d6785	0.076857604
183	0xbe106d94	-0.141043
184	0x3e11c967	0.14236985
185	0x3dea7f15	0.1145002
186	0x3e0df5a9	0.13863243
187	0xbd5903a8	-0.052982002
188	0xbda38376	-0.079840586
189	0x3d041ed0	0.032255948
190	0xbd5a2a88	-0.053263217
191	0xbdb803a4	-0.089850694
192	0x3e455a86	0.19272813
193	0x3e84ab36	0.25911874
194	0xbcf48580	-0.029848814
195	0xbd8a4158	-0.067507446
196	0x3b902bc0	0.0043997467
197	0xbc937a70	-0.018002719
198	0x3d3ab8d7	0.045586433
199	0x3d99080f	0.0747224
200	0xbe8c3608	-0.27384973
201	0xbe0fcbce	-0.14042589
202	0x3e8bca20	0.27302647
203	0x3e015944	0.12631708
204	0xbda19edb	-0.078916274
205	0xbe6b44f1	-0.22975518
206	0xbdf81378	-0.12113088
207	0xbea0e2c4	-0.31423008
208	0xbd308232	-0.043092914
209	0x3cf93bb3	0.030423975
210	0x3e3874d2	0.18013313
211	0x3e0e8c46	0.13920698
212	0xbe9a6d33	-0.30161437
213	0xbe05252d	-0.13002463
214	0x3cf6a69e	0.030108746
215	0x3e8ad511	0.27115682
216	0xbde05beb	-0.10955032
217	0xbccceb42	-0.025014523
218	0x3e17b3ca	0.14814678
219	0xbdfa8cc3	-0.122338794
220	0xbe424fdc	-0.18975776
221	0x3e3dbd76	0.18529305
222	0xbe0c635a	-0.13709775
223	0xbda0fef9	-0.07861132
224	0xbeb68ed2	-0.35655838
225	0x3da987e8	0.08277875
226	0x3e5465fa	0.20742026
227	0x3e753b5f	0.2394843
228	0xbe5585c7	-0.20851813
229	0xbe8c9b56	-0.27462262
230	0xbebb384a	-0.36566383
231	0x3e387fa5	0.18017443
232	0x3e0549e9	0.13016476
233	0x3e81e800	0.25372314
234	0x3e04c0fb	0.12964241
235	0x3ddff83e	0.1093602
236	0xbdaff212	-0.08591093
237	0xbecd66fa	-0.40117627
238	0xbe5dcd76	-0.21660408
239	0xbe9a176c	-0.30095994
240	0x3dd12c95	0.102135815
241	0xbe0b71af	-0.13617586
242	0xbd788b88	-0.060679942
243	0xbe31af96	-0.17352137
244	0xbd610b5c	-0.054942474
245	0xbe594eae	-0.2122142
246	0xbe49bd94	-0.19701225
247	0x3dccd470	0.10001457
248	0xbdb78472	-0.08960809
249	0x3e3e9a6e	0.18613598
250	0xbdc61910	-0.09672749
251	0xbe627cb5	-0.22117884
252	0xbd59e680	-0.053198338
253	0xbe15aa24	-0.14615685
254	0xbdbceae0	-0.09224486
255	0xbe92f694	-0.2870375

trunk.0.bias f4 [256]
0	0x3e4f172d	0.20223685
1	0xbe40b1db	-0.18817846
2	0xbe23189d	-0.15927358
3	0x3e6d0f0c	0.23150271
4	0x3df14130	0.11780012
5	0xbe520b49	-0.20512117
6	0x3dbb01e4	0.0913122
7	0x3ddb8ee2	0.10720612
8	0xbea534f4	-0.32266963
9	0x3d66b488	0.05632451
10	0x3d170b89	0.036876235
11	0xbc4065c0	-0.011743009
12	0x3e9d947e	0.30777353
13	0xbe574599	-0.21022643
14	0x3e276090	0.1634543
15	0xbe240307	-0.1601678
16	0xbe94ec39	-0.29086474
17	0x3e526ad0	0.20548558
18	0xbe31f860	-0.17379904
19	0xbcab697a	-0.020924319
20	0x3e0fc452	0.14039734
21	0xbe8f586c	-0.27997148
22	0xbe84246c	-0.25809038
23	0x3dd23ba8	0.10265285
24	0x3e62d73a	0.22152415
25	0xbd02ae80	-0.031904697
26	0x3e1d3776	0.15353188
27	0x3dd8fcfc	0.10595128
28	0x3d300b65	0.042979617
29	0xbe44d94c	-0.19223517
30	0x3e823f1f	0.25438783
31	0x3e0d6b40	0.13810444
32	0xbc25e710	-0.01012589
33	0x3e2831cb	0.16425245
34	0xbe84a467	-0.2590668
35	0x3d850f70	0.06497085
36	0xbe299fda	-0.16564885
37	0xbcfad210	-0.030617744
38	0x3dca4fd4	0.09878507
39	0x3e156068	0.14587557
40	0x3d2d5dc2	0.042325743
41	0xbe6ef4c5	-0.2333556
42	0xbe41396c	-0.18869561
43	0x3bac8240	0.0052645504
44	0xbd55e3bc	-0.052219138
45	0xbe74a337	-0.23890387
46	0x3e981578	0.2970388
47	0xbd50a3d8	-0.050937504
48	0xbe80925d	-0.25111666
49	0x3e076992	0.13223866
50	0x3df9bf02	0.12194635
51	0xbe1f912d	-0.15582724
52	0x3ddab349	0.10678727
53	0xbe721da9	-0.23644127
54	0x3dd5f354	0.10446802
55	0x3e92a3f6	0.28640717
56	0x3e4bd058	0.19903696
57	0x3e186ce0	0.14885283
58	0xbd7b42a8	-0.061342865
59	0x3c87389a	0.016506482
60	0x3df0bb45	0.11754469
61	0x3d179507	0.037007358
62	0xbda7f189	-0.08200366
63	0x3d509afc	0.050929055
64	0xbdfa1ad2	-0.12212147
65	0xbe0fbc1d	-0.14036603
66	0xbe8e7636	-0.27824563
67	0xbe781a34	-0.24228746
68	0xbe626928	-0.22110426
69	0x3e93907e	0.28821176
70	0x3cb456da	0.02201407
71	0xbe9a7d25	-0.30173603
72	0xbe1dd27c	-0.15412325
73	0x3d903bf4	0.07042685
74	0xbdb8d1f8	-0.09024423
75	0xbdf9bbeb	-0.12194046
76	0xbe030bf6	-0.12797531
77	0xbdebc6bf	-0.11512517
78	0x3c3ee36a	0.011650899
79	0x3d4a2e5c	0.049360618
80	0x3e438ac4	0.19095904
81	0x3e59ff43	0.21288781
82	0x3e829d4a	0.25510627
83	0xbcc56ff6	-0.024101239
84	0xbe09dca6	-0.13463077
85	0x3a86db00	0.0010288656
86	0xbe4c7504	-0.19966513
87	0x3e0bd4bb	0.13655369
88	0xbd150088	-0.03637746
89	0xbdcfc3fa	-0.101448014
90	0xbe999854	-0.2999903
91	0x3e14ca62	0.14530328
92	0x3e19cb6d	0.15019007
93	0x3e6d256d	0.23158808
94	0xbdd9059a	-0.105967715
95	0x3dc7e98f	0.09761345
96	0x3c3a35c0	0.011365354
97	0xbe36b5e8	-0.17842829
98	0xbe210e65	-0.15728147
99	0x3e05413e	0.13013169
100	0xbe1dbfa9	-0.15405144
101	0x3e60d330	0.21955562
102	0x3dd7ba50	0.10533583
103	0x3d7d17a3	0.06179012
104	0x3e4b5568	0.19856799
105	0x3e035ea7	0.12829076
106	0x3de2f473	0.11081781
107	0x3e2197a1	0.15780498
108	0xbe05b71e	-0.13058135
109	0xbe23b91f	-0.15988587
110	0xbd624084	-0.05523731
111	0x3e1005a8	0.14064658
112	0x3e60089b	0.21878283
113	0x3e410bb5	0.18852122
114	0xbdc7b132	-0.09750594
115	0xbd1cb390	-0.03825718
116	0xbe4fb452	-0.2028363
117	0x3e177e40	0.14794254
118	0xbe73259d	-0.23744817
119	0xbe279137	-0.16363989
120	0x3e7371da	0.237739
121	0x3d775147	0.060380246
122	0xbe20a8fd	-0.15689464
123	0xbe6096a0	-0.21932459
124	0xbe545156	-0.20734152
125	0x3e5507a8	0.20803702
126	0xbe9c12a9	-0.30482987
127	0x3e856620	0.26054478
128	0x3e60327c	0.21894258
129	0xbc4fadb5	-0.012675692
130	0xbba3fbd1	-0.005004384
131	0x3e701eac	0.234492
132	0x3dda0d41	0.10647059
133	0x3e91f650	0.28508234
134	0x3e4d4af7	0.20048128
135	0xbe6f1f0d	-0.23351689
136	0x3e3c0db2	0.183646
137	0x3e080569	0.13283314
138	0xbe5b36f1	-0.21407677
139	0x3e1e887f	0.15481757
140	0xbe431041	-0.19049169
141	0xbe5bfda2	-0.21483472
142	0x3bb85200	0.0056250095
143	0xbccc81a4	-0.024964161
144	0xbdad1725	-0.0845168
145	0xbe4a7aa0	-0.1977334
146	0x3df75983	0.1207762
147	0x3e869b46	0.2629034
148	0xbd717c72	-0.05895657
149	0xbe5e620d	-0.21717091
150	0xbc7eb9a0	-0.015547186
151	0xbe81b92c	-0.25336587
152	0xbe8c25aa	-0.27372485
153	0xbe09de31	-0.13463666
154	0x3e41fcd4	0.18944103
155	0xbe8b8a21	-0.27253821
156	0xbd451578	-0.048116177
157	0xbe3e85bf	-0.18605708
158	0xbea01859	-0.31268576
159	0xbd76b59a	-0.060231782
160	0xbc8fe100	-0.017563343
161	0xbd4fa700	-0.050696373
162	0x3e4ea5d8	0.20180452
163	0x3dd9fc11	0.10643781
164	0x3e403984	0.1877194
165	0x3df1ddc0	0.118098736
166	0x3d019278	0.031633824
167	0x3dcc3870	0.09971702
168	0xbe44f726	-0.19234905
169	0x3e2c9d60	0.16856909
170	0x3dc7bf83	0.09753325
171	0xbe2a79e7	-0.16648065
172	0xbc79df66	-0.015251016
173	0xbe899c3a	-0.26877004
174	0xbe971c78	-0.29513907
175	0xbb855e05	-0.004070046
176	0x3d5d21b0	0.053987205
177	0xbd4b3d84	-0.049619213
178	0x3dc3d10c	0.09561357
179	0xbe9192f2	-0.28432423
180	0xbe4e47c8	-0.2014457
181	0x3e3c470f	0.18386482
182	0xbe963b77	-0.29342243
183	0x3e2ceeff	0.16888045
184	0x3e69a7b6	0.22817883
185	0x3e57587b	0.21029846
186	0x3dd912e9	0.1059931
187	0xbe8c9e85	-0.2746469
188	0x3c7454b3	0.014912772
189	0xbdd925b8	-0.106028974
190	0xbdb77d5a	-0.08959456
191	0x3e6c8f64	0.23101574
192	0xbe0220e1	-0.12707855
193	0xbe461333	-0.19343261
194	0xbe8215d1	-0.2540727
195	0x3e525405	0.20539863
196	0xbbfcbda1	-0.007713035
197	0x3e9bfae7	0.3046486
198	0x3c6a2070	0.01428996
199	0xbe8fdd25	-0.28098407
200	0x3d98c5e8	0.074596226
201	0x3e8d4244	0.2758962
202	0x3e3f7e92	0.18700626
203	0x3ddfbcd7	0.1092469
204	0xbe67f69d	-0.22652669
205	0xbe3922c0	-0.18079662
206	0x3e51a4e0	0.20473051
207	0xbe725c90	-0.23668122
208	0x3d298348	0.041384965
209	0xbd1e3b10	-0.038630545
210	0x3dcee924	0.10103062
211	0xbcbd6334	-0.023118593
212	0xbe87420e	-0.26417583
213	0xbe005a0c	-0.1253435
214	0x3e82efe3	0.25573644
215	0x3c4522f5	0.01203226
216	0x3dd1d734	0.10246125
217	0xbe4d1b3b	-0.20029919
218	0x3e746acc	0.23868865
219	0xbd842ef6	-0.064542696
220	0xbdd022a2	-0.10162856
221	0x3d7a8600	0.06116295
222	0xbddd41bc	-0.108035535
223	0xbdf823e2	-0.12116219
224	0xbd30b8a8	-0.043144852
225	0xbd4c43c0	-0.0498693
226	0xbe23e7bc	-0.16006368
227	0x3db2f7d1	0.087386735
228	0xbe959dcb	-0.2922195
229	0x3e20eef8	0.1571616
230	0x3e8f2d14	0.2796408
231	0x3d47cce0	0.04877937
232	0xbd90486c	-0.070450634
233	0xbe8d641f	-0.2761545
234	0x3e10fd18	0.14159048
235	0x3e972cb5	0.29526296
236	0x3e567a5b	0.20945112
237	0x3c81257f	0.01576495
238	0x3dcd4b20	0.100240946
239	0x3e9208ec	0.28522432
240	0x3df8a078	0.12139982
241	0xbe2402e1	-0.16016723
242	0xbe92911e	-0.2862634
243	0x3e06fce2	0.13182405
244	0x3dec59a4	0.11540535
245	0x3e840e95	0.25792375
246	0xbe1d2f60	-0.15350103
247	0x3e1530a0	0.1456933
248	0xbdcc4d0c	-0.09975633
249	0xbe012320	-0.12611055
250	0x3e38e31c	0.18055385
251	0xbe8d82d5	-0.2763888
252	0x3e6396e0	0.22225523
253	0x3dfeb4a0	0.12436795
254	0xbe1d8e3d	-0.15386291
255	0x3e0097b5	0.12557872

trunk.2.weight f4 [256, 256]
0	0xbc80c8d8	-0.01572077
1	0x3bb85060	0.005624816
2	0xbc890a88	-0.016728655
3	0xbd7aa72a	-0.061194576
4	0xbbd41b70	-0.0064729974
5	0x3cf9d098	0.030494973
6	0xbbee4740	-0.0072716773
7	0xbcfc1d88	-0.0307758
8	0x3b01c8c0	0.0019803494
9	0x3c3addf0	0.011405453
10	0xbc8edb24	-0.017438479
11	0xbd468620	-0.048467755
12	0xbd0940ae	-0.03350895
13	0xbc26f220	-0.010189563
14	0x3cb864a4	0.022508927
15	0x3d63a76e	0.055579595
16	0x3a9808c0	0.0011599287
17	0x3cb7514c	0.022377633
18	0x3d134b86	0.035960697
19	0xbcdf422c	-0.027253233
20	0xbca9e3e8	-0.020738557
21	0x3d29ce6a	0.041456617
22	0x3d374b00	0.04474926
23	0x3c72a558	0.014809929
24	0xbd45d512	-0.048298903
25	0x3d114d58	0.03547415
26	0xbd53952e	-0.05165594
27	0x3cffe8b8	0.031238899
28	0x3bf2b7a0	0.0074071437
29	0x3ca56230	0.020188421
30	0xbd798914	-0.060921744
31	0xbcb401ac	-0.021973453
32	0x3cd971d4	0.026543535
33	0x3d450a28	0.04810539
34	0xbc9294ac	-0.017893158
35	0x3d6449b6	0.05573436
36	0xbc6483c0	-0.013947427
37	0xbd1a67ce	-0.037696652
38	0xbcddb7e0	-0.027065217
39	0x3b7ee1c0	0.0038891882
40	0xbc35ffb8	-0.011108331
41	0x3cf7cf5c	0.030250244
42	0xbd0dad0e	-0.034588866
43	0xbc91a620	-0.01777941
44	0xbd7db308	-0.061938316
45	0x3d50f552	0.051015206
46	0xbc40adc8	-0.011760183
47	0xbd49ced2	-0.049269505
48	0xbb45a620	-0.0030158833
49	0xb8ef4000	-0.00011408329
50	0x3c8e3264	0.017358012
51	0xbbe0ca60	-0.0068600625
52	0x3d210a48	0.039316446
53	0xbcb0a6f4	-0.021563984
54	0xbc993f3c	-0.01870691
55	0xbc732b48	-0.014841862
56	0x3c36d090	0.011158124
57	0x3d4d1cc6	0.05007627
58	0xbb3c78a0	-0.0028758422
59	0x3d44f94c	0.04808931
60	0x3d491992	0.04909665
61	0xbd054950	-0.03254062
62	0xbbaff6f0	-0.0053700134
63	0xbcf1b1b8	-0.029503688
64	0x3cd4fa8c	0.025998376
65	0xbcb400dc	-0.021973066
66	0x3c9c2f80	0.019065619
67	0x3b74b6c0	0.0037340373
68	0xbd280e1e	-0.04102909
69	0xbd2c1b78	-0.042018384
70	0xbd7a0aa4	-0.061045304
71	0xbd0f33a0	-0.034961343
72	0x3c8f0788	0.017459646
73	0x3b798d60	0.003807865
74	0x3d4089c2	0.047006376
75	0xbd611ac0	-0.05495715
76	0xbaef6280	-0.0018263608
77	0xbd658ad8	-0.056040615
78	0x39bfd000	0.0003658533
79	0x3cba8a54	0.022771038
80	0xbd65a4a2	-0.05606521
81	0x3d621648	0.05519703
82	0xbc9f05c8	-0.019411936
83	0x3d62d344	0.05537726
84	0xbc2be128	-0.010490693
85	0x3d113b8c	0.03545718
86	0x3d68b93e	0.056817286
87	0xbcba67d8	-0.022754595
88	0xbc78ebb8	-0.0151929185
89	0x3d064790	0.03278309
90	0xbd5b2b66	-0.053508185
91	0x3d178898	0.0369955
92	0xbd20cc08	-0.03925708
93	0x3d6dc370	0.05804771
94	0xbd27c606	-0.040960334
95	0xbcd2b1a0	-0.025719464
96	0x3d3f0602	0.04663659
97	0xbcdeeb04	-0.027211674
98	0x3d5b6e44	0.053571954
99	0x3d30220c	0.04300122
100	0x3d69fca8	0.057125717
101	0xbd7822de	-0.060580127
102	0x3a37a100	0.0007004887
103	0xbca8675c	-0.020557098
104	0x3c73eba8	0.014887728
105	0xbd414b08	-0.047190696
106	0x3cd1f298	0.025628373
107	0xbb420b00	-0.0029608607
108	0xbcf20440	-0.029543042
109	0xbd664c6c	-0.056225225
110	0x3d05e7cc	0.03269176
111	0xbcb94ba4	-0.022619076
112	0x3d3ce576	0.04611727
113	0x3c364968	0.0111259
114	0x3c9bb848	0.01900877
115	0xbc1b4de8	-0.0094790235
116	0xbc0dd938	-0.008657746
117	0xbcadee6c	-0.021231852
118	0xbd5dabae	-0.054118805
119	0x3d20f23e	0.03929352
120	0xbd2136b4	-0.03935881
121	0x3d1534d8	0.03642735
122	0xbcacb04c	-0.021080159
123	0x3d206046	0.039154314
124	0x3d5b65ce	0.053563885
125	0xbd1c9238	-0.038225383
126	0x3d5362c0	0.051607847
127	0x3ac7a8c0	0.0015232787
128	0xbd4390fc	-0.04774569
129	0x3cd10120	0.025513232
130	0x3d10f50e	0.035389952
131	0x3d61aac0	0.05509448
132	0xbd73b10c	-0.059495017
133	0x3d67288a	0.056435145
134	0x3d421350	0.0473817
135	0x3d7bd7cc	0.061485097
136	0x3d0b8586	0.034062885
137	0xbcf8e3d0	-0.030382067
138	0x3d423460	0.04741323
139	0x3d69f676	0.05711981
140	0xbcc3c5fc	-0.023898117
141	0xbc276228	-0.010216273
142	0x3d485408	0.048908263
143	0x3d4e1356	0.05031141
144	0x3d291c34	0.041286662
145	0x3d44213e	0.047883265
146	0xbd038ed8	-0.03211865
147	0xbc30a7c8	-0.01078219
148	0xbccc8c6c	-0.024969302
149	0x3d050d8e	0.03248363
150	0x3c7f3188	0.015575774
151	0xbd45bf7c	-0.048278317
152	0xbc00a058	-0.007850729
153	0xbd50c1aa	-0.050965942
154	0xbd70ed08	-0.0588198
155	0x3d696072	0.056976743
156	0xbd00c5fc	-0.031438813
157	0x3ce48554	0.027895607
158	0xbc6405d8	-0.013917409
159	0xbc4f5bf8	-0.012656204
160	0xb8295000	-4.0367246e-05
161	0x3d47a956	0.048745476
162	0xbc0da7f8	-0.008646004
163	0x3d53d4ca	0.051716603
164	0x3d15c9a0	0.036569238
165	0x3d2f9e44	0.042875543
166	0xbd682d3e	-0.05668377
167	0xbcef68a8	-0.029224709
168	0xbd5091c6	-0.05092027
169	0xbc597c68	-0.01327429
170	0xbc5417c8	-0.012945123
171	0x3c5014a8	0.012700237
172	0x3d655e56	0.05599817
173	0x3ce5d6e4	0.02805657
174	0xbd3223ba	-0.043491103
175	0xbd208c78	-0.03919646
176	0x3d414e98	0.047194093
177	0x3bcbddc0	0.006221503
178	0x3c90a478	0.01765655
179	0xbd05e5a4	-0.032689705
180	0xbbf9c080	-0.0076218247
181	0x3c91c4d8	0.017794058
182	0xbd27fe62	-0.041014083
183	0x3d2714d2	0.04079134
184	0x3cff26f4	0.031146504
185	0xbd154ac6	-0.036448263
186	0xbcd1f620	-0.025630057
187	0xbc70be50	-0.014693812
188	0x3c1f5c78	0.009726636
189	0xbcbbcfd4	-0.022926249
190	0x3d74e520	0.059788823
191	0xbd7694e2	-0.06020058
192	0xbd10b0ea	-0.03532497
193	0xbd1b62f2	-0.03793616
194	0x3c8a6f4c	0.016898774
195	0x3c115010	0.008869186
196	0xbc91e5c4	-0.017809756
197	0x3d5a7c3a	0.053341128
198	0xbd5cfe28	-0.05395332
199	0x3cb47458	0.022028133
200	0xbd0cdd4a	-0.034390725
201	0xbc692c70	-0.014231786
202	0xbd768732	-0.060187526
203	0xbd3f1b16	-0.04665669
204	0xbd5933f8	-0.053028077
205	0x3cdf5f4c	0.02726712
206	0xbcc04264	-0.023469158
207	0x3d05e9ee	0.032693796
208	0xbd0abd2a	-0.033871807
209	0xbc7db600	-0.015485287
210	0x3bf7e780	0.0075654387
211	0x3d56823a	0.052370287
212	0xbc89fdb0	-0.0168446
213	0x3d1468a6	0.036232613
214	0x3c8d3f14	0.017241992
215	0x3d1bb32a	0.03801266
216	0x3d21b7a2	0.039481767
217	0x3ccfc71c	0.025363497
218	0xbc9a6468	-0.018846706
219	0xbc8fb384	-0.017541654
220	0x3cc75280	0.024331331
221	0x3d0b87e8	0.034065157
222	0xbb5a9e20	-0.003335841
223	0x3d005396	0.031329714
224	0xbd1a03b6	-0.037601195
225	0x3d104be6	0.035228632
226	0xbbfb51f0	-0.00766968
227	0xbd302c08	-0.04301074
228	0xbcf8c5cc	-0.030367754
229	0xbd4381ba	-0.04773114
230	0x3c4e8f00	0.012607336
231	0xbd17d2d4	-0.037066296
232	0xbc929e3c	-0.017897718
233	0xbb805140	-0.0039159358
234	0xbd1c337e	-0.038135044
235	0x3ad25a00	0.0016048551
236	0xbc01f560	-0.007932037
237	0x3ca22c04	0.019796379
238	0x3d38efb4	0.045150474
239	0xbd1a8a10	-0.037729323
240	0x3d0bf790	0.03417164
241	0xbaad9000	-0.0013241768
242	0xbd12516c	-0.03572218
243	0xbce832f8	-0.028344616
244	0x3c8252cc	0.015908621
245	0x3c5535e8	0.0130133405
246	0xbb044d40	-0.0020187646
247	0xbcfee59c	-0.031115346
248	0x3d011986	0.03151848
249	0x3c17ee88	0.009273179
250	0xbd78dd94	-0.06075819
251	0xbc34f7d8	-0.011045419
252	0xbc8ae978	-0.01695703
253	0xbcda79ac	-0.026669346
254	0xbd0e00ac	-0.03466861
255	0xbd4faee4	-0.050703898

trunk.2.bias f4 [256]
0	0xbd1675c8	-0.03673342
1	0xbd280e1e	-0.04102909
2	0x3d2dd09a	0.042435266
3	0xbd04933f	-0.032366987
4	0xbc2ceb11	-0.010554091
5	0x3d6adfde	0.057342403
6	0x3da7d235	0.08194391
7	0x3d9419c7	0.07231479
8	0xbd6ce343	-0.05783392
9	0x3b2d5bf8	0.0026452523
10	0xbbe63b7d	-0.0070261345
11	0x3a97b2c0	0.0011573657
12	0x3d762552	0.060094185
13	0x3c880c04	0.016607292
14	0xbd718fbf	-0.058974978
15	0x3d6f5aea	0.05843631
16	0x3da8bdc1	0.08239318
17	0xbd451cb2	-0.04812307
18	0xbd54778c	-0.05187182
19	0x3d0c44f3	0.034245443
20	0xbd2848c7	-0.04108503
21	0xbd4b346e	-0.049610548
22	0x3cd60028	0.026123121
23	0xbbc64953	-0.0060512214
24	0x3d0fa22d	0.035066772
25	0xbd4f9842	-0.050682314
26	0x3d33f4f0	0.043934762
27	0xbcba1175	-0.022713402
28	0xbd18251e	-0.037144773
29	0x3cd8b918	0.026455447
30	0xbd506e18	-0.050886244
31	0xbd57daab	-0.052698772
32	0xbc41e280	-0.011833787
33	0x3b8bc17c	0.0042650085
34	0xbd344e78	-0.044020146
35	0xbc914f35	-0.017737964
36	0xbd6f6e1e	-0.058454625
37	0x3d27cd83	0.040967476
38	0xbc06b6b4	-0.008222271
39	0x3c1c36f8	0.00953459
40	0x3d1a75b0	0.03770989
41	0x3ceb2ab1	0.02870688
42	0x3d1e7146	0.038682245
43	0x3ca1a799	0.019733237
44	0x3c310a77	0.010805718
45	0xbd1a0b4a	-0.037608422
46	0x3d28fd8c	0.041257426
47	0xbc4af7a8	-0.012388147
48	0x3cb424fa	0.021990288
49	0x3d80e08d	0.0629283
50	0xbb43ba76	-0.0029865778
51	0xbc281eb2	-0.010261225
52	0xbd33a332	-0.043856807
53	0xbb9c5a90	-0.004771538
54	0xbca66ef2	-0.020316575
55	0xbd325d06	-0.043545745
56	0xbd15415e	-0.036439292
57	0x3c99e099	0.018783854
58	0xbd3a7bfc	-0.045528397
59	0xbc3b281c	-0.011423137
60	0x3d3a4742	0.045478113
61	0x3d57ecca	0.052716054
62	0xbd99f693	-0.075177334
63	0x3d0e2ae8	0.034708887
64	0x3c15ed58	0.009150825
65	0x3ca3cf34	0.019996263
66	0x3d1f9e5e	0.03896939
67	0x3d4c818c	0.049928233
68	0xbcddff39	-0.027099239
69	0x3d3cffcf	0.046142396
70	0xbb9d36f3	-0.00479781
71	0x3b2de312	0.002653305
72	0x3cde6ebb	0.02715241
73	0xbd52fd0d	-0.05151086
74	0xbd277e64	-0.04089202
75	0xbd95af73	-0.07308855
76	0x3c36b378	0.011151187
77	0x3d0ed2ac	0.03486888
78	0xbcc74fb0	-0.02432999
79	0x3c88d884	0.016704805
80	0xbc303810	-0.010755554
81	0xbd0e09d4	-0.03467734
82	0xbd22d7d4	-0.03975661
83	0x3c8812ff	0.01661062
84	0xbcde8cc4	-0.027166732
85	0xbb86ed2e	-0.0041176295
86	0x3d31bf21	0.043395165
87	0xbd758f14	-0.059950903
88	0xbbc108c4	-0.0058909375
89	0xbcb689f7	-0.022282584
90	0x3d1f8b16	0.038951002
91	0x3d50cf02	0.050978668
92	0x3d514a64	0.051096335
93	0xba38dcee	-0.0007051964
94	0x3ab5ab94	0.0013860338
95	0xbcb9f964	-0.022701927
96	0xbd797323	-0.06090082
97	0xbd859a59	-0.0652358
98	0x3cb997a4	0.022655316
99	0xbd4a7764	-0.049430266
100	0xbd14289e	-0.036171548
101	0x3c95d0b8	0.018288001
102	0xbd631c72	-0.05544705
103	0x3d21bf3e	0.039489023
104	0x3d1a9978	0.037744015
105	0xbb8026c0	-0.0039108694
106	0x3c7d7e89	0.015472063
107	0x3cb4a6da	0.022052217
108	0x3cc11d38	0.023573503
109	0xbccbc7d4	-0.024875559
110	0x3c96c001	0.018402101
111	0xbd9daae0	-0.076986074
112	0xbd2b248b	-0.041782897
113	0xbd9c8755	-0.07643
114	0xbd0a4090	-0.033752978
115	0x3ccf5e02	0.025313381
116	0x3b836060	0.0040092915
117	0xbc7606bd	-0.015016255
118	0x3b33fea0	0.0027465
119	0xbd63af9f	-0.055587407
120	0x3c0b7128	0.008510865
121	0xbc817eec	-0.015807591
122	0x3cbe549a	0.0232337
123	0x3d2f7298	0.042833894
124	0xbb826e80	-0.003980458
125	0x3cc34d76	0.023840647
126	0xbd12df56	-0.03585752
127	0x3cd8c224	0.026459761
128	0x3d9871cf	0.07443582
129	0x3c838130	0.016052812
130	0x3c02fc44	0.007994715
131	0xbd0ea692	-0.034826823
132	0xbd28e30e	-0.04123216
133	0xbc222070	-0.009895429
134	0xbd2899f2	-0.04116244
135	0x3d454ace	0.048167042
136	0xbd75e178	-0.060029477
137	0xbd58a8bd	-0.052895296
138	0x3c475aa8	0.01216761
139	0xbd77cb79	-0.06049678
140	0xbc3eda1e	-0.011648683
141	0x3d70e901	0.05881596
142	0x3d01705c	0.031601295
143	0x3d17fd61	0.037106875
144	0xbbf3328c	-0.007421797
145	0xbce45407	-0.027872099
146	0xbd31003a	-0.043213107
147	0x3c623c10	0.013808265
148	0x3cedab36	0.029012304
149	0xbd392216	-0.045198523
150	0xbcb2b6c3	-0.021815663
151	0x3d36f780	0.04466963
152	0xbcf7a48d	-0.030229831
153	0x3cf04a44	0.029332288
154	0x3d1bd9c6	0.03804948
155	0x3d033fd8	0.032043308
156	0xbd021321	-0.031756524
157	0xbc8778c6	-0.016537081
158	0x3d34c098	0.044128984
159	0x3d6ab0a0	0.05729735
160	0x3d983d74	0.07433596
161	0xbd1991e8	-0.037492663
162	0x3d1ab452	0.037769623
163	0xbcbc32ad	-0.022973383
164	0x3d752fe5	0.05986013
165	0xbd6340e2	-0.0554818
166	0x3d750992	0.05982358
167	0x3d5af69a	0.053457834
168	0xbc86cbae	-0.016454544
169	0xbd320b7d	-0.043467987
170	0xbd8accb1	-0.06777323
171	0xbc39a08d	-0.011329782
172	0xbd06d1bc	-0.032914862
173	0xbbd593ff	-0.0065178866
174	0xbd5cd8a8	-0.053917557
175	0x3c9b84dc	0.01898425
176	0x3d3014ac	0.042988464
177	0x3c9e1221	0.019295754
178	0x3c1d3597	0.009595296
179	0x3d323cc8	0.043514997
180	0x3c7ac405	0.015305524
181	0xbd38bb83	-0.0451007
182	0x3c8b06f2	0.016971085
183	0xbcff315f	-0.031151472
184	0xbc73f310	-0.014889494
185	0xbd1da85f	-0.03849065
186	0x3ced9818	0.029003188
187	0xbd9290a1	-0.07156492
188	0xbcf7f3d0	-0.030267626
189	0x3c77c77d	0.015123245
190	0xbd7417cf	-0.05959302
191	0x3baa1b6d	0.0051912577
192	0xbcbc0124	-0.022949763
193	0x3b16e060	0.0023021922
194	0xbd529f26	-0.051421307
195	0x3d11cde6	0.03559675
196	0xbd0290ef	-0.0318765
197	0xbca29be4	-0.019849725
198	0x3cc45e73	0.023970818
199	0xbb8e804a	-0.0043487893
200	0x3d407704	0.046988502
201	0x3d4762d4	0.048678234
202	0x3a959672	0.0011412634
203	0xbd05d510	-0.032673895
204	0x3c769a5b	0.01505145
205	0x3d5c128c	0.053728625
206	0xbbfe7a04	-0.0077660102
207	0x3c98b114	0.018639125
208	0xbd29ffc8	-0.041503698
209	0x3d03e0b4	0.032196715
210	0xbc727c48	-0.014800139
211	0xbdc2ceb9	-0.095120855
212	0xbc3ee158	-0.011650406
213	0x3cbfaa06	0.023396503
214	0xbb8e0384	-0.004333915
215	0xbcdf0a6d	-0.027226651
216	0xbcceaa06	-0.025227558
217	0x3d1cd0f6	0.03828522
218	0xbd52b6a3	-0.051443707
219	0xbd6b6271	-0.057466928
220	0xbd07d887	-0.03316548
221	0xbd690854	-0.056892708
222	0x3d2efc6e	0.042721204
223	0x3c329d80	0.010901809
224	0x3c78fd6d	0.01519714
225	0xbc715f52	-0.014732199
226	0x3c89685d	0.016773397
227	0xbc60c639	-0.013719135
228	0x3c26e0ad	0.010185403
229	0xbd85d5f3	-0.06534948
230	0xba4a9280	-0.00077275187
231	0xbd9a1988	-0.07524401
232	0xbce8c4e7	-0.028414203
233	0xbd82c044	-0.06384328
234	0xbc089abe	-0.008337675
235	0x3d727e6c	0.059202597
236	0x3d1f1fb6	0.0388486
237	0x3d2076b5	0.039175708
238	0x3d1ac780	0.037787914
239	0xbd644304	-0.055727974
240	0x3d392d80	0.045209408
241	0x3d1bedf9	0.038068745
242	0xbcb48c7c	-0.022039644
243	0x3c898d3c	0.016790979
244	0xbc3b3734	-0.011426736
245	0x3cc67e0c	0.024230026
246	0x3c654195	0.013992687
247	0x3cac0a1d	0.021000916
248	0x3ce568b0	0.02800402
249	0xbce19ba4	-0.027540036
250	0x3ca313a0	0.019906819
251	0xbcf3821e	-0.02972513
252	0xbcc99c3d	-0.024610633
253	0xbd62987b	-0.055321198
254	0xbd5023e0	-0.050815463
255	0x3d1f5641	0.038900618

V_heads.0.weight f4 [1, 256]
0	0x3ba281e0	0.00495933
1	0x3bbfef30	0.005857371
2	0x3beee220	0.00729014
3	0xbcda7c85	-0.026670704
4	0xbceb13c9	-0.028695958
5	0x3d3a0c22	0.045421727
6	0x3d913853	0.07090821
7	0x3cec3d07	0.028837694
8	0xbcba8acc	-0.022771262
9	0x3d639229	0.05555931
10	0xbca7d456	-0.020486992
11	0x3d2d625e	0.04233014
12	0x3d340b1a	0.0439559
13	0xbd452b6d	-0.048137117
14	0xbce15325	-0.027505467
15	0xbd4fc5b3	-0.05072565
16	0x3d01252a	0.031529583
17	0x3c818874	0.015812136
18	0x3cf37238	0.02971755
19	0x3caddee1	0.021224441
20	0xbbe326a1	-0.006932095
21	0x3d47c2c6	0.048769735
22	0xbcf8a7d4	-0.030353464
23	0x3d1d9ec3	0.038481485
24	0xbcf5d093	-0.030006683
25	0x3d617b67	0.055049326
26	0xbd15e065	-0.036590952
27	0xbc9dab03	-0.019246584
28	0xbd374fbc	-0.044753775
29	0x3c728988	0.014803298
30	0xbaa41fc0	-0.0012521669
31	0xbd26af3f	-0.04069447
32	0xbd223ba4	-0.03960766
33	0x3bef1302	0.007295967
34	0xbd07e659	-0.03317866
35	0x3cb15e3a	0.021651376
36	0x3cb74c40	0.022375226
37	0xbc4a4d01	-0.012347461
38	0xbd121fa0	-0.03567469
39	0xbca53da4	-0.020170994
40	0x3d281e8e	0.041044764
41	0x3c01867b	0.007905598
42	0xbc10d9d1	-0.008840994
43	0xbc9a764d	-0.018855238
44	0x3d500531	0.0507862
45	0x3cc6114c	0.02417817
46	0x3d6cc26b	0.0578026
47	0xbd6656d4	-0.05623515
48	0x3bf3fd19	0.007445943
49	0xbce780e6	-0.028259706
50	0x3d3facdc	0.04679571
51	0x3cc0ee6b	0.023551187
52	0x3d6c0d2e	0.057629757
53	0x3d452ec6	0.04814031
54	0x3ca1d5b6	0.019755226
55	0xbbf8f310	-0.0075973347
56	0x3d23d610	0.039999068
57	0xbb91bb6e	-0.004447392
58	0xbcb738d4	-0.022365965
59	0x3d38ced5	0.045119125
60	0x3d2d7c5c	0.042354926
61	0x3d7e9422	0.06215299
62	0x3d0cc2d4	0.03436549
63	0xbcd5b76a	-0.026088435
64	0x3d6fb632	0.058523364
65	0xbd5be4fb	-0.05368517
66	0x3d6f48ee	0.05841916
67	0xbd651e0c	-0.055936858
68	0x3c98bf87	0.018646015
69	0x3c865f9a	0.016403008
70	0x3cdde26c	0.027085505
71	0x3d38e499	0.045139883
72	0xbbf9760c	-0.0076129492
73	0x3d1f6c99	0.038921926
74	0x3d4104fb	0.04712389
75	0xbc563619	-0.013074421
76	0xbd118e18	-0.0355359
77	0x3c1237bb	0.00892442
78	0xbc42c968	-0.011888839
79	0x3d7e25a6	0.062047623
80	0x3d642e3e	0.055708162
81	0xbd2a98d8	-0.04164967
82	0xbd06d357	-0.032916393
83	0x3d078d69	0.033093844
84	0xba7ab657	-0.0009563914
85	0x3bfbf96f	0.007689647
86	0x3d41de14	0.04733093
87	0xbd04baaf	-0.032404598
88	0x3c8cf314	0.017205752
89	0x3b7a594e	0.0038200202
90	0x3d140242	0.036134966
91	0xbcb52f0b	-0.022117158
92	0x3cfaef8c	0.030631803
93	0x3d866851	0.065628655
94	0xbb1730da	-0.002306989
95	0xbcbc26fc	-0.022967808
96	0xbcb0f208	-0.021599784
97	0x3ce9e1d7	0.028550072
98	0x3d441262	0.047869094
99	0x3b408579	0.002937643
100	0xbd677bd2	-0.05651457
101	0x3d0e99b6	0.03481456
102	0x3ca2ccd2	0.019873057
103	0xba801f80	-0.0009775013
104	0x3cde4d80	0.027136564
105	0xbcb9063c	-0.02258598
106	0x3d714d9f	0.058911916
107	0xbd8162a7	-0.063176446
108	0xbc4b03d8	-0.012391053
109	0x3c1ba5ae	0.00949995
110	0xbd7390e6	-0.059464358
111	0x3cd7b9a6	0.026333641
112	0x3d2e461d	0.042547334
113	0x3cd26317	0.025682015
114	0xbcb1ae4c	-0.021689557
115	0x3cde6c60	0.027151287
116	0x3cca2ecc	0.024680518
117	0x3d177eb3	0.036986064
118	0xbd6fa308	-0.058505088
119	0x3d0f29a8	0.034951836
120	0xbd7cae0d	-0.061689425
121	0xbd354a5b	-0.044260364
122	0xbd3a0163	-0.04541148
123	0x3d10426e	0.035219602
124	0x3d1ff37c	0.039050564
125	0xbd38b7fb	-0.045097332
126	0x3cdf6024	0.027267523
127	0x3d303332	0.043017574
128	0xbcd5285a	-0.026020218
129	0x3b9cddc0	0.004787177
130	0x3d757847	0.05992916
131	0x3d3933a5	0.045215268
132	0x3d43e4ea	0.04782573
133	0xbd59708b	-0.053085845
134	0x3d5c86a6	0.05383935
135	0xbb20c116	-0.002452915
136	0x3d58380c	0.052787825
137	0xbc9f4a06	-0.019444477
138	0xbcb30acd	-0.021855736
139	0x3ce6277a	0.028094996
140	0xb9bb90e2	-0.00035775366
141	0xbd53464f	-0.051580723
142	0xbb54ae20	-0.003245242
143	0x3ba490f4	0.0050221626
144	0xbb5af0bd	-0.0033407651
145	0xbd1c6e60	-0.0381912
146	0xbd0912ff	-0.03346538
147	0xbbe5e020	-0.007015243
148	0xbcc81524	-0.024424143
149	0x3d78929b	0.06068669
150	0xbcfabeaa	-0.030608494
151	0x3cd7ecf0	0.026358098
152	0xbd3f50b8	-0.04670784
153	0xbc845e68	-0.016158298
154	0xbd2dacc3	-0.042401087
155	0x3bb4bbe4	0.0055155624
156	0xbd30aa05	-0.043130893
157	0x3cd92029	0.026504593
158	0xbc829f38	-0.015945062
159	0x3d0abfa6	0.033874176
160	0x3c46860e	0.012116922
161	0xbd1a7d54	-0.03771718
162	0x3d6c3c82	0.057674892
163	0xbd814be0	-0.063133
164	0xbd04bd89	-0.032407317
165	0xbcc63e9f	-0.024199782
166	0x3d4f6256	0.05063089
167	0xbcee7dbc	-0.02911269
168	0x3cb5519c	0.022133641
169	0x3d1b0272	0.03784413
170	0x3d4c6cb9	0.049908374
171	0x3c9a1b5e	0.018811878
172	0x3d0ee66e	0.034887724
173	0x3d463861	0.04839361
174	0xbd12f112	-0.035874434
175	0x3d3afcce	0.04565125
176	0xbd720ed4	-0.059096172
177	0xbce806e4	-0.028323598
178	0x3a81eb33	0.0009912014
179	0xbc42b6b2	-0.011884378
180	0xbc65dbd5	-0.014029463
181	0x3d065f3c	0.032805666
182	0x3c04923a	0.008091504
183	0x3c40d4a8	0.011769451
184	0x3bbcb870	0.0057592914
185	0xbd1c851d	-0.038212884
186	0x3d725708	0.05916503
187	0x3c95f846	0.018306863
188	0xbc929693	-0.017894065
189	0xbd5f0f2b	-0.054457825
190	0xbbd7044f	-0.006561793
191	0xbcb06cd7	-0.021536274
192	0xbd1f4010	-0.038879454
193	0xbd4b0b3c	-0.04957126
194	0x3d13220e	0.03592115
195	0xbcedfae8	-0.029050305
196	0x3c64aa4e	0.013956619
197	0xbd45791c	-0.048211202
198	0x3d5a4afa	0.05329416
199	0xbd19c7fa	-0.037544228
200	0xbc04e8f8	-0.008112185
201	0xbd3126ff	-0.04325008
202	0x3d0b0006	0.03393557
203	0x3c9ed534	0.019388773
204	0x3c5e10c1	0.013553799
205	0x3d3da154	0.046296433
206	0xbd7ab29f	-0.061205503
207	0x3ca7ee6c	0.02049943
208	0x3c508e2c	0.012729209
209	0xbd1b0e88	-0.037855655
210	0x3d2d6bd2	0.042339154
211	0xbd54a3fa	-0.051914193
212	0x3d77e304	0.060519233
213	0x3cb6c552	0.022310887
214	0x3d750a8a	0.059824504
215	0xbc9f60ea	-0.019455392
216	0x3d3ad6db	0.04561506
217	0xbd15b6fe	-0.036551468
218	0x3c1af6df	0.009458273
219	0xbd008b85	-0.031383056
220	0x3d39d24b	0.045366567
221	0xbcc9b820	-0.02462393
222	0x3d4b7f8f	0.049682196
223	0x3b72f960	0.0037074909
224	0x3d4acde8	0.049512774
225	0xbaeb8f5a	-0.0017971799
226	0xbc937e3f	-0.018004535
227	0x3d26d5c7	0.040731218
228	0x3d82c77a	0.063857034
229	0xbb8f88f4	-0.0043803398
230	0xbc73a878	-0.014871709
231	0x3c812a11	0.01576713
232	0xbd25b312	-0.040453978
233	0x3c5483d0	0.01297088
234	0x3c2ac399	0.010422611
235	0x3ce5eea4	0.028067894
236	0xbd4342c4	-0.047671095
237	0xbd296a0b	-0.041360896
238	0x3d3ac23b	0.04559539
239	0xbd5d82ea	-0.054079928
240	0x3cfcb972	0.030850146
241	0xbc8995e2	-0.016795103
242	0x3ca59084	0.020210512
243	0xbd755d38	-0.059903353
244	0xbb15fe83	-0.0022887297
245	0x3cf51228	0.029915884
246	0xbc82200d	-0.015884424
247	0x3bd489b0	0.00648614
248	0xbcf5d86c	-0.030010425
249	0x3d1777ea	0.036979593
250	0x3cfdf4b9	0.031000482
251	0x3bf654d8	0.0075174384
252	0x3ccba296	0.0248578
253	0xbd310ee1	-0.04322708
254	0x3d085082	0.033279903
255	0xbd2a7208	-0.041612655

V_heads.1.weight f4 [1, 256]
0	0x3ab84680	0.0014059097
1	0xb99b8d00	-0.00029668957
2	0xbd5c0bc2	-0.05372215
3	0xbd515224	-0.051103726
4	0xbd3c00cf	-0.04589921
5	0xbd63a8ba	-0.055580832
6	0xbd28d5aa	-0.04121939
7	0x3d36d5c4	0.044637457
8	0xbd492bdc	-0.049114093
9	0x3d64c581	0.055852417
10	0xbd535328	-0.051592976
11	0xbc5d7640	-0.0135169625
12	0xbc0fc3b0	-0.008774683
13	0x3d293421	0.04130948
14	0x3ce00f47	0.027351035
15	0x3c19d267	0.009388543
16	0xbcb0f924	-0.021603175
17	0x3d00010a	0.03125099
18	0xbd428bf4	-0.04749675
19	0x3ceeab3f	0.02913439
20	0x3cf0ef39	0.029410945
21	0x3c9224f0	0.017839879
22	0x3d0b1b6a	0.03396169
23	0xbca5c9bc	-0.020237796
24	0x3d4a1ecf	0.049345788
25	0x3a4879af	0.0007647527
26	0x3c7dda6e	0.015493972
27	0x3b2ded13	0.0026539012
28	0x3c064f48	0.008197613
29	0xbd1cf9a0	-0.038324
30	0x3d24aec0	0.040205717
31	0xbd6aa017	-0.05728158
32	0xbcdbd9f8	-0.026837334
33	0x3c39f3e6	0.011349654
34	0x3bcd8a8b	0.006272619
35	0xbd0f6c0d	-0.035015155
36	0xbcc2c8f8	-0.02377747
37	0xbcba42ca	-0.022736926
38	0xbd6e8818	-0.058235258
39	0xbd6156b2	-0.05501432
40	0x3c959c48	0.018262997
41	0xbb1222d0	-0.0022298582
42	0xbc8bd255	-0.017068068
43	0x3c4829b0	0.01221697
44	0x3ca7a89e	0.020466145
45	0xbd5c5190	-0.05378872
46	0xbc2c413d	-0.010513601
47	0x3bafd700	0.005366206
48	0xbc51a906	-0.012796646
49	0x3d558957	0.05213293
50	0xbcde41e4	-0.027131028
51	0x3cd4ca8b	0.025975486
52	0x3d08b772	0.033378072
53	0xbd45d8c4	-0.048302427
54	0xbd6a1ca2	-0.057156213
55	0x3d096ed4	0.03355296
56	0xbd3d2b9a	-0.04618416
57	0x3d2088e5	0.039193053
58	0x3b823b90	0.0039743856
59	0xbb53f3dd	-0.0032341399
60	0x3d558a7c	0.052134022
61	0xbc7892e8	-0.015171744
62	0xbc33ee2a	-0.010982076
63	0xbd417cf5	-0.04723831
64	0xbb6af900	-0.0035853982
65	0x3d5e4d09	0.054272685
66	0x3d67f7a8	0.056632668
67	0xbcde9958	-0.02717273
68	0xbc516894	-0.012781281
69	0x3d5b5a03	0.05355264
70	0x3d55d8af	0.0522086
71	0xbcbd4dfd	-0.023108477
72	0x3c009d8f	0.007850065
73	0xbd25d937	-0.040490355
74	0xbd797741	-0.060904745
75	0xbbb5b1c0	-0.005544871
76	0xbd470306	-0.048586868
77	0x3d03fbd8	0.0322226
78	0x3d4829a6	0.048867844
79	0xbcd0f9c4	-0.025509723
80	0xbd202abe	-0.039103262
81	0xbd2e6cf2	-0.042584367
82	0x3a997e50	0.0011710618
83	0xbce64843	-0.028110629
84	0x3d51bbe2	0.05120457
85	0x3c156450	0.009118155
86	0x3d24a176	0.040193044
87	0x3d284c24	0.04108824
88	0x3af4f1b1	0.0018687752
89	0xbd1d4fac	-0.03840606
90	0xbc3ff2f0	-0.011715636
91	0xbd42f32c	-0.047595188
92	0xbd0d7b02	-0.034541138
93	0xbd4d78b2	-0.050163932
94	0x3c736da0	0.01485768
95	0xbd457d34	-0.048215106
96	0x3c4a676a	0.012353757
97	0x3d3814d5	0.044941742
98	0xbc0b0978	-0.008486144
99	0x3d4fc1af	0.05072182
100	0x3c2610d0	0.010135844
101	0xbc8bbaa4	-0.01705677
102	0x3cb4fdbe	0.02209365
103	0x3d64d154	0.055863693
104	0x3cf25c74	0.0295851
105	0xbd59f93e	-0.05321621
106	0xbc8c3446	-0.01711477
107	0xbcae68ac	-0.021290146
108	0xbcee5b48	-0.02909626
109	0x3c0bb2cc	0.008526515
110	0xbd6cceda	-0.057814457
111	0x3cafafe6	0.02144618
112	0xbcfbd27b	-0.030740013
113	0x3c832752	0.01600996
114	0x3c8bb8ac	0.017055832
115	0x3ceb8348	0.028749123
116	0xbd4677ea	-0.048454203
117	0xbd33a695	-0.043860037
118	0xbd4c69fa	-0.049905755
119	0x3d0b3582	0.033986576
120	0x3d214bcb	0.039378922
121	0x3c9a611b	0.018845132
122	0x3bf05956	0.0073348684
123	0x3cb5d620	0.02219683
124	0x3cb6dba8	0.022321537
125	0xbceb6997	-0.028736873
126	0x3c83ea30	0.01610288
127	0xbc66a678	-0.014077775
128	0x3d583009	0.052780185
129	0x3d40e3e6	0.04709234
130	0x3c8ffa9a	0.01757555
131	0xbcf87865	-0.030330846
132	0x3d3f7d30	0.046750247
133	0x3d53c889	0.051704917
134	0xbbefb940	-0.0073157847
135	0x3d3d195d	0.046166766
136	0xbd2a1dfe	-0.04153251
137	0x3cda14a5	0.026621172
138	0x3b288456	0.0025713644
139	0xbc30c166	-0.010788297
140	0xbca7bda3	-0.020476168
141	0x3d6a7c87	0.057247665
142	0xbc4a9da8	-0.01236669
143	0xbd74460d	-0.059637118
144	0xbca2d8c0	-0.019878745
145	0xbcc14b48	-0.023595467
146	0x3d19f5ad	0.03758781
147	0x3d55af6a	0.05216924
148	0x3c40efc7	0.011775917
149	0xbc153b64	-0.009108398
150	0x3c493bb6	0.012282303
151	0xbc1480b1	-0.009063886
152	0xbd7df480	-0.06200075
153	0xbca08c08	-0.019598022
154	0x3d2a1a19	0.041528795
155	0x3b5a8595	0.0033343781
156	0xbd1061a7	-0.03524938
157	0xbd875162	-0.066073194
158	0x3ab092c0	0.0013471469
159	0xbcd9c95c	-0.026585273
160	0xbccb3f63	-0.024810499
161	0xbc8b26cc	-0.016986273
162	0x3d44e4f6	0.048069917
163	0x3d1398b0	0.036034286
164	0xbc6c6be0	-0.014430016
165	0x3d7644a6	0.060124062
166	0x3d4fd858	0.05074343
167	0x3c8d68d0	0.017261893
168	0x3c4730e7	0.012157655
169	0xbd2ac610	-0.041692793
170	0x3d48cce3	0.04902352
171	0xbd5c3e9e	-0.053770654
172	0xbd512e2e	-0.05106943
173	0xbd5e9a1b	-0.054346185
174	0xbd1439b8	-0.036187857
175	0xb93f6c00	-0.00018255413
176	0xbca4d15c	-0.020119362
177	0xbd115ad8	-0.035487026
178	0x3d31a188	0.04336694
179	0x3cb66549	0.022265093
180	0x3cdbfde2	0.02685446
181	0xbb32eed5	-0.0027303
182	0x3c4944b6	0.012284448
183	0x3cda4b57	0.026647253
184	0xbc962c6c	-0.018331729
185	0xbca9153d	-0.02064001
186	0xbcb2b204	-0.0218134
187	0xbd546272	-0.051851697
188	0x3c5c6407	0.013451583
189	0x3cf84608	0.030306831
190	0xbc8ec47e	-0.01742768
191	0x3d34c152	0.044129677
192	0x3d08a04a	0.03335599
193	0xbcacac64	-0.021078296
194	0xbd8a0a9d	-0.067403056
195	0x3d2c114e	0.04200869
196	0x3d70e8f2	0.058815904
197	0xbcfefe68	-0.03112717
198	0xbc0e039d	-0.008667854
199	0x3c155b0d	0.0091159465
200	0xbd1fa04e	-0.038971238
201	0xb98181fd	-0.00024701646
202	0xbcef0c0b	-0.029180547
203	0x3d4d94fb	0.050190907
204	0x3d527c61	0.05138815
205	0xbc1132d8	-0.00886222
206	0x3cae1c77	0.021253807
207	0xbc4ac6d0	-0.012376502
208	0x3cff8251	0.03119007
209	0x3d016d7e	0.03159856
210	0xbb00c380	-0.0019647777
211	0x3d366562	0.04453028
212	0xbd1803d8	-0.03711304
213	0x3c765b6d	0.015036446
214	0xbd07df26	-0.033171795
215	0xbd1bb75e	-0.03801667
216	0x3ad2bee4	0.0016078618
217	0x3d01da16	0.031702124
218	0x3d826d39	0.06368489
219	0xbcd0cfdd	-0.025489742
220	0x3ad9f8a1	0.0016629883
221	0xbcd14294	-0.025544442
222	0x3cd8a655	0.0264465
223	0x3d381ca8	0.044949204
224	0x3cb17ea4	0.021666832
225	0xbd3e276c	-0.046424314
226	0x3d6be433	0.057590675
227	0x3c051f9b	0.008125211
228	0x3d0613cc	0.032733724
229	0x3b08c72b	0.0020870666
230	0x3b146160	0.0022641048
231	0x3d01c262	0.03167952
232	0x3cf329e5	0.029683063
233	0x3ce34342	0.027742032
234	0x3b6eb714	0.003642504
235	0x3d7c9234	0.061662868
236	0x3d151bc2	0.036403425
237	0xbc5d2beb	-0.01349924
238	0xbcc31990	-0.0238159
239	0xbd4a9be8	-0.04946509
240	0x3d49a0cc	0.049225613
241	0xbc34c032	-0.011032151
242	0x3b4b132c	0.003098677
243	0xbcd4b16c	-0.025963508
244	0x3d34acbc	0.044110045
245	0xbc0cb230	-0.008587405
246	0xbd2835e2	-0.04106701
247	0xbc4bcb02	-0.012438538
248	0x3c2c4220	0.010513812
249	0xbc518707	-0.012788541
250	0x3cb8683c	0.02251064
251	0xbd548cbe	-0.051892035
252	0x3d110f0f	0.03541475
253	0xbcf861ab	-0.03032001
254	0x3c411d49	0.011786767
255	0xbc7be98f	-0.015375509

V_heads.2.weight f4 [1, 256]
0	0xbd6afb66	-0.05736866
1	0xbc89f838	-0.016841993
2	0xbcec9cd4	-0.028883375
3	0xbd54e0bc	-0.051972136
4	0x3d405ca1	0.046963338
5	0xbd2729f4	-0.040811494
6	0x3c0eb497	0.008710048
7	0x3ba95ffc	0.005168913
8	0x3d0c1344	0.03419806
9	0xbd81dbb7	-0.063407354
10	0x3d399db6	0.04531642
11	0xbd3f5cfa	-0.04671953
12	0x3af867c0	0.0018951818
13	0xbd81cfc5	-0.06338457
14	0x3cdd00cb	0.026977917
15	0x3c4ab80f	0.012372985
16	0xbc5e2be8	-0.013560273
17	0xbd54901a	-0.05189524
18	0x3d779e56	0.060453735
19	0x3bd1aeca	0.0063990103
20	0x3c8a7a6b	0.016904077
21	0x3d23bb06	0.03997328
22	0x3cf59acc	0.02998104
23	0x3cdf82b2	0.027284
24	0x3d486c41	0.048931364
25	0x3d4b1863	0.049583804
26	0x3d12ff87	0.03588822
27	0x3d079f7b	0.033111077
28	0xbd47135a	-0.04860244
29	0x3d0a4dd3	0.033765625
30	0x3d63f180	0.055650234
31	0x3d0e4daf	0.034742054
32	0xbd067e48	-0.032835275
33	0xbcf2e17d	-0.029648537
34	0x3d335619	0.04378328
35	0xbd144a8d	-0.03620391
36	0xbd4e6d5a	-0.050397255
37	0x3d046053	0.032318424
38	0xbd06c0f2	-0.03289885
39	0xbd17b4b6	-0.037037574
40	0xbad0cf00	-0.0015930831
41	0xbb4d5510	-0.0031331219
42	0x3ca73c71	0.020414563
43	0x3ce39f25	0.027785847
44	0x3d04447d	0.032291878
45	0x3d3b6a06	0.04575541
46	0x3bb8cb36	0.005639459
47	0xbd4e29a2	-0.050332673
48	0x3ca7942a	0.020456392
49	0x3c9a2b52	0.018819485
50	0x3ad8838f	0.00165187
51	0x3be1a28e	0.006885833
52	0xba790680	-0.0009499565
53	0xbcbe5d48	-0.02323784
54	0x3cda9772	0.026683543
55	0xbd24e458	-0.040256828
56	0x3ba4e11e	0.005031719
57	0xbd405ebb	-0.046965342
58	0x3d1ad2f6	0.037798844
59	0xbd257da7	-0.040403035
60	0xbd0b10c0	-0.03395152
61	0xbbc0e470	-0.005886607
62	0xbd548a34	-0.051889613
63	0x3d1e71a5	0.0386826
64	0xbd076ef8	-0.033064812
65	0xbce93a5c	-0.02847021
66	0x38b06800	8.4117055e-05
67	0xbd6008b0	-0.054695785
68	0x3bf25989	0.0073959273
69	0x3d20a1e7	0.039216902
70	0x3d1e45fb	0.038640957
71	0xbcd452af	-0.025918333
72	0x3d5521a9	0.052034054
73	0xbca3f119	-0.020012425
74	0xbadb66fe	-0.0016739068
75	0x3d081e52	0.03323204
76	0xbd417534	-0.047230914
77	0xbd608976	-0.054818593
78	0x3d2d572c	0.04231946
79	0x3d366a1c	0.044534788
80	0xbce6659c	-0.028124623
81	0x3d2121be	0.03933882
82	0x3d5c68dd	0.053810943
83	0xbd66aadb	-0.056315284
84	0x3cfb1bc3	0.030652886
85	0x3b15da0f	0.0022865569
86	0x3ce1106d	0.027473653
87	0xbcd551fe	-0.026040073
88	0x3d07d4ce	0.03316193
89	0x3c6bd885	0.014394884
90	0xbcf428a8	-0.029804543
91	0xbd190eb4	-0.037367538
92	0x3bed5360	0.007242605
93	0xbc717c41	-0.014739097
94	0x3cbcaf07	0.023032678
95	0x3ca80988	0.020512357
96	0xbd0129e0	-0.031534076
97	0xbd07f59b	-0.033193212
98	0xbd395e36	-0.045255862
99	0x3d8054b6	0.06266157
100	0xbc257568	-0.010098793
101	0xbc109090	-0.008823529
102	0xbd2765af	-0.040868457
103	0x3d3d90e6	0.046280764
104	0xbca6bd38	-0.020353898
105	0xbcb4e4ac	-0.022081695
106	0xbd4dc3a9	-0.050235424
107	0x3d2dc4ef	0.04242414
108	0x3aad9500	0.0013243258
109	0x3cc652ad	0.024209345
110	0x3c30c298	0.010788582
111	0xbc2b7410	-0.010464683
112	0xbd4685a3	-0.04846729
113	0x3d3e8d1b	0.046521287
114	0xbcf3dad4	-0.029767431
115	0x3d0ef369	0.034900103
116	0xbcd8c38c	-0.026460432
117	0x3cd8fdf4	0.026488282
118	0x3c92ef1c	0.017936282
119	0x3c2b501b	0.01045611
120	0xbc643fcb	-0.013931225
121	0x3b6c5d72	0.003606644
122	0xbd2ff143	-0.042954694
123	0x3d2cd356	0.042193733
124	0xbd621e36	-0.055204593
125	0x3d1f930b	0.03895859
126	0xbcb85fb4	-0.022506572
127	0x3d6c7616	0.057729803
128	0xbd17d57a	-0.03706882
129	0x3ccad508	0.024759784
130	0xbd1a628b	-0.037691634
131	0xbd41fd91	-0.04736096
132	0xbd068106	-0.03283789
133	0xbd395ab7	-0.045252528
134	0x3c8a54d4	0.016886152
135	0x3b96a238	0.0045969747
136	0x3cf7d1df	0.030251442
137	0xbd04722e	-0.032335453
138	0xbbfa977a	-0.007647452
139	0xbd6e1972	-0.058129735
140	0x3cd1da55	0.025616804
141	0x3b132f1c	0.00224585
142	0xbcf375cc	-0.029719256
143	0x3ac3169e	0.001488406
144	0xbd4c4cf6	-0.049878083
145	0x3d67a30c	0.056551978
146	0xbce5537a	-0.027993906
147	0x3d2bfddc	0.041990146
148	0xbd5757fe	-0.05257415
149	0xbd595b23	-0.05306543
150	0x3c6d810a	0.014496097
151	0xba5b2300	-0.00083594024
152	0x3d05d9b8	0.032678336
153	0x3c5d13f8	0.01349353
154	0x3d4e8bc7	0.05042627
155	0x3cb9d017	0.022682233
156	0x3b0e8ba2	0.0021750708
157	0x3c40d0a0	0.01176849
158	0xbd6ddfc4	-0.058074728
159	0x3c892ba4	0.016744442
160	0x3c23449a	0.009965086
161	0xbd42983a	-0.047508456
162	0x3d023052	0.031784363
163	0xbcb20b5b	-0.02173393
164	0x3baa972b	0.005206009
165	0x3c11f9cd	0.008909655
166	0xbbd167e0	-0.0063905567
167	0x3c1c32a0	0.009533554
168	0x3d3dbab2	0.046320625
169	0xbc554f1c	-0.013019349
170	0x3bc1fae6	0.005919802
171	0xbd15bcfc	-0.036557183
172	0xb8ffac00	-0.00012191385
173	0x3c96df3a	0.01841699
174	0x3d221096	0.0395666
175	0x3d688bcc	0.056773946
176	0x3c2c7860	0.0105267465
177	0x3c4313ee	0.011906607
178	0xbc9d485a	-0.019199539
179	0xbd0d500c	-0.034500167
180	0x3cdf98c6	0.027294528
181	0x3c251e8a	0.010078082
182	0xbcccf040	-0.025016904
183	0x3cecec75	0.028921345
184	0x3c862efc	0.016379826
185	0x3c72ead3	0.014826494
186	0x3a9f9480	0.0012174994
187	0x3be22cde	0.0069023212
188	0xbcc76aaf	-0.024342863
189	0xbd42e28b	-0.04757933
190	0xbc2dd9bf	-0.010610997
191	0x3d48a57e	0.04898595
192	0xbc9dfd90	-0.019285947
193	0x3d2b318c	0.0417953
194	0x3bafa0a4	0.005359726
195	0xbd2dc4a4	-0.04242386
196	0xbcf11833	-0.029430484
197	0x3cc9fb14	0.024655856
198	0x3bc09dff	0.0058782096
199	0x3c9d4158	0.019196197
200	0xbc395c58	-0.01131352
201	0x3d459531	0.048237983
202	0xbcc3d5f3	-0.02390573
203	0x3c7c0fa0	0.015384585
204	0x3d14ad59	0.03629813
205	0x3d00f5a8	0.031484276
206	0xbcd08c39	-0.025457488
207	0x3cdefd84	0.027220495
208	0x3bd6e067	0.0065575126
209	0xbd476d24	-0.04868807
210	0x3d59d5e6	0.053182505
211	0xbd7b41e0	-0.06134212
212	0x3d1610d6	0.03663715
213	0xbcc7ca46	-0.024388444
214	0x3d70d804	0.05879976
215	0x3d7c8592	0.06165082
216	0x3d15c785	0.03656723
217	0xbcddfe90	-0.027098924
218	0xbbaed755	-0.005335728
219	0x3ca0d803	0.019634252
220	0xbc4ffdba	-0.0126947705
221	0xbd7e3ac4	-0.062067762
222	0xbce0ee17	-0.02745728
223	0xbd4d3e32	-0.050108142
224	0xbcc1b6b0	-0.023646683
225	0x3d38e608	0.04514125
226	0x3d7b6d77	0.06138369
227	0x3d29ee9f	0.041487332
228	0x3ce4358b	0.027857563
229	0xbd5c8676	-0.05383917
230	0xbc9b5fb8	-0.01896654
231	0x3c68455e	0.014176695
232	0x3c4d2ba2	0.01252261
233	0x3ca70142	0.020386342
234	0x3ca90cc6	0.020635974
235	0x3c8c6198	0.01713638
236	0xbd9ee3f8	-0.07758325
237	0xbbe1d990	-0.0068923905
238	0x3c2c4973	0.0105155585
239	0x3c620bc8	0.013796754
240	0x3c2d64eb	0.010583143
241	0xbc82dbaa	-0.015973885
242	0x3d226809	0.039649997
243	0x3ca2ea68	0.019887164
244	0x3c99bfa9	0.018768148
245	0x3d2c68da	0.04209218
246	0xb9a58344	-0.00031569053
247	0x3d4c9287	0.049944427
248	0x3b055bc0	0.0020348877
249	0xbd35c268	-0.044374853
250	0x3d0e7585	0.034780044
251	0x3d63a02a	0.055572666
252	0x3ca17a36	0.019711595
253	0x3d82ea12	0.063923016
254	0xbd0cf4f0	-0.034413278
255	0x3d5b2ee8	0.05351153
