results/bdq/models/bdq_checkpoint_360.pt (torch, 313061 bytes, 25 tensors)

trunk.0.weight f4 [256, 11]
0.16360638 0.19889475 -0.07063581 0.22479668 -0.12560049 0.19147837 0.23340385 0.1701904
0.19722877 -0.15624641 0.17569773 -0.0035258022 0.18344025 0.04083386 0.11113635 0.03176458
0.21404381 0.29292232 0.10057353 -0.21948329 -0.0930513 -0.08863636 0.032693595 0.1348378
-0.23800406 -0.23047517 -0.019802118 -0.26324567 -0.08999741 -0.35684273 0.4723841 -0.10456877
-0.08548113 0.050177276 -0.097902104 0.18631893 0.046990782 0.24361014 0.03296113 -0.095088586
0.081011176 -0.081763685 0.12689331 0.26919603 0.17429152 -0.13181248 0.17405185 0.053948283
0.15311801 -0.18377268 -0.29846862 -0.11649208 -0.23126608 0.24740177 0.08684471 -0.016921151
0.04669007 -0.0052450895 0.17366876 -0.21994747 -0.040961657 -0.1395098 -0.13702431 0.050444346
0.16123088 -0.15347701 0.25007105 -0.17870635 -0.17982076 -0.17983162 0.2711922 0.10047901
0.29012948 -0.24883015 -0.2990619 -0.23589155 -0.2028234 -0.024339488 0.076145194 0.2505331
-0.18932025 -0.17091362 0.15345332 -0.035121996 0.2409112 -0.11091834 0.18039647 -0.21473722
-0.3326245 0.07008003 0.06374177 -0.09641345 0.168581 0.26983947 -0.08684543 -0.020449484
0.21901472 -0.15573533 -0.0011879089 -0.29174075 -0.17266656 0.075318635 -0.039797425 -0.21886286
0.0070724487 -0.20595682 -0.25580123 -0.16603103 -0.26388636 -0.19198376 0.05196887 0.030430168
0.09291366 -0.36685598 0.06818661 0.118235014 0.016955577 -0.5281854 -0.51463634 -0.09923999
0.051798914 -0.112193346 -0.020893455 -0.20431304 -0.20695594 -0.17590226 -0.10320656 -0.23797715
0.25280815 -0.05983916 0.25941938 0.09394553 -0.17734978 0.14465088 -0.08295928 -0.16240905
-0.27017576 -0.2696542 -0.04372209 -0.34631103 0.2956235 -0.21681497 0.00021167926 -0.1378394
-0.02074804 0.06297657 0.32786375 0.321009 -0.22121702 -0.29738572 0.50795853 0.123585775
-0.5263633 -0.5715833 0.27463424 -0.2212944 0.16114312 0.10596302 0.09797791 -0.16301097
0.27405918 0.06625724 0.03878644 -0.26570833 0.126571 -0.04523292 -0.13812967 0.25898212
0.06722158 -0.16681913 -0.15260662 -0.014398903 0.16835228 -0.07704635 -0.1720348 -0.103250414
-0.34047115 0.097978845 0.23338193 -0.26119575 -0.06676803 0.22227389 0.24954762 0.1165997
0.18006514 0.0102301575 0.24825157 -0.052982002 -0.079840586 0.032255948 -0.053263217 -0.089850694
0.19272813 0.25911874 -0.029848814 -0.067507446 0.0043997467 -0.018002719 0.11482505 0.0396497
-0.27384973 -0.22074735 0.2256128 0.20328659 -0.1264823 -0.4827506 -0.19715072 -0.32049054
-0.07173846 0.115045905 0.17030144 0.13920698 -0.34027317 -0.13162439 0.16416016 0.3156278
-0.3558157 -0.07290931 0.21746664 -0.24421449 -0.03166997 0.16120242 -0.13709775 -0.14473708
-0.40442622 0.05191554 0.14015141 0.11396375 -0.24101828 -0.19734001 -0.5008926 0.028807644
0.120137304 0.25372314 0.17646442 0.051923834 -0.40558714 -0.48217285 0.09506664 -0.08575111
-0.016235203 -0.058815427 -0.060679942 -0.17352137 -0.054942474 -0.2122142 -0.19701225 0.10001457
-0.08960809 0.18613598 -0.09672749 -0.22117884 -0.053198338 -0.14615685 -0.09224486 -0.2870375
00000000: 6e88 273e 11ab 4b3e 82a9 90bd 1a31 663e
00000010: 6a9d 00be e812 443e 6b01 6f3e 6446 2e3e
00000020: 57f6 493e 0fff 1fbe 1bea 333e 2511 67bb
00000030: c3d7 3b3e 6841 273d 749b e33d 941b 023d
00000040: 4d2e 5b3e eaf9 953e 7ff9 cd3d 3ac0 60be
00000050: ae91 bebd fb86 b5bd b8e9 053d ec12 0a3e
00000060: 56b7 73be af01 6cbe 0d38 a2bc 23c8 86be
00000070: 9050 b8bd 17b4 b6be 54dc f13e 2728 d6bd
00000080: bb10 afbd b086 4d3d e680 c8bd 64ca 3e3e
00000090: 6879 403d f074 793e 4002 073d cebd c2bd
000000a0: 30e9 a53d b873 a7bd 52f0 013e 10d4 893e
000000b0: 7a79 323e daf9 06be a63a 323e e0f8 5c3d
000000c0: f8ca 1c3e e82e 3cbe e1d0 98be 6693 eebd
000000d0: 04d1 6cbe e456 7d3e a4db b13d 3a9e 8abc
000000e0: 163e 3f3d 00df abbb 39d6 313e e939 61be
000000f0: 69c7 27bd a8db 0ebe 1a50 0cbe bb9e 4e3d
00000100: b519 253e 1429 1dbe 5009 803e ccfe 36be
00000110: ef22 38be c825 38be b4d9 8a3e f0c7 cd3d
00000120: da8b 943e 55cd 7ebe a41e 99be 8e8d 71be
00000130: f0b0 4fbe 9b63 c7bc 03f2 9b3d e045 803e
00000140: 2bdd 41be fb03 2fbe de22 1d3e 15dc 0fbd
00000150: 6db1 763e 2829 e3bd dab9 383e 13e4 5bbe
00000160: c24d aabe 1e86 8f3d 0c8b 823d 6a74 c5bd
00000170: 7fa0 2c3e 6628 8a3e 04dc b1bd ad85 a7bc
00000180: 6545 603e 1579 1fbe 9cb3 9bba 0b5f 95be
00000190: 81cf 30be a840 9a3d a002 23bd 961d 60be
000001a0: 00c0 e73b 58e6 52be 61f8 82be 0a04 2abe
000001b0: 1d1c 87be 6497 44be 4fdd 543d b048 f93c
000001c0: 8449 be3d 8cd4 bbbe 6ca5 8b3d 3325 f23d
000001d0: 6ce6 8a3c 2937 07bf 35bf 03bf 563e cbbd
000001e0: 192b 543d a0c5 e5bd c028 abbc 7037 51be
000001f0: 42ec 53be b91f 34be f65d d3bd 48b0 73be
00000200: 1270 813e e819 75bd 9ed2 843e 8466 c03d
00000210: 2e9b 35be 5c1f 143e 8ee6 a9bd 8f4e 26be
00000220: 7a54 8abe 1e10 8abe ef15 33bd ae4f b1be
00000230: f75b 973e be04 5ebe 38f6 5d39 c625 0dbe
00000240: cbf7 a9bc dcf9 803d c2dd a73e 4b5b a43e
00000250: b786 62be f142 98be 9209 023f 8a1a fd3d
00000260: bfbf 06bf 4853 12bf dc9c 8c3e 009b 62be
00000270: b402 253e 2403 d93d a4a8 c83d 59ec 26be
00000280: 7c51 8c3e e0b1 873d 88de 1e3d ec0a 88be
00000290: d49b 013e 2846 39bd dd71 0dbe 4e99 843e
000002a0: 78ab 893d a2d2 2abe e944 1cbe 60e9 6bbc
000002b0: 8a64 2c3e 7aca 9dbd e429 30be f474 d3bd
000002c0: 3c52 aebe 22a9 c83d acfb 6e3e 73bb 85be
000002d0: adbd 88bd c49b 633e 6989 7f3e d3cb ee3d
000002e0: ff62 383e 649c 273c a935 7e3e a803 59bd
000002f0: 7683 a3bd d01e 043d 882a 5abd a403 b8bd
00000300: 865a 453e 36ab 843e 8085 f4bc 5841 8abd
00000310: c02b 903b 707a 93bc 6529 eb3d b967 223d
00000320: 0836 8cbe 980b 62be 0b07 673e 5c2a 503e
00000330: 9384 01be 162b f7be e1e1 49be 5617 a4be
00000340: 9deb 92bd 309d eb3d 8063 2e3e 468c 0e3e
00000350: 4938 aebe 8bc8 06be 9a19 283e f899 a13e
00000360: 7a2d b6be 7a51 95bd 93af 5e3e 5d13 7abe
00000370: 5fb8 01bd 3f12 253e 5a63 0cbe f535 14be
00000380: f410 cfbe 64a5 543d da83 0f3e d465 e93d
00000390: 7fcd 76be 8013 4abe 7f3a 00bf 02fe eb3c
000003a0: 8c0a f63d 00e8 813e 17b3 343e 16ae 543d
000003b0: 1ea9 cfbe 5cdf f6be 4cb2 c23d 479e afbd
000003c0: b0ff 84bc 72e8 70bd 888b 78bd 96af 31be
000003d0: 5c0b 61bd ae4e 59be 94bd 49be 70d4 cc3d
000003e0: 7284 b7bd 6e9a 3e3e 1019 c6bd b57c 62be
000003f0: 80e6 59bd 24aa 15be e0ea bcbd 94f6 92be

trunk.0.bias f4 [256]
0.15931419 -0.19143438 -0.22567542 0.23150271 0.11780012 -0.23361926 0.0913122 0.118388884
-0.28734827 0.05632451 -0.016749237 -0.011743009 0.24226683 -0.027102927 0.1634543 -0.1601678
-0.23547283 0.20548558 -0.25411513 -0.059578847 0.074276306 -0.23315012 -0.25809038 0.10265285
0.14353758 -0.031904697 0.13080905 0.10595128 0.09991141 -0.19223517 0.23054628 0.13810444
-0.09094984 0.17642419 -0.2590668 0.06497085 -0.25341097 -0.030617744 0.09878507 0.113550656
0.021369433 -0.2333556 -0.18869561 0.0052645504 -0.052219138 -0.31705943 0.2970388 -0.030564677
-0.25111666 0.13223866 0.122112654 -0.20163557 0.08733195 -0.34698212 0.10446802 0.28640717
0.19903696 0.14885283 -0.061342865 -0.040862303 0.11083198 0.0064632427 -0.12636773 -0.031314887
-0.12212147 -0.17454655 -0.27824563 -0.19979861 -0.23029126 0.28821176 0.013638721 -0.3419998
-0.15412325 0.07042685 -0.09024423 -0.1969696 -0.13230588 -0.07343444 -0.048299193 0.09553128
0.17503557 0.2796051 0.109317 -0.06395237 -0.13463077 0.0010288656 -0.19966513 0.08286773
-0.03637746 -0.13734417 -0.27804056 0.14530328 0.28463528 0.26139766 -0.18692525 0.058253102
0.011365354 -0.25209534 -0.16287914 0.12267174 -0.15324582 0.21955562 0.10533583 -0.006364917
0.19856799 0.112516254 0.07564492 0.077158526 -0.15660608 -0.15988587 -0.05523731 0.05856905
0.11986495 0.14264064 -0.20438433 -0.03825718 -0.26432705 0.1329383 -0.28787526 -0.15160841
0.24261183 0.065304056 -0.11380183 -0.23401283 -0.20734152 0.06028055 -0.29320648 0.26054478
0.2576712 0.004260545 -0.052042406 0.234492 0.07420932 0.28508234 0.18177974 -0.19793184
0.19910578 0.17115732 -0.21407677 0.21598797 -0.19955388 -0.17278689 0.0056250095 -0.11609852
-0.17073807 -0.1977334 0.07447212 0.20282996 -0.08745772 -0.26931828 -0.015547186 -0.31364694
-0.27202153 -0.10089141 0.18944103 -0.24953012 -0.048116177 -0.14272636 -0.3155835 -0.1419384
-0.017563343 -0.050696373 0.23386207 0.10643781 0.1877194 0.118098736 0.031633824 0.105032116
-0.19234905 0.12839215 0.08487552 -0.17078473 -0.061069153 -0.25282267 -0.3052309 -0.04260116
0.053987205 -0.089007966 -0.012461001 -0.27623832 -0.2640052 0.14728558 -0.29342243 0.17592017
0.22817883 0.21029846 0.041265603 -0.2746469 -0.110173374 -0.106028974 -0.08959456 0.23101574
-0.14442973 -0.26362672 -0.44307682 0.12751204 -0.050316192 0.26754835 0.0071103517 -0.28098407
0.074596226 0.2758962 0.18700626 0.08170902 -0.22652669 -0.18079662 0.20473051 -0.1700211
0.030375691 -0.038630545 0.10103062 -0.041690044 -0.31535348 -0.15987036 0.27183434 -0.08459193
0.13549772 -0.30376717 0.23868865 -0.064542696 -0.10162856 0.06116295 -0.108035535 -0.12116219
-0.043144852 -0.022518149 -0.16917427 0.020076405 -0.2922195 0.12803972 0.2796408 0.04877937
-0.070450634 -0.2761545 0.14159048 0.25963026 0.16297388 0.033709705 0.100240946 0.27366498
0.09743316 -0.16776782 -0.2862634 0.13182405 0.0980698 0.19083814 -0.15350103 0.08890675
-0.09975633 -0.07254406 0.1375563 -0.2763888 0.22225523 0.12436795 -0.19322501 0.19885373
00000000: 4223 233e 6007 44be 7517 67be 0c0f 6d3e
00000010: 3041 f13d e339 6fbe e401 bb3d df75 f23d
00000020: 501f 93be 88b4 663d b235 89bc c065 40bc
00000030: cc14 783e f506 debc 9060 273e 0703 24be
00000040: ca1f 71be d06a 523e 611b 82be f308 74bd
00000050: 2d1e 983d e8be 6ebe 6c24 84be a83b d23d
00000060: 84fb 123e 80ae 02bd cff2 053e fcfc d83d
00000070: 5a9e cc3d 4cd9 44be 5314 6c3e 406b 0d3e
00000080: e943 babd 8ba8 343e 67a4 84be 700f 853d
00000090: 15bf 81be 10d2 fabc d44f ca3d 3f8d e83d
000000a0: f30e af3c c5f4 6ebe 6c39 41be 4082 ac3b
000000b0: bce3 55bd 9d55 a2be 7815 983e c662 fabc
000000c0: 5d92 80be 9269 073e 3316 fa3d 8e79 4ebe
000000d0: 18db b23d a4a7 b1be 54f3 d53d f6a3 923e
000000e0: 58d0 4b3e e06c 183e a842 7bbd 3b5f 27bd
000000f0: e1fb e23d 9cc9 d33b 8b66 01be 0a44 00bd
00000100: d21a fabd 55bc 32be 3676 8ebe 0298 4cbe
00000110: 79d1 6bbe 7e90 933e f174 5f3c 991a afbe
00000120: 7cd2 1dbe f43b 903d f8d1 b8bd 66b2 49be
00000130: 317b 07be cc64 96bd 60d5 45bd e7a5 c33d
00000140: 863c 333e 6628 8f3e 97e1 df3d 76f9 82bd
00000150: a6dc 09be 00db 863a 0475 4cbe 8eb6 a93d
00000160: 8800 15bd f3a3 0cbe 555b 8ebe 62ca 143e
00000170: b7bb 913e ead5 853e 5569 3fbe ce9a 6e3d
00000180: c035 3a3c a412 81be cac9 26be 523b fb3d
00000190: 79ec 1cbe 30d3 603e 50ba d73d cb90 d0bb
000001a0: 6855 4b3e ec6e e63d b9eb 9a3d 4a05 9e3d
000001b0: 585d 20be 1fb9 23be 8440 62bd 1ae6 6f3d
000001c0: c17b f53d 6310 123e 204a 51be 90b3 1cbd
000001d0: e055 87be fa20 083e 6364 93be 3c3f 1bbe
000001e0: 3c6f 783e 22be 853d ef10 e9bd 0fa1 6fbe
000001f0: 5651 54be bde8 763d 291f 96be 2066 853e
00000200: 7bed 833e 0b9c 8b3b 6b2a 55bd ac1e 703e
00000210: 0efb 973d 50f6 913e 7824 3a3e a5ae 4abe
00000220: 63e2 4b3e dd43 2f3e f136 5bbe f32b 5d3e
00000230: da57 4cbe 0cef 30be 0052 b83b 10c5 edbd
00000240: f6d5 2ebe a07a 4abe d784 983d a8b2 4f3e
00000250: 081d b3bd 16e4 89be a0b9 7ebc 5596 a0be
00000260: 6846 8bbe 28a0 cebd d4fc 413e d384 7fbe
00000270: 7815 45bd dc26 12be 2994 a1be 4d58 11be
00000280: 00e1 8fbc 00a7 4fbd 8a79 6f3e 11fc d93d
00000290: 8439 403e c0dd f13d 7892 013d 141b d73d
000002a0: 26f7 44be 3b79 033e 37d3 ad3d 31e2 2ebe
000002b0: a623 7abd f971 81be 3947 9cbe 8e7e 2ebd
000002c0: b021 5d3d cf49 b6bd 3a29 4cbc 1c6f 8dbe
000002d0: b12b 87be 08d2 163e 773b 96be 6b24 343e
000002e0: b6a7 693e 7b58 573e 1f06 293d 859e 8cbe
000002f0: 94a2 e1bd b825 d9bd 5a7d b7bd 648f 6c3e
00000300: 63e5 13be 15fa 86be f7da e2be 8492 023e
00000310: 5a18 4ebd 19fc 883e f4fd e83b 25dd 8fbe
00000320: e8c5 983d 4442 8d3e 927e 3f3e 0f57 a73d
00000330: 9df6 67be c022 39be e0a4 513e 031a 2ebe
00000340: 71d6 f83c 103b 1ebd 24e9 ce3d 2ec3 2abd
00000350: 0376 a1be 0eb5 23be df2d 8b3e 893e adbd
00000360: eabf 0a3e 5f87 9bbe cc6a 743e f62e 84bd
00000370: a222 d0bd 0086 7a3d bc41 ddbd e223 f8bd
00000380: a8b8 30bd fb77 b8bc 053c 2dbe 4677 a43c
00000390: cb9d 95be d81c 033e 142d 8f3e e0cc 473d
000003a0: 6c48 90bd 1f64 8dbe 18fd 103e 42ee 843e
000003b0: a0e2 263e 3013 0a3d 204b cd3d d11d 8c3e
000003c0: 098b c73d 54cb 2bbe 1e91 92be e2fc 063e
000003d0: d2d8 c83d 136b 433e 602f 1dbe be14 b63d
000003e0: 0c4d ccbd fb91 94bd 8fdb 0c3e d582 8dbe
000003f0: e096 633e a0b4 fe3d c7dc 45be 50a0 4b3e

trunk.2.weight f4 [256, 256]
-0.031603314 -0.010257714 -0.03261095 -0.061194576 -0.0064729974 0.014612919 -0.0072716773 -0.046657704
-0.013902206 0.011405453 -0.017438479 -0.048467755 -0.04939149 -0.026071684 0.022508927 0.055579595
-0.014722572 0.022377633 0.035960697 -0.043135233 -0.03662102 0.025574315 0.04474926 0.014809929
-0.06418131 0.03547415 -0.06753865 0.031238899 -0.008475293 0.020188421 -0.060921744 -0.021973453
0.026543535 0.032222934 -0.017893158 0.05573436 -0.029829545 -0.037696652 -0.027065217 -0.011992883
-0.026990939 0.030250244 -0.034588866 -0.01777941 -0.061938316 0.035133976 -0.011760183 -0.06515222
-0.0030158833 -0.00011408329 0.001475519 -0.0068600625 0.023433981 -0.021563984 -0.01870691 -0.014841862
0.011158124 0.05007627 -0.0028758422 0.032206696 0.033214375 -0.048422974 -0.02125244 -0.029503688
0.025998376 -0.021973066 0.019065619 -0.012148619 -0.056911692 -0.042018384 -0.076927036 -0.050843135
0.017459646 0.003807865 0.047006376 -0.07083899 -0.0018263608 -0.07192323 -0.015508717 0.006888578
-0.0719456 0.039315213 -0.019411936 0.039494675 -0.010490693 0.03545718 0.056817286 -0.038637187
-0.0151929185 0.03278309 -0.06939057 0.0369955 -0.0551394 0.042165056 -0.0568428 -0.04159848
0.04663659 -0.043093458 0.037689522 0.02711887 0.041243035 -0.060580127 0.0007004887 -0.03643974
0.014887728 -0.063073315 0.009747133 -0.018842973 -0.0454255 -0.056225225 0.03269176 -0.022619076
0.04611727 -0.004756348 0.0031262587 -0.0094790235 -0.008657746 -0.037114363 -0.07000121 0.023411483
-0.05524104 0.020544767 -0.036962185 0.02327204 0.053563885 -0.05410768 0.03572589 0.0015232787
-0.06362788 0.009631421 0.019509211 0.05509448 -0.07537727 0.056435145 0.03149913 0.045602515
0.018180417 -0.046264328 0.04741323 0.04123719 -0.039780814 -0.026098806 0.048908263 0.03443034
0.025405543 0.047883265 -0.048000846 -0.026664665 -0.040851153 0.016603189 0.015575774 -0.06416004
-0.023733363 -0.066846624 -0.0588198 0.041094176 -0.031438813 0.012013194 -0.029800057 -0.028538553
-4.0367246e-05 0.048745476 -0.02452845 0.051716603 0.036569238 0.042875543 -0.05668377 -0.04510704
-0.05092027 -0.01327429 -0.028827608 -0.0031824738 0.040115785 0.012174007 -0.059372764 -0.055078123
0.047194093 -0.009661189 0.01765655 -0.04857217 -0.023502579 0.0019120647 -0.041014083 0.024909338
0.031146504 -0.036448263 -0.041512523 -0.014693812 0.009726636 -0.022926249 0.059788823 -0.06020058
-0.051206864 -0.03793616 0.0010289537 0.008869186 -0.03369132 0.037458636 -0.069835894 0.022028133
-0.034390725 -0.014231786 -0.060187526 -0.06253924 -0.053028077 0.02726712 -0.023469158 0.016811222
-0.049754407 -0.015485287 0.0075654387 0.036487598 -0.032727003 0.020350117 0.0013602677 0.03801266
0.023599442 0.009481142 -0.018846706 -0.017541654 0.024331331 0.034065157 -0.003335841 0.031329714
-0.037601195 0.019345915 -0.023552196 -0.05889311 -0.030367754 -0.06361365 0.012607336 -0.037066296
-0.017897718 -0.0039159358 -0.038135044 0.0016048551 -0.023812557 0.0039451756 0.045150474 -0.053611904
0.018297207 -0.017167773 -0.03572218 -0.028344616 2.5960693e-05 -0.0028689418 -0.0020187646 -0.031115346
0.03151848 -0.006609264 -0.076636136 -0.011045419 -0.01695703 -0.026669346 -0.03466861 -0.066586226
00000000: 7a72 01bd f90f 28bc 0f93 05bd 2aa7 7abd
00000010: 701b d4bb 066b 6f3c 4047 eebb 261c 3fbd
00000020: 14c6 63bc f0dd 3a3c 24db 8ebc 2086 46bd
00000030: bb4e 4abd 4994 d5bc a464 b83c 6ea7 633d
00000040: f136 71bc 4c51 b73c 864b 133d 92ae 30bd
00000050: ecff 15bd 3a81 d13c 004b 373d 58a5 723c
00000060: 7e71 83bd 584d 113d b451 8abd b8e8 ff3c
00000070: f5db 0abc 3062 a53c 1489 79bd ac01 b4bc
00000080: d471 d93c 32fc 033d ac94 92bc b649 643d
00000090: 175d f4bc ce67 1abd e0b7 ddbc cc7d 44bc
000000a0: 1a1c ddbc 5ccf f73c 0ead 0dbd 20a6 91bc
000000b0: 08b3 7dbd a5e8 0f3d c8ad 40bc 876e 85bd
000000c0: 20a6 45bb 0040 efb8 3466 c13a 60ca e0bb
000000d0: 9ff8 bf3c f4a6 b0bc 3c3f 99bc 482b 73bc
000000e0: 90d0 363c c61c 4d3d a078 3cbb 2beb 033d
000000f0: cc0b 083d 2b57 46bd 9919 aebc b8b1 f1bc
00000100: 8cfa d43c dc00 b4bc 802f 9c3c 000b 47bc
00000110: 3c1c 69bd 781b 2cbd ec8b 9dbd e440 50bd
00000120: 8807 8f3c 608d 793b c289 403d 0814 91bd
00000130: 8062 efba 7d4c 93bd 4618 7ebc 95b9 e13b
00000140: 3758 93bd fd08 213d c805 9fbc 2bc5 213d
00000150: 28e1 2bbc 8c3b 113d 3eb9 683d 0742 1ebd
00000160: b8eb 78bc 9047 063d a51c 8ebd 9888 173d
00000170: dad9 61bd 44b5 2c3d ffd3 68bd 2b63 2abd
00000180: 0206 3f3d c482 30bd 5460 1a3d 6428 de3c
00000190: 75ee 283d de22 78bd 00a1 373a d641 15bd
000001a0: a8eb 733c 952c 81bd 70b2 1f3c 945c 9abc
000001b0: 1710 3abd 6c4c 66bd cce7 053d a44b b9bc
000001c0: 76e5 3c3d 24db 9bbb ebe1 4c3b e84d 1bbc
000001d0: 38d9 0dbc 3b05 18bd cb5c 8fbd 70c9 bf3c
000001e0: 6e44 62bd 804d a83c a965 17bd 01a5 be3c
000001f0: ce65 5b3d 04a0 5dbd 5055 123d c0a8 c73a
00000200: 554f 82bd 1ccd 1d3c c8d1 9f3c c0aa 613d
00000210: 665f 9abd 8a28 673d 3b05 013d b4c9 3a3d
00000220: 19ef 943c aa7f 3dbd 6034 423d 54e8 283d
00000230: 35f1 22bd 2acd d5bc 0854 483d d406 0d3d
00000240: 491f d03c 3e21 443d 899c 44bd db6f dabc
00000250: 8a53 27bd 6903 883c 8831 7f3c 5766 83bd
00000260: 786c c2bc e2e6 88bd 08ed 70bd 5e52 283d
00000270: fcc5 00bd fdd2 443c 401f f4bc afc9 e9bc
00000280: 0050 29b8 56a9 473d e3ef c8bc cad4 533d
00000290: a0c9 153d 449e 2f3d 3e2d 68bd 29c2 38bd
000002a0: c691 50bd 687c 59bc e027 ecbc 0d91 50bb
000002b0: 7350 243d 7c75 473c db30 73bd 9999 61bd
000002c0: 984e 413d f749 1ebc 78a4 903c 9df3 46bd
000002d0: 7b88 c0bc 3f9e fa3a 62fe 27bd ab0e cc3c
000002e0: f426 ff3c c64a 15bd 0909 2abd 50be 70bc
000002f0: 785c 1f3c d4cf bbbc 20e5 743d e294 76bd
00000300: 4abe 51bd f262 1bbd f5dd 863a 1050 113c
00000310: e9ff 09bd 3a6e 193d 1f06 8fbd 5874 b43c
00000320: 4add 0cbd 702c 69bc 3287 76bd 9314 80bd
00000330: f833 59bd 4c5f df3c 6442 c0bc b0b7 893c
00000340: 47cb 4bbd 00b6 7dbc 80e7 f73b 0574 153d
00000350: c00c 06bd 4ab5 a63c 034b b23a 2ab3 1b3d
00000360: 9e53 c13c cb56 1b3c 6864 9abc 84b3 8fbc
00000370: 8052 c73c e887 0b3d 209e 5abb 9653 003d
00000380: b603 1abd 537b 9e3c 89f0 c0bc e739 71bd
00000390: ccc5 f8bc e047 82bd 008f 4e3c d4d2 17bd
000003a0: 3c9e 92bc 4051 80bb 7e33 1cbd 005a d23a
000003b0: 8d12 c3bc 8846 813b b4ef 383d 2898 5bbd
000003c0: 06e4 953c 6ea3 8cbc 6c51 12bd f832 e8bc
000003d0: 2ac6 d937 db04 3cbb 404d 04bb 9ce5 febc
000003e0: 8619 013d 8692 d8bb 68f3 9cbd d8f7 34bc
000003f0: 78e9 8abc ac79 dabc ac00 0ebd 5c5e 88bd

trunk.2.bias f4 [256]
-0.052602403 -0.04102909 0.042435266 -0.048248768 -0.010554091 0.057342403 0.06736044 0.055671796
-0.05783392 0.0018008983 -0.020567864 0.0011573657 0.060094185 0.013774228 -0.0728095 0.05424897
0.07992139 -0.06376293 -0.05187182 0.034245443 -0.046513077 -0.049610548 0.026123121 -0.013981996
0.035066772 -0.05708124 0.029456103 -0.03692717 -0.037144773 0.026455447 -0.06545986 -0.052698772
-0.011833787 -0.011390479 -0.044438243 -0.032374963 -0.058454625 0.040967476 -0.008222271 -0.0063185664
0.03770989 0.02870688 0.03672231 0.019733237 0.0076506613 -0.037608422 0.040924136 -0.012388147
0.007156673 0.0629283 0.013379562 -0.011941103 -0.043856807 -0.019049676 -0.021764016 -0.043545745
-0.036439292 0.018783854 -0.045528397 -0.011423137 0.029599614 0.052716054 -0.075177334 0.030796181
0.009150825 0.019996263 0.03896939 0.049928233 -0.032129414 0.03625342 -0.008385706 0.002653305
0.011050648 -0.05151086 -0.05341778 -0.07735662 0.011151187 0.030185135 -0.03863927 0.016704805
-0.026634455 -0.03467734 -0.040213693 0.014978334 -0.027166732 -0.017687405 0.03873385 -0.08275001
-0.0058909375 -0.022282584 0.038951002 0.050978668 0.051096335 -0.007750885 -0.0096293315 -0.022701927
-0.07530767 -0.08109551 0.0083860895 -0.049430266 -0.036171548 0.018288001 -0.056050222 0.039489023
0.037744015 -0.0039108694 0.0014902764 0.012666401 0.023573503 -0.056229312 0.018402101 -0.079127535
-0.05601965 -0.07643 -0.033752978 0.029385848 0.0040092915 -0.015016255 0.0027465 -0.068592906
0.008510865 -0.030671384 0.0232337 0.026957888 -0.003980458 0.022151224 -0.03585752 0.026459761
0.06715759 0.016052812 0.007994715 -0.049566157 -0.04123216 -0.009895429 -0.04116244 0.048167042
-0.067700185 -0.052895296 -0.0036934256 -0.07395823 -0.011648683 0.042936116 0.031601295 0.037106875
-0.010907756 -0.027872099 -0.04541413 -0.00024648494 0.014799568 -0.046170954 -0.021815663 0.04466963
-0.030229831 0.029332288 0.03804948 0.017847188 -0.032745842 -0.023306107 0.044128984 0.05729735
0.071252204 -0.037492663 0.037769623 -0.023513528 0.05302824 -0.0554818 0.043943368 0.053457834
-0.017390836 -0.043973796 -0.07917155 -0.011329782 -0.032914862 -0.0065178866 -0.053917557 0.01898425
0.02941213 0.019295754 0.0007084627 0.043514997 0.015305524 -0.0451007 0.016114777 -0.041042026
-0.014889494 -0.03849065 0.029003188 -0.07156492 -0.058861375 0.015123245 -0.070862055 0.0051912577
-0.022949763 0.0023021922 -0.051421307 0.03559675 -0.0318765 -0.019849725 0.020094475 -0.018575478
0.046988502 0.032795943 0.0011412634 -0.035119753 0.01505145 0.053728625 -0.019162146 0.018639125
-0.041503698 0.032196715 -0.014800139 -0.095120855 -0.011650406 0.010733967 -0.013930107 -0.027226651
-0.025227558 0.03828522 -0.051443707 -0.057466928 -0.03316548 -0.056892708 0.042721204 -0.0049800943
0.01519714 -0.017837489 0.00089219026 -0.01567445 0.010185403 -0.06534948 -0.015240076 -0.07817718
-0.031652153 -0.077432 -0.008337675 0.0449309 0.0388486 0.038888443 0.021002252 -0.069853134
0.045209408 0.038068745 -0.029352847 0.004335116 -0.013934805 0.024230026 0.013992687 0.016333936
0.02800402 -0.0445132 0.019906819 -0.02972513 -0.024610633 -0.058348227 -0.0625658 0.038900618
00000000: 9e75 57bd 1e0e 28bd 9ad0 2d3d 80a0 45bd
00000010: 11eb 2cbc dedf 6a3d 45f4 893d 1c08 643d
00000020: 43e3 6cbd 1f0c ec3a f07d a8bc c0b2 973a
00000030: 5225 763d 4dad 613c 261d 95bd 2b34 5e3d
00000040: d3ad a33d 2496 82bd 8c77 54bd f344 0c3d
00000050: 7f84 3ebd 6e34 4bbd 2800 d63c be14 65bc
00000060: 2da2 0f3d 05ce 69bd ed4d f13c f240 17bd
00000070: 1e25 18bd 18b9 d83c d20f 86bd abda 57bd
00000080: 80e2 41bc 229f 3abc e004 36bd 9c9b 04bd
00000090: 1e6e 6fbd 83cd 273d b4b6 06bc fa0b cfbb
000000a0: b075 1a3d b12a eb3c 226a 163d 99a7 a13c
000000b0: 66b2 fa3b 4a0b 1abd 11a0 273d a8f7 4abc
000000c0: 8682 ea3b 8de0 803d f335 5b3c 9ea4 43bc
000000d0: 32a3 33bd 110e 9cbc 734a b2bc 065d 32bd
000000e0: 5e41 15bd 99e0 993c fc7b 3abd 1c28 3bbc
000000f0: e47a f23c caec 573d 93f6 99bd 4648 fc3c
00000100: 58ed 153c 34cf a33c 5e9e 1f3d 8c81 4c3d
00000110: 229a 03bd 777e 143d 3364 09bc 12e3 2d3b
00000120: c70d 353c 0dfd 52bd 9acc 5abd 266d 9ebd
00000130: 78b3 363c d146 f73c 3644 1ebd 84d8 883c
00000140: 8030 dabc d409 0ebd 1db7 24bd b067 753c
00000150: c48c debc 2de5 90bc 63a7 1e3d d678 a9bd
00000160: c408 c1bb f789 b6bc 168b 1f3d 02cf 503d
00000170: 644a 513d 23fb fdbb 58c4 1dbc 64f9 b9bc
00000180: e83a 9abd 6715 a6bd cf65 093c 6477 4abd
00000190: 9e28 14bd b8d0 953c eb94 65bd 3ebf 213d
000001a0: 7899 1a3d c026 80bb 6155 c33a bd86 4f3c
000001b0: 381d c13c b550 66bd 01c0 963c 9e0d a2bd
000001c0: dc74 65bd 5587 9cbd 9040 0abd 97ba f03c
000001d0: 6060 833b bd06 76bc a0fe 333b 707a 8cbd
000001e0: 2871 0b3c 8e42 fbbc 9a54 be3c cad6 dc3c
000001f0: 806e 82bb 7c76 b53c 56df 12bd 24c2 d83c
00000200: eb89 893d 3081 833c 44fc 023c e205 4bbd
00000210: 0ee3 28bd 7020 22bc f299 28bd ce4a 453d
00000220: 65a6 8abd bda8 58bd 660d 72bb 6a77 97bd
00000230: 1eda 3ebc c8dd 2f3d 5c70 013d 61fd 173d
00000240: 72b6 32bc 0754 e4bc 2b04 3abd a63a 81b9
00000250: e379 723c c11d 3dbd c3b6 b2bc 80f7 363d
00000260: 8da4 f7bc 444a f03c c6d9 1b3d 4434 923c
00000270: 8120 06bd 73ec bebc 98c0 343d a0b0 6a3d
00000280: adec 913d e891 19bd 52b4 1a3d 719f c0bc
00000290: 2434 593d e240 63bd f6fd 333d 9af6 5a3d
000002a0: 3a77 8ebc de1d 34bd b224 a2bd 8da0 39bc
000002b0: bcd1 06bd ff93 d5bb a8d8 5cbd dc84 9b3c
000002c0: b5f1 f03c 2112 9e3c 21b8 393a c83c 323d
000002d0: 05c4 7a3c 83bb 38bd 2303 843c af1b 28bd
000002e0: 10f3 73bc 5fa8 1dbd 1898 ed3c a190 92bd
000002f0: a018 71bd 7dc7 773c 2020 91bd 6d1b aa3b
00000300: 2401 bcbc 60e0 163b 269f 52bd e6cd 113d
00000310: ef90 02bd e49b a2bc 2b9d a43c 9a2b 98bc
00000320: 0477 403d 0a55 063d 7296 953a bbd9 0fbd
00000330: 5b9a 763c 8c12 5c3d eff9 9cbc 14b1 983c
00000340: c8ff 29bd b4e0 033d 487c 72bc b9ce c2bd
00000350: 58e1 3ebc 85dd 2f3c 1a3b 64bc 6d0a dfbc
00000360: 06aa cebc f6d0 1c3d a3b6 52bd 7162 6bbd
00000370: 87d8 07bd 5408 69bd 6efc 2e3d 0f30 a3bb
00000380: 6dfd 783c ed1f 92bc e0e1 693a b467 80bc
00000390: ade0 263c f3d5 85bd 83b1 79bc 5b1b a0bd
000003a0: b0a5 01bd ab94 9ebd be9a 08bc 7709 383d
000003b0: b61f 1f3d 7d49 1f3d ea0c ac3c 290f 8fbd
000003c0: 802d 393d f9ed 1b3d 6275 f0bc 970d 8e3b
000003d0: cf4e 64bc 0c7e c63c 9541 653c bfce 853c
000003e0: b068 e53c 7953 36bd a013 a33c 1e82 f3bc
000003f0: 3d9c c9bc 8dfe 6ebd 8022 80bd 4156 1f3d

V_heads.0.weight f4 [1, 256]
0.020794721 0.005857371 0.00729014 -0.010791333 -0.028695958 0.045421727 0.07535373 0.016785614
-0.022771262 0.05557767 -0.036352247 0.04233014 0.0439559 -0.04814449 -0.019360557 -0.050726354
0.034579165 0.030059004 0.02971755 0.021224441 -0.004162566 0.048769735 -0.030353464 0.022565175
-0.030006683 0.0546491 -0.05203677 -0.03502701 -0.044753775 0.014803298 -0.01871762 -0.04069447
-0.03960766 0.0074145375 -0.03320963 0.0041242074 0.022375226 -0.012347461 -0.03567469 -0.036043692
0.041044764 0.007905598 -0.008840125 -0.018855238 0.05078465 0.02417817 0.05780345 -0.05623515
0.023045005 -0.028259706 0.055572875 0.02279562 0.057629757 0.030680465 0.019592633 -0.0075973347
0.039999068 -0.004447392 -0.022365965 0.045119125 0.026496833 0.06215299 0.03436549 -0.03289264
0.058523364 -0.05368517 0.05841916 -0.055936858 0.01865306 0.015989592 0.02701729 0.045139883
0.008449616 0.038921926 0.03144457 -0.013063892 -0.0355359 0.009038316 -0.026225505 0.062047623
0.0715509 -0.04164967 -0.03291553 0.03309551 -0.0009563914 -0.022568772 0.046682365 -0.03346978
0.017205752 0.0038200202 0.036134966 -0.022117158 0.030631803 0.06563927 0.00053948927 -0.022967808
-0.039201528 0.0274278 0.06231513 0.002937643 -0.05651457 0.03481456 0.019872325 -0.0009775013
0.027136564 -0.02258598 0.043013025 -0.06281239 -0.012391053 0.018222524 -0.059464358 0.026489701
0.058350507 0.025682015 -0.021689557 0.023646554 0.024680518 0.036986064 -0.058505088 0.03557644
-0.061689425 -0.03347561 -0.04541148 0.028751867 0.039050564 -0.04509773 0.027267523 0.043017574
-0.025952114 0.004787177 0.05992916 0.03075902 0.04782573 -0.053085845 0.05383935 -0.002452915
0.052783854 -0.019444477 -0.024436112 0.024311803 -0.00035775366 -0.038675837 -0.003245242 0.0050221626
-0.0033510989 -0.0381912 -0.035174422 0.0071469713 -0.00855578 0.0606843 -0.030608494 0.026358098
-0.04670784 -0.016158298 -0.042401087 -0.010360511 -0.043126132 0.026288794 -0.015945062 0.033874176
0.0123826135 -0.03771718 0.057674892 -0.063133664 -0.032335177 -0.024199782 0.034750074 -0.02911269
0.022116018 0.03781366 0.03510822 0.018811878 0.034887724 0.04839361 -0.035874434 0.04565125
-0.073314205 -0.028323598 0.0009826208 -0.011884378 -0.014029463 0.032805666 0.008118048 0.011423501
0.0057592914 -0.038212884 0.05916503 0.018306863 -0.015450241 -0.054457825 -0.006945749 -0.021536274
-0.038879454 -0.04957126 0.03592115 -0.029050305 0.013956619 -0.048211202 0.051585298 -0.053570475
-0.008112185 -0.059933566 0.03393557 0.01927736 0.013553799 0.046296433 -0.045060985 0.02049943
0.012729209 -0.037855655 0.042339154 -0.051914193 0.060519233 0.008003928 0.051829174 -0.019455392
0.04561506 -0.036551468 0.009458273 -0.031383056 0.045366567 -0.02462393 0.049682196 0.019587424
0.049512774 -0.0018732173 -0.0338743 0.040729184 0.063857034 -0.0043803398 -7.9242156e-05 0.015493953
-0.04048308 0.012719521 0.010422611 0.013757551 -0.047671095 -0.04136085 0.06137038 -0.039779972
0.030850146 -0.016795103 0.020076053 -0.07408265 -0.0022868426 0.029915884 -0.015884424 0.0064940145
-0.030010425 0.04472785 0.031000482 0.0075174384 0.0248578 -0.043173354 0.033309866 -0.041612655
00000000: b159 aa3c 30ef bf3b 20e2 ee3b 22ce 30bc
00000010: c913 ebbc 220c 3a3d 0e53 9a3d fc81 893c
00000020: cc8a babc 69a5 633d 18e6 14bd 5e62 2d3d
00000030: 1a0b 343d 2833 45bd 089a 9ebc 70c6 4fbd
00000040: e2a2 0d3d 4d3e f63c 3872 f33c e1de ad3c
00000050: 2266 88bb c6c2 473d d4a7 f8bc 9ada b83c
00000060: 93d0 f5bc bcd7 5f3d 8224 55bd 7b78 0fbd
00000070: bc4f 37bd 8889 723c b255 99bc 3faf 26bd
00000080: a43b 22bd a6f5 f23b d206 08bd 5c24 873b
00000090: 404c b73c 014d 4abc a01f 12bd 8da2 13bd
000000a0: 8e1e 283d 7b86 013c 2cd6 10bc 4d76 9abc
000000b0: 9103 503d 4c11 c63c 4fc3 6c3d d456 66bd
000000c0: e1c8 bc3c e680 e7bc 62a0 633d e1bd ba3c
000000d0: 2e0d 6c3d 9955 fb3c bb80 a03c 10f3 f8bb
000000e0: 10d6 233d 6ebb 91bb d438 b7bc d5ce 383d
000000f0: e30f d93c 2294 7e3d d4c2 0c3d 6fba 06bd
00000100: 32b6 6f3d fbe4 5bbd ee48 6f3d 0c1e 65bd
00000110: 4dce 983c 9bfc 823c 5d53 dd3c 99e4 383d
00000120: 4270 0a3c 996c 1f3d 05cc 003d ef09 56bc
00000130: 188e 11bd 7215 143c dfd6 d6bc a625 7e3d
00000140: 4789 923d d898 2abd 6fd2 06bd 288f 073d
00000150: 57b6 7aba 25e2 b8bc 0236 3f3d 9c17 09bd
00000160: 14f3 8c3c 4e59 7a3b 4202 143d 0b2f b5bc
00000170: 8cef fa3c e26d 863d 836c 0d3a fc26 bcbc
00000180: c891 20bd 44b0 e03c 263e 7f3d 7985 403b
00000190: d27b 67bd b699 0e3d 49cb a23c 801f 80ba
000001a0: 804d de3c 3c06 b9bc 6d2e 303d c8a3 80bd
000001b0: d803 4bbc 6747 953c e690 73bd ee00 d93c
000001c0: f100 6f3d 1763 d23c 4cae b1bc 6bb6 c13c
000001d0: cc2e ca3c b37e 173d 08a3 6fbd 9ab8 113d
000001e0: 0dae 7cbd b91d 09bd 6301 3abd 0989 eb3c
000001f0: 7cf3 1f3d 66b8 38bd 2460 df3c 3233 303d
00000200: 8799 d4bc c0dd 9c3b 4778 753d 57fa fb3c
00000210: eae4 433d 8b70 59bd a686 5c3d 16c1 20bb
00000220: e233 583d 064a 9fbc 3e2e c8bc 8c29 c73c
00000230: e290 bbb9 8e6a 1ebd 20ae 54bb f490 a43b
00000240: 1c9e 5bbb 606e 1cbd 0e13 10bd 2431 ea3b
00000250: 8b2d 0cbc 1a90 783d aabe fabc f0ec d73c
00000260: b850 3fbd 685e 84bc c3ac 2dbd 22bf 29bc
00000270: 07a5 30bd 995b d73c 389f 82bc a6bf 0a3d
00000280: 72e0 4a3c 547d 1abd 823c 6c3d 394c 81bd
00000290: e471 04bd 9f3e c6bc 1856 0e3d bc7d eebc
000002a0: a72c b53c 7fe2 1a3d a3cd 0f3d 5e1b 9a3c
000002b0: 6ee6 0e3d 6138 463d 12f1 12bd cefc 3a3d
000002c0: c225 96bd e406 e8bc 48cb 803a b2b6 42bc
000002d0: d5db 65bc 3c5f 063d 9001 053c a329 3b3c
000002e0: 70b8 bc3b 1d85 1cbd 0857 723d 46f8 953c
000002f0: 0223 7dbc 2b0f 5fbd 2a99 e3bb d76c b0bc
00000300: 1040 1fbd 3c0b 4bbd 0e22 133d e8fa edbc
00000310: 4eaa 643c 1c79 45bd 1b4b 533d b76c 5bbd
00000320: f8e8 04bc e67c 75bd 0600 0b3d 8eeb 9d3c
00000330: c110 5e3c 54a1 3d3d de91 38bd 6cee a73c
00000340: 2c8e 503c 880e 1bbd d26b 2d3d faa3 54bd
00000350: 04e3 773d e822 033c d44a 543d ea60 9fbc
00000360: dbd6 3a3d feb6 15bd dff6 1a3c 858b 00bd
00000370: 4bd2 393d 20b8 c9bc 8f7f 4b3d ce75 a03c
00000380: e8cd 4a3d be86 f5ba c7bf 0abd a5d3 263d
00000390: 7ac7 823d f488 8fbb cf2e a6b8 59da 7d3c
000003a0: 96d1 25bd 8a65 503c 99c3 2a3c 5a67 613c
000003b0: c442 43bd ff69 29bd 825f 7b3d 53f0 22bd
000003c0: 72b9 fc3c e295 89bc 8976 a43c a5b8 97bd
000003d0: dade 15bb 2812 f53c 0d20 82bc becb d43b
000003e0: 6cd8 f5bc 8d34 373d b9f4 fd3c d854 f63b
000003f0: 96a2 cb3c 8bd6 30bd ed6f 083d 0872 2abd

V_heads.1.weight f4 [1, 256]
0.017241301 -0.00029668957 -0.05372215 -0.035224363 -0.04589921 -0.055580832 -0.03677364 0.032585427
-0.049114093 0.055870775 -0.0674582 -0.0135169625 -0.008774683 0.041302107 0.035495926 0.009387823
-0.018553592 0.04549785 -0.04749675 0.02913439 0.03218042 0.017839879 0.03396169 -0.036154084
0.049345788 0.00036451098 4.8134792e-05 -0.013126529 0.008197613 -0.038324 0.022740263 -0.05728158
-0.026837334 0.0114682205 0.006241643 -0.052542303 -0.02377747 -0.022736926 -0.058235258 -0.070887014
0.018262997 -0.0022298582 -0.017067198 0.01221697 0.020464592 -0.05378872 -0.0105127655 0.005366206
0.0028024144 0.05213293 -0.018353822 0.02521992 0.033378072 -0.06576227 -0.05731881 0.03355296
-0.04618416 0.039193053 0.0039743856 -0.0032341399 0.036275927 -0.015171744 -0.010982076 -0.054042514
-0.0035853982 0.054272685 0.056632668 -0.02717273 -0.012774235 0.05313923 0.052140377 -0.023108477
0.023912616 -0.040490355 -0.07658403 -0.0055343397 -0.048586868 0.032336503 0.034531176 -0.025509723
-0.02326049 -0.042584367 0.0011719418 -0.02810895 0.05120457 -0.021140253 0.039544478 0.04002306
0.0018687752 -0.03840606 -0.011715636 -0.047595188 -0.034541138 -0.050153345 0.017704174 -0.048215106
-0.005247997 0.04381948 0.005959915 0.05072182 0.010135844 -0.01705677 0.022092918 0.055863693
0.0295851 -0.05321621 -0.03301366 -0.02092604 -0.02909626 0.017249094 -0.057814457 0.02160224
-0.014936824 0.01600996 0.017055832 0.02524439 -0.048454203 -0.043860037 -0.049905755 0.03461118
0.039378922 0.029629886 0.0073348684 0.015729092 0.022321537 -0.028737275 0.01610288 -0.014077775
0.052848347 0.04709234 0.01757555 -0.044787027 0.046750247 0.051704917 -0.0073157847 0.046166766
-0.04153648 0.026621172 -9.020361e-06 -0.014571477 -0.020476168 0.07015252 -0.01236669 -0.059637118
-0.01988908 -0.023595467 0.03587877 0.06633147 0.02764428 -0.009110803 0.012282303 -0.009063886
-0.06200075 -0.019598022 0.041528795 -0.012541695 -0.035244618 -0.06628901 0.0013471469 -0.026585273
-0.024544813 -0.016986273 0.048069917 0.0360336 -0.014357874 0.060124062 0.034862615 0.017261893
0.012140041 -0.041723263 0.034223367 -0.053770654 -0.05106943 -0.054346185 -0.036187857 -0.00018255413
-0.034337435 -0.035487026 0.04335837 0.022265093 0.02685446 -0.0027303 0.012310993 0.0263013
-0.018331729 -0.02064001 -0.0218134 -0.051851697 0.015895521 0.030306831 -0.017811652 0.044129677
0.03335599 -0.021078296 -0.067403056 0.04200869 0.058815904 -0.03112717 -0.010376857 -0.006910324
-0.038971238 -0.016930511 -0.029180547 0.05007952 0.05138815 -0.00886222 0.03739834 -0.012376502
0.03119007 0.03159856 -0.0019647777 0.04453028 -0.03711304 0.0007294857 -0.041167125 -0.03801667
0.0016078618 0.031702124 0.06368489 -0.025489742 0.0016629883 -0.025544442 0.0264465 0.060829144
0.021666832 -0.046500392 0.041720908 0.008123144 0.032733724 0.0020870666 0.017056564 0.031406347
0.02965396 0.02749067 0.003642504 0.047352538 0.036403425 -0.0134991845 -0.008040901 -0.035165135
0.049225613 -0.011032151 0.0029642053 -0.040142797 0.044111904 -0.008587405 -0.04106701 -0.012430665
0.010513812 -0.0050400253 0.02251064 -0.051892035 0.03541475 -0.030266257 0.011816741 -0.015375509
00000000: a13d 8d3c 008d 9bb9 c20b 5cbd 6c47 10bd
00000010: cf00 3cbd baa8 63bd f59f 16bd 4c78 053d
00000020: dc2b 49bd c1d8 643d 8627 8abd 4076 5dbc
00000030: b0c3 0fbc 662c 293d 2d64 113d 62cf 193c
00000040: b4fd 97bc f45b 3a3d f48b 42bd 3fab ee3c
00000050: 9ecf 033d f024 923c 6a1b 0b3d 4e16 14bd
00000060: cf1e 4a3d d61b bf39 57e4 4938 a710 57bc
00000070: 484f 063c a0f9 1cbd ca49 ba3c 17a0 6abd
00000080: f8d9 dbbc 34e5 3b3c b286 cc3b 9936 57bd
00000090: f8c8 c2bc ca42 babc 1888 6ebd 362d 91bd
000000a0: 489c 953c d022 12bb 82d0 8bbc b029 483c
000000b0: 5ca5 a73c 9051 5cbd bc3d 2cbc 00d7 af3b
000000c0: b6a8 373b 5789 553d c15a 96bc 019a ce3c
000000d0: 72b7 083d 5eae 86bd 21c7 6abd d46e 093d
000000e0: 9a2b 3dbd e588 203d 903b 823b ddf3 53bb
000000f0: 1196 143d e892 78bc 2aee 33bc af5b 5dbd
00000100: 00f9 6abb 094d 5e3d a8f7 673d 5899 debc
00000110: 064b 51bc 85a8 593d 2691 553d fd4d bdbc
00000120: 64e4 c33c 37d9 25bd 17d8 9cbd 6859 b5bb
00000130: 0603 47bd 4873 043d 9070 0d3d c4f9 d0bc
00000140: c88c bebc f26c 2ebd d79b 993a be44 e6bc
00000150: e2bb 513d 532e adbc 64f9 213d 38ef 233d
00000160: b1f1 f43a ac4f 1dbd f0f2 3fbc 2cf3 42bd
00000170: 027b 0dbd 986d 4dbd 5808 913c 347d 45bd
00000180: 64f7 abbb 0e7c 333d 644b c33b afc1 4f3d
00000190: d010 263c a4ba 8bbc 35fc b43c 54d1 643d
000001a0: 745c f23c 3ef9 59bd 5539 07bd 166d abbc
000001b0: 485b eebc f94d 8d3c dace 6cbd 2ef7 b03c
000001c0: 95b9 74bc 5227 833c acb8 8b3c 53cd ce3c
000001d0: ea77 46bd 95a6 33bd fa69 4cbd 74c4 0d3d
000001e0: cb4b 213d 60ba f23c 5659 f03b 4cda 803c
000001f0: a8db b63c 6f6a ebbc 30ea 833c 78a6 66bc
00000200: 8277 583d e6e3 403d 9afa 8f3c 9a72 37bd
00000210: 307d 3f3d 89c8 533d 40b9 efbb 5d19 3d3d
00000220: 2822 2abd a514 da3c 2856 17b7 34bd 6ebc
00000230: a3bd a7bc 20ac 8f3d a89d 4abc 0d46 74bd
00000240: 6dee a2bc 484b c1bc 9ef5 123d cbd8 873d
00000250: 4276 e23c 7a45 15bc b63b 493c b180 14bc
00000260: 80f4 7dbd 088c a0bc 191a 2a3d ae7b 4dbc
00000270: a95c 10bd 88c2 87bd c092 b03a 5cc9 d9bc
00000280: 3412 c9bc cc26 8bbc f6e4 443d f897 133d
00000290: 4a3d 6bbc a644 763d 1acc 0e3d d068 8d3c
000002a0: 06e7 463c 03e6 2abd cd2d 0c3d 9e3e 5cbd
000002b0: 2e2e 51bd 1b9a 5ebd b839 14bd 006c 3fb9
000002c0: 69a5 0cbd d85a 11bd 8c98 313d 4965 b63c
000002d0: e2fd db3c d5ee 32bb 0cb4 493c d375 d73c
000002e0: 6c2c 96bc 3d15 a9bc 04b2 b2bc 7262 54bd
000002f0: 5337 823c 0846 f83c bee9 91bc 52c1 343d
00000300: 4aa0 083d 64ac acbc 9d0a 8abd 4e11 2c3d
00000310: f2e8 703d 68fe febc b103 2abc 0070 e2bb
00000320: 4ea0 1fbd dbb1 8abc 0b0c efbc 2f20 4d3d
00000330: 617c 523d d832 11bc 002f 193d d0c6 4abc
00000340: 5182 ff3c 7e6d 013d 80c3 00bb 6265 363d
00000350: d803 18bd f53a 3f3a dc9e 28bd 5eb7 1bbd
00000360: e4be d23a 16da 013d 396d 823d ddcf d0bc
00000370: a1f8 d93a 9442 d1bc 55a6 d83c fb27 793d
00000380: a47e b13c 3277 3ebd 8be3 2a3d ef16 053c
00000390: cc13 063d 2bc7 083b 35ba 8b3c f1a3 003d
000003a0: ddec f23c 1d34 e13c 14b7 6e3b bcf4 413d
000003b0: c21b 153d af2b 5dbc fcbd 03bc 5109 10bd
000003c0: cca0 493d 32c0 34bc 1d43 423b c66c 24bd
000003d0: afae 343d 30b2 0cbc e235 28bd fda9 4bbc
000003e0: 2042 2c3c cc26 a5bb 3c68 b83c be8c 54bd
000003f0: 0f0f 113d f1f0 f7bc 019b 413c 8fe9 7bbc

V_heads.2.weight f4 [1, 256]
-0.041533258 -0.016841993 -0.028883375 -0.036092773 0.046963338 -0.040811494 0.013155797 -0.006883179
0.03419806 -0.063389 0.029451163 -0.04671953 0.0018951818 -0.063391924 0.035122808 0.012372265
-0.010510666 -0.03764838 0.060453735 0.0063990103 0.01967358 0.03997328 0.02998104 0.011367683
0.048931364 0.049183577 0.020442395 0.017330652 -0.04860244 0.033765625 0.0381848 0.034742054
-0.032835275 -0.029529965 0.043752313 -0.053731058 -0.050397255 0.032318424 -0.03289885 -0.052910272
-0.0015930831 -0.0031331219 0.020415433 0.027785847 0.03229033 0.04575541 0.0056402925 -0.050332673
0.036055427 0.018819485 0.010428981 0.0061302534 -0.0009499565 -0.04069769 0.02652095 -0.040256828
0.005031719 -0.046965342 0.037798844 -0.040403035 -0.049809616 -0.005886607 -0.051889613 0.031878393
-0.033064812 -0.02847021 8.4117055e-05 -0.054695785 0.007402975 0.03880349 0.038572736 -0.025918333
0.06809661 -0.020012425 -0.017353212 0.03324262 -0.047230914 -0.05470469 0.0279828 0.044534788
-0.012281854 0.03933882 0.053811807 -0.05631362 0.030652886 -0.027971849 0.026825093 -0.027105173
0.03316193 0.014394884 -0.029804543 -0.037367538 0.007242605 -0.01472846 0.02587917 0.020512357
-0.04913581 -0.034315474 -0.030809829 0.06266157 -0.010098793 -0.008823529 -0.04086919 0.046280764
-0.020353898 -0.022081695 -0.066134356 0.04278822 0.0013243258 0.032931983 0.010788582 -0.010308622
-0.032664116 0.046521287 -0.029767431 0.031395476 -0.026460432 0.026488282 0.017936282 0.011080727
-0.013931225 0.014391399 -0.042954694 0.03572603 -0.055204593 0.038958192 -0.022506572 0.057729803
-0.03700066 0.024759784 -0.037691634 -0.061817214 -0.03283789 -0.045252528 0.016886152 0.0045969747
0.030247478 -0.032335453 -0.010227831 -0.061912913 0.025616804 0.015150743 -0.029719256 0.001488406
-0.0498884 0.056551978 -0.02970297 0.056152362 -0.0367058 -0.05306782 0.014496097 -0.00083594024
0.032678336 0.01349353 0.05042627 0.0068061575 0.0021798494 0.011552675 -0.058074728 0.016744442
0.010230821 -0.047508456 0.031784363 -0.02173462 0.005278163 0.008909655 -0.022271374 0.009533554
0.04630301 -0.013049834 -0.008880371 -0.036557183 -0.00012191385 0.01841699 0.0395666 0.056773946
-0.0036913285 0.011906607 -0.019208115 -0.034500167 0.027294528 0.010078082 -0.024990367 0.028575392
0.016379826 0.014826494 0.0012174994 0.0069023212 -0.021899035 -0.04757933 -0.010994946 0.04898595
-0.019285947 0.0417953 0.005359726 -0.04242386 -0.029430484 0.024655856 0.004169239 0.00316993
-0.01131352 0.031554498 -0.02390573 0.01527317 0.03629813 0.031484276 -0.00931295 0.027220495
0.0065575126 -0.04868807 0.053182505 -0.06134212 0.03663715 -0.03869539 0.05080443 0.06165082
0.03656723 -0.027098924 -0.005335728 0.019634252 -0.0126947705 -0.062067762 -0.02745728 -0.034228202
-0.023646683 0.045065172 0.045513924 0.0414853 0.027857563 -0.05383917 -0.004174075 0.013903517
0.012493503 0.02013498 0.020635974 0.0028260392 -0.07758325 -0.0068923337 0.026290558 0.028096708
0.010583143 -0.015973885 0.03951554 0.005707869 0.018770024 0.04209218 -0.00031569053 0.04995229
0.0020348877 -0.036626596 0.034780044 0.055572666 0.019711595 0.06397673 -0.034383316 0.05351153
00000000: c71e 2abd 38f8 89bc d49c ecbc 04d6 13bd
00000010: a15c 403d f429 27bd 698b 573c 4a8c e1bb
00000020: 4413 0c3d 18d2 81bd 9143 f13c fa5c 3fbd
00000030: c067 f83a a0d3 81bd efdc 0f3d 0ab5 4a3c
00000040: ee34 2cbc 3035 1abd 569e 773d caae d13b
00000050: 7d2a a13c 06bb 233d cc9a f53c 853f 3a3c
00000060: 416c 483d b874 493d cf76 a73c 03f9 8d3c
00000070: 5a13 47bd d34d 0a3d aa67 1c3d af4d 0e3d
00000080: 487e 06bd d3e8 f1bc a035 333d 1915 5cbd
00000090: 5a6d 4ebd 5360 043d f2c0 06bd 71b8 58bd
000000a0: 00cf d0ba 1055 4dbb 443e a73c 259f e33c
000000b0: dd42 043d 066a 3b3d 34d2 b83b a229 4ebd
000000c0: dbae 133d 522b 9a3c 51de 2a3c 4be0 c83b
000000d0: 8006 79ba 9fb2 26bd 7742 d93c 58e4 24bd
000000e0: 1ee1 a43b bb5e 40bd f6d2 1a3d a77d 25bd
000000f0: 2b05 4cbd 70e4 c0bb 348a 54bd eb92 023d
00000100: f86e 07bd 5c3a e9bc 0068 b038 b008 60bd
00000110: a894 f23b 69f0 1e3d 72fe 1d3d af52 d4bc
00000120: 3c76 8b3d 19f1 a3bc 5328 8ebc 6a29 083d
00000130: 3475 41bd 0612 60bd 2f3c e53c 1c6a 363d
00000140: d439 49bc be21 213d c569 5c3d 1ca9 66bd
00000150: c31b fb3c 3825 e5bc 4cc0 db3c ab0b debc
00000160: ced4 073d 85d8 6b3c a828 f4bc b40e 19bd
00000170: 6053 ed3b a44f 71bc 8e00 d43c 8809 a83c
00000180: a242 49bd 628e 0cbd e564 fcbc b654 803d
00000190: 6875 25bc 9090 10bc 7466 27bd e690 3d3d
000001a0: 38bd a6bc ace4 b4bc 7371 87bd b342 2f3d
000001b0: 0095 ad3a b0e3 063d 98c2 303c 7fe5 28bc
000001c0: cfca 05bd 1b8d 3e3d d4da f3bc 8b98 003d
000001d0: 8cc3 d8bc f4fd d83c 1cef 923c f08b 353c
000001e0: cb3f 64bc e7c9 6b3c 43f1 2fbd 7555 123d
000001f0: 361e 62bd a092 1f3d b45f b8bc 1676 6c3d
00000200: 018e 17bd 08d5 ca3c 8b62 1abd 0c34 7dbd
00000210: 0681 06bd b75a 39bd d454 8a3c 38a2 963b
00000220: 8fc9 f73c 2e72 04bd a292 27bc 6598 7dbd
00000230: 55da d13c d23a 783c cc75 f3bc 9e16 c33a
00000240: c757 4cbd 0ca3 673d a553 f3bc 0500 663d
00000250: d258 16bd a45d 59bd 0a81 6d3c 0023 5bba
00000260: b8d9 053d f813 5d3c c78b 4e3d 3006 df3b
00000270: cedb 0e3b 6e47 3d3c c4df 6dbd a42b 893c
00000280: 2c9f 273c 3a98 42bd 5230 023d cd0c b2bc
00000290: 71f4 ac3b cdf9 113c 7572 b6bc a032 1c3c
000002a0: 3aa8 3d3d f9ce 55bc fa7e 11bc fcbc 15bd
000002b0: 00ac ffb8 3adf 963c 9610 223d cc8b 683d
000002c0: 37ea 71bb ee13 433c 565a 9dbc 0c50 0dbd
000002d0: c698 df3c 8a1e 253c 99b8 ccbc f116 ea3c
000002e0: fc2e 863c d3ea 723c 8094 9f3a de2c e23b
000002f0: 9b65 b3bc 8be2 42bd 2524 34bc 7ea5 483d
00000300: 90fd 9dbc 8c31 2b3d a4a0 af3b a4c4 2dbd
00000310: 3318 f1bc 14fb c93c 1d9e 883b 9abe 4f3b
00000320: 585c 39bc 4a3f 013d f3d5 c3bc 513c 7a3c
00000330: 59ad 143d a8f5 003d 5895 18bc 84fd de3c
00000340: 67e0 d63b 246d 47bd e6d5 593d e041 7bbd
00000350: d610 163d 0f7f 1ebd 4e18 503d 9285 7c3d
00000360: 85c7 153d 90fe ddbc 55d7 aebb 03d8 a03c
00000370: bafd 4fbc c43a 7ebd 17ee e0bc df32 0cbd
00000380: b0b6 c1bc 4296 383d cf6c 3a3d 7dec 293d
00000390: 8b35 e43c 7686 5cbd aec6 88bb 94cb 633c
000003a0: 8db1 4c3c 1df2 a43c c60c a93c 1235 393b
000003b0: f8e3 9ebd 16d9 e1bb 4c5f d73c 112b e63c
000003c0: eb64 2d3c aadb 82bc 0cdb 213d 1309 bb3b
000003d0: 98c3 993c da68 2c3d 4483 a5b9 c69a 4c3d
000003e0: c05b 053b c505 16bd 8575 0e3d 2aa0 633d
000003f0: 367a a13c 3b06 833d 85d5 0cbd e82e 5b3d
