results/bdq/models/bdq_checkpoint_60.pt (torch, 313023 bytes, 25 tensors)

trunk.0.weight f4 [256, 11]
0.23278064 0.24955554 -0.07063581 0.27874428 -0.06948759 0.059506778 -0.118745424 0.17580046
0.25676766 -0.22323634 0.26050627 0.048214912 0.21536113 0.04083386 0.1313415 -0.06382981
0.23243442 0.12836544 -0.1350834 0.037493348 -0.14639856 -0.03571211 -0.12502123 0.1920652
-0.23800406 -0.1503108 -0.09087036 -0.18940203 0.0063732504 -0.30982396 0.2648115 -0.26332363
0.22804981 0.050177276 -0.097902104 0.18631893 0.046990782 0.24361014 0.03296113 -0.095088586
0.081011176 -0.081763685 0.12689331 0.26919603 0.17429152 -0.13181248 0.17405185 0.053948283
0.15311801 -0.18377268 -0.29846862 -0.11649208 -0.23126608 0.24740177 0.08684471 0.091342196
0.088624306 -0.0052450895 0.22250313 -0.21816932 0.0012881865 -0.16545753 0.07638733 -0.12113661
0.085911505 -0.0626376 0.25007105 -0.17870635 -0.17982076 -0.17983162 0.2711922 0.10047901
0.29012948 -0.24883015 -0.2990619 -0.23589155 -0.2028234 0.11357798 0.10293229 0.2505331
-0.16057692 -0.216183 0.1482519 -0.08923997 0.18894027 -0.08921715 0.1623075 -0.23348194
-0.16064243 0.08308542 0.06374177 -0.09226452 0.172071 0.20104304 -0.23314516 -0.15501195
0.25230452 -0.10990698 -0.10891753 -0.29174075 -0.17266656 0.075318635 -0.039797425 -0.21886286
0.0070724487 -0.20595682 -0.25580123 -0.16603103 -0.26388636 -0.19198376 0.28133157 0.05704735
0.09291366 -0.28639987 -0.19296293 -0.101730466 0.04490921 -0.25892153 -0.1289253 -0.17569362
0.0019517811 -0.112193346 -0.020893455 -0.20431304 -0.20695594 -0.17590226 -0.10320656 -0.23797715
0.25280815 -0.05983916 0.25941938 0.09394553 -0.22589904 0.19737186 -0.08295928 -0.11429231
-0.25694868 -0.28028908 0.06364959 -0.107516535 0.12204678 -0.26582438 0.20580886 -0.19988666
-0.07349589 0.06297657 0.13422324 0.22196323 0.25890872 -0.26052496 0.054448824 -0.12968786
-0.03304106 -0.22567827 0.27463424 -0.2212944 0.16114312 0.10596302 0.09797791 -0.16301097
0.27405918 0.06625724 0.03878644 -0.26570833 0.126571 -0.04523292 -0.13812967 0.25898212
0.06722158 -0.16681913 -0.15260662 -0.014398903 0.16835228 -0.07704635 -0.1720348 -0.103250414
-0.2194828 0.10116045 0.23338193 -0.28497252 0.0567269 0.14910762 0.055988103 -0.10679094
0.15351827 0.14721736 0.106079325 -0.052982002 -0.079840586 0.032255948 -0.053263217 -0.089850694
0.19272813 0.25911874 -0.029848814 -0.067507446 0.0043997467 -0.018002719 0.07253807 0.081065
-0.27384973 -0.11685658 0.25171527 0.11382505 -0.04012806 -0.18669774 -0.18021768 -0.27519825
-0.09787906 0.079119384 0.18851455 0.13920698 -0.27487776 -0.17315 -0.047189053 0.25440273
0.0020813174 -0.06115025 0.12608126 -0.11893507 -0.18357505 0.20123346 -0.13709775 -0.08517287
-0.329692 0.1726659 0.24239703 0.1295436 -0.24613042 -0.29336083 -0.27838746 0.20407508
0.14105393 0.25372314 0.14983884 0.07824523 -0.010680437 -0.2981278 -0.27107266 -0.28982124
0.12331008 -0.15067065 -0.060679942 -0.17352137 -0.054942474 -0.2122142 -0.19701225 0.10001457
-0.08960809 0.18613598 -0.09672749 -0.22117884 -0.053198338 -0.14615685 -0.09224486 -0.2870375
00000000: 0c5e 6e3e 7d8b 7f3e 82a9 90bd 92b7 8e3e
00000010: 824f 8ebd 61bd 733d cd30 f3bd 0905 343e
00000020: 0d77 833e 1198 64be 1461 853e 007d 453d
00000030: a187 5c3e 6841 273d 637e 063e 34b9 82bd
00000040: 4a03 6e3e 3b72 033e 4e53 0abe a092 193d
00000050: 81e9 15be dd46 12bd 9105 00be bdac 443e
00000060: 56b7 73be 13eb 19be 3d1a babd 9bf2 41be
00000070: b3d6 d03b 3fa1 9ebe 5f95 873e 5bd2 86be
00000080: e485 693e b086 4d3d e680 c8bd 64ca 3e3e
00000090: 6879 403d f074 793e 4002 073d cebd c2bd
000000a0: 30e9 a53d b873 a7bd 52f0 013e 10d4 893e
000000b0: 7a79 323e daf9 06be a63a 323e e0f8 5c3d
000000c0: f8ca 1c3e e82e 3cbe e1d0 98be 6693 eebd
000000d0: 04d1 6cbe e456 7d3e a4db b13d 9e11 bb3d
000000e0: a980 b53d 00df abbb dcd7 633e c767 5fbe
000000f0: 5ed8 a83a b36d 29be f670 9c3d 7916 f8bd
00000100: 5ff2 af3d 2448 80bd 5009 803e ccfe 36be
00000110: ef22 38be c825 38be b4d9 8a3e f0c7 cd3d
00000120: da8b 943e 55cd 7ebe a41e 99be 8e8d 71be
00000130: f0b0 4fbe 929b e83d 2ace d23d e045 803e
00000140: 476e 24be 145f 5dbe 59cf 173e 72c3 b6bd
00000150: 8f79 413e 7bb7 b6bd f033 263e e415 6fbe
00000160: 737f 24be b028 aa3d 0c8b 823d 2ef5 bcbd
00000170: 6133 303e 3ade 4d3e 9bbd 6ebe 74bb 1ebe
00000180: 0f2e 813e e916 e1bd 2710 dfbd 0b5f 95be
00000190: 81cf 30be a840 9a3d a002 23bd 961d 60be
000001a0: 00c0 e73b 58e6 52be 61f8 82be 0a04 2abe
000001b0: 1d1c 87be 6497 44be b10a 903e 7baa 693d
000001c0: 8449 be3d 01a3 92be 1398 45be 1058 d0bd
000001d0: b8f2 373d 5d91 84be fe04 04be 07e9 33be
000001e0: e8d2 ff3a a0c5 e5bd c028 abbc 7037 51be
000001f0: 42ec 53be b91f 34be f65d d3bd 48b0 73be
00000200: 1270 813e e819 75bd 9ed2 843e 8466 c03d
00000210: 1452 67be d91b 4a3e 8ee6 a9bd 1612 eabd
00000220: c78e 83be 0d82 8fbe b75a 823d a131 dcbd
00000230: aaf3 f93d 221a 88be 8fbf 523e 17af 4cbe
00000240: 0385 96bd dcf9 803d d171 093e 544a 633e
00000250: af8f 843e 8763 85be bb05 5f3d e5cc 04be
00000260: 1056 07bd 3418 67be dc9c 8c3e 009b 62be
00000270: b402 253e 2403 d93d a4a8 c83d 59ec 26be
00000280: 7c51 8c3e e0b1 873d 88de 1e3d ec0a 88be
00000290: d49b 013e 2846 39bd dd71 0dbe 4e99 843e
000002a0: 78ab 893d a2d2 2abe e944 1cbe 60e9 6bbc
000002b0: 8a64 2c3e 7aca 9dbd e429 30be f474 d3bd
000002c0: 19c0 60be 362d cf3d acfb 6e3e ebe7 91be
000002d0: 775a 683d abaf 183e c853 653d 35b5 dabd
000002e0: e533 1d3e 26c0 163e 1e40 d93d a803 59bd
000002f0: 7683 a3bd d01e 043d 882a 5abd a403 b8bd
00000300: 865a 453e 36ab 843e 8085 f4bc 5841 8abd
00000310: c02b 903b 707a 93bc d78e 943d 6805 a63d
00000320: 0836 8cbe 8152 efbd d3e0 803e 1c1d e93d
00000330: 525d 24bd b12d 3fbe fc8a 38be c9e6 8cbe
00000340: d174 c8bd 5809 a23d f509 413e 468c 0e3e
00000350: c7bc 8cbe 3c4e 31be 4f49 41bd 1341 823e
00000360: b666 083b af78 7abd 721b 013e 3b94 f3bd
00000370: 19fb 3bbe 2510 4e3e 5a63 0cbe 1d6f aebd
00000380: 64cd a8be 54cf 303e ed36 783e 14a7 043e
00000390: 9d09 7cbe 6433 96be cd88 8ebe 0ff9 503e
000003a0: 7170 103e 00e8 813e 5a6f 193e 093f a03d
000003b0: 00fd 2ebc 35a4 98be 09ca 8abe 7363 94be
000003c0: ff89 fc3d 6849 1abe 888b 78bd 96af 31be
000003d0: 5c0b 61bd ae4e 59be 94bd 49be 70d4 cc3d
000003e0: 7284 b7bd 6e9a 3e3e 1019 c6bd b57c 62be
000003f0: 80e6 59bd 24aa 15be e0ea bcbd 94f6 92be

trunk.0.bias f4 [256]
0.21326369 -0.17122713 -0.14551507 0.23150271 0.11780012 -0.1847831 0.0913122 0.14713429
-0.2831946 0.05632451 0.06370129 -0.011743009 0.2903743 -0.22072206 0.1634543 -0.1601678
-0.25924328 0.20548558 -0.15022947 0.0058125714 0.13383554 -0.25977358 -0.25809038 0.10265285
0.22819132 -0.031904697 0.19266124 0.10595128 0.06771598 -0.19223517 0.29030773 0.13810444
0.017576449 0.19374877 -0.2590668 0.06497085 -0.1404945 -0.030617744 0.09878507 0.13293532
0.053183015 -0.2333556 -0.18869561 0.0052645504 -0.052219138 -0.2455636 0.2970388 0.0039465544
-0.23818703 0.13223866 0.1333432 -0.15352674 0.14324921 -0.20242502 0.10446802 0.28640717
0.19903696 0.14885283 -0.061342865 0.025160296 0.117424846 0.06464546 -0.062653966 0.03262834
-0.12212147 -0.15630089 -0.27824563 -0.2594953 -0.19982508 0.28821176 0.05334968 -0.27078715
-0.15412325 0.07042685 -0.09024423 -0.09651515 -0.11322199 -0.08218314 0.0070294184 0.012344009
0.19159533 0.19783562 0.24340066 -0.012979217 -0.13463077 0.0010288656 -0.19966513 0.13069078
-0.03637746 -0.10459471 -0.26207674 0.14530328 0.15959352 0.2652694 -0.11785196 0.08891522
0.011365354 -0.1968434 -0.18848945 0.15207486 -0.16262072 0.21955562 0.10533583 0.09901949
0.19856799 0.13790886 0.13011822 0.15029097 -0.12829593 -0.15988587 -0.05523731 0.13095812
0.20889655 0.2200787 -0.09667455 -0.03825718 -0.21418187 0.17493321 -0.21653941 -0.13644765
0.22791305 0.06838142 -0.1320058 -0.21385628 -0.20734152 0.22784632 -0.2705478 0.26054478
0.22919011 0.0073640156 -0.034092374 0.234492 0.13218744 0.28508234 0.23219982 -0.20356046
0.17647348 0.15325046 -0.21407677 0.1443772 -0.1722031 -0.18774804 0.0056250095 -0.04338101
-0.09320136 -0.1977334 0.15628861 0.29659003 -0.06568741 -0.20500965 -0.015547186 -0.265063
-0.25350285 -0.106096074 0.18944103 -0.2406394 -0.048116177 -0.1627986 -0.2887198 -0.06446054
-0.017563343 -0.050696373 0.21943063 0.10643781 0.1877194 0.118098736 0.031633824 0.14489998
-0.19234905 0.15135702 0.122710675 -0.13356166 -0.009079718 -0.24120788 -0.26907456 -0.0024369792
0.053987205 -0.06412593 0.08097258 -0.24701041 -0.20112492 0.20215058 -0.29342243 0.14120299
0.22817883 0.22603923 0.09576237 -0.2746469 0.029540453 -0.106028974 -0.08959456 0.23101574
-0.11080566 -0.21349667 -0.24967721 0.18141346 0.00798327 0.28480774 0.05174312 -0.28098407
0.074596226 0.2758962 0.18700626 0.09471757 -0.22652669 -0.18079662 0.20473051 -0.2092625
0.055355027 -0.038630545 0.10103062 0.009075632 -0.23522775 -0.11987721 0.2505298 0.036603868
0.14522195 -0.162455 0.23868865 -0.064542696 -0.10162856 0.06116295 -0.108035535 -0.12116219
-0.043144852 -0.025534745 -0.17221743 0.094423495 -0.2922195 0.16736045 0.2796408 0.04877937
-0.070450634 -0.2761545 0.14159048 0.26657906 0.2486058 0.019009268 0.100240946 0.27794564
0.085172586 -0.14826602 -0.2862634 0.13182405 0.11203126 0.24933393 -0.15350103 0.13248293
-0.09975633 -0.09089919 0.16916905 -0.2763888 0.22225523 0.14023247 -0.18639438 0.14729668
00000000: cc61 5a3e 2a56 2fbe e701 15be 0c0f 6d3e
00000010: 3041 f13d c837 3dbe e401 bb3d 5faa 163e
00000020: e2fe 90be 88b4 663d d275 823d c065 40bc
00000030: f1ab 943e f704 62be 9060 273e 0703 24be
00000040: 89bb 84be d06a 523e c1d5 19be 6277 be3b
00000050: 2f0c 093e 0b01 85be 6c24 84be a83b d23d
00000060: fcaa 693e 80ae 02bd fd48 453e fcfc d83d
00000070: adae 8a3d 4cd9 44be 37a3 943e 406b 0d3e
00000080: 7cfc 8f3c 1466 463e 67a4 84be 700f 853d
00000090: cadd 0fbe 10d2 fabc d44f ca3d 3220 083e
000000a0: 6fd6 593d c5f4 6ebe 6c39 41be 4082 ac3b
000000b0: bce3 55bd 0675 7bbe 7815 983e 1952 813b
000000c0: 4de7 73be 9269 073e 1f8b 083e 1d36 1dbe
000000d0: ecaf 123e 8148 4fbe 54f3 d53d f6a3 923e
000000e0: 58d0 4b3e e06c 183e a842 7bbd f71c ce3c
000000f0: 707c f03d d764 843d b950 80bd 4ba5 053d
00000100: d21a fabd 570d 20be 3676 8ebe 91dc 84be
00000110: f29e 4cbe 7e90 933e 3285 5a3d 9da4 8abe
00000120: 7cd2 1dbe f43b 903d f8d1 b8bd bca9 c5bd
00000130: eee0 e7bd a24f a8bd 0957 e63b 873e 4a3c
00000140: 9131 443e 6c95 4a3e 063e 793e c8a6 54bc
00000150: a6dc 09be 00db 863a 0475 4cbe ced3 053e
00000160: 8800 15bd c035 d6bd ec2e 86be 62ca 143e
00000170: 7c6c 233e 64d1 873e 5e5c f1bd 2f19 b63d
00000180: c035 3a3c 5191 49be 6103 41be 83b9 1b3e
00000190: 0c86 26be 30d3 603e 50ba d73d bbca ca3d
000001a0: 6855 4b3e fb37 0d3e b63d 053e e0e5 193e
000001b0: 0260 03be 1fb9 23be 8440 62bd e319 063e
000001c0: fae8 553e 505c 613e 4efd c5bd 90b3 1cbd
000001d0: 7e52 5bbe b121 333e 82bc 5dbe efb8 0bbe
000001e0: 0a62 693e 8f0b 8c3d 872c 07be 24fd 5abe
000001f0: 5651 54be 8c50 693e 3e85 8abe 2066 853e
00000200: d0b0 6a3e d74d f13b 72a4 0bbd ac1e 703e
00000210: 255c 073e 50f6 913e cac5 6d3e 2772 50be
00000220: 77b5 343e b0ed 1c3e f136 5bbe 9ed7 133e
00000230: 0256 30be 0641 40be 0052 b83b 49b0 31bd
00000240: 5be0 bebd a07a 4abe 1f0a 203e a6da 973e
00000250: 1f87 86bd 0dee 51be a0b9 7ebc 56b6 87be
00000260: 20cb 81be e648 d9bd d4fc 413e 2d6a 76be
00000270: 7815 45bd adb4 26be 15d3 93be e303 84bd
00000280: 00e1 8fbc 00a7 4fbd 6cb2 603e 11fc d93d
00000290: 8439 403e c0dd f13d 7892 013d a960 143e
000002a0: 26f7 44be 56fd 1a3e bc4f fb3d 63c4 08be
000002b0: 19c3 14bc 33ff 76be 24c4 89be bab5 1fbb
000002c0: b021 5d3d 7554 83bd f4d4 a53d 4cf0 7cbe
000002d0: b1f3 4dbe 9000 4f3e 773b 96be 8497 103e
000002e0: b6a7 693e d476 673e 101f c43d 859e 8cbe
000002f0: d2fe f13c b825 d9bd 5a7d b7bd 648f 6c3e
00000300: 14ee e2bd df9e 5abe 62ab 7fbe 73c4 393e
00000310: 43cc 023c 52d2 913e 98f0 533d 25dd 8fbe
00000320: e8c5 983d 4442 8d3e 927e 3f3e 49fb c13d
00000330: 9df6 67be c022 39be e0a4 513e e948 56be
00000340: f4bb 623d 103b 1ebd 24e9 ce3d f6b1 143c
00000350: 8bdf 70be 2f82 f5bd 7145 803e f0ed 153d
00000360: 10b5 143e 9b5a 26be cc6a 743e f62e 84bd
00000370: a222 d0bd 0086 7a3d bc41 ddbd e223 f8bd
00000380: a8b8 30bd 3e2e d1bc c459 30be 1b61 c13d
00000390: cb9d 95be 8a60 2b3e 142d 8f3e e0cc 473d
000003a0: 6c48 90bd 1f64 8dbe 18fd 103e 0d7d 883e
000003b0: 8592 7e3e 53b9 9b3c 204b cd3d e44e 8e3e
000003c0: f76e ae3d 0cd3 17be 1e91 92be e2fc 063e
000003d0: a570 e53d 6551 7f3e 602f 1dbe 9ba9 073e
000003e0: 0c4d ccbd 5b29 babd a73a 2d3e d582 8dbe
000003f0: e096 633e 1a99 0f3e 2bde 3ebe f1d4 163e

trunk.2.weight f4 [256, 256]
-0.01572077 0.005624816 -0.016728655 -0.061194576 -0.0064729974 0.030494973 -0.0072716773 -0.0307758
0.0019803494 0.011405453 -0.017438479 -0.048467755 -0.03350895 -0.010189563 0.022508927 0.055579595
0.0011599287 0.022377633 0.035960697 -0.027253233 -0.020738557 0.041456617 0.04474926 0.014809929
-0.048298903 0.03547415 -0.05165594 0.031238899 0.0074071437 0.020188421 -0.060921744 -0.021973453
0.026543535 0.04810539 -0.017893158 0.05573436 -0.013947427 -0.037696652 -0.027065217 0.0038891882
-0.011108331 0.030250244 -0.034588866 -0.01777941 -0.061938316 0.051015206 -0.011760183 -0.049269505
-0.0030158833 -0.00011408329 0.017358012 -0.0068600625 0.039316446 -0.021563984 -0.01870691 -0.014841862
0.011158124 0.05007627 -0.0028758422 0.04808931 0.04909665 -0.03254062 -0.0053700134 -0.029503688
0.025998376 -0.021973066 0.019065619 0.0037340373 -0.04102909 -0.042018384 -0.061045304 -0.034961343
0.017459646 0.003807865 0.047006376 -0.05495715 -0.0018263608 -0.056040615 0.0003658533 0.022771038
-0.05606521 0.05519703 -0.019411936 0.05537726 -0.010490693 0.03545718 0.056817286 -0.022754595
-0.0151929185 0.03278309 -0.053508185 0.0369955 -0.03925708 0.05804771 -0.040960334 -0.025719464
0.04663659 -0.027211674 0.053571954 0.04300122 0.057125717 -0.060580127 0.0007004887 -0.020557098
0.014887728 -0.047190696 0.025628373 -0.0029608607 -0.029543042 -0.056225225 0.03269176 -0.022619076
0.04611727 0.0111259 0.01900877 -0.0094790235 -0.008657746 -0.021231852 -0.054118805 0.03929352
-0.03935881 0.03642735 -0.021080159 0.039154314 0.053563885 -0.038225383 0.051607847 0.0015232787
-0.04774569 0.025513232 0.035389952 0.05509448 -0.059495017 0.056435145 0.0473817 0.061485097
0.034062885 -0.030382067 0.04741323 0.05711981 -0.023898117 -0.010216273 0.048908263 0.05031141
0.041286662 0.047883265 -0.03211865 -0.01078219 -0.024969302 0.03248363 0.015575774 -0.048278317
-0.007850729 -0.050965942 -0.0588198 0.056976743 -0.031438813 0.027895607 -0.013917409 -0.012656204
-4.0367246e-05 0.048745476 -0.008646004 0.051716603 0.036569238 0.042875543 -0.05668377 -0.029224709
-0.05092027 -0.01327429 -0.012945123 0.012700237 0.05599817 0.02805657 -0.043491103 -0.03919646
0.047194093 0.006221503 0.01765655 -0.032689705 -0.0076218247 0.017794058 -0.041014083 0.04079134
0.031146504 -0.036448263 -0.025630057 -0.014693812 0.009726636 -0.022926249 0.059788823 -0.06020058
-0.03532497 -0.03793616 0.016898774 0.008869186 -0.017809756 0.053341128 -0.05395332 0.022028133
-0.034390725 -0.014231786 -0.060187526 -0.04665669 -0.053028077 0.02726712 -0.023469158 0.032693796
-0.033871807 -0.015485287 0.0075654387 0.052370287 -0.0168446 0.036232613 0.017241992 0.03801266
0.039481767 0.025363497 -0.018846706 -0.017541654 0.024331331 0.034065157 -0.003335841 0.031329714
-0.037601195 0.035228632 -0.00766968 -0.04301074 -0.030367754 -0.04773114 0.012607336 -0.037066296
-0.017897718 -0.0039159358 -0.038135044 0.0016048551 -0.007932037 0.019796379 0.045150474 -0.037729323
0.03417164 -0.0013241768 -0.03572218 -0.028344616 0.015908621 0.0130133405 -0.0020187646 -0.031115346
0.03151848 0.009273179 -0.06075819 -0.011045419 -0.01695703 -0.026669346 -0.03466861 -0.050703898
00000000: d8c8 80bc 6050 b83b 880a 89bc 2aa7 7abd
00000010: 701b d4bb 98d0 f93c 4047 eebb 881d fcbc
00000020: c0c8 013b f0dd 3a3c 24db 8ebc 2086 46bd
00000030: ae40 09bd 20f2 26bc a464 b83c 6ea7 633d
00000040: c008 983a 4c51 b73c 864b 133d 2c42 dfbc
00000050: e8e3 a9bc 6ace 293d 004b 373d 58a5 723c
00000060: 12d5 45bd 584d 113d 2e95 53bd b8e8 ff3c
00000070: a0b7 f23b 3062 a53c 1489 79bd ac01 b4bc
00000080: d471 d93c 280a 453d ac94 92bc b649 643d
00000090: c083 64bc ce67 1abd e0b7 ddbc c0e1 7e3b
000000a0: b8ff 35bc 5ccf f73c 0ead 0dbd 20a6 91bc
000000b0: 08b3 7dbd 52f5 503d c8ad 40bc d2ce 49bd
000000c0: 20a6 45bb 0040 efb8 6432 8e3c 60ca e0bb
000000d0: 480a 213d f4a6 b0bc 3c3f 99bc 482b 73bc
000000e0: 90d0 363c c61c 4d3d a078 3cbb 4cf9 443d
000000f0: 9219 493d 5049 05bd f0f6 afbb b8b1 f1bc
00000100: 8cfa d43c dc00 b4bc 802f 9c3c c0b6 743b
00000110: 1e0e 28bd 781b 2cbd a40a 7abd a033 0fbd
00000120: 8807 8f3c 608d 793b c289 403d c01a 61bd
00000130: 8062 efba d88a 65bd 00d0 bf39 548a ba3c
00000140: a2a4 65bd 4816 623d c805 9fbc 44d3 623d
00000150: 28e1 2bbc 8c3b 113d 3eb9 683d d867 babc
00000160: b8eb 78bc 9047 063d 662b 5bbd 9888 173d
00000170: 08cc 20bd 70c3 6d3d 06c6 27bd a0b1 d2bc
00000180: 0206 3f3d 04eb debc 446e 5b3d 0c22 303d
00000190: a8fc 693d de22 78bd 00a1 373a 5c67 a8bc
000001a0: a8eb 733c 084b 41bd 98f2 d13c 000b 42bb
000001b0: 4004 f2bc 6c4c 66bd cce7 053d a44b b9bc
000001c0: 76e5 3c3d 6849 363c 48b8 9b3c e84d 1bbc
000001d0: 38d9 0dbc 6cee adbc aeab 5dbd 3ef2 203d
000001e0: b436 21bd d834 153d 4cb0 acbc 4660 203d
000001f0: ce65 5b3d 3892 1cbd c062 533d c0a8 c73a
00000200: fc90 43bd 2001 d13c 0ef5 103d c0aa 613d
00000210: 0cb1 73bd 8a28 673d 5013 423d ccd7 7b3d
00000220: 8685 0b3d d0e3 f8bc 6034 423d 76f6 693d
00000230: fcc5 c3bc 2862 27bc 0854 483d 5613 4e3d
00000240: 341c 293d 3e21 443d d88e 03bd c8a7 30bc
00000250: 6c8c ccbc 8e0d 053d 8831 7f3c 7cbf 45bd
00000260: 58a0 00bc aac1 50bd 08ed 70bd 7260 693d
00000270: fcc5 00bd 5485 e43c d805 64bc f85b 4fbc
00000280: 0050 29b8 56a9 473d f8a7 0dbc cad4 533d
00000290: a0c9 153d 449e 2f3d 3e2d 68bd a868 efbc
000002a0: c691 50bd 687c 59bc c817 54bc a814 503c
000002b0: 565e 653d e4d6 e53c ba23 32bd 788c 20bd
000002c0: 984e 413d c0dd cb3b 78a4 903c a4e5 05bd
000002d0: 80c0 f9bb d8c4 913c 62fe 27bd d214 273d
000002e0: f426 ff3c c64a 15bd 20f6 d1bc 50be 70bc
000002f0: 785c 1f3c d4cf bbbc 20e5 743d e294 76bd
00000300: eab0 10bd f262 1bbd 4c6f 8a3c 1050 113c
00000310: c4e5 91bc 3a7c 5a3d 28fe 5cbd 5874 b43c
00000320: 4add 0cbd 702c 69bc 3287 76bd 161b 3fbd
00000330: f833 59bd 4c5f df3c 6442 c0bc eee9 053d
00000340: 2abd 0abd 00b6 7dbc 80e7 f73b 3a82 563d
00000350: b0fd 89bc a668 143d 143f 8d3c 2ab3 1b3d
00000360: a2b7 213d 1cc7 cf3c 6864 9abc 84b3 8fbc
00000370: 8052 c73c e887 0b3d 209e 5abb 9653 003d
00000380: b603 1abd e64b 103d f051 fbbb 082c 30bd
00000390: ccc5 f8bc ba81 43bd 008f 4e3c d4d2 17bd
000003a0: 3c9e 92bc 4051 80bb 7e33 1cbd 005a d23a
000003b0: 60f5 01bc 042c a23c b4ef 383d 108a 1abd
000003c0: 90f7 0b3d 0090 adba 6c51 12bd f832 e8bc
000003d0: cc52 823c e835 553c 404d 04bb 9ce5 febc
000003e0: 8619 013d 88ee 173c 94dd 78bd d8f7 34bc
000003f0: 78e9 8abc ac79 dabc ac00 0ebd e4ae 4fbd

trunk.2.bias f4 [256]
-0.03673342 -0.04102909 0.042435266 -0.032366987 -0.010554091 0.057342403 0.058689244 0.055688605
-0.05783392 0.004577013 -0.004138034 0.0011573657 0.060094185 0.028840095 -0.057049647 0.05843631
0.05843288 -0.04812307 -0.05187182 0.034245443 -0.027851911 -0.049610548 0.026123121 -0.0013212764
0.037058342 -0.049838416 0.0506332 -0.022713402 -0.037144773 0.027821172 -0.050886244 -0.052698772
-0.011833787 0.005081138 -0.02811648 -0.011698121 -0.058454625 0.040967476 -0.008222271 0.00953459
0.03770989 0.02870688 0.04101357 0.019733237 0.012415816 -0.037608422 0.04241938 -0.012388147
0.023489427 0.0629283 -0.032163054 -0.009077742 -0.043856807 -0.004771538 -0.018671252 -0.043545745
-0.020585798 0.018783854 -0.045528397 -0.011423137 0.045478113 0.052716054 -0.075177334 0.03668012
0.009150825 0.019996263 0.03896939 0.049928233 -0.02689799 0.046591796 -0.00479781 0.0012965683
0.027693119 -0.054122902 -0.034839336 -0.06734429 0.011151187 0.034987435 -0.02432999 0.016704805
-0.010755554 -0.03467734 -0.038774744 0.020762835 -0.013800274 0.019553673 0.04651101 -0.05370321
-0.0058909375 -0.022282584 0.038951002 0.050978668 0.051096335 -0.0008373385 0.010843732 -0.022701927
-0.059605084 -0.0652358 0.022655316 -0.049430266 -0.036171548 0.018288001 -0.055235177 0.039489023
0.041797787 -0.0039108694 0.015472063 0.026480911 0.023573503 -0.052790377 0.018402101 -0.07101296
-0.03668035 -0.06215111 -0.033752978 0.0036845605 0.0040092915 -0.015016255 0.0027465 -0.054245364
0.008510865 -0.015807591 0.03910494 0.046655808 -0.003980458 0.006823915 -0.03585752 0.026459761
0.0590538 0.016052812 0.013913782 -0.0136389565 -0.04123216 -0.009334539 -0.04116244 0.048167042
-0.047836076 -0.052895296 0.01216761 -0.034524743 -0.009726784 0.05881596 0.031601295 0.045661353
-0.007404066 -0.022531688 -0.042709097 0.013808265 0.03397356 -0.042188827 -0.020039888 0.04466963
-0.030229831 0.029332288 0.049741708 0.034476932 -0.031460334 -0.009607934 0.044128984 0.05729735
0.049473356 -0.037492663 0.037769623 -0.021679796 0.060820427 -0.03869745 0.05982358 0.053457834
-0.012501061 -0.03541505 -0.06373833 -0.0107431635 -0.032914862 -0.0065178866 -0.053917557 0.01898425
0.042988464 0.01534692 0.011395013 0.043514997 0.020055013 -0.0451007 0.016971085 -0.014305966
-0.014889494 -0.022620156 0.029003188 -0.05791662 -0.0546847 0.015123245 -0.053634733 0.0051912577
-0.022949763 0.0023021922 -0.037271246 0.03559675 -0.0318765 -0.019849725 0.0323978 -0.0052636373
0.046988502 0.047571376 0.0011412634 -0.032021187 0.01505145 0.053728625 -0.005960842 0.018639125
-0.039227605 0.032196715 -0.014800139 -0.08999006 -0.011650406 0.023396503 -0.016779829 -0.022765294
-0.00934957 0.03828522 -0.040038235 -0.056586307 -0.03316548 -0.056892708 0.042721204 0.010901809
0.01519714 0.0072291056 0.016773397 -0.013306668 0.026061565 -0.06534948 -0.00077275187 -0.066559635
-0.025886737 -0.062374234 0.005695753 0.059202597 0.054723687 0.04020855 0.037787914 -0.055727974
0.045209408 0.038068745 -0.022039644 0.016790979 -0.0065786107 0.024230026 0.011498956 0.021374676
0.02800402 -0.050390366 0.019906819 -0.02972513 -0.024610633 -0.052918527 -0.049566347 0.040582456
00000000: c875 16bd 1e0e 28bd 9ad0 2d3d 3f93 04bd
00000010: 11eb 2cbc dedf 6a3d 2264 703d bc19 643d
00000020: 43e3 6cbd c5fa 953b 5898 87bb c0b2 973a
00000030: 5225 763d 1042 ec3c e4ac 69bd ea5a 6f3d
00000040: 5157 6f3d b21c 45bd 8c77 54bd f344 0c3d
00000050: b129 e4bc 6e34 4bbd 2800 d63c ae2e adba
00000060: 7dca 173d 5e23 4cbd c264 4f3d 7511 babc
00000070: 1e25 18bd 3ae9 e33c 186e 50bd abda 57bd
00000080: 80e2 41bc ad7f a63b 8854 e6bc 7aa9 3fbc
00000090: 1e6e 6fbd 83cd 273d b4b6 06bc f836 1c3c
000000a0: b075 1a3d b12a eb3c d8fd 273d 99a7 a13c
000000b0: b56b 4b3c 4a0b 1abd f2bf 2d3d a8f7 4abc
000000c0: e66c c03c 8de0 803d 68bd 03bd cfba 14bc
000000d0: 32a3 33bd 905a 9cbb 74f4 98bc 065d 32bd
000000e0: 8ca3 a8bc 99e0 993c fc7b 3abd 1c28 3bbc
000000f0: 4247 3a3d caec 573d 93f6 99bd e53d 163d
00000100: 58ed 153c 34cf a33c 5e9e 1f3d 8c81 4c3d
00000110: 2c59 dcbc 0ad7 3e3d f336 9dbb 9df1 a93a
00000120: aedc e23c faaf 5dbd b1b3 0ebd ceeb 89bd
00000130: 78b3 363c fc4e 0f3d b04f c7bc 84d8 883c
00000140: 1038 30bc d409 0ebd 44d2 1ebd d216 aa3c
00000150: 8b1a 62bc 062f a03c 5482 3e3d e6f7 5bbd
00000160: c408 c1bb f789 b6bc 168b 1f3d 02cf 503d
00000170: 644a 513d d680 5bba e9a9 313c 64f9 b9bc
00000180: 7624 74bd 599a 85bd a497 b93c 6477 4abd
00000190: 9e28 14bd b8d0 953c 483e 62bd 3ebf 213d
000001a0: 2834 2b3d c026 80bb 897e 7d3c 7fee d83c
000001b0: 381d c13c b93a 58bd 01c0 963c 3e6f 91bd
000001c0: 223e 16bd 2a92 7ebd 9040 0abd ab78 713b
000001d0: 6060 833b bd06 76bc a0fe 333b 6330 5ebd
000001e0: 2871 0b3c ec7e 81bc 802c 203d 291a 3f3d
000001f0: 806e 82bb 269b df3b 56df 12bd 24c2 d83c
00000200: 66e2 713d 3081 833c a2f6 633c ee75 5fbc
00000210: 0ee3 28bd e5ef 18bc f299 28bd ce4a 453d
00000220: c3ef 43bd bda8 58bd a85a 473c d169 0dbd
00000230: 175d 1fbc 01e9 703d 5c70 013d 6607 3b3d
00000240: cf9d f2bb 6094 b8bc bcef 2ebd 103c 623c
00000250: dc27 0b3d 31ce 2cbd b12a a4bc 80f7 363d
00000260: 8da4 f7bc 444a f03c f6bd 4b3d af37 0d3d
00000270: 8ddc 00bd 996a 1dbc 98c0 343d a0b0 6a3d
00000280: 93a4 4a3d e891 19bd 52b4 1a3d d499 b1bc
00000290: d71e 793d 3881 1ebd 9209 753d 9af6 5a3d
000002a0: 40d1 4cbc 5f0f 11bd 3e89 82bd 1804 30bc
000002b0: bcd1 06bd ff93 d5bb a8d8 5cbd dc84 9b3c
000002c0: ac14 303d a671 7b3c 26b2 3a3c c83c 323d
000002d0: 694a a43c 83bb 38bd f206 8b3c 9263 6abc
000002e0: 10f3 73bc e84d b9bc 1898 ed3c fa39 6dbd
000002f0: 10fd 5fbd 7dc7 773c 18b0 5bbd 6d1b aa3b
00000300: 2401 bcbc 60e0 163b bca9 18bd e6cd 113d
00000310: ef90 02bd e49b a2bc 8eb3 043d 977a acbb
00000320: 0477 403d 34da 423d 7296 953a a628 03bd
00000330: 5b9a 763c 8c12 5c3d 2b53 c3bb 14b1 983c
00000340: 20ad 20bd b4e0 033d 487c 72bc b54c b8bd
00000350: 58e1 3ebc 06aa bf3c da75 89bc 487e babc
00000360: f02e 19bc f6d0 1c3d 22ff 23bd 0bc7 67bd
00000370: 87d8 07bd 5408 69bd 6efc 2e3d 809d 323c
00000380: 6dfd 783c 22e2 ec3b 5d68 893c 3604 5abc
00000390: 107f d53c f3d5 85bd 8092 4aba 6b50 88bd
000003a0: 6c10 d4bc 207c 7fbd 70a3 ba3b 6c7e 723d
000003b0: f225 603d b8b1 243d 80c7 1a3d 0443 64bd
000003c0: 802d 393d f9ed 1b3d 7c8c b4bc 3c8d 893c
000003d0: 6391 d7bb 0c7e c63c 1e66 3c3c f219 af3c
000003e0: b068 e53c 2166 4ebd a013 a33c 1e82 f3bc
000003f0: 3d9c c9bc 19c1 58bd 1506 4bbd ca39 263d

V_heads.0.weight f4 [1, 256]
0.00495933 0.005857371 0.00729014 -0.026670704 -0.028695958 0.045421727 0.06349326 0.02377488
-0.022771262 0.055983454 -0.020452082 0.04233014 0.0439559 -0.04016988 -0.027498616 -0.05072565
0.026969517 0.015812136 0.02971755 0.021224441 -0.00011221074 0.048769735 -0.030353464 0.0418668
-0.029876422 0.055052128 -0.028822858 -0.019246584 -0.044753775 0.013719824 -0.0012521669 -0.04069447
-0.03960766 0.0072942227 -0.021845935 0.022694116 0.022375226 -0.012347461 -0.03567469 -0.020170994
0.041044764 0.007905598 -0.008694919 -0.018855238 0.05084017 0.02417817 0.057847008 -0.05623515
0.0074516293 -0.028259706 0.036403995 0.023894895 0.057629757 0.04814031 0.021111205 -0.0075973347
0.05582846 -0.004447392 -0.022365965 0.045119125 0.042354926 0.06215299 0.03436549 -0.025940973
0.058523364 -0.05368517 0.05841916 -0.055936858 0.0155141 0.016404824 0.027085505 0.048767205
-0.007593958 0.037763353 0.04984266 -0.007997282 -0.0355359 0.0069974405 -0.011888839 0.062047623
0.055708162 -0.04164967 -0.03375984 0.033288263 0.006798192 0.027002018 0.050907172 -0.021250134
0.017205752 0.0038200202 0.036134966 -0.022117158 0.030631803 0.06305772 0.0015450408 -0.022967808
-0.021693474 0.028550072 0.047869094 0.002937643 -0.05651457 0.03481456 0.019873135 -0.0009775013
0.026988856 -0.02258598 0.058911916 -0.06133374 -0.012391053 0.00015196665 -0.059464358 0.036716495
0.038738016 0.0399803 -0.021689557 0.020046292 0.024680518 0.036986064 -0.058505088 0.034799807
-0.061689425 -0.044260364 -0.029593043 0.037345674 0.039050564 -0.048684407 0.027267523 0.043017574
-0.045630857 0.004787177 0.059786968 0.057803907 0.04782573 -0.053136837 0.05383935 -0.002452915
0.055328637 -0.019444477 -0.021855736 0.031534128 -0.0001312024 -0.051580723 -0.003245242 0.01816495
-0.0049010413 -0.03871258 -0.03314503 -0.007015243 -0.022614023 0.06066742 -0.03090062 0.026358098
-0.04670784 -0.016158298 -0.036354434 0.005694189 -0.050861098 0.02952391 -0.015945062 0.033874176
0.0063524256 -0.03771718 0.057674892 -0.063117705 -0.033192333 -0.032136716 0.05063089 -0.02911269
0.024853818 0.047448188 0.050068993 0.018801738 0.034887724 0.04839361 -0.035874434 0.04565125
-0.059096172 -0.02963278 0.0010031778 -0.011884378 -0.012928846 0.032805666 0.008091504 0.014086075
0.0057592914 -0.022335164 0.05916503 0.03259866 -0.027495291 -0.054457825 -0.01116635 -0.021536274
-0.038879454 -0.04957126 0.04921679 -0.029050305 0.013956619 -0.048211202 0.05683065 -0.03818545
-0.008112185 -0.05363458 0.03393557 0.01942358 0.013553799 0.046296433 -0.06119893 0.02049943
0.012881014 -0.037855655 0.042339154 -0.05225751 0.060519233 0.022310887 0.055679187 -0.022098826
0.061443985 -0.036551468 -0.011703327 -0.031627607 0.045366567 -0.02462393 0.049682196 0.0037074909
0.049512774 0.0090705445 -0.018004535 0.040734112 0.047984384 -0.0043803398 -0.014871709 0.02971159
-0.039278317 0.014748641 -0.0038786605 0.028067894 -0.031976275 -0.04258934 0.04559539 -0.054079928
0.030850146 -0.016795103 0.020210512 -0.059903353 -0.001987961 0.029915884 -0.015388153 0.006429462
-0.030010425 0.023857946 0.031000482 0.0075174384 0.0248578 -0.043542553 0.033280216 -0.04133946
00000000: e081 a23b 30ef bf3b 20e2 ee3b 857c dabc
00000010: c913 ebbc 220c 3a3d c108 823d 8ac3 c23c
00000020: cc8a babc e84e 653d 208b a7bc 5e62 2d3d
00000030: 1a0b 343d 2c89 24bd c744 e1bc b3c5 4fbd
00000040: 2def dc3c 7488 813c 3872 f33c e1de ad3c
00000050: af52 ebb8 c6c2 473d d4a7 f8bc 867c 2b3d
00000060: 66bf f4bc 577e 613d ea1d ecbc 03ab 9dbc
00000070: bc4f 37bd 1dc9 603c c01f a4ba 3faf 26bd
00000080: a43b 22bd 6004 ef3b 3ff6 b2bc 03e9 b93c
00000090: 404c b73c 014d 4abc a01f 12bd a43d a5bc
000000a0: 8e1e 283d 7b86 013c 2275 0ebc 4d76 9abc
000000b0: c83d 503d 4c11 c63c fcf0 6c3d d456 66bd
000000c0: cc2c f43b e680 e7bc 5b1c 153d 3abf c33c
000000d0: 2e0d 6c3d c62e 453d 68f1 ac3c 10f3 f8bb
000000e0: 62ac 643d 6ebb 91bb d438 b7bc d5ce 383d
000000f0: 5c7c 2d3d 2294 7e3d d4c2 0c3d 2a82 d4bc
00000100: 32b6 6f3d fbe4 5bbd ee48 6f3d 0c1e 65bd
00000110: da2e 7e3c 6963 863c 6ce2 dd3c 1fc0 473d
00000120: bdd6 f8bb bfad 1a3d d127 4c3d 0807 03bc
00000130: 188e 11bd c94a e53b 68c9 42bc a625 7e3d
00000140: 3e2e 643d d898 2abd c247 0abd 4659 083d
00000150: 5ec3 de3b 5633 dd3c 0a84 503d c314 aebc
00000160: 14f3 8c3c 4e59 7a3b 4202 143d 0b2f b5bc
00000170: 8cef fa3c 6824 813d f782 ca3a fc26 bcbc
00000180: 83b6 b1bc d7e1 e93c 6212 443d 7985 403b
00000190: d27b 67bd b699 0e3d fccc a23c 801f 80ba
000001a0: bc17 dd3c 3c06 b9bc 9f4d 713d 1639 7bbd
000001b0: d803 4bbc 3d59 1f39 e690 73bd 0964 163d
000001c0: c1ab 1e3d 62c2 233d 4cae b1bc 1f38 a43c
000001d0: cc2e ca3c b37e 173d 08a3 6fbd 3e8a 0e3d
000001e0: 0dae 7cbd 5b4a 35bd 1c6d f2bc c7f7 183d
000001f0: 7cf3 1f3d 4d69 47bd 2460 df3c 3233 303d
00000200: 6ce7 3abd c0dd 9c3b 2ee3 743d cac3 6c3d
00000210: eae4 433d 03a6 59bd a686 5c3d 16c1 20bb
00000220: 48a0 623d 064a 9fbc cd0a b3bc ee29 013d
00000230: 6093 09b9 4f46 53bd 20ae 54bb a9ce 943c
00000240: ea98 a0bb 1591 1ebd 15c3 07bd 20e0 e5bb
00000250: 0b41 b9bc 677e 783d 4c23 fdbc f0ec d73c
00000260: b850 3fbd 685e 84bc 63e8 14bd 5296 ba3b
00000270: ba53 50bd 20dc f13c 389f 82bc a6bf 0a3d
00000280: 0228 d03b 547d 1abd 823c 6c3d db43 81bd
00000290: aff4 07bd caa1 03bd 5662 4f3d bc7d eebc
000002a0: 3c9a cb3c 0859 423d 2515 4d3d 1a06 9a3c
000002b0: 6ee6 0e3d 6138 463d 12f1 12bd cefc 3a3d
000002c0: d40e 72bd 72c0 f2bc 107d 833a b2b6 42bc
000002d0: 83d3 53bc 3c5f 063d 3a92 043c 48c9 663c
000002e0: 70b8 bc3b 3cf8 b6bc 0857 723d 2c86 053d
000002f0: ce3d e1bc 2b0f 5fbd 11f3 36bc d76c b0bc
00000300: 1040 1fbd 3c0b 4bbd 8b97 493d e8fa edbc
00000310: 4eaa 643c 1c79 45bd 41c7 683d 5968 1cbd
00000320: f8e8 04bc efaf 5bbd 0600 0b3d 331e 9f3c
00000330: c110 5e3c 54a1 3d3d bbab 7abd 6cee a73c
00000340: e30a 533c 880e 1bbd d26b 2d3d f90b 56bd
00000350: 04e3 773d 52c5 b63c dc0f 643d 9908 b5bc
00000360: b0ac 7b3d feb6 15bd 50bf 3fbc f38b 01bd
00000370: 4bd2 393d 20b8 c9bc 8f7f 4b3d 60f9 723b
00000380: e8cd 4a3d 9f9c 143c 3f7e 93bc d0d8 263d
00000390: 468b 443d f488 8fbb 78a8 73bc b865 f33c
000003a0: 4de2 20bd 49a4 713c 2031 7ebb a4ee e53c
000003b0: 8ef9 02bd 2972 2ebd 3bc2 3a3d ea82 5dbd
000003c0: 72b9 fc3c e295 89bc 8490 a53c 385d 75bd
000003d0: 7348 02bb 2812 f53c 971e 7cbc 3dae d23b
000003e0: 6cd8 f5bc bd71 c33c b9f4 fd3c d854 f63b
000003f0: 96a2 cb3c ad59 32bd d650 083d 9153 29bd

V_heads.1.weight f4 [1, 256]
0.0014059097 -0.00029668957 -0.05372215 -0.051103726 -0.04589921 -0.055580832 -0.048634306 0.03957464
-0.049114093 0.05627656 -0.051558085 -0.0135169625 -0.008774683 0.049276717 0.027357886 0.009388543
-0.0261633 0.03125099 -0.04749675 0.02913439 0.03623086 0.017839879 0.03396169 -0.01685249
0.04947605 0.00076729874 0.023262147 0.0026539012 0.008197613 -0.03940749 0.040205717 -0.05728158
-0.026837334 0.011347911 0.017605456 -0.033972375 -0.02377747 -0.022736926 -0.058235258 -0.05501432
0.018262997 -0.0022298582 -0.016922006 0.01221697 0.0205201 -0.05378872 -0.010469111 0.005366206
-0.012790966 0.05213293 -0.037522633 0.026319195 0.033378072 -0.048302427 -0.055800308 0.03355296
-0.030354768 0.039193053 0.0039743856 -0.0032341399 0.052134022 -0.015171744 -0.010982076 -0.04709078
-0.0035853982 0.054272685 0.056632668 -0.02717273 -0.015913174 0.053554457 0.0522086 -0.01948115
0.007869072 -0.041648928 -0.058185976 -0.00046771602 -0.048586868 0.030295553 0.048867844 -0.025509723
-0.039103262 -0.042584367 0.0003275825 -0.02791641 0.058959138 0.028430521 0.043769285 0.05224265
0.0018687752 -0.03840606 -0.011715636 -0.047595188 -0.034541138 -0.05273485 0.018709702 -0.048215106
0.01226007 0.044941742 -0.008486144 0.05072182 0.010135844 -0.01705677 0.022093728 0.055863693
0.029437393 -0.05321621 -0.01711477 -0.019447323 -0.02909626 -0.00082145806 -0.057814457 0.03182904
-0.034549262 0.03030824 0.017055832 0.021644128 -0.048454203 -0.043860037 -0.049905755 0.033834547
0.039378922 0.018845132 0.023153305 0.024322916 0.022321537 -0.032323953 0.01610288 -0.014077775
0.03316958 0.04709234 0.01743334 -0.01774211 0.046750247 0.051653925 -0.0073157847 0.046166766
-0.038991697 0.026621172 0.0025713644 -0.007349206 -0.020249724 0.057247665 -0.01236669 -0.04649433
-0.02143901 -0.024116842 0.037908163 0.05216924 0.013586042 -0.00912773 0.011990159 -0.009063886
-0.06200075 -0.019598022 0.047575448 0.003513008 -0.042979583 -0.06305386 0.0013471469 -0.026585273
-0.03057495 -0.016986273 0.048069917 0.03604969 -0.015215033 0.052187137 0.05074343 0.017261893
0.01487782 -0.03208873 0.04918414 -0.053780776 -0.05106943 -0.054346185 -0.036187857 -0.00018255413
-0.020119362 -0.036796253 0.043378927 0.022265093 0.027955078 -0.0027303 0.012284448 0.02896388
-0.018331729 -0.004762292 -0.0218134 -0.037559904 0.003850329 0.030306831 -0.022032324 0.044129677
0.03335599 -0.021078296 -0.05410737 0.04200869 0.058815904 -0.03112717 -0.005131355 0.008474757
-0.038971238 -0.010631426 -0.029180547 0.0502257 0.05138815 -0.00886222 0.021260355 -0.012376502
0.03134181 0.03159856 -0.0019647777 0.04418696 -0.03711304 0.015036446 -0.037317112 -0.040660016
0.017436802 0.031702124 0.042523324 -0.025734304 0.0016629883 -0.025544442 0.0264465 0.044949204
0.021666832 -0.03555672 0.057590675 0.008128181 0.016861066 0.0020870666 0.0022641048 0.04562387
0.030858746 0.029519787 -0.010658771 0.061662868 0.052098244 -0.014727835 -0.0238159 -0.04946509
0.049225613 -0.011032151 0.003098677 -0.025963508 0.044410825 -0.008587405 -0.040570796 -0.012495212
0.010513812 -0.025910227 0.02251064 -0.051892035 0.03541475 -0.030635566 0.011787087 -0.015102255
00000000: 8046 b83a 008d 9bb9 c20b 5cbd 2452 51bd
00000010: cf00 3cbd baa8 63bd c434 47bd 0519 223d
00000020: dc2b 49bd 4082 663d 922e 53bd 4076 5dbc
00000030: b0c3 0fbc 62d6 493d a51d e03c 67d2 193c
00000040: 6b54 d6bc 0a01 003d f48b 42bd 3fab ee3c
00000050: cf66 143d f024 923c 6a1b 0b3d 3c0e 8abc
00000060: 66a7 4a3d 8c24 493a 4290 be3c 13ed 2d3b
00000070: 484f 063c c069 21bd c0ae 243d 17a0 6abd
00000080: f8d9 dbbc 97ec 393c 5139 903c 9e26 0bbd
00000090: f8c8 c2bc ca42 babc 1888 6ebd b256 61bd
000000a0: 489c 953c d022 12bb 05a0 8abc b029 483c
000000b0: c519 a83c 9051 5cbd a286 2bbc 00d7 af3b
000000c0: 3391 51bc 5789 553d 55b1 19bd 5a9b d73c
000000d0: 72b7 083d c4d8 45bd dd8e 64bd d46e 093d
000000e0: 90aa f8bc e588 203d 903b 823b ddf3 53bb
000000f0: 7c8a 553d e892 78bc 2aee 33bc 43e2 40bd
00000100: 00f9 6abb 094d 5e3d a8f7 673d 5899 debc
00000110: 585c 82bc eb5b 5b3d afd8 553d ef96 9fbc
00000120: 48ed 003c 1198 2abd 6b54 6ebd c837 f5b9
00000130: 0603 47bd 612e f83c a629 483d c4f9 d0bc
00000140: be2a 20bd f26c 2ebd 61bf ab39 f4b0 e4bc
00000150: 237f 713d 20e7 e83c 6c47 333d 64fc 553d
00000160: b1f1 f43a ac4f 1dbd f0f2 3fbc 2cf3 42bd
00000170: 027b 0dbd 8000 58bd 1745 993c 347d 45bd
00000180: 76de 483c d514 383d 7809 0bbc afc1 4f3d
00000190: d010 263c a4ba 8bbc e8fd b43c 54d1 643d
000001a0: b026 f13c 3ef9 59bd 4634 8cbc fe4f 9fbc
000001b0: 485b eebc 1e57 57ba dace 6cbd 2b5f 023d
000001c0: 8783 0dbd fc48 f83c acb8 8b3c 074f b13c
000001d0: ea77 46bd 95a6 33bd fa69 4cbd 1896 0a3d
000001e0: cb4b 213d 1b61 9a3c 00ac bd3c da40 c73c
000001f0: a8db b63c 1f66 04bd 30ea 833c 78a6 66bc
00000200: d3dc 073d e6e3 403d 5dd0 8e3c e757 91bc
00000210: 307d 3f3d 1193 533d 40b9 efbb 5d19 3d3d
00000220: c2b5 1fbd a514 da3c 5684 283b 9cd1 f0bb
00000230: c0e2 a5bc 877c 6a3d a89d 4abc d770 3ebd
00000240: dda0 afbc af90 c5bc 9745 1b3d 6aaf 553d
00000250: fe97 5e3c 798c 15bc 5f72 443c b180 14bc
00000260: 80f4 7dbd 088c a0bc 79de 423d 7e3a 663b
00000270: 5c0b 30bd 6222 81bd c092 b03a 5cc9 d9bc
00000280: 5178 fabc cc26 8bbc f6e4 443d d7a8 133d
00000290: 7948 79bc 2ec2 553d 58d8 4f3d d068 8d3c
000002a0: 1ac2 733c 796f 03bd 4f75 493d 3b49 5cbd
000002b0: 2e2e 51bd 1b9a 5ebd b839 14bd 006c 3fb9
000002c0: 5cd1 a4bc abb7 16bd 1aae 313d 4965 b63c
000002d0: 0c02 e53c d5ee 32bb b644 493c a945 ed3c
000002e0: 6c2c 96bc 000d 9cbb 04b2 b2bc 6ad8 19bd
000002f0: cd55 7c3b 0846 f83c 227d b4bc 52c1 343d
00000300: 4aa0 083d 64ac acbc b19f 5dbd 4e11 2c3d
00000310: f2e8 703d 68fe febc ed24 a8bb b5d9 0a3c
00000320: 4ea0 1fbd 6f2f 2ebc 0b0c efbc 77b9 4d3d
00000330: 617c 523d d832 11bc 322a ae3c d0c6 4abc
00000340: 4560 003d 7e6d 013d 80c3 00bb 63fd 343d
00000350: d803 18bd 6d5b 763c d4d9 18bd 1e8b 26bd
00000360: a0d7 8e3c 16da 013d f02c 2e3d bfd0 d2bc
00000370: a1f8 d93a 9442 d1bc 55a6 d83c a81c 383d
00000380: a47e b13c eca3 11bd 33e4 6b3d 102c 053c
00000390: 3820 8a3c 2bc7 083b 6061 143b 18e0 3a3d
000003a0: 7bcb fc3c 7bd3 f13c 20a2 2ebc 3492 7c3d
000003b0: f864 553d 044d 71bc 9019 c3bc e89b 4abd
000003c0: cca0 493d 32c0 34bc 2c13 4b3b 6cb1 d4bc
000003d0: 20e8 353d 30b2 0cbc 902d 26bd b8b8 4cbc
000003e0: 2042 2c3c af41 d4bc 3c68 b83c be8c 54bd
000003f0: 0f0f 113d 70f7 fabc a01e 413c 736f 77bc

V_heads.2.weight f4 [1, 256]
-0.05736866 -0.016841993 -0.028883375 -0.051972136 0.046963338 -0.040811494 0.0012949427 0.00010607252
0.03419806 -0.06298328 0.04535131 -0.04671953 0.0018951818 -0.05541733 0.026984768 0.012372985
-0.018120399 -0.05189524 0.060453735 0.0063990103 0.023723878 0.03997328 0.02998104 0.030669305
0.049061626 0.049586605 0.043656345 0.033111077 -0.04860244 0.032682132 0.055650234 0.034742054
-0.032835275 -0.029650275 0.05511614 -0.03516113 -0.050397255 0.032318424 -0.03289885 -0.037037574
-0.0015930831 -0.0031331219 0.020560624 0.027785847 0.032345846 0.04575541 0.0056839525 -0.050332673
0.02046208 0.018819485 -0.00873991 0.00722955 -0.0009499565 -0.02323784 0.028039522 -0.040256828
0.020861112 -0.046965342 0.037798844 -0.040403035 -0.03395152 -0.005886607 -0.051889613 0.038830128
-0.033064812 -0.02847021 8.4117055e-05 -0.054695785 0.004264015 0.03921872 0.038640957 -0.022291007
0.052053057 -0.021171054 0.0010449734 0.03830908 -0.047230914 -0.05674569 0.04231946 0.044534788
-0.028124623 0.03933882 0.052967496 -0.056120865 0.038407464 0.021598984 0.031049913 -0.014885541
0.03316193 0.014394884 -0.029804543 -0.037367538 0.007242605 -0.01731021 0.02688468 0.020512357
-0.031627662 -0.033193212 -0.045255862 0.06266157 -0.010098793 -0.008823529 -0.040868368 0.046280764
-0.020501606 -0.022081695 -0.050235424 0.04426694 0.0013243258 0.014861368 0.010788582 -8.18796e-05
-0.052276608 0.06081956 -0.029767431 0.027795134 -0.026460432 0.026488282 0.017936282 0.010304072
-0.013931225 0.003606644 -0.027136259 0.044319805 -0.055204593 0.035371516 -0.022506572 0.057729803
-0.056679428 0.024759784 -0.037833825 -0.03477232 -0.03283789 -0.04530352 0.016886152 0.0045969747
0.03279218 -0.032335453 -0.007647452 -0.054690607 0.025843248 0.00224585 -0.029719256 0.014631192
-0.051438447 0.056030598 -0.027673587 0.041990146 -0.050763994 -0.053084698 0.014203954 -0.00083594024
0.032678336 0.01349353 0.056472924 0.02286086 -0.005555185 0.014787813 -0.058074728 0.016744442
0.0042005936 -0.047508456 0.031784363 -0.021718489 0.004420987 0.00097272545 -0.0063905567 0.009533554
0.049040765 -0.0034152127 0.0060804198 -0.036567304 -0.00012191385 0.01841699 0.0395666 0.056773946
0.0105267465 0.010597422 -0.019187512 -0.034500167 0.028395146 0.010078082 -0.025016904 0.031237971
0.016379826 0.030704223 0.0012174994 0.02119413 -0.03394401 -0.04757933 -0.015215575 0.04898595
-0.019285947 0.0417953 0.018655336 -0.04242386 -0.029430484 0.024655856 0.009414698 0.018554982
-0.01131352 0.037853483 -0.02390573 0.015419429 0.03629813 0.031484276 -0.025450941 0.027220495
0.0067093144 -0.04868807 0.053182505 -0.06168544 0.03663715 -0.024388444 0.05465444 0.059007473
0.052396156 -0.027098924 -0.026497327 0.01938969 -0.0126947705 -0.062067762 -0.02745728 -0.050108142
-0.023646683 0.056008846 0.06138369 0.041490227 0.011984877 -0.05383917 -0.01896654 0.028121196
0.013698314 0.022164097 0.006334707 0.01713638 -0.06188847 -0.008120997 0.0105155585 0.013796754
0.010583143 -0.015973885 0.039649997 0.019887164 0.01906889 0.04209218 0.00018057061 0.04988776
0.0020348877 -0.057496578 0.034780044 0.055572666 0.019711595 0.063607566 -0.034412965 0.053784724
00000000: 66fb 6abd 38f8 89bc d49c ecbc bce0 54bd
00000010: a15c 403d f429 27bd 11bb a93a 4073 de38
00000020: 4413 0c3d 61fd 80bd 4cc2 393d fa5c 3fbd
00000030: c067 f83a 48fd 62bd 290f dd3c 0fb8 4a3c
00000040: 3b71 94bc 1a90 54bd 569e 773d caae d13b
00000050: 9458 c23c 06bb 233d cc9a f53c 323e fb3c
00000060: d8f4 483d 531b 4b3d ffd0 323d 7b9f 073d
00000070: 5a13 47bd b3dd 053d 80f1 633d af4d 0e3d
00000080: 487e 06bd 22e5 f2bc 76c1 613d 1e05 10bd
00000090: 5a6d 4ebd 5360 043d f2c0 06bd b6b4 17bd
000000a0: 00cf d0ba 1055 4dbb c16e a83c 259f e33c
000000b0: 147d 043d 066a 3b3d 7340 ba3b a229 4ebd
000000c0: 18a0 a73c 522b 9a3c d731 0fbc dce5 ec3b
000000d0: 8006 79ba 485d bebc 24b3 e53c 58e4 24bd
000000e0: ece4 aa3c bb5e 40bd f6d2 1a3d a77d 25bd
000000f0: c010 0bbd 70e4 c0bb 348a 54bd 570c 1f3d
00000100: f86e 07bd 5c3a e9bc 0068 b038 b008 60bd
00000110: 26b9 8b3b cfa3 203d fb45 1e3d a19b b6bc
00000120: 9635 553d eb6e adbc 7df7 883a fbe9 1c3d
00000130: 3475 41bd 2b6e 68bd 2c57 2d3d 1c6a 363d
00000140: 9c65 e6bc be21 213d 72f4 583d fede 65bd
00000150: 2551 1d3d 5af0 b03c 635c fe3c 7ce2 73bc
00000160: ced4 073d 85d8 6b3c a828 f4bc b40e 19bd
00000170: 6053 ed3b 24ce 8dbc 433d dc3c 8809 a83c
00000180: 028c 01bd 9bf5 07bd 365e 39bd b654 803d
00000190: 6875 25bc 9090 10bc 9765 27bd e690 3d3d
000001a0: fcf2 a7bc ace4 b4bc a9c3 4dbd 4051 353d
000001b0: 0095 ad3a 187d 733c 98c2 303c c7b6 abb8
000001c0: ff1f 56bd ee1d 793d d4da f3bc 9fb2 e33c
000001d0: 8cc3 d8bc f4fd d83c 1cef 923c 69d2 283c
000001e0: cb3f 64bc 725d 6c3b dc4c debc af88 353d
000001f0: 361e 62bd b9e1 103d b45f b8bc 1676 6c3d
00000200: b028 68bd 08d5 ca3c a4f7 1abd 6c6d 0ebd
00000210: 0681 06bd 2f90 39bd d454 8a3c 38a2 963b
00000220: 1851 063d 2e72 04bd 7a97 fabb 4203 60bd
00000230: 38b5 d33c 1c2f 133b cc75 f3bc abb7 6f3c
00000240: 1fb1 52bd 5780 653d b8b3 e2bc dcfd 2b3d
00000250: e8ed 4fbd 576f 59bd b3b7 683c 0023 5bba
00000260: b8d9 053d f813 5d3c 2750 673d b346 bb3c
00000270: 4508 b6bb 9548 723c c4df 6dbd a42b 893c
00000280: 22a5 893b 3a98 42bd 5230 023d f9ea b1bc
00000290: eddd 903b 80fe 7e3a e067 d1bb a032 1c3c
000002a0: f8de 483d c3d1 5fbb 423e c73b 99c7 15bd
000002b0: 00ac ffb8 3adf 963c 9610 223d cc8b 683d
000002c0: 6078 2c3c cfa0 2d3c 212f 9dbc 0c50 0dbd
000002d0: f09c e83c 8a1e 253c 40f0 ccbc c6e6 ff3c
000002e0: fc2e 863c 6c87 fb3c 8094 9f3a 509f ad3c
000002f0: e008 0bbd 8be2 42bd bf4a 79bc 7ea5 483d
00000300: 90fd 9dbc 8c31 2b3d 13d3 983c a4c4 2dbd
00000310: 3318 f1bc 14fb c93c 1b40 1a3c 9e00 983c
00000320: 585c 39bc 410c 1b3d f3d5 c3bc c6a1 7c3c
00000330: 59ad 143d a8f5 003d 7e7e d0bc 84fd de3c
00000340: cfd9 db3b 246d 47bd e6d5 593d dfa9 7cbd
00000350: d610 163d 46ca c7bc 56dd 5f3d d2b1 713d
00000360: 5a9d 563d 90fe ddbc ec10 d9bc 21d7 9e3c
00000370: bafd 4fbc c43a 7ebd 17ee e0bc 323e 4dbd
00000380: b0b6 c1bc 8869 653d 776d 7b3d a8f1 293d
00000390: 385c 443c 7686 5cbd b85f 9bbc 6c5e e63c
000003a0: e56e 603c 7b91 b53c 6093 cf3b 9861 8c3c
000003b0: c47e 7dbd ee0d 05bc 7349 2c3c c80b 623c
000003c0: eb64 2d3c aadb 82bc 0968 223d 68ea a23c
000003d0: 5c36 9c3c da68 2c3d 8e57 3d39 1c57 4c3d
000003e0: c05b 053b 8881 6bbd 8575 0e3d 2aa0 633d
000003f0: 367a a13c af44 823d 9cf4 0cbd 5f4d 5c3d
