results/bdq/models/bdq_checkpoint_380.pt (torch, 313061 bytes, 25 tensors)

trunk.0.weight f4 [256, 11]
0	0x3e35085f	0.17678975
1	0x3e597d2c	0.21239156
2	0xbd90a982	-0.07063581
3	0x3e722bf2	0.23649576
4	0xbdd0c4aa	-0.10193761
5	0x3e449245	0.19196422
6	0x3e711b0e	0.23545477
7	0x3e403713	0.18771009
8	0x3e4c88d2	0.19974068
9	0xbdf897c8	-0.12138325
10	0x3e389dbf	0.18028925
11	0xbca3de08	-0.020003334
12	0x3e2bd4a4	0.16780335
13	0x3d274168	0.04083386
14	0x3dbedbc1	0.093192585
15	0x3cd72d3c	0.026266687
16	0x3e406fa6	0.1879259
17	0x3e88be39	0.26707628
18	0x3dc219f3	0.09477606
19	0xbe7df9bf	-0.24802302
20	0xbdadbd90	-0.08483422
21	0xbdc8532c	-0.09781489
22	0x3d02d0c7	0.031937387
23	0x3e051f89	0.13000311
24	0xbe73b756	-0.23800406
25	0xbe6f1b13	-0.23350172
26	0xbd1b60f9	-0.037934277
27	0xbe81910f	-0.25305983
28	0xbd9fbdd4	-0.07799879
29	0xbebc3e80	-0.36766434
30	0x3ef949c2	0.48689085
31	0xbe076c5c	-0.1322493
32	0xbdb25148	-0.087069094
33	0x3d4d86b0	0.050177276
34	0xbdc880e6	-0.097902104
35	0x3e3eca64	0.18631893
36	0x3d407968	0.046990782
37	0x3e7974f0	0.24361014
38	0x3d070240	0.03296113
39	0xbdc2bdce	-0.095088586
40	0x3da5e930	0.081011176
41	0xbda773b8	-0.081763685
42	0x3e01f052	0.12689331
43	0x3e89d410	0.26919603
44	0x3e32797a	0.17429152
45	0xbe06f9da	-0.13181248
46	0x3e323aa6	0.17405185
47	0x3d5cf8e0	0.053948283
48	0x3e1ccaf8	0.15311801
49	0xbe3c2ee8	-0.18377268
50	0xbe98d0e1	-0.29846862
51	0xbdee9366	-0.11649208
52	0xbe6cd104	-0.23126608
53	0x3e7d56e4	0.24740177
54	0x3db1dba4	0.08684471
55	0xbb785e29	-0.003789792
56	0x3d7613ae	0.06007736
57	0xbbabdf00	-0.0052450895
58	0x3e3dcb60	0.18534613
59	0xbe49f085	-0.19720657
60	0xbd221bdc	-0.03957735
61	0xbe0b6195	-0.13611443
62	0xbdf6ac2e	-0.120445594
63	0x3d60817b	0.054810982
64	0x3e485f2c	0.19567555
65	0xbe173417	-0.14765964
66	0x3e800950	0.25007105
67	0xbe36fecc	-0.17870635
68	0xbe3822ef	-0.17982076
69	0xbe3825c8	-0.17983162
70	0x3e8ad9b4	0.2711922
71	0x3dcdc7f0	0.10047901
72	0x3e948bda	0.29012948
73	0xbe7ecd55	-0.24883015
74	0xbe991ea4	-0.2990619
75	0xbe718d8e	-0.23589155
76	0xbe4fb0f0	-0.2028234
77	0xbc6995a1	-0.014256866
78	0x3db3962b	0.08768877
79	0x3e8045e0	0.2505331
80	0xbe36ccfc	-0.17851633
81	0xbe162e72	-0.14666155
82	0x3e194f25	0.14971597
83	0xbd21545c	-0.039387092
84	0x3e81b471	0.25332978
85	0xbde623e4	-0.11237314
86	0x3e58ba6d	0.21164866
87	0xbe5c13c5	-0.21491916
88	0xbeb379e1	-0.35053924
89	0x3d6a1306	0.05714705
90	0x3d828b0c	0.06374177
91	0xbde74c8a	-0.112938955
92	0x3e2f746d	0.17134257
93	0x3e7e4863	0.24832301
94	0xbde6d3d4	-0.11270872
95	0xbcbe0beb	-0.023199042
96	0x3e41bb6e	0.18919155
97	0xbe101cd2	-0.14073494
98	0xbbbc324b	-0.0057433
99	0xbe955f0b	-0.29174075
100	0xbe30cf81	-0.17266656
101	0x3d9a40a8	0.075318635
102	0xbd2302a0	-0.039797425
103	0xbe601d96	-0.21886286
104	0x3be7c000	0.0070724487
105	0xbe52e658	-0.20595682
106	0xbe82f861	-0.25580123
107	0xbe2a040a	-0.16603103
108	0xbe871c1d	-0.26388636
109	0xbe449764	-0.19198376
110	0x3d4364ff	0.04770374
111	0x3cff1385	0.031137237
112	0x3dbe4984	0.09291366
113	0xbebfd72e	-0.37468857
114	0x3e164070	0.14673018
115	0x3e0a094e	0.13480112
116	0xbd11b159	-0.035569523
117	0xbf12de9f	-0.5737094
118	0xbf184b98	-0.59490347
119	0xbd9c321f	-0.07626747
120	0x3d560a0c	0.052255675
121	0xbde5c5a0	-0.112193346
122	0xbcab28c0	-0.020893455
123	0xbe513770	-0.20431304
124	0xbe53ec42	-0.20695594
125	0xbe341fb9	-0.17590226
126	0xbdd35df6	-0.10320656
127	0xbe73b048	-0.23797715
128	0x3e817012	0.25280815
129	0xbd7519e8	-0.05983916
130	0x3e84d29e	0.25941938
131	0x3dc06684	0.09394553
132	0xbe2b13ba	-0.16706744
133	0x3e1f0169	0.15527882
134	0xbda9e68e	-0.08295928
135	0xbe198f8c	-0.14996165
136	0xbe886625	-0.2664043
137	0xbe80aee6	-0.25133437
138	0xbcd9fff3	-0.026611304
139	0xbead4314	-0.3384024
140	0x3ea060c1	0.31323817
141	0xbe61cf37	-0.22051702
142	0x3c241acc	0.0100161545
143	0xbe0c0b42	-0.1367617
144	0xbcbd3e33	-0.023100948
145	0x3d80f9dc	0.06297657
146	0x3ea8a0aa	0.32935077
147	0x3e9431c1	0.2894421
148	0xbe82c4ab	-0.2554067
149	0xbe95c8b9	-0.29254702
150	0x3f0c16b0	0.5472212
151	0x3e106bde	0.14103648
152	0xbf103de9	-0.5634447
153	0xbf100bf3	-0.56268233
154	0x3e8c9cdc	0.27463424
155	0xbe629b00	-0.2212944
156	0x3e2502b4	0.16114312
157	0x3dd90324	0.10596302
158	0x3dc8a8a4	0.09797791
159	0xbe26ec59	-0.16301097
160	0x3e8c517c	0.27405918
161	0x3d87b1e0	0.06625724
162	0x3d1ede88	0.03878644
163	0xbe880aec	-0.26570833
164	0x3e019bd4	0.126571
165	0xbd394628	-0.04523292
166	0xbe0d71dd	-0.13812967
167	0x3e84994e	0.25898212
168	0x3d89ab78	0.06722158
169	0xbe2ad2a2	-0.16681913
170	0xbe1c44e9	-0.15260662
171	0xbc6be960	-0.014398903
172	0x3e2c648a	0.16835228
173	0xbd9dca7a	-0.07704635
174	0xbe3029e4	-0.1720348
175	0xbdd374f4	-0.103250414
176	0xbeb73d94	-0.35789168
177	0x3da73445	0.081642665
178	0x3e6efbac	0.23338193
179	0xbe8e5075	-0.2779576
180	0xbd88c6ea	-0.06678565
181	0x3e4f9b86	0.20274171
182	0x3e67ee7e	0.22649571
183	0x3de14d46	0.11001067
184	0x3e1ffaa1	0.15622951
185	0x3c78afef	0.015178665
186	0x3e729f75	0.2369364
187	0xbd5903a8	-0.052982002
188	0xbda38376	-0.079840586
189	0x3d041ed0	0.032255948
190	0xbd5a2a88	-0.053263217
191	0xbdb803a4	-0.089850694
192	0x3e455a86	0.19272813
193	0x3e84ab36	0.25911874
194	0xbcf48580	-0.029848814
195	0xbd8a4158	-0.067507446
196	0x3b902bc0	0.0043997467
197	0xbc937a70	-0.018002719
198	0x3dd21ca3	0.10259368
199	0x3ccbaff0	0.024864167
200	0xbe8c3608	-0.27384973
201	0xbe6e8638	-0.23293388
202	0x3e45b4ee	0.193073
203	0x3e487459	0.19575633
204	0xbe015c54	-0.12632877
205	0xbef9892f	-0.48737475
206	0xbe433848	-0.19064438
207	0xbeb78e48	-0.3585074
208	0xbd9d7d17	-0.076898746
209	0x3dcbe286	0.09955315
210	0x3e1d126e	0.15339062
211	0x3e0e8c46	0.13920698
212	0xbeb5fc17	-0.35543892
213	0xbe238e69	-0.15972294
214	0x3e26b269	0.16278996
215	0x3ea11477	0.31460926
216	0xbec03b5d	-0.3754529
217	0xbd9a22c5	-0.07526163
218	0x3e37be16	0.17943606
219	0xbe7f75b2	-0.24947241
220	0xbcb1c282	-0.021699194
221	0x3e2c0bde	0.16801402
222	0xbe0c635a	-0.13709775
223	0xbe0a4c7c	-0.13505739
224	0xbed162df	-0.40895745
225	0x3d8d29f5	0.06892768
226	0x3e233f3a	0.15942088
227	0x3ddec2c5	0.10876993
228	0xbe5d75a9	-0.21626915
229	0xbe5d30a8	-0.21600592
230	0xbeff8eed	-0.4991373
231	0x3c4309b4	0.011904169
232	0x3dd57a1d	0.10423682
233	0x3e81e800	0.25372314
234	0x3e21fdba	0.15819445
235	0x3d3da3d1	0.046298806
236	0xbedd1a58	-0.4318416
237	0xbf022940	-0.5084419
238	0x3db70efe	0.089384064
239	0xbde9d727	-0.1141799
240	0xbbfcc1a8	-0.0077135153
241	0xbd8ab826	-0.06773405
242	0xbd788b88	-0.060679942
243	0xbe31af96	-0.17352137
244	0xbd610b5c	-0.054942474
245	0xbe594eae	-0.2122142
246	0xbe49bd94	-0.19701225
247	0x3dccd470	0.10001457
248	0xbdb78472	-0.08960809
249	0x3e3e9a6e	0.18613598
250	0xbdc61910	-0.09672749
251	0xbe627cb5	-0.22117884
252	0xbd59e680	-0.053198338
253	0xbe15aa24	-0.14615685
254	0xbdbceae0	-0.09224486
255	0xbe92f694	-0.2870375

trunk.0.bias f4 [256]
0	0x3e2f1e2a	0.1710135
1	0xbe5666f2	-0.20937708
2	0xbe6a30bf	-0.22870158
3	0x3e6d0f0c	0.23150271
4	0x3df14130	0.11780012
5	0xbe634499	-0.22194137
6	0x3dbb01e4	0.0913122
7	0x3e044afc	0.1291923
8	0xbe9b9527	-0.30387232
9	0x3d66b488	0.05632451
10	0xbcc95e8e	-0.02458122
11	0xbc4065c0	-0.011743009
12	0x3e8269f1	0.25471452
13	0xbcd1d80b	-0.025615713
14	0x3e276090	0.1634543
15	0xbe240307	-0.1601678
16	0xbe812456	-0.25223035
17	0x3e526ad0	0.20548558
18	0xbe8858a9	-0.26630142
19	0xbd99136c	-0.074744076
20	0x3dabf097	0.08395498
21	0xbe80b9eb	-0.25141844
22	0xbe84246c	-0.25809038
23	0x3dd23ba8	0.10265285
24	0x3dfa4db3	0.12221851
25	0xbd02ae80	-0.031904697
26	0x3e15272d	0.14565726
27	0x3dd8fcfc	0.10595128
28	0x3db90cf0	0.09035671
29	0xbe44d94c	-0.19223517
30	0x3e6cd6be	0.23128793
31	0x3e0d6b40	0.13810444
32	0xbddc0a6c	-0.10744175
33	0x3e3fbbb0	0.18723941
34	0xbe84a467	-0.2590668
35	0x3d850f70	0.06497085
36	0xbe839f80	-0.25707626
37	0xbcfad210	-0.030617744
38	0x3dca4fd4	0.09878507
39	0x3dfc41c3	0.123172306
40	0x3ce97981	0.02850032
41	0xbe6ef4c5	-0.2333556
42	0xbe41396c	-0.18869561
43	0x3bac8240	0.0052645504
44	0xbd55e3bc	-0.052219138
45	0xbe9bc0c1	-0.30420497
46	0x3e981578	0.2970388
47	0xbcf2ceae	-0.029639568
48	0xbe80925d	-0.25111666
49	0x3e076992	0.13223866
50	0x3dcf484f	0.10121214
51	0xbe43e118	-0.19128835
52	0x3dcaa5f4	0.09894934
53	0xbeb70aeb	-0.35750517
54	0x3dd5f354	0.10446802
55	0x3e92a3f6	0.28640717
56	0x3e4bd058	0.19903696
57	0x3e186ce0	0.14885283
58	0xbd7b42a8	-0.061342865
59	0xbd69351e	-0.056935422
60	0x3df7b8a1	0.12095762
61	0x3c5e5f9f	0.0135726025
62	0xbdf19856	-0.11796634
63	0xbd43ce36	-0.04780408
64	0xbdfa1ad2	-0.12212147
65	0xbe29dd7f	-0.165884
66	0xbe8e7636	-0.27824563
67	0xbe5a9a92	-0.21348026
68	0xbe783430	-0.24238658
69	0x3e93907e	0.28821176
70	0xbbe42cf6	-0.0069633676
71	0xbea874ca	-0.32901603
72	0xbe1dd27c	-0.15412325
73	0x3d903bf4	0.07042685
74	0xbdb8d1f8	-0.09024423
75	0xbe592755	-0.2120641
76	0xbe077b31	-0.13230588
77	0xbdb95bb5	-0.09050695
78	0xbd804152	-0.06262459
79	0x3dcfd472	0.101479426
80	0x3e220569	0.15822376
81	0x3e950c11	0.29110768
82	0x3de09c82	0.109673515
83	0xbd8c6f14	-0.06857124
84	0xbe09dca6	-0.13463077
85	0x3a86db00	0.0010288656
86	0xbe4c7504	-0.19966513
87	0x3d8801e4	0.066409856
88	0xbd150088	-0.03637746
89	0xbe01a6de	-0.12661311
90	0xbe9620c9	-0.29321888
91	0x3e14ca62	0.14530328
92	0x3e8aacb7	0.27084896
93	0x3e7a4947	0.24442016
94	0xbe3735e1	-0.17891647
95	0x3d8e76ed	0.06956277
96	0x3c3a35c0	0.011365354
97	0xbe74e431	-0.23915173
98	0xbe2763ad	-0.16346617
99	0x3ddc9a11	0.10771573
100	0xbe13f187	-0.14447604
101	0x3e60d330	0.21955562
102	0x3dd7ba50	0.10533583
103	0x3bde1054	0.006776849
104	0x3e4b5568	0.19856799
105	0x3dc119bf	0.09428739
106	0x3d8e3b81	0.06944943
107	0x3d779f1b	0.06045447
108	0xbe116b07	-0.14200984
109	0xbe23b91f	-0.15988587
110	0xbd624084	-0.05523731
111	0x3d2e51e7	0.042558577
112	0x3de23bc0	0.11046553
113	0x3e1d0870	0.1533525
114	0xbe449311	-0.19196726
115	0xbd1cb390	-0.03825718
116	0xbe8b9f94	-0.27270186
117	0x3e150dbd	0.14556022
118	0xbe9d9a79	-0.30781916
119	0xbe13d6b3	-0.1443737
120	0x3e753e35	0.23949511
121	0x3d9e7d2f	0.077387206
122	0xbdd2a568	-0.10285455
123	0xbe7ee8a0	-0.24893427
124	0xbe545156	-0.20734152
125	0x3d9172e3	0.07101991
126	0xbe8e84a3	-0.2783557
127	0x3e856620	0.26054478
128	0x3e87f239	0.2655199
129	0xbc6973ef	-0.014248832
130	0xbd8ac087	-0.06775003
131	0x3e701eac	0.234492
132	0x3d5c2cf4	0.05375381
133	0x3e91f650	0.28508234
134	0x3e284b7e	0.16435048
135	0xbe3ee3bc	-0.18641561
136	0x3e3a7c1e	0.1821141
137	0x3e19d417	0.15022312
138	0xbe5b36f1	-0.21407677
139	0x3e66acee	0.22526905
140	0xbe538084	-0.20654494
141	0xbe251d88	-0.16124547
142	0x3bb85200	0.0056250095
143	0xbdfb9779	-0.122847505
144	0xbe216967	-0.15762864
145	0xbe4a7aa0	-0.1977334
146	0x3d610ca8	0.05494371
147	0x3e3fffdd	0.18749948
148	0xbddcbc00	-0.10778046
149	0xbe8a04dd	-0.26956835
150	0xbc7eb9a0	-0.015547186
151	0xbe9f86f6	-0.31157655
152	0xbe8f1708	-0.2794726
153	0xbdf530c8	-0.11972195
154	0x3e41fcd4	0.18944103
155	0xbe73823e	-0.23780152
156	0xbd451578	-0.048116177
157	0xbe086016	-0.13317904
158	0xbe9dbc45	-0.308077
159	0xbe04a445	-0.12953289
160	0xbc8fe100	-0.017563343
161	0xbd4fa700	-0.050696373
162	0x3e634f50	0.22198224
163	0x3dd9fc11	0.10643781
164	0x3e403984	0.1877194
165	0x3df1ddc0	0.118098736
166	0x3d019278	0.031633824
167	0x3debc9f0	0.11513126
168	0xbe44f726	-0.19234905
169	0x3e11d2d8	0.14240587
170	0x3d8bc6f9	0.068250604
171	0xbe3b5a4b	-0.18296163
172	0xbd96140e	-0.07328044
173	0xbe7791a1	-0.24176647
174	0xbe9cb8b0	-0.30609655
175	0xbd73583c	-0.05941032
176	0x3d5d21b0	0.053987205
177	0xbde0480d	-0.109512426
178	0xbc47569e	-0.012166647
179	0xbe871abd	-0.26387587
180	0xbe895885	-0.26825348
181	0x3e22cbc5	0.15898044
182	0xbe963b77	-0.29342243
183	0x3e3b2857	0.18277107
184	0x3e69a7b6	0.22817883
185	0x3e57587b	0.21029846
186	0x3d50434c	0.05084543
187	0xbe8c9e85	-0.2746469
188	0xbdeea8a6	-0.11653261
189	0xbdd925b8	-0.106028974
190	0xbdb77d5a	-0.08959456
191	0x3e6c8f64	0.23101574
192	0xbe2611fa	-0.16217795
193	0xbe8f2141	-0.27955058
194	0xbee39c62	-0.44455248
195	0x3dec8e62	0.11550595
196	0xbd89fc62	-0.06737591
197	0x3e80a814	0.25128233
198	0x3c5a817c	0.013336536
199	0xbe8fdd25	-0.28098407
200	0x3d98c5e8	0.074596226
201	0x3e8d4244	0.2758962
202	0x3e3f7e92	0.18700626
203	0x3dbdae39	0.09261746
204	0xbe67f69d	-0.22652669
205	0xbe3922c0	-0.18079662
206	0x3e51a4e0	0.20473051
207	0xbe25f2b8	-0.16205871
208	0x3d2426f5	0.040076215
209	0xbd1e3b10	-0.038630545
210	0x3dcee924	0.10103062
211	0xbd75c047	-0.059997823
212	0xbea8c942	-0.32966048
213	0xbe274963	-0.16336589
214	0x3e818e0d	0.2530369
215	0xbd911577	-0.07084172
216	0x3e0d72d5	0.13813336
217	0xbe9c161d	-0.3048562
218	0x3e746acc	0.23868865
219	0xbd842ef6	-0.064542696
220	0xbdd022a2	-0.10162856
221	0x3d7a8600	0.06116295
222	0xbddd41bc	-0.108035535
223	0xbdf823e2	-0.12116219
224	0xbd30b8a8	-0.043144852
225	0xbc7207c9	-0.014772364
226	0xbe243378	-0.16035259
227	0x3cab60aa	0.020920116
228	0xbe959dcb	-0.2922195
229	0x3e0c1b5e	0.13682315
230	0x3e8f2d14	0.2796408
231	0x3d47cce0	0.04877937
232	0xbd90486c	-0.070450634
233	0xbe8d641f	-0.2761545
234	0x3e10fd18	0.14159048
235	0x3e88fd98	0.26755977
236	0x3e16c2a7	0.14722691
237	0x3d35a399	0.044345472
238	0x3dcd4b20	0.100240946
239	0x3e8f117a	0.2794302
240	0x3de3a7f1	0.11116017
241	0xbe1d6907	-0.15372096
242	0xbe92911e	-0.2862634
243	0x3e06fce2	0.13182405
244	0x3da89fd3	0.08233609
245	0x3e3243a3	0.17408614
246	0xbe1d2f60	-0.15350103
247	0x3dbd91e4	0.09256342
248	0xbdcc4d0c	-0.09975633
249	0xbd7afaa8	-0.0612742
250	0x3defdd12	0.11712088
251	0xbe8d82d5	-0.2763888
252	0x3e6396e0	0.22225523
253	0x3dfeb4a0	0.12436795
254	0xbe525d0b	-0.20543306
255	0x3e512cf6	0.20427307

trunk.2.weight f4 [256, 256]
0	0xbd01727a	-0.031603314
1	0xbc280ff9	-0.010257714
2	0xbd05930f	-0.03261095
3	0xbd7aa72a	-0.061194576
4	0xbbd41b70	-0.0064729974
5	0x3c6f6b06	0.014612919
6	0xbbee4740	-0.0072716773
7	0xbd3f1c26	-0.046657704
8	0xbc63c614	-0.013902206
9	0x3c3addf0	0.011405453
10	0xbc8edb24	-0.017438479
11	0xbd468620	-0.048467755
12	0xbd4a4ebb	-0.04939149
13	0xbcd59449	-0.026071684
14	0x3cb864a4	0.022508927
15	0x3d63a76e	0.055579595
16	0xbc7136f1	-0.014722572
17	0x3cb7514c	0.022377633
18	0x3d134b86	0.035960697
19	0xbd30ae92	-0.043135233
20	0xbd15ffec	-0.03662102
21	0x3cd1813a	0.025574315
22	0x3d374b00	0.04474926
23	0x3c72a558	0.014809929
24	0xbd83717e	-0.06418131
25	0x3d114d58	0.03547415
26	0xbd8a51b4	-0.06753865
27	0x3cffe8b8	0.031238899
28	0xbc0adbf5	-0.008475293
29	0x3ca56230	0.020188421
30	0xbd798914	-0.060921744
31	0xbcb401ac	-0.021973453
32	0x3cd971d4	0.026543535
33	0x3d03fc32	0.032222934
34	0xbc9294ac	-0.017893158
35	0x3d6449b6	0.05573436
36	0xbcf45d17	-0.029829545
37	0xbd1a67ce	-0.037696652
38	0xbcddb7e0	-0.027065217
39	0xbc447dcc	-0.011992883
40	0xbcdd1c1a	-0.026990939
41	0x3cf7cf5c	0.030250244
42	0xbd0dad0e	-0.034588866
43	0xbc91a620	-0.01777941
44	0xbd7db308	-0.061938316
45	0x3d0fe8a5	0.035133976
46	0xbc40adc8	-0.011760183
47	0xbd856e87	-0.06515222
48	0xbb45a620	-0.0030158833
49	0xb8ef4000	-0.00011408329
50	0x3ac16634	0.001475519
51	0xbbe0ca60	-0.0068600625
52	0x3cbff89f	0.023433981
53	0xbcb0a6f4	-0.021563984
54	0xbc993f3c	-0.01870691
55	0xbc732b48	-0.014841862
56	0x3c36d090	0.011158124
57	0x3d4d1cc6	0.05007627
58	0xbb3c78a0	-0.0028758422
59	0x3d03eb2b	0.032206696
60	0x3d080bcc	0.033214375
61	0xbd46572b	-0.048422974
62	0xbcae1999	-0.02125244
63	0xbcf1b1b8	-0.029503688
64	0x3cd4fa8c	0.025998376
65	0xbcb400dc	-0.021973066
66	0x3c9c2f80	0.019065619
67	0xbc470b00	-0.012148619
68	0xbd691c3c	-0.056911692
69	0xbd2c1b78	-0.042018384
70	0xbd9d8bec	-0.076927036
71	0xbd5040e4	-0.050843135
72	0x3c8f0788	0.017459646
73	0x3b798d60	0.003807865
74	0x3d4089c2	0.047006376
75	0xbd911408	-0.07083899
76	0xbaef6280	-0.0018263608
77	0xbd934c7d	-0.07192323
78	0xbc7e1846	-0.015508717
79	0x3be1b995	0.006888578
80	0xbd935837	-0.0719456
81	0x3d2108fd	0.039315213
82	0xbc9f05c8	-0.019411936
83	0x3d21c52b	0.039494675
84	0xbc2be128	-0.010490693
85	0x3d113b8c	0.03545718
86	0x3d68b93e	0.056817286
87	0xbd1e4207	-0.038637187
88	0xbc78ebb8	-0.0151929185
89	0x3d064790	0.03278309
90	0xbd8e1ca5	-0.06939057
91	0x3d178898	0.0369955
92	0xbd61d9da	-0.0551394
93	0x3d2cb544	0.042165056
94	0xbd68d3ff	-0.0568428
95	0xbd2a632b	-0.04159848
96	0x3d3f0602	0.04663659
97	0xbd3082c4	-0.043093458
98	0x3d1a6054	0.037689522
99	0x3cde2864	0.02711887
100	0x3d28ee75	0.041243035
101	0xbd7822de	-0.060580127
102	0x3a37a100	0.0007004887
103	0xbd1541d6	-0.03643974
104	0x3c73eba8	0.014887728
105	0xbd812c95	-0.063073315
106	0x3c1fb270	0.009747133
107	0xbc9a5c94	-0.018842973
108	0xbd3a1017	-0.0454255
109	0xbd664c6c	-0.056225225
110	0x3d05e7cc	0.03269176
111	0xbcb94ba4	-0.022619076
112	0x3d3ce576	0.04611727
113	0xbb9bdb24	-0.004756348
114	0x3b4ce1eb	0.0031262587
115	0xbc1b4de8	-0.0094790235
116	0xbc0dd938	-0.008657746
117	0xbd18053b	-0.037114363
118	0xbd8f5ccb	-0.07000121
119	0x3cbfc970	0.023411483
120	0xbd62446e	-0.05524104
121	0x3ca84d80	0.020544767
122	0xbd1765a9	-0.036962185
123	0x3cbea501	0.02327204
124	0x3d5b65ce	0.053563885
125	0xbd5da004	-0.05410768
126	0x3d125550	0.03572589
127	0x3ac7a8c0	0.0015232787
128	0xbd824f55	-0.06362788
129	0x3c1dcd1c	0.009631421
130	0x3c9fd1c8	0.019509211
131	0x3d61aac0	0.05509448
132	0xbd9a5f66	-0.07537727
133	0x3d67288a	0.056435145
134	0x3d01053b	0.03149913
135	0x3d3ac9b4	0.045602515
136	0x3c94ef19	0.018180417
137	0xbd3d7faa	-0.046264328
138	0x3d423460	0.04741323
139	0x3d28e854	0.04123719
140	0xbd22f135	-0.039780814
141	0xbcd5cd2a	-0.026098806
142	0x3d485408	0.048908263
143	0x3d0d06d4	0.03443034
144	0x3cd01f49	0.025405543
145	0x3d44213e	0.047883265
146	0xbd449c89	-0.048000846
147	0xbcda6fdb	-0.026664665
148	0xbd27538a	-0.040851153
149	0x3c880369	0.016603189
150	0x3c7f3188	0.015575774
151	0xbd836657	-0.06416004
152	0xbcc26c78	-0.023733363
153	0xbd88e6e2	-0.066846624
154	0xbd70ed08	-0.0588198
155	0x3d28525e	0.041094176
156	0xbd00c5fc	-0.031438813
157	0x3c44d2fd	0.012013194
158	0xbcf41f40	-0.029800057
159	0xbce9c9af	-0.028538553
160	0xb8295000	-4.0367246e-05
161	0x3d47a956	0.048745476
162	0xbcc8efe3	-0.02452845
163	0x3d53d4ca	0.051716603
164	0x3d15c9a0	0.036569238
165	0x3d2f9e44	0.042875543
166	0xbd682d3e	-0.05668377
167	0xbd38c229	-0.04510704
168	0xbd5091c6	-0.05092027
169	0xbc597c68	-0.01327429
170	0xbcec27e0	-0.028827608
171	0xbb50910d	-0.0031824738
172	0x3d245073	0.040115785
173	0x3c47757c	0.012174007
174	0xbd7330db	-0.059372764
175	0xbd619999	-0.055078123
176	0x3d414e98	0.047194093
177	0xbc1e49f7	-0.009661189
178	0x3c90a478	0.01765655
179	0xbd46f39d	-0.04857217
180	0xbcc0887b	-0.023502579
181	0x3afa9e3f	0.0019120647
182	0xbd27fe62	-0.041014083
183	0x3ccc0eab	0.024909338
184	0x3cff26f4	0.031146504
185	0xbd154ac6	-0.036448263
186	0xbd2a0909	-0.041512523
187	0xbc70be50	-0.014693812
188	0x3c1f5c78	0.009726636
189	0xbcbbcfd4	-0.022926249
190	0x3d74e520	0.059788823
191	0xbd7694e2	-0.06020058
192	0xbd51be4a	-0.051206864
193	0xbd1b62f2	-0.03793616
194	0x3a86ddf5	0.0010289537
195	0x3c115010	0.008869186
196	0xbd09ffe9	-0.03369132
197	0x3d196e3a	0.037458636
198	0xbd8f061f	-0.069835894
199	0x3cb47458	0.022028133
200	0xbd0cdd4a	-0.034390725
201	0xbc692c70	-0.014231786
202	0xbd768732	-0.060187526
203	0xbd801493	-0.06253924
204	0xbd5933f8	-0.053028077
205	0x3cdf5f4c	0.02726712
206	0xbcc04264	-0.023469158
207	0x3c89b7b0	0.016811222
208	0xbd4bcb47	-0.049754407
209	0xbc7db600	-0.015485287
210	0x3bf7e780	0.0075654387
211	0x3d157405	0.036487598
212	0xbd060cc0	-0.032727003
213	0x3ca6b54a	0.020350117
214	0x3ab24b03	0.0013602677
215	0x3d1bb32a	0.03801266
216	0x3cc1539e	0.023599442
217	0x3c1b56cb	0.009481142
218	0xbc9a6468	-0.018846706
219	0xbc8fb384	-0.017541654
220	0x3cc75280	0.024331331
221	0x3d0b87e8	0.034065157
222	0xbb5a9e20	-0.003335841
223	0x3d005396	0.031329714
224	0xbd1a03b6	-0.037601195
225	0x3c9e7b53	0.019345915
226	0xbcc0f089	-0.023552196
227	0xbd7139e7	-0.05889311
228	0xbcf8c5cc	-0.030367754
229	0xbd8247e0	-0.06361365
230	0x3c4e8f00	0.012607336
231	0xbd17d2d4	-0.037066296
232	0xbc929e3c	-0.017897718
233	0xbb805140	-0.0039159358
234	0xbd1c337e	-0.038135044
235	0x3ad25a00	0.0016048551
236	0xbcc3128d	-0.023812557
237	0x3b814688	0.0039451756
238	0x3d38efb4	0.045150474
239	0xbd5b9828	-0.053611904
240	0x3c95e406	0.018297207
241	0xbc8ca36e	-0.017167773
242	0xbd12516c	-0.03572218
243	0xbce832f8	-0.028344616
244	0x37d9c62a	2.5960693e-05
245	0xbb3c04db	-0.0028689418
246	0xbb044d40	-0.0020187646
247	0xbcfee59c	-0.031115346
248	0x3d011986	0.03151848
249	0xbbd89286	-0.006609264
250	0xbd9cf368	-0.076636136
251	0xbc34f7d8	-0.011045419
252	0xbc8ae978	-0.01695703
253	0xbcda79ac	-0.026669346
254	0xbd0e00ac	-0.03466861
255	0xbd885e5c	-0.066586226

trunk.2.bias f4 [256]
0	0xbd57759e	-0.052602403
1	0xbd280e1e	-0.04102909
2	0x3d2dd09a	0.042435266
3	0xbd45a080	-0.048248768
4	0xbc2ceb11	-0.010554091
5	0x3d6adfde	0.057342403
6	0x3d89f445	0.06736044
7	0x3d64081c	0.055671796
8	0xbd6ce343	-0.05783392
9	0x3aec0c1f	0.0018008983
10	0xbca87df0	-0.020567864
11	0x3a97b2c0	0.0011573657
12	0x3d3665fd	0.044530857
13	0x3c61ad4d	0.013774228
14	0xbd951d26	-0.0728095
15	0x3d5e342b	0.05424897
16	0x3da3add3	0.07992139
17	0xbd829624	-0.06376293
18	0xbd54778c	-0.05187182
19	0x3d0c44f3	0.034245443
20	0xbd3e847f	-0.046513077
21	0xbd4b346e	-0.049610548
22	0x3cd60028	0.026123121
23	0xbc6514be	-0.013981996
24	0x3d0fa22d	0.035066772
25	0xbd69ce05	-0.05708124
26	0x3cf14ded	0.029456103
27	0xbd1740f2	-0.03692717
28	0xbd18251e	-0.037144773
29	0x3cd8b918	0.026455447
30	0xbd860fd2	-0.06545986
31	0xbd57daab	-0.052698772
32	0xbc41e280	-0.011833787
33	0xbc3a9f22	-0.011390479
34	0xbd3604e0	-0.044438243
35	0xbd049b9c	-0.032374963
36	0xbd6f6e1e	-0.058454625
37	0x3d27cd83	0.040967476
38	0xbc06b6b4	-0.008222271
39	0xbbcf0bfa	-0.0063185664
40	0x3d1a75b0	0.03770989
41	0x3ceb2ab1	0.02870688
42	0x3d166a22	0.03672231
43	0x3ca1a799	0.019733237
44	0x3bfab266	0.0076506613
45	0xbd1a0b4a	-0.037608422
46	0x3d27a011	0.040924136
47	0xbc4af7a8	-0.012388147
48	0x3bea8286	0.007156673
49	0x3d80e08d	0.0629283
50	0x3c5b35f3	0.013379562
51	0xbc43a49e	-0.011941103
52	0xbd33a332	-0.043856807
53	0xbc9c0e11	-0.019049676
54	0xbcb24a73	-0.021764016
55	0xbd325d06	-0.043545745
56	0xbd15415e	-0.036439292
57	0x3c99e099	0.018783854
58	0xbd3a7bfc	-0.045528397
59	0xbc3b281c	-0.011423137
60	0x3cf27ae4	0.029599614
61	0x3d57ecca	0.052716054
62	0xbd99f693	-0.075177334
63	0x3cfc4846	0.030796181
64	0x3c15ed58	0.009150825
65	0x3ca3cf34	0.019996263
66	0x3d1f9e5e	0.03896939
67	0x3d4c818c	0.049928233
68	0xbd039a22	-0.032129414
69	0x3d147e77	0.03625342
70	0xbc096433	-0.008385706
71	0x3b2de312	0.002653305
72	0x3c350dc7	0.011050648
73	0xbd52fd0d	-0.05151086
74	0xbd5acc9a	-0.05341778
75	0xbd9e6d26	-0.07735662
76	0x3c36b378	0.011151187
77	0x3cf746d1	0.030185135
78	0xbd1e4436	-0.03863927
79	0x3c88d884	0.016704805
80	0xbcda3080	-0.026634455
81	0xbd0e09d4	-0.03467734
82	0xbd24b71d	-0.040213693
83	0x3c7567b0	0.014978334
84	0xbd304b55	-0.043040592
85	0xbc90e52d	-0.017687405
86	0x3d1ea763	0.03873385
87	0xbda978d6	-0.08275001
88	0xbbc108c4	-0.0058909375
89	0xbcb689f7	-0.022282584
90	0x3d1f8b16	0.038951002
91	0x3d50cf02	0.050978668
92	0x3d514a64	0.051096335
93	0xbbfdfb23	-0.007750885
94	0xbc1dc458	-0.0096293315
95	0xbcb9f964	-0.022701927
96	0xbd9a3ae8	-0.07530767
97	0xbda61567	-0.08109551
98	0x3c0965cf	0.0083860895
99	0xbd4a7764	-0.049430266
100	0xbd14289e	-0.036171548
101	0x3c95d0b8	0.018288001
102	0xbd6594eb	-0.056050222
103	0x3d21bf3e	0.039489023
104	0x3d1a9978	0.037744015
105	0xbb8026c0	-0.0039108694
106	0x3ac35561	0.0014902764
107	0x3c4f86bd	0.012666401
108	0x3cc11d38	0.023573503
109	0xbd6650b5	-0.056229312
110	0x3c96c001	0.018402101
111	0xbda20d9e	-0.079127535
112	0xbd6574dc	-0.05601965
113	0xbd9c8755	-0.07643
114	0xbd0a4090	-0.033752978
115	0x3cf0ba97	0.029385848
116	0x3b836060	0.0040092915
117	0xbc7606bd	-0.015016255
118	0x3b33fea0	0.0027465
119	0xbd8c7a70	-0.068592906
120	0x3c0b7128	0.008510865
121	0xbcfb428e	-0.030671384
122	0x3cbe549a	0.0232337
123	0x3cdcd6ca	0.026957888
124	0xbb826e80	-0.003980458
125	0x3cb5767c	0.022151224
126	0xbd12df56	-0.03585752
127	0x3cd8c224	0.026459761
128	0x3d8989eb	0.06715759
129	0x3c838130	0.016052812
130	0x3c02fc44	0.007994715
131	0xbd4b05e2	-0.049566157
132	0xbd28e30e	-0.04123216
133	0xbc222070	-0.009895429
134	0xbd2899f2	-0.04116244
135	0x3d046678	0.032324284
136	0xbd8aa665	-0.067700185
137	0xbd58a8bd	-0.052895296
138	0xbb720d66	-0.0036934256
139	0xbd97776a	-0.07395823
140	0xbc3eda1e	-0.011648683
141	0x3d2fddc8	0.042936116
142	0x3d01705c	0.031601295
143	0x3d17fd61	0.037106875
144	0xbc32b672	-0.010907756
145	0xbce45407	-0.027872099
146	0xbd7a62d3	-0.061129402
147	0xb9813aa6	-0.00024648494
148	0x3c7279e3	0.014799568
149	0xbd3d1dc1	-0.046170954
150	0xbcb2b6c3	-0.021815663
151	0x3d36f780	0.04466963
152	0xbcf7a48d	-0.030229831
153	0x3cf04a44	0.029332288
154	0x3d1bd9c6	0.03804948
155	0x3c923444	0.017847188
156	0xbd062081	-0.032745842
157	0xbcbeec73	-0.023306107
158	0x3d34c098	0.044128984
159	0x3d6ab0a0	0.05729735
160	0x3d91ecad	0.071252204
161	0xbd1991e8	-0.037492663
162	0x3d1ab452	0.037769623
163	0xbcc09f71	-0.023513528
164	0x3d593424	0.05302824
165	0xbd6340e2	-0.0554818
166	0x3d33fdf6	0.043943368
167	0x3d5af69a	0.053457834
168	0xbc8e773a	-0.017390836
169	0xbd341dde	-0.043973796
170	0xbda224b2	-0.07917155
171	0xbc39a08d	-0.011329782
172	0xbd06d1bc	-0.032914862
173	0xbbd593ff	-0.0065178866
174	0xbd5cd8a8	-0.053917557
175	0x3c9b84dc	0.01898425
176	0x3cf0f1b5	0.02941213
177	0x3c9e1221	0.019295754
178	0x3a39b821	0.0007084627
179	0x3d323cc8	0.043514997
180	0x3c7ac405	0.015305524
181	0xbd38bb83	-0.0451007
182	0x3c840323	0.016114777
183	0xbd281baf	-0.041042026
184	0xbc73f310	-0.014889494
185	0xbd1da85f	-0.03849065
186	0x3ced9818	0.029003188
187	0xbd9290a1	-0.07156492
188	0xbd6280e4	-0.0552987
189	0x3c77c77d	0.015123245
190	0xbd912020	-0.070862055
191	0x3baa1b6d	0.0051912577
192	0xbcbc0124	-0.022949763
193	0x3b16e060	0.0023021922
194	0xbd529f26	-0.051421307
195	0x3d11cde6	0.03559675
196	0xbd0290ef	-0.0318765
197	0xbca29be4	-0.019849725
198	0x3ca49d2b	0.020094475
199	0xbc982b9a	-0.018575478
200	0x3d407704	0.046988502
201	0x3d06550a	0.032795943
202	0x3a959672	0.0011412634
203	0xbd0fd9bb	-0.035119753
204	0x3c769a5b	0.01505145
205	0x3d5c128c	0.053728625
206	0xbc9cf9ef	-0.019162146
207	0x3c98b114	0.018639125
208	0xbd6adb0c	-0.057337806
209	0x3d03e0b4	0.032196715
210	0xbc727c48	-0.014800139
211	0xbdc2ceb9	-0.095120855
212	0xbc3ee158	-0.011650406
213	0x3c2fdd85	0.010733967
214	0xbc643b1a	-0.013930107
215	0xbcdf0a6d	-0.027226651
216	0xbcceaa06	-0.025227558
217	0x3d1cd0f6	0.03828522
218	0xbd52b6a3	-0.051443707
219	0xbd6b6271	-0.057466928
220	0xbd07d887	-0.03316548
221	0xbd690854	-0.056892708
222	0x3d2efc6e	0.042721204
223	0xbba3300f	-0.0049800943
224	0x3c78fd6d	0.01519714
225	0xbc921fed	-0.017837489
226	0x3a69e1e0	0.00089219026
227	0xbcf5094b	-0.029911658
228	0x3c26e0ad	0.010185403
229	0xbd85d5f3	-0.06534948
230	0xbc79b183	-0.015240076
231	0xbda01b5b	-0.07817718
232	0xbd01a5b0	-0.031652153
233	0xbd9e94ab	-0.077432
234	0xbc089abe	-0.008337675
235	0x3d380977	0.0449309
236	0x3d1f1fb6	0.0388486
237	0x3d1f497d	0.038888443
238	0x3cac0cea	0.021002252
239	0xbd8f0f29	-0.069853134
240	0x3cf4112b	0.029793343
241	0x3d1bedf9	0.038068745
242	0xbcf07562	-0.029352847
243	0x3b8e0d97	0.004335116
244	0xbc644ecf	-0.013934805
245	0x3cc67e0c	0.024230026
246	0x3c654195	0.013992687
247	0x3c85cebf	0.016333936
248	0x3ce568b0	0.02800402
249	0xbd365379	-0.0445132
250	0x3ca313a0	0.019906819
251	0xbcf3821e	-0.02972513
252	0xbcc99c3d	-0.024610633
253	0xbd6efe8d	-0.058348227
254	0xbd802280	-0.0625658
255	0x3d1f5641	0.038900618

V_heads.0.weight f4 [1, 256]
0	0x3caa59b1	0.020794721
1	0x3bbfef30	0.005857371
2	0x3beee220	0.00729014
3	0xbc30ce22	-0.010791333
4	0xbceb13c9	-0.028695958
5	0x3d3a0c22	0.045421727
6	0x3d9a530e	0.07535373
7	0x3c8981fc	0.016785614
8	0xbcba8acc	-0.022771262
9	0x3d63a569	0.05557767
10	0xbd14e618	-0.036352247
11	0x3d2d625e	0.04233014
12	0x3cebcfbc	0.028785579
13	0xbd453328	-0.04814449
14	0xbc9e9a08	-0.019360557
15	0xbd4fc670	-0.050726354
16	0x3d0da2e2	0.034579165
17	0x3cf63e4d	0.030059004
18	0x3cf37238	0.02971755
19	0x3caddee1	0.021224441
20	0xbb886622	-0.004162566
21	0x3d47c2c6	0.048769735
22	0xbcf8a7d4	-0.030353464
23	0x3cb8da9a	0.022565175
24	0xbcf5d093	-0.030006683
25	0x3d5fd7bc	0.0546491
26	0xbd552482	-0.05203677
27	0xbd0f787b	-0.03502701
28	0xbd374fbc	-0.044753775
29	0x3c728988	0.014803298
30	0xbc9955b2	-0.01871762
31	0xbd26af3f	-0.04069447
32	0xbd223ba4	-0.03960766
33	0x3bf2f5a6	0.0074145375
34	0xbd0806d2	-0.03320963
35	0x3b87245c	0.0041242074
36	0x3cb74c40	0.022375226
37	0xbc4a4d01	-0.012347461
38	0xbd121fa0	-0.03567469
39	0xbd13a28d	-0.036043692
40	0x3d281e8e	0.041044764
41	0x3c01867b	0.007905598
42	0xbc10d62c	-0.008840125
43	0xbc9a764d	-0.018855238
44	0x3d500391	0.05078465
45	0x3cc6114c	0.02417817
46	0x3d6cc34f	0.05780345
47	0xbd6656d4	-0.05623515
48	0x3cbcc8e1	0.023045005
49	0xbce780e6	-0.028259706
50	0x3d63a062	0.055572875
51	0x3cbabde1	0.02279562
52	0x3d6c0d2e	0.057629757
53	0x3cfb5599	0.030680465
54	0x3ca080bb	0.019592633
55	0xbbf8f310	-0.0075973347
56	0x3d23d610	0.039999068
57	0xbb91bb6e	-0.004447392
58	0xbcb738d4	-0.022365965
59	0x3d38ced5	0.045119125
60	0x3cd90fe3	0.026496833
61	0x3d7e9422	0.06215299
62	0x3d0cc2d4	0.03436549
63	0xbd06ba6f	-0.03289264
64	0x3d6fb632	0.058523364
65	0xbd5be4fb	-0.05368517
66	0x3d6f48ee	0.05841916
67	0xbd651e0c	-0.055936858
68	0x3c98ce4d	0.01865306
69	0x3c82fc9b	0.015989592
70	0x3cdd535d	0.02701729
71	0x3d38e499	0.045139883
72	0x3c0a7042	0.008449616
73	0x3d1f6c99	0.038921926
74	0x3d00cc05	0.03144457
75	0xbc5609ef	-0.013063892
76	0xbd118e18	-0.0355359
77	0x3c141572	0.009038316
78	0xbcd6d6df	-0.026225505
79	0x3d7e25a6	0.062047623
80	0x3d928947	0.0715509
81	0xbd2a98d8	-0.04164967
82	0xbd06d26f	-0.03291553
83	0x3d078f28	0.03309551
84	0xbc855ff7	-0.016281111
85	0xbcb8e225	-0.022568772
86	0x3d3f3602	0.046682365
87	0xbd09179c	-0.03346978
88	0x3c8cf314	0.017205752
89	0x3b7a594e	0.0038200202
90	0x3d140242	0.036134966
91	0xbcb52f0b	-0.022117158
92	0x3cfaef8c	0.030631803
93	0x3d866de2	0.06563927
94	0x3a0d6c83	0.00053948927
95	0xbcbc26fc	-0.022967808
96	0xbd2091c8	-0.039201528
97	0x3ce0b044	0.0274278
98	0x3d7f3e26	0.06231513
99	0x3b408579	0.002937643
100	0xbd677bd2	-0.05651457
101	0x3d0e99b6	0.03481456
102	0x3ca2cb49	0.019872325
103	0xba801f80	-0.0009775013
104	0x3cde4d80	0.027136564
105	0xbcb9063c	-0.02258598
106	0x3d302e6d	0.043013025
107	0xbd80a3c8	-0.06281239
108	0xbc4b03d8	-0.012391053
109	0x3c954767	0.018222524
110	0xbd7390e6	-0.059464358
111	0x3cd900ee	0.026489701
112	0x3d6f00f1	0.058350507
113	0x3cd26317	0.025682015
114	0xbcb1ae4c	-0.021689557
115	0x3cc1b66b	0.023646554
116	0x3cca2ecc	0.024680518
117	0x3d177eb3	0.036986064
118	0xbd6fa308	-0.058505088
119	0x3d11b89a	0.03557644
120	0xbd7cae0d	-0.061689425
121	0xbd091db9	-0.03347561
122	0xbd3a0163	-0.04541148
123	0x3ceb8909	0.028751867
124	0x3d1ff37c	0.039050564
125	0xbd38b866	-0.04509773
126	0x3cdf6024	0.027267523
127	0x3d303332	0.043017574
128	0xbcd49987	-0.025952114
129	0x3b9cddc0	0.004787177
130	0x3d757847	0.05992916
131	0x3cfbfa57	0.03075902
132	0x3d43e4ea	0.04782573
133	0xbd59708b	-0.053085845
134	0x3d5c86a6	0.05383935
135	0x3c59d97f	0.013296484
136	0x3d5833e2	0.052783854
137	0xbc9f4a06	-0.019444477
138	0xbcc82e3e	-0.024436112
139	0x3cc7298c	0.024311803
140	0xb9bb90e2	-0.00035775366
141	0xbd1e6a8e	-0.038675837
142	0xbb54ae20	-0.003245242
143	0x3ba490f4	0.0050221626
144	0xbb5b9e1c	-0.0033510989
145	0xbd1c6e60	-0.0381912
146	0xbd473af1	-0.048640195
147	0x3bea3124	0.0071469713
148	0xbc0c2d8b	-0.00855578
149	0x3d78901a	0.0606843
150	0xbcfabeaa	-0.030608494
151	0x3cd7ecf0	0.026358098
152	0xbd3f50b8	-0.04670784
153	0xbc845e68	-0.016158298
154	0xbd2dacc3	-0.042401087
155	0xbc29bf22	-0.010360511
156	0xbd30a507	-0.043126132
157	0x3cd75b99	0.026288794
158	0xbc829f38	-0.015945062
159	0x3d0abfa6	0.033874176
160	0x3c4ae072	0.0123826135
161	0xbd1a7d54	-0.03771718
162	0x3d6c3c82	0.057674892
163	0xbd814c39	-0.063133664
164	0xbd0471e4	-0.032335177
165	0xbcc63e9f	-0.024199782
166	0x3d0e5618	0.034750074
167	0xbcee7dbc	-0.02911269
168	0x3cb52ca7	0.022116018
169	0x3d1ae27f	0.03781366
170	0x3d0fcda3	0.03510822
171	0x3c9a1b5e	0.018811878
172	0x3d0ee66e	0.034887724
173	0x3d463861	0.04839361
174	0xbd12f112	-0.035874434
175	0x3d3afcce	0.04565125
176	0xbd9625c2	-0.073314205
177	0xbce806e4	-0.028323598
178	0x3a80cb48	0.0009826208
179	0xbc42b6b2	-0.011884378
180	0xbc65dbd5	-0.014029463
181	0x3d065f3c	0.032805666
182	0x3c050190	0.008118048
183	0x3c3b29a3	0.011423501
184	0x3bbcb870	0.0057592914
185	0xbd1c851d	-0.038212884
186	0x3d725708	0.05916503
187	0x3c95f846	0.018306863
188	0xbc70588c	-0.014669549
189	0xbd5f0f2b	-0.054457825
190	0xbbe3992a	-0.006945749
191	0xbcb06cd7	-0.021536274
192	0xbd1f4010	-0.038879454
193	0xbd4b0b3c	-0.04957126
194	0x3d13220e	0.03592115
195	0xbcedfae8	-0.029050305
196	0x3c64aa4e	0.013956619
197	0xbd45791c	-0.048211202
198	0x3d534b1b	0.051585298
199	0xbd5b6cb7	-0.053570475
200	0xbc04e8f8	-0.008112185
201	0xbd757ce6	-0.059933566
202	0x3d0b0006	0.03393557
203	0x3c9deb8e	0.01927736
204	0x3c5e10c1	0.013553799
205	0x3d3da154	0.046296433
206	0xbd3891de	-0.045060985
207	0x3ca7ee6c	0.02049943
208	0xbb398391	-0.002830718
209	0xbd1b0e88	-0.037855655
210	0x3d2d6bd2	0.042339154
211	0xbd54a3fa	-0.051914193
212	0x3d77e304	0.060519233
213	0x3c0322e8	0.008003928
214	0x3d544ad4	0.051829174
215	0xbc9f60ea	-0.019455392
216	0x3d3ad6db	0.04561506
217	0xbd15b6fe	-0.036551468
218	0x3c1af6df	0.009458273
219	0xbd008b85	-0.031383056
220	0x3d39d24b	0.045366567
221	0xbcc9b820	-0.02462393
222	0x3d4b7f8f	0.049682196
223	0x3ca075ce	0.019587424
224	0x3d4acde8	0.049512774
225	0xbaf586be	-0.0018732173
226	0xbd0abfc7	-0.0338743
227	0x3cd5c5ae	0.026095238
228	0x3d82c77a	0.063857034
229	0xbb8f88f4	-0.0043803398
230	0xb8a62ecf	-7.9242156e-05
231	0x3c7dda59	0.015493953
232	0xbd25d196	-0.04048308
233	0x3c50658a	0.012719521
234	0x3c2ac399	0.010422611
235	0x3c61675a	0.013757551
236	0xbd4342c4	-0.047671095
237	0xbd2969ff	-0.04136085
238	0x3d7b5f82	0.06137038
239	0xbd22f053	-0.039779972
240	0x3d213145	0.039353628
241	0xbc8995e2	-0.016795103
242	0x3ca47689	0.020076053
243	0xbd97b8a5	-0.07408265
244	0xbb15deda	-0.0022868426
245	0x3cf51228	0.029915884
246	0xbc82200d	-0.015884424
247	0x3bd4cbbe	0.0064940145
248	0xbcf5d86c	-0.030010425
249	0x3d37348d	0.04472785
250	0x3cfdf4b9	0.031000482
251	0x3bf654d8	0.0075174384
252	0x3ccba296	0.0248578
253	0xbd30d68b	-0.043173354
254	0x3d086fed	0.033309866
255	0xbd2a7208	-0.041612655

V_heads.1.weight f4 [1, 256]
0	0x3c8d3da1	0.017241301
1	0xb99b8d00	-0.00029668957
2	0xbd5c0bc2	-0.05372215
3	0xbd10476c	-0.035224363
4	0xbd3c00cf	-0.04589921
5	0xbd63a8ba	-0.055580832
6	0xbd169ff5	-0.03677364
7	0x3d05784c	0.032585427
8	0xbd492bdc	-0.049114093
9	0x3d64d8c1	0.055870775
10	0xbd8a2786	-0.0674582
11	0xbc5d7640	-0.0135169625
12	0xbcc42854	-0.023945011
13	0x3d292c66	0.041302107
14	0x3d11642d	0.035495926
15	0x3c19cf62	0.009387823
16	0xbc97fdb4	-0.018553592
17	0x3d3a5bf4	0.04549785
18	0xbd428bf4	-0.04749675
19	0x3ceeab3f	0.02913439
20	0x3d03cf9e	0.03218042
21	0x3c9224f0	0.017839879
22	0x3d0b1b6a	0.03396169
23	0xbd14164e	-0.036154084
24	0x3d4a1ecf	0.049345788
25	0x39bf1bd6	0.00036451098
26	0x3849e457	4.8134792e-05
27	0xbc5710a7	-0.013126529
28	0x3c064f48	0.008197613
29	0xbd1cf9a0	-0.038324
30	0x3cba49ca	0.022740263
31	0xbd6aa017	-0.05728158
32	0xbcdbd9f8	-0.026837334
33	0x3c3be534	0.0114682205
34	0x3bcc86b2	0.006241643
35	0xbd573699	-0.052542303
36	0xbcc2c8f8	-0.02377747
37	0xbcba42ca	-0.022736926
38	0xbd6e8818	-0.058235258
39	0xbd912d36	-0.070887014
40	0x3c959c48	0.018262997
41	0xbb1222d0	-0.0022298582
42	0xbc8bd082	-0.017067198
43	0x3c4829b0	0.01221697
44	0x3ca7a55c	0.020464592
45	0xbd5c5190	-0.05378872
46	0xbc2c3dbc	-0.0105127655
47	0x3bafd700	0.005366206
48	0x3b37a8b6	0.0028024144
49	0x3d558957	0.05213293
50	0xbc965ac1	-0.018353822
51	0x3cce9a01	0.02521992
52	0x3d08b772	0.033378072
53	0xbd86ae5e	-0.06576227
54	0xbd6ac721	-0.05731881
55	0x3d096ed4	0.03355296
56	0xbd3d2b9a	-0.04618416
57	0x3d2088e5	0.039193053
58	0x3b823b90	0.0039743856
59	0xbb53f3dd	-0.0032341399
60	0x3d149611	0.036275927
61	0xbc7892e8	-0.015171744
62	0xbc33ee2a	-0.010982076
63	0xbd5d5baf	-0.054042514
64	0xbb6af900	-0.0035853982
65	0x3d5e4d09	0.054272685
66	0x3d67f7a8	0.056632668
67	0xbcde9958	-0.02717273
68	0xbc514b06	-0.012774235
69	0x3d59a885	0.05313923
70	0x3d559126	0.052140377
71	0xbcbd4dfd	-0.023108477
72	0x3cc3e464	0.023912616
73	0xbd25d937	-0.040490355
74	0xbd9cd817	-0.07658403
75	0xbbb55968	-0.0055343397
76	0xbd470306	-0.048586868
77	0x3d047348	0.032336503
78	0x3d0d7090	0.034531176
79	0xbcd0f9c4	-0.025509723
80	0xbcbe8cc8	-0.02326049
81	0xbd2e6cf2	-0.042584367
82	0x3a999bd7	0.0011719418
83	0xbce644be	-0.02810895
84	0x3d12f6c4	0.035879865
85	0xbcad2e53	-0.021140253
86	0x3d21f964	0.039544478
87	0x3d23ef38	0.04002306
88	0x3af4f1b1	0.0018687752
89	0xbd1d4fac	-0.03840606
90	0xbc3ff2f0	-0.011715636
91	0xbd42f32c	-0.047595188
92	0xbd0d7b02	-0.034541138
93	0xbd4d6d98	-0.050153345
94	0x3c910858	0.017704174
95	0xbd457d34	-0.048215106
96	0xbbabf764	-0.005247997
97	0x3d337c0e	0.04381948
98	0x3bc34b64	0.005959915
99	0x3d4fc1af	0.05072182
100	0x3c2610d0	0.010135844
101	0xbc8bbaa4	-0.01705677
102	0x3cb4fc35	0.022092918
103	0x3d64d154	0.055863693
104	0x3cf25c74	0.0295851
105	0xbd59f93e	-0.05321621
106	0xbd073955	-0.03301366
107	0xbcab6d16	-0.02092604
108	0xbcee5b48	-0.02909626
109	0x3c8d4df9	0.017249094
110	0xbd6cceda	-0.057814457
111	0x3cb0f72e	0.02160224
112	0xbc74b995	-0.014936824
113	0x3c832752	0.01600996
114	0x3c8bb8ac	0.017055832
115	0x3ccecd53	0.02524439
116	0xbd4677ea	-0.048454203
117	0xbd33a695	-0.043860037
118	0xbd4c69fa	-0.049905755
119	0x3d0dc474	0.03461118
120	0x3d214bcb	0.039378922
121	0x3cf2ba60	0.029629886
122	0x3bf05956	0.0073348684
123	0x3c80da4c	0.015729092
124	0x3cb6dba8	0.022321537
125	0xbceb6a6f	-0.028737275
126	0x3c83ea30	0.01610288
127	0xbc66a678	-0.014077775
128	0x3d587782	0.052848347
129	0x3d40e3e6	0.04709234
130	0x3c8ffa9a	0.01757555
131	0xbd37729a	-0.044787027
132	0x3d3f7d30	0.046750247
133	0x3d53c889	0.051704917
134	0xbbefb940	-0.0073157847
135	0x3d7d9bcd	0.06191616
136	0xbd2a2228	-0.04153648
137	0x3cda14a5	0.026621172
138	0xb7175628	-9.020361e-06
139	0xbc6ebd34	-0.014571477
140	0xbca7bda3	-0.020476168
141	0x3d8fac20	0.07015252
142	0xbc4a9da8	-0.01236669
143	0xbd74460d	-0.059637118
144	0xbca2ee6d	-0.01988908
145	0xbcc14b48	-0.023595467
146	0x3cb79b60	0.022412956
147	0x3d87d8cb	0.06633147
148	0x3ce27642	0.02764428
149	0xbc15457a	-0.009110803
150	0x3c493bb6	0.012282303
151	0xbc1480b1	-0.009063886
152	0xbd7df480	-0.06200075
153	0xbca08c08	-0.019598022
154	0x3d2a1a19	0.041528795
155	0xbc4d7bae	-0.012541695
156	0xbd105ca9	-0.035244618
157	0xbd87c288	-0.06628901
158	0x3ab092c0	0.0013471469
159	0xbcd9c95c	-0.026585273
160	0xbcc91234	-0.024544813
161	0xbc8b26cc	-0.016986273
162	0x3d44e4f6	0.048069917
163	0x3d1397f8	0.0360336
164	0xbc6b3d4a	-0.014357874
165	0x3d7644a6	0.060124062
166	0x3d0ecc1a	0.034862615
167	0x3c8d68d0	0.017261893
168	0x3c46e706	0.012140041
169	0xbd2ae603	-0.041723263
170	0x3d0c2dcd	0.034223367
171	0xbd5c3e9e	-0.053770654
172	0xbd512e2e	-0.05106943
173	0xbd5e9a1b	-0.054346185
174	0xbd1439b8	-0.036187857
175	0xb93f6c00	-0.00018255413
176	0xbd0ca569	-0.034337435
177	0xbd115ad8	-0.035487026
178	0x3d31988c	0.04335837
179	0x3cb66549	0.022265093
180	0x3cdbfde2	0.02685446
181	0xbb32eed5	-0.0027303
182	0x3c49b40c	0.012310993
183	0x3cd775d3	0.0263013
184	0xbc962c6c	-0.018331729
185	0xbca9153d	-0.02064001
186	0xbcb2b204	-0.0218134
187	0xbd546272	-0.051851697
188	0x3c889c81	0.01667619
189	0x3cf84608	0.030306831
190	0xbc91e9be	-0.017811652
191	0x3d34c152	0.044129677
192	0x3d08a04a	0.03335599
193	0xbcacac64	-0.021078296
194	0xbd8a0a9d	-0.067403056
195	0x3d2c114e	0.04200869
196	0x3d70e8f2	0.058815904
197	0xbcfefe68	-0.03112717
198	0xbc2a03b1	-0.010376857
199	0xbbe27000	-0.006910324
200	0xbd1fa04e	-0.038971238
201	0xbc8ab1db	-0.016930511
202	0xbcef0c0b	-0.029180547
203	0x3d4d202f	0.05007952
204	0x3d527c61	0.05138815
205	0xbc1132d8	-0.00886222
206	0x3d192f00	0.03739834
207	0xbc4ac6d0	-0.012376502
208	0x3c800ac9	0.015630143
209	0x3d016d7e	0.03159856
210	0xbb00c380	-0.0019647777
211	0x3d366562	0.04453028
212	0xbd1803d8	-0.03711304
213	0x3a3f3af5	0.0007294857
214	0xbd289edc	-0.041167125
215	0xbd1bb75e	-0.03801667
216	0x3ad2bee4	0.0016078618
217	0x3d01da16	0.031702124
218	0x3d826d39	0.06368489
219	0xbcd0cfdd	-0.025489742
220	0x3ad9f8a1	0.0016629883
221	0xbcd14294	-0.025544442
222	0x3cd8a655	0.0264465
223	0x3d7927fb	0.060829144
224	0x3cb17ea4	0.021666832
225	0xbd3e7732	-0.046500392
226	0x3d2ae38b	0.041720908
227	0xbbd558a7	-0.0065108123
228	0x3d0613cc	0.032733724
229	0x3b08c72b	0.0020870666
230	0x3c8bba35	0.017056564
231	0x3d00a3f1	0.031406347
232	0x3cf2ecdd	0.02965396
233	0x3ce1341d	0.02749067
234	0x3b6eb714	0.003642504
235	0x3d41f4bc	0.047352538
236	0x3d151bc2	0.036403425
237	0xbc5d2baf	-0.0134991845
238	0xbc03bdfc	-0.008040901
239	0xbd100951	-0.035165135
240	0x3d6c7558	0.057729095
241	0xbc34c032	-0.011032151
242	0x3b42431d	0.0029642053
243	0xbd246cc6	-0.040142797
244	0x3d34aeaf	0.044111904
245	0xbc0cb230	-0.008587405
246	0xbd2835e2	-0.04106701
247	0xbc4ba9fd	-0.012430665
248	0x3c2c4220	0.010513812
249	0xbba526cc	-0.0050400253
250	0x3cb8683c	0.02251064
251	0xbd548cbe	-0.051892035
252	0x3d110f0f	0.03541475
253	0xbcf7f0f1	-0.030266257
254	0x3c419b01	0.011816741
255	0xbc7be98f	-0.015375509

V_heads.2.weight f4 [1, 256]
0	0xbd2a1ec7	-0.041533258
1	0xbc89f838	-0.016841993
2	0xbcec9cd4	-0.028883375
3	0xbd13d604	-0.036092773
4	0x3d405ca1	0.046963338
5	0xbd2729f4	-0.040811494
6	0x3c578b69	0.013155797
7	0xbbe18c4a	-0.006883179
8	0x3d0c1344	0.03419806
9	0xbd81d218	-0.063389
10	0x3cf14391	0.029451163
11	0xbd3f5cfa	-0.04671953
12	0xbc598012	-0.013275163
13	0xbd81d3a0	-0.063391924
14	0x3d0fdcef	0.035122808
15	0x3c4ab50a	0.012372265
16	0xbc2c34ee	-0.010510666
17	0xbd1a3530	-0.03764838
18	0x3d779e56	0.060453735
19	0x3bd1aeca	0.0063990103
20	0x3ca12a7d	0.01967358
21	0x3d23bb06	0.03997328
22	0x3cf59acc	0.02998104
23	0x3c3a3f85	0.011367683
24	0x3d486c41	0.048931364
25	0x3d4974b8	0.049183577
26	0x3ca776cf	0.020442395
27	0x3c8df903	0.017330652
28	0xbd47135a	-0.04860244
29	0x3d0a4dd3	0.033765625
30	0x3d1c67aa	0.0381848
31	0x3d0e4daf	0.034742054
32	0xbd067e48	-0.032835275
33	0xbcf1e8d3	-0.029529965
34	0x3d3335a0	0.043752313
35	0xbd5c1519	-0.053731058
36	0xbd4e6d5a	-0.050397255
37	0x3d046053	0.032318424
38	0xbd06c0f2	-0.03289885
39	0xbd58b871	-0.052910272
40	0xbad0cf00	-0.0015930831
41	0xbb4d5510	-0.0031331219
42	0x3ca73e44	0.020415433
43	0x3ce39f25	0.027785847
44	0x3d0442dd	0.03229033
45	0x3d3b6a06	0.04575541
46	0x3bb8d234	0.0056402925
47	0xbd4e29a2	-0.050332673
48	0x3d13aedb	0.036055427
49	0x3c9a2b52	0.018819485
50	0x3c2ade51	0.010428981
51	0x3bc8e04b	0.0061302534
52	0xba790680	-0.0009499565
53	0xbd26b29f	-0.04069769
54	0x3cd94277	0.02652095
55	0xbd24e458	-0.040256828
56	0x3ba4e11e	0.005031719
57	0xbd405ebb	-0.046965342
58	0x3d1ad2f6	0.037798844
59	0xbd257da7	-0.040403035
60	0xbd4c052b	-0.049809616
61	0xbbc0e470	-0.005886607
62	0xbd548a34	-0.051889613
63	0x3d0292eb	0.031878393
64	0xbd076ef8	-0.033064812
65	0xbce93a5c	-0.02847021
66	0x38b06800	8.4117055e-05
67	0xbd6008b0	-0.054695785
68	0x3bf294a8	0.007402975
69	0x3d1ef069	0.03880349
70	0x3d1dfe72	0.038572736
71	0xbcd452af	-0.025918333
72	0x3d8b763c	0.06809661
73	0xbca3f119	-0.020012425
74	0xbc8e2853	-0.017353212
75	0x3d08296a	0.03324262
76	0xbd417534	-0.047230914
77	0xbd601206	-0.05470469
78	0x3ce53c2f	0.0279828
79	0x3d366a1c	0.044534788
80	0xbc4939d4	-0.012281854
81	0x3d2121be	0.03933882
82	0x3d5c69c5	0.053811807
83	0xbd66a91c	-0.05631362
84	0x3c7b22f9	0.015328162
85	0xbce52538	-0.027971849
86	0x3cdbc04c	0.026825093
87	0xbcde0bab	-0.027105173
88	0x3d07d4ce	0.03316193
89	0x3c6bd885	0.014394884
90	0xbcf428a8	-0.029804543
91	0xbd190eb4	-0.037367538
92	0x3bed5360	0.007242605
93	0xbc714fa4	-0.01472846
94	0x3cd4008e	0.02587917
95	0x3ca80988	0.020512357
96	0xbd4942a2	-0.04913581
97	0xbd0c8e62	-0.034315474
98	0xbcfc64e5	-0.030809829
99	0x3d8054b6	0.06266157
100	0xbc257568	-0.010098793
101	0xbc109090	-0.008823529
102	0xbd276674	-0.04086919
103	0x3d3d90e6	0.046280764
104	0xbca6bd38	-0.020353898
105	0xbcb4e4ac	-0.022081695
106	0xbd877173	-0.066134356
107	0x3d2f42b3	0.04278822
108	0x3aad9500	0.0013243258
109	0x3d06e3b0	0.032931983
110	0x3c30c298	0.010788582
111	0xbc28e57f	-0.010308622
112	0xbd05cacf	-0.032664116
113	0x3d3e8d1b	0.046521287
114	0xbcf3dad4	-0.029767431
115	0x3d00988b	0.031395476
116	0xbcd8c38c	-0.026460432
117	0x3cd8fdf4	0.026488282
118	0x3c92ef1c	0.017936282
119	0x3c358bf0	0.011080727
120	0xbc643fcb	-0.013931225
121	0x3c6bc9e7	0.014391399
122	0xbd2ff143	-0.042954694
123	0x3d125575	0.03572603
124	0xbd621e36	-0.055204593
125	0x3d1f92a0	0.038958192
126	0xbcb85fb4	-0.022506572
127	0x3d6c7616	0.057729803
128	0xbd178e01	-0.03700066
129	0x3ccad508	0.024759784
130	0xbd1a628b	-0.037691634
131	0xbd7d340c	-0.061817214
132	0xbd068106	-0.03283789
133	0xbd395ab7	-0.045252528
134	0x3c8a54d4	0.016886152
135	0x3ca6ad6e	0.02034637
136	0x3cf7c98f	0.030247478
137	0xbd04722e	-0.032335453
138	0xbc2792a2	-0.010227831
139	0xbd7d9865	-0.061912913
140	0x3cd1da55	0.025616804
141	0x3c783ad2	0.015150743
142	0xbcf375cc	-0.029719256
143	0x3ac3169e	0.001488406
144	0xbd4c57c7	-0.0498884
145	0x3d67a30c	0.056551978
146	0xbd30d1b6	-0.043168746
147	0x3d660005	0.056152362
148	0xbd1658d2	-0.0367058
149	0xbd595da4	-0.05306782
150	0x3c6d810a	0.014496097
151	0xba5b2300	-0.00083594024
152	0x3d05d9b8	0.032678336
153	0x3c5d13f8	0.01349353
154	0x3d4e8bc7	0.05042627
155	0x3bdf0630	0.0068061575
156	0x3b0edbce	0.0021798494
157	0x3c3d476e	0.011552675
158	0xbd6ddfc4	-0.058074728
159	0x3c892ba4	0.016744442
160	0x3c279f2c	0.010230821
161	0xbd42983a	-0.047508456
162	0x3d023052	0.031784363
163	0xbcb20ccd	-0.02173462
164	0x3bacf471	0.005278163
165	0x3c11f9cd	0.008909655
166	0xbcb67275	-0.022271374
167	0x3c1c32a0	0.009533554
168	0x3d3da83a	0.04630301
169	0xbc55cef9	-0.013049834
170	0xbc117efa	-0.008880371
171	0xbd15bcfc	-0.036557183
172	0xb8ffac00	-0.00012191385
173	0x3c96df3a	0.01841699
174	0x3d221096	0.0395666
175	0x3d688bcc	0.056773946
176	0xbb71ea37	-0.0036913285
177	0x3c4313ee	0.011906607
178	0xbc9d5a56	-0.019208115
179	0xbd0d500c	-0.034500167
180	0x3cdf98c6	0.027294528
181	0x3c251e8a	0.010078082
182	0xbcccb899	-0.024990367
183	0x3cea16f1	0.028575392
184	0x3c862efc	0.016379826
185	0x3c72ead3	0.014826494
186	0x3a9f9480	0.0012174994
187	0x3be22cde	0.0069023212
188	0xbcad0073	-0.021118378
189	0xbd42e28b	-0.04757933
190	0xbc342425	-0.010994946
191	0x3d48a57e	0.04898595
192	0xbc9dfd90	-0.019285947
193	0x3d2b318c	0.0417953
194	0x3bafa0a4	0.005359726
195	0xbd2dc4a4	-0.04242386
196	0xbcf11833	-0.029430484
197	0x3cc9fb14	0.024655856
198	0x3b889e1d	0.004169239
199	0x3b4fbe9a	0.00316993
200	0xbc395c58	-0.01131352
201	0x3d013f4a	0.031554498
202	0xbcc3d5f3	-0.02390573
203	0x3c7a3c51	0.01527317
204	0x3d14ad59	0.03629813
205	0x3d00f5a8	0.031484276
206	0xbc189558	-0.00931295
207	0x3cdefd84	0.027220495
208	0xbc137ee0	-0.009002417
209	0xbd476d24	-0.04868807
210	0x3d59d5e6	0.053182505
211	0xbd7b41e0	-0.06134212
212	0x3d1610d6	0.03663715
213	0xbd1e7f0f	-0.03869539
214	0x3d50184e	0.05080443
215	0x3d7c8592	0.06165082
216	0x3d15c785	0.03656723
217	0xbcddfe90	-0.027098924
218	0xbbaed755	-0.005335728
219	0x3ca0d803	0.019634252
220	0xbc4ffdba	-0.0126947705
221	0xbd7e3ac4	-0.062067762
222	0xbce0ee17	-0.02745728
223	0xbd0c32df	-0.034228202
224	0xbcc1b6b0	-0.023646683
225	0x3d389642	0.045065172
226	0x3d3a6ccf	0.045513924
227	0x3cdbf75d	0.02685135
228	0x3ce4358b	0.027857563
229	0xbd5c8676	-0.05383917
230	0xbb88c6ae	-0.004174075
231	0x3c63cb94	0.013903517
232	0x3c4cb18d	0.012493503
233	0x3ca4f21d	0.02013498
234	0x3ca90cc6	0.020635974
235	0x3b393512	0.0028260392
236	0xbd9ee3f8	-0.07758325
237	0xbbe1d916	-0.0068923337
238	0x3cd75f4c	0.026290558
239	0x3ce62b11	0.028096708
240	0x3c9c5b93	0.019086635
241	0xbc82dbaa	-0.015973885
242	0x3d21db0c	0.03951554
243	0x3bbb0913	0.005707869
244	0x3c99c398	0.018770024
245	0x3d2c68da	0.04209218
246	0xb9a58344	-0.00031569053
247	0x3d4c9ac6	0.04995229
248	0x3b055bc0	0.0020348877
249	0xbd1605c5	-0.036626596
250	0x3d0e7585	0.034780044
251	0x3d63a02a	0.055572666
252	0x3ca17a36	0.019711595
253	0x3d83063b	0.06397673
254	0xbd0cd585	-0.034383316
255	0x3d5b2ee8	0.05351153
